Model/mini/tf_lite_model.tflite (tflite, 37328 bytes, 17 tensors)

arith.constant f4 [64]
0	0x3e6bb548	0.23018372
1	0xbe3a7db8	-0.1821202
2	0xbda9b1aa	-0.0828584
3	0xbed4c187	-0.415539
4	0xbe993397	-0.29922172
5	0xbd3738b8	-0.044731826
6	0xbe4d06e7	-0.20022164
7	0xbd67a4f3	-0.056553792
8	0xbe561def	-0.20909856
9	0xbdbf79a2	-0.093493715
10	0x3d4dc4fe	0.050236695
11	0xbdbf8986	-0.093524024
12	0x3b879cf2	0.0041385824
13	0xbce16384	-0.027513273
14	0xbd01421d	-0.03155719
15	0xbd93a1be	-0.07208584
16	0xbe71a838	-0.23599327
17	0xbed75c7f	-0.42062756
18	0xbe4b7472	-0.19868639
19	0xbe9433f2	-0.2894588
20	0x3d1850df	0.0371865
21	0x3cb28e29	0.021796303
22	0xbe25d2f3	-0.16193752
23	0xbca56567	-0.020189954
24	0xbde5ef4e	-0.11227284
25	0xbd7aea49	-0.061258588
26	0xbe34955b	-0.176351
27	0x3e080e81	0.13286783
28	0xbdacf1f7	-0.08444589
29	0xbe8b96ef	-0.2726359
30	0xbcbb694b	-0.022877356
31	0xbec036b7	-0.37541744
32	0xbcc555db	-0.02408879
33	0xbda68be5	-0.081321515
34	0xbdc5fde7	-0.09667569
35	0x3d5d7506	0.05406668
36	0xbdb9b2ac	-0.09067282
37	0xbe8a3d70	-0.26999998
38	0xbdcbf16d	-0.09958158
39	0xbe213413	-0.15742521
40	0x3da30039	0.07959027
41	0xbdc1daea	-0.09465583
42	0xbd4b2b9d	-0.04960214
43	0xbd657034	-0.05601521
44	0xbd6b63aa	-0.057468094
45	0xbe02cdad	-0.12773772
46	0xbd34f648	-0.044180185
47	0xbee2cb37	-0.44295666
48	0xbd5f7ab2	-0.05456037
49	0x3d29d987	0.041467216
50	0x3e547a4f	0.20749782
51	0xbe06036f	-0.13087247
52	0xbe04bfb5	-0.12963755
53	0xbe829bd1	-0.25509503
54	0xbd6df7b6	-0.058097564
55	0xbe57b046	-0.21063337
56	0xbe2586b3	-0.16164665
57	0xbec6a41d	-0.38797083
58	0xbe72ca0f	-0.23709892
59	0x3da1afa2	0.078948274
60	0xbdd4f4bd	-0.103982426
61	0xbe6549e9	-0.22391476
62	0x3c7bc1d9	0.015366041
63	0xbea0930f	-0.31362197

arith.constant1 f4 [64]
0	0xbe9ec152	-0.31006867
1	0x3f08b374	0.53398824
2	0xbe2b6400	-0.16737366
3	0x3e96f275	0.29481855
4	0xbe294fd6	-0.16534361
5	0xbe866fd4	-0.26257193
6	0xbdef45be	-0.11683224
7	0x3e5199df	0.20468853
8	0xbeb05e1e	-0.34446806
9	0xbe7b6056	-0.24548468
10	0xbf00059c	-0.5000856
11	0xbe782155	-0.24231465
12	0x3f5c5a9a	0.86075747
13	0xbef7b713	-0.48381862
14	0x3e45418b	0.19263284
15	0x3e3e9e42	0.18615058
16	0x3e9da093	0.3078657
17	0xbe636893	-0.2220786
18	0x3f038b37	0.513843
19	0x3ed41006	0.41418475
20	0x3e3eded8	0.18639696
21	0x3e2834af	0.16426347
22	0x3efc2e54	0.49254096
23	0x3e3fc786	0.18728456
24	0x3e0f72e4	0.14008671
25	0x3c7939bf	0.015211522
26	0x3e139965	0.14413984
27	0x3e4713c8	0.1944114
28	0x3e035d37	0.12828527
29	0x3d7049ea	0.05866424
30	0xbf1ecbf9	-0.6202999
31	0x3ed3a094	0.4133345
32	0xbe8be59a	-0.2732361
33	0xbeb47fac	-0.35253656
34	0x3dafd682	0.08585836
35	0xbe2807fd	-0.16409297
36	0x3e6b7785	0.22994812
37	0x3ecdc73a	0.4019106
38	0x3e20deb9	0.15709962
39	0x3ddcb0bd	0.10775898
40	0x3f1cde69	0.6127687
41	0x3ebf3afc	0.3734969
42	0xbe7c33eb	-0.2462918
43	0xbe866176	-0.26246232
44	0xbec3fc20	-0.38278294
45	0x3edd996a	0.43281108
46	0x3f526e12	0.82199204
47	0xbe24985e	-0.16073748
48	0xbe8e9ade	-0.2785253
49	0xbe887db7	-0.26658413
50	0xbe1c9626	-0.15291652
51	0x3f0b994d	0.54530793
52	0x3f312b4c	0.6920669
53	0x3e9bc8b0	0.3042655
54	0x3f39c10f	0.7256021
55	0x3c3afeca	0.0114132855
56	0x3e8472cb	0.2586883
57	0x3e9148cf	0.2837586
58	0x3ed45b36	0.41475838
59	0xbe50fe2b	-0.20409457
60	0xbe8fe3ad	-0.2810339
61	0x3ef447e0	0.47711086
62	0x3f318258	0.69339514
63	0x3f2fa4f7	0.6861109

arith.constant2 f4 [64, 1, 1, 64]
0	0x3defa53d	0.117014386
1	0xbdf23957	-0.11827343
2	0x3de0fac1	0.109853275
3	0x3de1f7b4	0.11033574
4	0x3bb878e5	0.005629646
5	0xbda9649f	-0.08271145
6	0x3d12ab67	0.035807993
7	0x3dc8a83d	0.09797714
8	0x3d05f7f7	0.03270718
9	0x3f085c39	0.5326572
10	0x3bd6fb77	0.0065607387
11	0x3e0062c8	0.12537682
12	0x3e70fdb1	0.23534276
13	0xbc35b441	-0.011090339
14	0x3de50f90	0.11184609
15	0xbc1bec8a	-0.0095168445
16	0xbe1437a0	-0.14474344
17	0xbe2542c4	-0.1613875
18	0x3ea0366c	0.3129152
19	0xbe63b90b	-0.22238557
20	0x3ded178e	0.11576758
21	0x3dcab28f	0.098973386
22	0xbbc6aa84	-0.0060628075
23	0x3edb65c3	0.42851076
24	0xbdd2957e	-0.102824196
25	0xbeb80a63	-0.35945424
26	0xbd3a781f	-0.045524713
27	0x3e00ab54	0.12565356
28	0xbdbb7c8d	-0.091546156
29	0x3e241f25	0.16027506
30	0xbe165074	-0.14679128
31	0x3c7436b8	0.014905624
32	0x3e0962be	0.13416573
33	0xbd468962	-0.048470862
34	0x3d1a7352	0.037707634
35	0x3d952493	0.072823666
36	0xbd577ab8	-0.052607268
37	0x3eaf61ec	0.34254396
38	0xbe33a03e	-0.17541596
39	0xbcedb7ee	-0.029018369
40	0xbe83d9af	-0.25752017
41	0xbd7ebe3b	-0.062193137
42	0xbe8978b6	-0.26849908
43	0xbef41001	-0.4766846
44	0xbe1e8490	-0.15480256
45	0x3dc7e793	0.09760966
46	0x3e88bd2e	0.26706833
47	0x3f04ee60	0.5192623
48	0x3ca5019e	0.020142373
49	0xbd7a989f	-0.061180707
50	0x3daf12b2	0.08548488
51	0xbe3eafd6	-0.18621764
52	0x3db640c5	0.088990726
53	0x3cf22c32	0.02956209
54	0x3cf3b042	0.029747132
55	0x3d9dcac0	0.07704687
56	0xbe161d24	-0.14659554
57	0x3d925552	0.0714518
58	0x3e460fb9	0.19341935
59	0xbdfeb3eb	-0.124366604
60	0x3de334c2	0.11094047
61	0x3e516d4f	0.20451854
62	0x3e8c2c06	0.27377337
63	0xbdb88b64	-0.09010962
64	0x3e3576ff	0.17721175
65	0x3e646a8c	0.2230627
66	0xbd6b77a5	-0.05748715
67	0xbd62c6d2	-0.05536539
68	0x3e2d258f	0.16908859
69	0x3defa23c	0.117008656
70	0x3db5150e	0.088419065
71	0xbd51158d	-0.051045943
72	0xbe47ca25	-0.19510706
73	0x3eff9e74	0.49925578
74	0xbc08bf21	-0.00834635
75	0xbe5b5f8f	-0.21423171
76	0x3e0e421a	0.13892403
77	0xbdb6a3d4	-0.089179665
78	0x3dd3030f	0.10303318
79	0xbca4642d	-0.020067299
80	0xbd5846b7	-0.052801814
81	0xbd917a24	-0.071033746
82	0xbdd0b660	-0.10191035
83	0x3c82cdbb	0.01596724
84	0x3e9893a7	0.2980015
85	0xbb33d755	-0.002744158
86	0x3cd1cd20	0.025610507
87	0x3e69f231	0.22846295
88	0xbe960fa9	-0.29308823
89	0xbd955aba	-0.07292695
90	0xbe911281	-0.2833443
91	0xbe64b281	-0.22333719
92	0xbe12662f	-0.14296792
93	0xbd096b1d	-0.033549417
94	0xbc4d169b	-0.012517597
95	0x3ec088c4	0.37604344
96	0xbd708714	-0.05872257
97	0xbcfc5a85	-0.030804882
98	0x3e0ee64b	0.13955037
99	0xbcfd1a88	-0.03089644
100	0x3d841133	0.06448593
101	0x3df887e9	0.12135298
102	0xbe6c3ff8	-0.23071277
103	0xbe0e3eb8	-0.13891113
104	0x3e1b326d	0.15155955
105	0x3d27f956	0.04100927
106	0xbdcd0975	-0.100115694
107	0x3e63f0e4	0.22259861
108	0x3e471e5b	0.19445173
109	0xbda54d0e	-0.08071338
110	0x3ec66850	0.3875146
111	0x3e17c0ce	0.14819643
112	0xbe380b7f	-0.17973135
113	0xbd615865	-0.05501594
114	0xbe1beb73	-0.15226535
115	0xbe02f749	-0.12789644
116	0x3e6eda8d	0.23325558
117	0x3e9a412b	0.30127844
118	0xbd9d20d6	-0.076722786
119	0x3e8c9464	0.27456963
120	0xbe81cc37	-0.25351116
121	0x3de68908	0.112566054
122	0xbd9bbe13	-0.07604613
123	0xbec4dcd7	-0.38449737
124	0xbe195953	-0.1497548
125	0x3da8e5f4	0.08246985
126	0xbcbb7eef	-0.022887675
127	0x3ec192a8	0.37807202
128	0x3ee31181	0.44349292
129	0xbe4e7f18	-0.2016567
130	0xbe794981	-0.24344446
131	0xbc771460	-0.015080541
132	0xbec2c9d2	-0.38044602
133	0xbf057162	-0.52126133
134	0x3e7a01dc	0.24414772
135	0x3edf6a8e	0.43635982
136	0x3ed49453	0.41519412
137	0x3cca9419	0.024728822
138	0x3dd4c65a	0.10389395
139	0x3dd4c72d	0.10389552
140	0x3bffffa8	0.007812459
141	0x3e599fa9	0.21252312
142	0x3f11b55e	0.5691737
143	0xbb0dd66c	-0.0021642698
144	0x3da58c17	0.08083361
145	0xbd8f7996	-0.070056126
146	0x3d97d0bd	0.074128605
147	0xbdc82674	-0.09772959
148	0xbe0cfaca	-0.13767543
149	0xbbe39ec0	-0.0069464147
150	0xbd90fa7e	-0.070790276
151	0xbda390af	-0.079865806
152	0x3e23650a	0.15956512
153	0x3e0245d5	0.12721951
154	0x3daeeeb4	0.08541623
155	0x3efeffe9	0.4980462
156	0x3d3b55cc	0.04573612
157	0x3be9f1e9	0.0071394336
158	0x3c42fbe4	0.011900876
159	0x3e121e23	0.14269309
160	0x3e8b281c	0.2717904
161	0x3e4fa349	0.20277132
162	0xbf24c313	-0.6436016
163	0x3c1f4afb	0.009722467
164	0x3f59ffe8	0.85156107
165	0x3d4ed9c6	0.050500654
166	0x3e68c89c	0.22732776
167	0x3d40cd60	0.04707086
168	0x3c7efa13	0.015562552
169	0x3df3490b	0.11879166
170	0xbd864675	-0.06556407
171	0x3e86efe0	0.26354885
172	0xbd978dfe	-0.0740013
173	0xbeb3b7eb	-0.35101256
174	0xbd9718f5	-0.07377807
175	0x3aec48b7	0.0018027042
176	0x3ee3620b	0.44410738
177	0xbee9e240	-0.45680428
178	0xbda2bdd3	-0.07946362
179	0xbc30e1af	-0.010795995
180	0xbef5ff7d	-0.48046485
181	0xbe18c945	-0.14920528
182	0x3ce1c643	0.027560359
183	0xbc1663b0	-0.009179041
184	0xbcd2cac4	-0.025731452
185	0xbd817bba	-0.06322427
186	0x3d330a04	0.043710724
187	0xbd205b2f	-0.03914946
188	0x3d1dc20c	0.038515136
189	0xbd3bc84e	-0.045845322
190	0xbeb1fd4b	-0.3476356
191	0xbe63e919	-0.22256888
192	0xbda2f42b	-0.079567276
193	0x3e8b790b	0.27240786
194	0x3e0e681b	0.139069
195	0x3e55e2dd	0.20887323
196	0x3cd927a4	0.02650816
197	0xbe03f4fe	-0.12886426
198	0xbf028ec4	-0.50999093
199	0xbdfa3a03	-0.12218096
200	0xbddc8416	-0.10767381
201	0xbef3e04f	-0.4763207
202	0x3d908706	0.07057004
203	0x3e8eeb63	0.2791396
204	0xbdd680af	-0.10473763
205	0x3cf62695	0.030047694
206	0xbe86698d	-0.26252404
207	0x3e8fee82	0.28111655
208	0x3c76d1b1	0.015064643
209	0x3d8374ba	0.06418748
210	0x3e139068	0.14410555
211	0xbd157f77	-0.036498513
212	0x3ec67f6d	0.38769093
213	0xbe70d922	-0.2352033
214	0xbe51197c	-0.20419878
215	0x3e771b9a	0.24131623
216	0xbdf0c116	-0.11755578
217	0xbc3368a9	-0.010950246
218	0xbe2ea363	-0.17054515
219	0x3cf87b4c	0.03033223
220	0xbec54142	-0.3852635
221	0xbe4dfdac	-0.201163
222	0xbcb2db77	-0.021833165
223	0x3df23386	0.118262336
224	0xbb85de22	-0.004085318
225	0xbe0cc923	-0.13748603
226	0x3e08b6fe	0.13351056
227	0xbd81f41d	-0.06345389
228	0xbe3d6e88	-0.18499196
229	0x3d0de337	0.034640517
230	0xbb9c256e	-0.004765204
231	0xbd0b5a4f	-0.03402167
232	0xbe198220	-0.14991045
233	0xbe9c1b0a	-0.3048938
234	0x3c094951	0.008379296
235	0x3eb674a6	0.3563587
236	0x3da36689	0.079785414
237	0x3dd5c0ae	0.10437141
238	0xbdba5143	-0.09097531
239	0x3da796bb	0.081830464
240	0x3e53098f	0.20609115
241	0xbe11266a	-0.1417481
242	0x3e153213	0.14569883
243	0xbe13311b	-0.14374201
244	0xbd8a9c2f	-0.06768071
245	0x3d8b1a14	0.067920834
246	0xbd471126	-0.04860034
247	0x3e8cd277	0.27504322
248	0x3e82945a	0.25503808
249	0xbe08de51	-0.13366057
250	0xbeb605c9	-0.3555129
251	0xbd0761f0	-0.033052385
252	0x3ee78b7b	0.45223603
253	0xbda5236e	-0.08063398
254	0x3d2b08e7	0.041756537
255	0xbc479cec	-0.012183409

arith.constant3 f4 [1, 3, 3, 64]
0	0x3dc99cd4	0.09844366
1	0xbe079887	-0.13241778
2	0xbd8b89ef	-0.06813418
3	0xbd301d69	-0.042996798
4	0x3dd3cd90	0.10341942
5	0xbccbfe4c	-0.024901532
6	0x3e3ab569	0.18233265
7	0xbdd4251c	-0.103586406
8	0xbe8a7934	-0.27045596
9	0xbde17668	-0.11008912
10	0xbe540788	-0.20705998
11	0x3d2075e4	0.03917493
12	0x3e5e7b44	0.2172671
13	0xbda47ab9	-0.0803122
14	0x3dca9120	0.09890962
15	0xbdec0e0c	-0.11526117
16	0x3e01987e	0.12655827
17	0x3dec4619	0.115368076
18	0x3d24f852	0.04027588
19	0xbc8d3e82	-0.01724172
20	0xbe19c316	-0.15015826
21	0xbcca7881	-0.024715664
22	0x3e5169bc	0.2045049
23	0x3d98d7bc	0.07463023
24	0xbe5144c6	-0.20436391
25	0x3df4da58	0.11955708
26	0xbdeffe66	-0.117184445
27	0xbdce84df	-0.10083937
28	0x3e39b6cb	0.18136136
29	0xbe25b575	-0.16182502
30	0xbe780540	-0.24220753
31	0x3da2d7ca	0.07951315
32	0xbe3b6304	-0.1829949
33	0xbe9f89dd	-0.3115987
34	0x3e494bfd	0.19657893
35	0xbe80ca5a	-0.25154382
36	0xbde9d17b	-0.11416908
37	0x3e9a8df6	0.30186433
38	0x3d16ecec	0.03684704
39	0xbd994e66	-0.074856564
40	0xbda205f0	-0.07911289
41	0x3d6c0ebd	0.057631243
42	0xbdbdd0ee	-0.09268366
43	0xbe80c37a	-0.25149137
44	0xbd199ad9	-0.03750119
45	0xbb1b8113	-0.0023728057
46	0xbe4a3c99	-0.19749679
47	0x3de4091d	0.11134551
48	0xbe0299b1	-0.12753941
49	0x3d659f2f	0.056060012
50	0x3e016085	0.12634476
51	0x3d73fafc	0.05956553
52	0x3b92cbe1	0.0044798707
53	0xbdb8fa9f	-0.09032177
54	0x3d2f9408	0.042865783
55	0xbe2c303e	-0.16815278
56	0x3e0ad268	0.13556826
57	0x3c1d7987	0.009611494
58	0xbd383baf	-0.044978794
59	0x3e8579ac	0.2606939
60	0x3da7bf4f	0.08190786
61	0xbcd3f577	-0.025873883
62	0xbda33e41	-0.07970858
63	0x3d6e9926	0.058251522
64	0xbe82ddbf	-0.25559804
65	0xbd7c18f9	-0.061547253
66	0x3d90f0f3	0.070772074
67	0xbdc51b56	-0.096243545
68	0x3c126116	0.00893428
69	0xbe573be0	-0.21018934
70	0x3e2ec1c6	0.17066106
71	0x3daf021b	0.085453235
72	0xbd3e7e43	-0.04650713
73	0x3e7acaa6	0.24491367
74	0xbdd0f2ca	-0.10202558
75	0xbce3f162	-0.027825061
76	0x3d572c66	0.052532576
77	0xbe88a4ad	-0.26688138
78	0xbe5eabab	-0.21745174
79	0xbd0d33c6	-0.034473203
80	0xbdf9b6ff	-0.12193107
81	0xbdb70a66	-0.0893753
82	0xbcc10c67	-0.023565484
83	0xbb8b821a	-0.0042574527
84	0xbd7c1be8	-0.06155005
85	0x3c9d72cc	0.019219778
86	0x3d9f3286	0.077733085
87	0x3e0704d8	0.13185441
88	0xbe29c221	-0.1657796
89	0x3d267061	0.040634517
90	0x3e1a719b	0.150824
91	0x3d73e91b	0.05954848
92	0xbe061b12	-0.13096264
93	0x3e3d5eaf	0.1849315
94	0xbd685c2a	-0.05672852
95	0x3c806da3	0.015677279
96	0xbe1aaf49	-0.15105928
97	0x3c11afa4	0.008891974
98	0x3d63fecb	0.05566291
99	0x3df25acb	0.11833724
100	0xbe810fa8	-0.25207257
101	0x3ba61fe2	0.0050697187
102	0xbeb7cc54	-0.35898077
103	0xbde77758	-0.1130206
104	0x3d26fa99	0.040766332
105	0x3da33ca0	0.07970548
106	0x3cca1e6c	0.02467271
107	0xbdab6c01	-0.083702095
108	0xbe0a1f2d	-0.13488455
109	0x3e47be97	0.19506298
110	0x3e14ce14	0.14531738
111	0xbd047ffd	-0.03234862
112	0xbe6de23c	-0.23230833
113	0x3e4f0c90	0.20219636
114	0xbe55fbab	-0.20896785
115	0xbd72d835	-0.059288222
116	0xbd5bad75	-0.05363222
117	0xbe85ec8f	-0.26157042
118	0x3d9d2323	0.076727174
119	0x3d643743	0.055716764
120	0xbda5d1d2	-0.08096661
121	0x3d9e3ad8	0.07726067
122	0xbcb4686b	-0.022022447
123	0xbe1c185c	-0.15243667
124	0xbe1a089d	-0.15042348
125	0x3bcfa09d	0.0063362853
126	0x3cb27be8	0.021787599
127	0x3e836918	0.25666118
128	0xbe246232	-0.16053084
129	0xbdbe4a48	-0.09291512
130	0xbe09ec95	-0.13469155
131	0x3dcf4d31	0.10122145
132	0x3d4c87ef	0.049934324
133	0x3ecc8f8e	0.39953274
134	0xbc0fc093	-0.008773941
135	0xbdc2b95d	-0.095080115
136	0xbe2b0175	-0.16699775
137	0x3d916a45	0.071003474
138	0x3e3bc44e	0.18336603
139	0xbcc909ac	-0.024540745
140	0xbdc5bbcc	-0.0965496
141	0xbe519eda	-0.20470753
142	0xbe60f15f	-0.21967076
143	0x3db14eea	0.0865763
144	0xbe0db86b	-0.13839881
145	0x3aaa6b65	0.0013001977
146	0xbab486de	-0.0013773104
147	0x3c1fa708	0.009744413
148	0xbe3215e4	-0.17391163
149	0x3de50d70	0.111842036
150	0xbe255f22	-0.16149572
151	0xbccbadc0	-0.024863124
152	0x3ea8a4a4	0.3293811
153	0xbe38c728	-0.18044722
154	0xbcd4604d	-0.025924826
155	0xbdbf6d49	-0.09347016
156	0x3d865683	0.065594696
157	0x3d601f93	0.05471761
158	0xbe4d32e7	-0.20038949
159	0xbdf4613c	-0.119326085
160	0xbd842d4c	-0.06453952
161	0x3dd56617	0.10419863
162	0x3e9bac0e	0.30404705
163	0x3dd1549f	0.10221218
164	0x3bbdd542	0.0057932446
165	0x3c963587	0.01833607
166	0x3e8e891c	0.2783898
167	0x3e05b581	0.1305752
168	0x3d8b0895	0.06788746
169	0x3ca33488	0.01992251
170	0xbddbe435	-0.107368864
171	0xbdd46257	-0.10370319
172	0x3ec37022	0.38171488
173	0x3e3f81d5	0.1870187
174	0x3c87cca5	0.016577074
175	0x3ccb271f	0.024798928
176	0x3e8b4586	0.2720148
177	0xbd74b7c8	-0.05974558
178	0x3dc4bc77	0.09606259
179	0x3aa8ef53	0.0012888707
180	0xbd4148ac	-0.047188446
181	0x3eac4593	0.3364683
182	0x3c59a243	0.013283315
183	0x3e175f75	0.14782508
184	0xbde79338	-0.113073766
185	0x3cfb87cf	0.030704407
186	0x3e7c665b	0.2464842
187	0xbd7b490f	-0.06134897
188	0x3d8addc1	0.067805775
189	0x3c339d38	0.010962777
190	0x3d53cb12	0.051707335
191	0x3e4816b8	0.19539917
192	0xbde97b9d	-0.114005305
193	0xbc384dfc	-0.011249062
194	0xbccedf2b	-0.0252529
195	0xbd81331b	-0.06308576
196	0xbd224bce	-0.039623074
197	0x3e467e0b	0.19384019
198	0xbca6b9a8	-0.0203522
199	0x3e47b965	0.19504316
200	0x3de4e44c	0.11176357
201	0xbe462638	-0.19350517
202	0xbe934ac9	-0.28767994
203	0xbd166985	-0.036721725
204	0x3d8b6a20	0.06807351
205	0xbe7c2d15	-0.24626572
206	0xbd070f19	-0.032973383
207	0xbe14549f	-0.14485405
208	0x3d39e0e9	0.045380507
209	0xbc21726a	-0.009853939
210	0xbd823208	-0.06357199
211	0xbc10bec6	-0.008834546
212	0x3da8004c	0.082031816
213	0x3cfe19dd	0.031018192
214	0xbbe17f7b	-0.006881652
215	0xbd19597b	-0.03743885
216	0x3ce6d172	0.028176043
217	0x3e2f9b57	0.17149101
218	0x3e2771b6	0.16351971
219	0xbd89b0e5	-0.06723193
220	0xbe19e218	-0.15027654
221	0xbd3d8550	-0.046269715
222	0xbe390ac8	-0.18070519
223	0x3c3fef57	0.011714778
224	0xbe906904	-0.2820512
225	0x3af2320a	0.0018478048
226	0x3e556e80	0.20842934
227	0x3e24916d	0.160711
228	0x3de37e51	0.11108077
229	0x3e4155c2	0.1888037
230	0x3e0426a9	0.12905373
231	0x3e13ef27	0.14446698
232	0x3abb857c	0.0014306749
233	0xbd7ea4c4	-0.06216885
234	0xbd34d2bd	-0.04414629
235	0x3e243077	0.16034113
236	0x3d8ab267	0.06772309
237	0xbd767392	-0.06016881
238	0x3ec6fbb7	0.38863918
239	0xbe0d7444	-0.13813883
240	0x3caeb16d	0.021324838
241	0x3d5e02ed	0.05420201
242	0xbd170d34	-0.036877826
243	0x3cefd4c8	0.029276267
244	0xbdc306bd	-0.095227696
245	0xbe03951d	-0.12849851
246	0x3c43797b	0.011930819
247	0x3e286c10	0.16447473
248	0x3b00e610	0.0019668378
249	0xbe3c7d9e	-0.18407294
250	0xbbab2a2f	-0.0052235345
251	0xbdef5864	-0.11686781
252	0xbe2ff409	-0.17182936
253	0x3ae44faa	0.0017418761
254	0xbd5055f9	-0.05086324
255	0x3d5a2f1f	0.053267594

arith.constant4 f4 [64, 1, 1, 1]
0	0x3de30d7e	0.11086558
1	0xbd18fb76	-0.037349187
2	0xbe22f21a	-0.15912667
3	0xbdc3dc39	-0.095634885
4	0x3dd77508	0.10520369
5	0x3d8c0fa3	0.0683892
6	0xbe01f9a8	-0.12692893
7	0x3da5bfd6	0.080932304
8	0x3d5ad43a	0.05342505
9	0xbdbd5616	-0.09244935
10	0xbcda03d8	-0.026613161
11	0xbd8c5892	-0.06852831
12	0xbcb66ee9	-0.022269683
13	0xbd1faae8	-0.03898135
14	0x3dc5caca	0.096578196
15	0x3df58571	0.119883426
16	0xbd9bca23	-0.07606914
17	0x3daec0e2	0.08532883
18	0x3c18e07b	0.009330864
19	0xbd1dbb44	-0.03850867
20	0xbe136482	-0.1439381
21	0xbeaeaf50	-0.34118128
22	0xbd166c85	-0.036724586
23	0x3e0421d4	0.1290353
24	0x3e5d9ae5	0.21641119
25	0xbf5f1fff	-0.871582
26	0x3e71ed37	0.23625647
27	0x3dc25558	0.09488934
28	0xbe25d4b9	-0.16194429
29	0xbf2eaa04	-0.68228173
30	0x3ceca964	0.028889365
31	0xbd7f8be0	-0.062389255
32	0x3dc7ada8	0.09749919
33	0xbd9a2a87	-0.07527643
34	0x3e2017cc	0.15634078
35	0xbddf9b40	-0.109182835
36	0x3e1d5fe9	0.15368618
37	0xbd3afb51	-0.04564983
38	0x3e2c473e	0.16824052
39	0x3e43a6b6	0.19106564
40	0x3c691717	0.014226696
41	0xbd308d06	-0.04310324
42	0xbe3cc621	-0.18434955
43	0xbd85f3d0	-0.06540644
44	0x3d302c9a	0.043011285
45	0x3cf89dd7	0.030348701
46	0xbc4c3afe	-0.012465237
47	0xbe0ef99c	-0.13962406
48	0x3dbf629d	0.09344981
49	0x3e1a714b	0.1508228
50	0xbdfb6fc1	-0.12277175
51	0x3c4b033a	0.012390906
52	0x3cf98d52	0.030462895
53	0x3e194f93	0.14971761
54	0x3c91ba31	0.017788978
55	0xbeefa8cd	-0.46808472
56	0xbe04a565	-0.12953718
57	0xbd9995e1	-0.0749929
58	0xbd625989	-0.05526117
59	0xbde3ab9b	-0.111167155
60	0x3d3ba533	0.045811843
61	0x3c46d412	0.012135522
62	0x3d39539e	0.04524576
63	0xbcc50d59	-0.024054216

arith.constant5 f4 [64]
0	0x00000000	0.0
1	0x00000000	0.0
2	0x00000000	0.0
3	0x00000000	0.0
4	0x00000000	0.0
5	0x00000000	0.0
6	0x00000000	0.0
7	0x00000000	0.0
8	0x00000000	0.0
9	0x00000000	0.0
10	0x00000000	0.0
11	0x00000000	0.0
12	0x00000000	0.0
13	0x00000000	0.0
14	0x00000000	0.0
15	0x00000000	0.0
16	0x00000000	0.0
17	0x00000000	0.0
18	0x00000000	0.0
19	0x00000000	0.0
20	0x00000000	0.0
21	0x00000000	0.0
22	0x00000000	0.0
23	0x00000000	0.0
24	0x00000000	0.0
25	0x00000000	0.0
26	0x00000000	0.0
27	0x00000000	0.0
28	0x00000000	0.0
29	0x00000000	0.0
30	0x00000000	0.0
31	0x00000000	0.0
32	0x00000000	0.0
33	0x00000000	0.0
34	0x00000000	0.0
35	0x00000000	0.0
36	0x00000000	0.0
37	0x00000000	0.0
38	0x00000000	0.0
39	0x00000000	0.0
40	0x00000000	0.0
41	0x00000000	0.0
42	0x00000000	0.0
43	0x00000000	0.0
44	0x00000000	0.0
45	0x00000000	0.0
46	0x00000000	0.0
47	0x00000000	0.0
48	0x00000000	0.0
49	0x00000000	0.0
50	0x00000000	0.0
51	0x00000000	0.0
52	0x00000000	0.0
53	0x00000000	0.0
54	0x00000000	0.0
55	0x00000000	0.0
56	0x00000000	0.0
57	0x00000000	0.0
58	0x00000000	0.0
59	0x00000000	0.0
60	0x00000000	0.0
61	0x00000000	0.0
62	0x00000000	0.0
63	0x00000000	0.0

arith.constant6 f4 [5, 16]
0	0x3f80da33	1.0066589
1	0x3f7ff6e0	0.99986076
2	0xc00f48dc	-2.238822
3	0xc0169364	-2.352746
4	0xbfdaec05	-1.7103277
5	0x3f7292ef	0.9475545
6	0xbff71a53	-1.9304909
7	0x3f9e7c58	1.2381697
8	0x3f81f4b1	1.0152799
9	0x3fbe3b54	1.4861856
10	0x3fd0e65e	1.6320302
11	0xbfd51aba	-1.6648781
12	0xc00598eb	-2.0874584
13	0xbea968c9	-0.33087757
14	0xbfe728f3	-1.8059372
15	0xbfde963d	-1.7389599
16	0xbf1db268	-0.6160035
17	0xbf8b1755	-1.0866495
18	0x3e82650f	0.25467727
19	0xbc1846cc	-0.009294223
20	0xbd1f6b72	-0.038920827
21	0xbf90a350	-1.1299839
22	0x3df2da1c	0.11858007
23	0x3e95ed54	0.2928263
24	0xbec3f07c	-0.38269413
25	0xbf6f738b	-0.9353568
26	0xbf2a56d8	-0.66538763
27	0xbdd5988a	-0.10429485
28	0x3ea8c7a9	0.3296483
29	0x3ef2272d	0.47295514
30	0x3ea43c9b	0.32077488
31	0x3eaa26fe	0.33232874
32	0xbdcaa7de	-0.098952994
33	0xbda3b885	-0.07994179
34	0x3e7563a5	0.23963793
35	0x3dd0af45	0.1018968
36	0x3d74790a	0.059685744
37	0xbe87312b	-0.264047
38	0x3e245809	0.16049208
39	0xbf051e87	-0.51999706
40	0x3ed57763	0.41692647
41	0xbf395dd4	-0.72408795
42	0xbf1c05c6	-0.6094631
43	0x3eb97778	0.3622396
44	0x3eb6fbdd	0.3573903
45	0x3ec1df16	0.37865514
46	0x3e963874	0.29339945
47	0x3ec728bb	0.38898262
48	0xbf86d0d9	-1.0532485
49	0x3f0e3b01	0.5555878
50	0x3eb16378	0.346462
51	0x3eac585f	0.33661172
52	0x3dee9297	0.116490535
53	0x3efd2df1	0.49449113
54	0x3f22ef1f	0.6364612
55	0xbf95e86c	-1.1711555
56	0xbd345c41	-0.044033293
57	0xbf1743f1	-0.59088045
58	0xbee06807	-0.43829367
59	0x3f03bb4c	0.5145767
60	0xbe519295	-0.20466073
61	0x3e905786	0.28191775
62	0x3ee5f38d	0.44912377
63	0xbe8bf1ea	-0.27333003
64	0x3e8e12cc	0.27748716
65	0xbebf5327	-0.37368128
66	0x3ec470ed	0.38367406
67	0x3eaa6d34	0.3328644
68	0xbef6d0ba	-0.4820612
69	0xbebaa860	-0.36456585
70	0x3f1f25ff	0.6216735
71	0x3f048786	0.5176929
72	0xbf7f2e11	-0.99679667
73	0xbf355c95	-0.70844394
74	0xbf106a87	-0.5641255
75	0xbdb396c3	-0.0876899
76	0x3eddaee4	0.43297493
77	0xbe76ec00	-0.24113464
78	0x3ee0e69b	0.43925938
79	0x3ee2691c	0.44220817

arith.constant7 f4 [16, 32]
0	0x800160ee	-1.26607e-40
1	0xbde4e275	-0.11176006
2	0x3da6ff03	0.081541084
3	0x3e16357d	0.14668842
4	0xbd15bbb2	-0.036555953
5	0xbc1d9cbc	-0.009619888
6	0xbdcd9158	-0.10037488
7	0x800015ce	-7.822e-42
8	0x3d693201	0.056932453
9	0x8000c6d5	-7.1327e-41
10	0x80016f90	-1.31857e-40
11	0x3e1cbf3e	0.15307328
12	0xb3bddc80	-8.841107e-08
13	0x3c363f42	0.01112348
14	0xbd58c967	-0.052926447
15	0x3e5c4c30	0.21513438
16	0x80019cdc	-1.48106e-40
17	0x3b9880cc	0.0046540257
18	0xbc8d336a	-0.01723643
19	0xbcb36df7	-0.021903021
20	0x2d54bb41	1.20923835e-11
21	0x3dff4ade	0.12465452
22	0x3d3e16f0	0.046408594
23	0x800355eb	-3.06328e-40
24	0x3ec0202c	0.37524545
25	0xbcc1e6d9	-0.023669647
26	0x3cdbf813	0.02685169
27	0x3e951844	0.29120076
28	0xbcc8df53	-0.024520552
29	0x3e1abf98	0.1511215
30	0xbd92c4f5	-0.07166473
31	0x3e398093	0.18115453
32	0x0002ca2d	2.56198e-40
33	0x3bd7d497	0.006586622
34	0x3e32bb15	0.17454179
35	0x3e2b9ed5	0.16759808
36	0x3d524fc0	0.051345587
37	0x3d66571f	0.05623543
38	0xbdb62cce	-0.088952646
39	0x0001bc30	1.59344e-40
40	0x3cb32795	0.02186946
41	0x0001967b	1.45818e-40
42	0x800053ae	-3.0019e-41
43	0x3dfcc5c5	0.12342409
44	0xb413b7dd	-1.3757331e-07
45	0x3e1fc3b1	0.15601994
46	0xb8a6e3e8	-7.957948e-05
47	0xbd80f725	-0.06297139
48	0x8000907c	-5.1831e-41
49	0x3db02380	0.08600521
50	0xbe799f1a	-0.24377099
51	0xbd4e8fac	-0.050429985
52	0x31a0d320	4.680615e-09
53	0x3d4e8785	0.05042221
54	0xbdad84cf	-0.08472597
55	0x8001d731	-1.69032e-40
56	0x3e9b15cd	0.3029007
57	0x3d4ca000	0.049957275
58	0x3d9dca5a	0.07704611
59	0xbc1c8477	-0.009553066
60	0xbd9e1a73	-0.077198885
61	0x3df64617	0.12025087
62	0x3dc47731	0.095930465
63	0x3e2db5e7	0.16963921
64	0x0002d802	2.6116e-40
65	0x3e28d132	0.16486052
66	0x3d4aac01	0.049480442
67	0xbe774ff4	-0.24151593
68	0x3e6d9ec0	0.2320509
69	0x3df74bfe	0.12075041
70	0x3de315e7	0.11088162
71	0x000139ce	1.12572e-40
72	0xbd2e6032	-0.042572208
73	0x00011407	9.902e-41
74	0x8001480f	-1.17685e-40
75	0xbd6a63e8	-0.057224184
76	0xb381b28a	-6.039507e-08
77	0xbdffafd6	-0.1248471
78	0x3cfffca4	0.031248398
79	0x3e43f0d5	0.19134839
80	0x0000f4e2	8.7847e-41
81	0x3cd6b5fd	0.026209826
82	0x3d4a608d	0.049408484
83	0x3deaa8b4	0.11457959
84	0x3090d53d	1.0537985e-09
85	0xbe79e923	-0.24405341
86	0xbde30245	-0.11084417
87	0x0001175e	1.00218e-40
88	0xbd6dd4a2	-0.05806411
89	0x3d5a446b	0.053287905
90	0xbdc68d22	-0.09694888
91	0x3d67527b	0.056475144
92	0x3e540384	0.20704466
93	0xbe689439	-0.22712792
94	0x3e3600d2	0.1777375
95	0xbe728928	-0.23685133
96	0x00018141	1.38203e-40
97	0x3db9942e	0.09061466
98	0x3d7297f7	0.059226956
99	0xbe858a94	-0.2608229
100	0x3e525d01	0.2054329
101	0x3e17267b	0.14760773
102	0xbcad3627	-0.021143986
103	0x00005cac	3.3244e-41
104	0xbd2e1065	-0.042496104
105	0x000022ae	1.2441e-41
106	0x00035735	3.0679e-40
107	0xbc390c0a	-0.011294374
108	0xb4b38fb5	-3.344591e-07
109	0xbdf7be30	-0.12096822
110	0x3c52efef	0.012874587
111	0x3e1d5fa6	0.15368518
112	0x0000300c	1.7236e-41
113	0xbc3f6e33	-0.011683988
114	0xbdc7f98d	-0.09764395
115	0xbc789ea6	-0.0151745435
116	0xad4dbc25	-1.1694677e-11
117	0xbe6637aa	-0.22482172
118	0xbdd95211	-0.10611356
119	0x8001184a	-1.00549e-40
120	0xbd8c67ca	-0.06855734
121	0x3e08f9e5	0.13376577
122	0xbdee75ab	-0.11643537
123	0x3dd3b1bb	0.10336634
124	0x3e65a036	0.22424397
125	0xbe6497e9	-0.22323574
126	0x3df4d9a5	0.11955575
127	0xbe1a9eaf	-0.15099595
128	0x0000b876	6.6172e-41
129	0x3dc0534c	0.093908876
130	0x3de707a7	0.112807564
131	0xbdaae260	-0.08343959
132	0xbdb5e6c2	-0.08881904
133	0x3e2305d4	0.15920192
134	0x3ddb7e59	0.10717458
135	0x8001377d	-1.11741e-40
136	0x3d7398ee	0.059472017
137	0x0001fc0c	1.82253e-40
138	0x800076c8	-4.261e-41
139	0xbe60d5b7	-0.21956526
140	0xb5a24bef	-1.209204e-06
141	0xbdddcc23	-0.108299516
142	0x3d35cbe3	0.044383895
143	0xbe60501c	-0.2190556
144	0x0003826a	3.2229e-40
145	0x3dccbf45	0.09997419
146	0x3d5bc7ee	0.053657465
147	0x3db4beb1	0.08825434
148	0xafa864d7	-3.0630673e-10
149	0xbe44322d	-0.19159766
150	0xbcccd855	-0.025005499
151	0x800096cf	-5.41e-41
152	0xbdb4b90c	-0.088243574
153	0x3e1b494b	0.15164678
154	0xbe0df02d	-0.13861151
155	0xbdad7b85	-0.08470825
156	0xbe0fba43	-0.14035897
157	0xbe6713c3	-0.22566132
158	0x3dc0d040	0.094147205
159	0xbd373a98	-0.044733614
160	0x0002f37e	2.7102e-40
161	0x3d60254b	0.054723065
162	0x3e41517e	0.18878743
163	0x3e13f524	0.14448982
164	0x3daad34d	0.08341084
165	0x3d8b859f	0.068125956
166	0xbcede287	-0.02903868
167	0x80024880	-2.09679e-40
168	0xbc8fef9a	-0.017570306
169	0x0001320f	1.09793e-40
170	0x80001ce3	-1.0363e-41
171	0x3e00d881	0.1258259
172	0xb3e91e43	-1.08554126e-07
173	0x3e2a5a37	0.16635977
174	0xbc851eae	-0.01624998
175	0xbd199cae	-0.037502937
176	0x00006701	3.6951e-41
177	0x3dbc15ce	0.091838464
178	0xbe842e49	-0.25816563
179	0xbd86d405	-0.06583408
180	0xb0258c4e	-6.0226035e-10
181	0x3d4ccd5a	0.050000526
182	0xbdadfa47	-0.08495002
183	0x0001ff36	1.83388e-40
184	0x3ea1ad7e	0.31577677
185	0x3ccf6571	0.025316926
186	0x3d4429ad	0.047891308
187	0xbcbb32f6	-0.022851449
188	0xbd88c0b2	-0.06677379
189	0x3e190684	0.14943892
190	0x3ddefdc9	0.108882494
191	0x3e365e8d	0.17809506
192	0x80006fc9	-4.0101e-41
193	0x3df60f8c	0.12014684
194	0x3debbf15	0.115110554
195	0xbe776c42	-0.24162391
196	0x3e4c2a66	0.19938049
197	0x3cb979f8	0.022641167
198	0xbca0fb32	-0.01965103
199	0x0000290e	1.4728e-41
200	0xbdbfd818	-0.093673885
201	0x80006e3c	-3.9545e-41
202	0x80026e9c	-2.2335e-40
203	0x3b9eb6b7	0.0048435587
204	0xb10e8d8f	-2.0744186e-09
205	0xbdcd4c09	-0.10024268
206	0xbccdb479	-0.02511047
207	0x3da301df	0.07959341
208	0x8001b79e	-1.57705e-40
209	0x3b4a46b9	0.0030864908
210	0xbe08d4fa	-0.13362494
211	0xbe093247	-0.13398086
212	0xa80c36eb	-7.78347e-15
213	0xbe501599	-0.20320739
214	0xbe489b60	-0.19590521
215	0x8001c072	-1.60872e-40
216	0xbd8ba9a2	-0.06819464
217	0x3dce13a8	0.10062343
218	0xbd91a9c4	-0.07112458
219	0x3df5698f	0.11983024
220	0x3e2431d7	0.16034637
221	0xbe549cef	-0.2076299
222	0x3e433988	0.19064915
223	0xbdd63246	-0.10458808
224	0x0003c335	3.45534e-40
225	0xbd159715	-0.036521036
226	0x3c8a96a8	0.016917542
227	0x3e04ab2b	0.1295592
228	0xbc297a8b	-0.010344158
229	0xbd535ad9	-0.05160031
230	0x3c58a005	0.013221745
231	0x8001ee49	-1.77316e-40
232	0xbcca5de8	-0.024702981
233	0x80033f0d	-2.98125e-40
234	0x80010eea	-9.7186e-41
235	0x3cb3d7d6	0.021953505
236	0xb2d65638	-2.4952087e-08
237	0xbdb36067	-0.08758622
238	0xbe91b1a6	-0.28455848
239	0x3e23d141	0.15997793
240	0x800052ee	-2.975e-41
241	0xbd8f3fe8	-0.06994611
242	0x3dec090d	0.11525164
243	0xbd85a80a	-0.065261915
244	0xaa129a9a	-1.3021043e-13
245	0x3d1c7433	0.038196754
246	0x3c5f74dd	0.013638702
247	0x8000138a	-7.009e-42
248	0x3ead32ae	0.33827728
249	0xbdd8abf3	-0.10579672
250	0xbca503ea	-0.020143468
251	0x3d7b2353	0.061312985
252	0x3cc4a0e7	0.024002505
253	0x3e2d7b26	0.16941509
254	0xbdc5c07f	-0.09655856
255	0x3e5d7d70	0.21629882

arith.constant8 f4 [32, 64]
0	0x80010507	-9.3639e-41
1	0x000088b7	4.9044e-41
2	0x8001e567	-1.7413e-40
3	0x00004ab3	2.6797e-41
4	0x00003bcb	2.145e-41
5	0x00014157	1.15275e-40
6	0x8001cd63	-1.65514e-40
7	0x0001d8d7	1.69623e-40
8	0x8000cbde	-7.3134e-41
9	0x80011899	-1.0066e-40
10	0x000376ac	3.18078e-40
11	0x0001cd4d	1.65484e-40
12	0x80024041	-2.06721e-40
13	0x0001e9ce	1.75709e-40
14	0x80008c15	-5.0252e-41
15	0x80001517	-7.566e-42
16	0x0002d27b	2.59177e-40
17	0x00007b26	4.4177e-41
18	0x00003a59	2.0931e-41
19	0x00007a43	4.3859e-41
20	0x800168df	-1.29456e-40
21	0x00010d31	9.6568e-41
22	0x0000fb98	9.0255e-41
23	0x800355f2	-3.06338e-40
24	0x8000cf70	-7.4415e-41
25	0x8003b0e5	-3.38964e-40
26	0x8002fcde	-2.74383e-40
27	0x0001c60d	1.62883e-40
28	0x80033de0	-2.97703e-40
29	0x0001a4e5	1.50989e-40
30	0x800217ba	-1.92182e-40
31	0x0001efac	1.77814e-40
32	0x80033ec0	-2.98017e-40
33	0x000370a6	3.15917e-40
34	0x00034dad	3.03371e-40
35	0x000164a0	1.27933e-40
36	0x800292f5	-2.36389e-40
37	0x0000c38c	7.0149e-41
38	0x80008d8e	-5.078e-41
39	0x0003c3d4	3.45756e-40
40	0x00008e50	5.1052e-41
41	0x8003909c	-3.27383e-40
42	0x800237b9	-2.0366e-40
43	0x8003b927	-3.41927e-40
44	0x80037862	-3.18692e-40
45	0x00007066	4.0321e-41
46	0x0001fd4d	1.82703e-40
47	0x00038aeb	3.25341e-40
48	0x00005724	3.126e-41
49	0x80003c2b	-2.1584e-41
50	0x0002f157	2.70247e-40
51	0x8001081c	-9.4745e-41
52	0x000196d1	1.45938e-40
53	0x00003770	1.9887e-41
54	0x00006f83	4.0003e-41
55	0x8003b2cc	-3.39647e-40
56	0x800128a4	-1.06415e-40
57	0x00023f6d	2.06424e-40
58	0x80007756	-4.281e-41
59	0x80008fae	-5.1543e-41
60	0x8002a015	-2.41098e-40
61	0x800343b9	-2.99801e-40
62	0x8001910e	-1.43871e-40
63	0x00024562	2.08561e-40
64	0xbd2726a5	-0.04080834
65	0x3cf86b5c	0.03032463
66	0x3d694ebb	0.05695985
67	0x3d8a3b73	0.0674962
68	0x3d0ad6f6	0.03389641
69	0x3cd06c63	0.025442308
70	0xbc97e55a	-0.01854198
71	0xbe13bcda	-0.1442751
72	0xbc8570ad	-0.01628908
73	0x3c083eae	0.008315725
74	0xbd84ab6c	-0.06478009
75	0xbdce6fb6	-0.10079901
76	0xbcb0149a	-0.021494199
77	0xbced67e0	-0.028980196
78	0xbd3934e4	-0.045216456
79	0x3d514d95	0.05109938
80	0xbd4caf81	-0.04997206
81	0x3daf2e6f	0.085537784
82	0xbde880bf	-0.11352681
83	0x3dc10848	0.09425408
84	0xbcebed68	-0.028799728
85	0x3e1b95e0	0.15193892
86	0xbdfd7660	-0.12376094
87	0xbd927599	-0.07151336
88	0xbd9c9e29	-0.07647354
89	0xbd1207b7	-0.03565189
90	0x3d5c7199	0.053819273
91	0x3dba2b79	0.09090323
92	0xbce154b9	-0.02750622
93	0x3c155332	0.009114074
94	0x3d9bcacf	0.07607042
95	0x3cd93fb0	0.026519626
96	0x3bbb35f3	0.0057132184
97	0x3c21ea51	0.009882526
98	0x3d506148	0.050874025
99	0x3ba78656	0.0051124496
100	0x3c0d510a	0.008625278
101	0x3c91cb86	0.017797243
102	0x3ce42a02	0.027852062
103	0xbdc4943d	-0.09598587
104	0xbd46c0a4	-0.04852356
105	0x3cdf06c5	0.027224908
106	0xbcd38a30	-0.025822729
107	0x3c583d69	0.013198235
108	0x3d361017	0.04444894
109	0x3da95276	0.08267681
110	0x3d190dd6	0.03736671
111	0xbdc00def	-0.093776576
112	0x3cc0d83e	0.023540612
113	0xbcad72f3	-0.021172976
114	0xbd987a2d	-0.07445178
115	0xbb8e689c	-0.0043459665
116	0xbdd37758	-0.103254974
117	0x3d83f514	0.06443229
118	0x3c2d8ef8	0.010593168
119	0xbdf530ee	-0.11972223
120	0xbd541812	-0.051780768
121	0x3d350fcd	0.044204522
122	0xbdacb7e2	-0.0843351
123	0xbd612cdb	-0.054974418
124	0xbe00d3c9	-0.1258079
125	0x3d39ca37	0.045358863
126	0xbe14270f	-0.14468025
127	0xbd8056d9	-0.06266565
128	0xbdf29ac7	-0.11845928
129	0xbd85077e	-0.0649557
130	0x3e2d7e27	0.16942655
131	0x3c99f595	0.01879386
132	0xbcd93f8b	-0.026519557
133	0xbd938b45	-0.07204298
134	0x3dc5c981	0.096575744
135	0xbd734e10	-0.059400618
136	0xbd27e53b	-0.040990096
137	0x3b40ae11	0.0029400627
138	0xbe38ee7f	-0.18059729
139	0xbe91a30c	-0.28444707
140	0xbe04a5b7	-0.1295384
141	0x3d58b050	0.05290252
142	0x3d9d9ffc	0.0769653
143	0x3c996c53	0.01872841
144	0x3d469de5	0.048490424
145	0x3d6f615a	0.05844245
146	0xbd5b7718	-0.053580374
147	0xbd8ca02b	-0.06866487
148	0xbda71d47	-0.08159881
149	0x3d02ce4e	0.03193503
150	0x3c2b85cd	0.010468912
151	0xbdbf484f	-0.09339964
152	0x3e0cb67f	0.13741492
153	0xbd8f0c89	-0.06984813
154	0x3d8d6232	0.06903495
155	0xbd61cc9b	-0.055126768
156	0xbc7f4ad0	-0.0155818015
157	0xbd18c42f	-0.03729647
158	0x3d3d31f4	0.046190217
159	0x3d11f5f2	0.035634942
160	0xbd0e7045	-0.034775037
161	0x3cfed4e9	0.031107383
162	0x3c4deca8	0.01256863
163	0x3e03606d	0.12829752
164	0xbd72b764	-0.059256926
165	0x3d2b59df	0.041833755
166	0xbdc3054e	-0.09522496
167	0x3c587c53	0.013213235
168	0x3cd2e808	0.025745407
169	0x3c214b9e	0.009844689
170	0xbd8e24a8	-0.069405854
171	0xbd8deb90	-0.069296956
172	0xbd9aa9d2	-0.07551922
173	0x3b6983fd	0.003563165
174	0x3c48e04d	0.012260509
175	0x3d8eed76	0.06978886
176	0xbda48e11	-0.080349095
177	0xbdaf4702	-0.085584655
178	0xbd7caa3c	-0.061685786
179	0x3d399db4	0.045316413
180	0xbd1a32ff	-0.03764629
181	0x3d2edccc	0.042691037
182	0x3de912c0	0.113805294
183	0xbe14890d	-0.14505406
184	0xbd67c4e8	-0.05658427
185	0xbcd9c68f	-0.026583938
186	0x3dc7aa65	0.09749297
187	0xbd91563f	-0.07096528
188	0xbcdc48e0	-0.026890218
189	0x3d3992c4	0.045305982
190	0xbe16b51f	-0.1471753
191	0x3d3d726c	0.0462517
192	0xbc19aa1e	-0.009378938
193	0xbb3cfdb4	-0.0028837742
194	0xbd962433	-0.07331123
195	0xbc2d7de0	-0.010589093
196	0xbe7bfe31	-0.24608685
197	0xbd552a34	-0.0520422
198	0x3d8bd8ed	0.06828485
199	0xbbb2c797	-0.005455922
200	0xbb1b4964	-0.0023694867
201	0x3d67e160	0.05661142
202	0x3c2e7aae	0.010649366
203	0x3c189bf5	0.009314527
204	0xbde05748	-0.109541476
205	0xbc338efa	-0.010959381
206	0xbcc6f141	-0.02428496
207	0x3cfbad84	0.030722387
208	0xbd63d0a1	-0.055618886
209	0xbd0da1bc	-0.03457807
210	0x3e3c62c5	0.18397053
211	0xbdb588a2	-0.08863951
212	0xbd9aeb19	-0.075643726
213	0x3d810f4e	0.06301747
214	0x3d1ddf63	0.038543116
215	0xbcfff62c	-0.031245314
216	0xbd491d73	-0.04910035
217	0x3d2c29cd	0.04203205
218	0xbccfb2d7	-0.025353832
219	0xbda1dc2b	-0.07903322
220	0xbe4f67d5	-0.20254453
221	0xbd5311b1	-0.051530544
222	0x3c1d2955	0.009592374
223	0x3d059ebf	0.032622095
224	0x3d4998f3	0.04921813
225	0xbe83a6ff	-0.25713345
226	0xbd118f73	-0.035537194
227	0xbc5c6906	-0.013452774
228	0x3d99aa7c	0.075032204
229	0xbe7be6f2	-0.24599817
230	0xbe085beb	-0.13316314
231	0x3bd1e226	0.006405133
232	0x3d6a0409	0.057132754
233	0x3dbae919	0.09126491
234	0xbefd0cf2	-0.4942394
235	0x3d4dbf1d	0.050231088
236	0xbe6808ac	-0.22659558
237	0xbd81fec4	-0.06347421
238	0x3cd03b07	0.025418771
239	0xbd0099b1	-0.03139657
240	0xbdd3a6da	-0.10334559
241	0xbc356e1f	-0.011073618
242	0x3cf02982	0.029316667
243	0x3e16ea58	0.14737833
244	0x3bfbc0ca	0.0076828944
245	0xbc89c23e	-0.016816255
246	0x3d339b56	0.04384931
247	0x3c76572a	0.01503543
248	0xbc53e41e	-0.012932805
249	0xbcd22768	-0.025653556
250	0x3e03a1d2	0.12854698
251	0x3c5b7f80	0.013397098
252	0x3e4cf031	0.20013501
253	0xbc822871	-0.015888425
254	0xbdbbd02d	-0.09170566
255	0xbdae5b17	-0.08513468

arith.constant9 f4 [5]
0	0x3e683a6e	0.22678539
1	0x3e79bae6	0.24387702
2	0xbc17c356	-0.00926288
3	0xbe3b1e7c	-0.18273348
4	0xbe42141b	-0.18952982

arith.constant10 f4 [32]
0	0xbcb531e2	-0.022118513
1	0x3d88f031	0.06686438
2	0x3c746696	0.0149170365
3	0xbe0d80be	-0.13818642
4	0x3e05c85c	0.13064712
5	0x3d719f4b	0.058989804
6	0x3c9d68b0	0.019214958
7	0xbd42eb14	-0.04758747
8	0x3dcf9191	0.101351865
9	0xbd4d328f	-0.050097045
10	0xbd4be581	-0.04977942
11	0xbd6fc629	-0.05853859
12	0xbdd6cfaa	-0.104888275
13	0xbe104463	-0.14088587
14	0x3a08f38f	0.00052242813
15	0x3dc688bb	0.09694048
16	0xbcdaa03b	-0.026687732
17	0xbbd083e4	-0.006363379
18	0x3ea2a3c3	0.31765565
19	0xbd855699	-0.06510658
20	0xbda0058a	-0.078135565
21	0x3d85d7f4	0.065353304
22	0xbd824596	-0.06360929
23	0xbc433ded	-0.01191662
24	0xbdcea677	-0.100903444
25	0xbccc773d	-0.024959201
26	0x3d6304a8	0.055424362
27	0xbed56909	-0.41681698
28	0x3c223102	0.00989938
29	0xbe1a6329	-0.15076889
30	0x3dd89fef	0.1057738
31	0xbd48f70f	-0.04906374

arith.constant11 f4 [16]
0	0xbd83e1e1	-0.06439567
1	0x3d541bd6	0.05178436
2	0x3d6665b7	0.056249347
3	0x3d7a17e1	0.06105793
4	0x3e0db24c	0.13837546
5	0x3d5ed804	0.054405227
6	0x3e0793dd	0.13239999
7	0x3d7e791c	0.062127218
8	0x3cb0fa27	0.021603657
9	0x3c7c55bf	0.015401303
10	0x3bbca2b2	0.0057566995
11	0x3ddf63d4	0.109077126
12	0x3dca67ff	0.09883117
13	0xbd1fb1ab	-0.038987797
14	0x3cdd8dc8	0.027045146
15	0x3dadcac4	0.0848594

sequential_1/batch_normalization_1_2/batchnorm/mul f4 [64]
0	0x3f88d27e	1.0689237
1	0x3f6543fc	0.8955686
2	0x417d57b3	15.833911
3	0x3ff328ba	1.8996804
4	0x40693951	3.6441233
5	0x415b84a4	13.719883
6	0x40abeb13	5.3724456
7	0x40bb3668	5.8503914
8	0x42280418	42.003998
9	0x3f21a4b4	0.6314194
10	0x408b0f97	4.345653
11	0x40c4de27	6.152118
12	0x3fd3777d	1.652084
13	0x40fe9cf9	7.9566617
14	0x40860e7b	4.1892676
15	0x3f95bfc1	1.1699144
16	0x40df450d	6.977179
17	0x4137ea50	11.494705
18	0x41517268	13.090431
19	0x40b9ed1e	5.810195
20	0x3f8624f3	1.0480026
21	0x40d822ed	6.7542634
22	0x41368f17	11.409934
23	0x40b77c23	5.7339034
24	0x41154de2	9.331514
25	0x410bde14	8.741718
26	0x402bb2b3	2.682782
27	0x4058c8a0	3.3872452
28	0x40b1f482	5.561097
29	0x417ecbc7	15.92475
30	0x3f709f8f	0.9399347
31	0x40527286	3.28824
32	0x3f8807f4	1.0627427
33	0x40dc5acb	6.886083
34	0x4108f399	8.559472
35	0x40437740	3.0541534
36	0x400c3ac8	2.1910877
37	0x412d6a77	10.838492
38	0x402b077b	2.6723316
39	0x4064488f	3.5669286
40	0x40b5a57b	5.6764503
41	0x3f072f90	0.5280695
42	0x407c95ae	3.9466357
43	0x3fbd8c51	1.4808446
44	0x402c2e88	2.69034
45	0x3fff200f	1.9931659
46	0x3f1d58eb	0.61463803
47	0x40b5c2ea	5.680043
48	0x405605e9	3.3441107
49	0x400b4033	2.1757934
50	0x3fd2c79e	1.6467168
51	0x415bdc51	13.741288
52	0x406d2c67	3.705835
53	0x3fb95155	1.4477946
54	0x3fdbd137	1.7173222
55	0x4072b200	3.7921143
56	0x41713c11	15.077165
57	0x4095a83e	4.6767874
58	0x4190df8a	18.10915
59	0x3fd2c90d	1.6467606
60	0x410dfa10	8.87355
61	0x40c6f287	6.2171054
62	0x4126838a	10.407114
63	0x40af39ad	5.4757905

sequential_1/batch_normalization_1_2/batchnorm/sub f4 [64]
0	0xbf750c16	-0.95721567
1	0xbf89506c	-1.0727668
2	0xbf379277	-0.7170786
3	0xbf417d32	-0.7558166
4	0xbf2d915c	-0.67799926
5	0xbef4dc33	-0.4782425
6	0xbf0c6896	-0.54847085
7	0xbf22c42f	-0.635806
8	0x39f16a40	0.00046046264
9	0xbf3bd3b7	-0.73369926
10	0xbf0d10ca	-0.55103743
11	0xbf4b78d8	-0.7948127
12	0xbf1bbef1	-0.6083823
13	0xbf1f22ba	-0.62162364
14	0xbf56caf0	-0.8390341
15	0xbf4041ba	-0.7510029
16	0xbf1dba66	-0.61612546
17	0xbeb8ea84	-0.3611642
18	0xbf3eac7c	-0.7448194
19	0xbedd5224	-0.4322673
20	0xbf2c5f4e	-0.67332923
21	0xbf594d04	-0.8488314
22	0xbf1f2d0c	-0.6217811
23	0xbee5077d	-0.44732276
24	0xbf7cdacd	-0.98771363
25	0xbf00a337	-0.50249046
26	0xbefd18f8	-0.49433112
27	0xbf2d379c	-0.6766298
28	0xbf3341b4	-0.7002213
29	0xbee371e0	-0.44422817
30	0xbf1f7ae5	-0.622969
31	0xbf02e02d	-0.51123315
32	0xbf8f661f	-1.120304
33	0xbf259021	-0.6467305
34	0xbf42214f	-0.75832075
35	0xbf648b62	-0.8927518
36	0xbf853b1c	-1.0408664
37	0xbf160f64	-0.58617234
38	0xbf4bc94e	-0.7960404
39	0xbf610139	-0.8789249
40	0xbf30ba4a	-0.69034255
41	0xbf1e0f58	-0.6174216
42	0xbf3ad6ae	-0.72983825
43	0xbf8e2dc3	-1.1107715
44	0xbf6b6949	-0.9195753
45	0xbf46435a	-0.7744652
46	0xbf57c5e7	-0.8428635
47	0xbeb2f620	-0.34953403
48	0xbf12c51b	-0.5733201
49	0xbf41bbb5	-0.75677043
50	0xbf9deb40	-1.2337418
51	0xbe7fdddd	-0.24986978
52	0xbf2f9536	-0.6858705
53	0xbf4e98eb	-0.80702084
54	0xbf565320	-0.8372059
55	0xbf803c07	-1.0018319
56	0xbea60079	-0.32422236
57	0xbef8dc3a	-0.4860552
58	0xbecf2414	-0.40457213
59	0xbfa9d575	-1.3268267
60	0xbf578d6c	-0.8420017
61	0xbe94c0ea	-0.29053432
62	0xbf1d2ea4	-0.6139929
63	0xbf0e5e62	-0.55612767

sequential_1/batch_normalization_1/batchnorm/mul f4 [64]
0	0x3f388706	0.7208103
1	0x4022968d	2.540439
2	0x3f3ed56d	0.7454441
3	0x3f727a4a	0.9471785
4	0x3ef03905	0.46918502
5	0x3fa9f4da	1.3277848
6	0x3f4b570e	0.7942971
7	0x3f302089	0.68799645
8	0x3fa88b1f	1.3167456
9	0x3f9ad7d2	1.2097113
10	0x409aed6e	4.841483
11	0x3f8064dc	1.003078
12	0x40191667	2.3919923
13	0x40908084	4.515688
14	0x3f378819	0.71692044
15	0x3f1c8b0e	0.6114968
16	0x3fe41edf	1.7821921
17	0x3efc8250	0.4931817
18	0x3fde070b	1.7345899
19	0x3f821bca	1.016473
20	0x3f5138b2	0.81727135
21	0x3e652b62	0.2237983
22	0x401ed78d	2.4819062
23	0x3f26f083	0.6521074
24	0x3edc30d1	0.43005994
25	0x3dc7fe8e	0.09765349
26	0x3e40197d	0.18759723
27	0x3f006ae1	0.50163084
28	0x3f0c9a43	0.54922885
29	0x3e2cdfcd	0.16882248
30	0x40ada2c0	5.426117
31	0x3f9a5702	1.2057803
32	0x3f54c289	0.8310934
33	0x4006e051	2.1074412
34	0x3eff44b3	0.498571
35	0x3f82487c	1.017837
36	0x3eecdfb2	0.46264416
37	0x4016ab2d	2.3541977
38	0x3f155e61	0.58347136
39	0x3eaee7c7	0.34161207
40	0x3f0c0450	0.5469408
41	0x400b7599	2.1790526
42	0x3f18065c	0.59384704
43	0x3ffc7ac7	1.9724969
44	0x3ffc2d09	1.9701244
45	0x3fd2b6e8	1.6462069
46	0x40557574	3.3352938
47	0x3ee15436	0.4400956
48	0x3f5e1438	0.867496
49	0x3f055eeb	0.5209796
50	0x3f564dc9	0.8371244
51	0x3f1490c4	0.58033395
52	0x40197387	2.3976762
53	0x3f0f4394	0.5596249
54	0x3fb61600	1.4225464
55	0x3e65f803	0.2245789
56	0x3f6429fd	0.8912657
57	0x3fa397fb	1.2780756
58	0x3fc60a4c	1.5471892
59	0x3f889219	1.0669585
60	0x401d1661	2.454491
61	0x3fb472e3	1.4097561
62	0x3f99158b	1.1959699
63	0x4032ab2c	2.7916975

sequential_1/batch_normalization_1/batchnorm/sub f4 [64]
0	0xbe8fd3c4	-0.28091252
1	0xbfa885f9	-1.3165885
2	0xbefc44ef	-0.49271342
3	0xbee0c2e1	-0.4389868
4	0xbe9aeafc	-0.30257404
5	0xbe8243fc	-0.25442493
6	0xbe99d386	-0.30044192
7	0xbec0621e	-0.37574857
8	0xbeaa49d0	-0.3325944
9	0xbecac9aa	-0.39606982
10	0x3de02cd2	0.10946049
11	0xbe098642	-0.13430122
12	0xc0048068	-2.0703373
13	0xbc669e90	-0.01407589
14	0xbf0af83c	-0.54285026
15	0xbeb1604e	-0.34643787
16	0xbf5df032	-0.86694634
17	0xbe0bf739	-0.13668527
18	0xbf7a7bcd	-0.97845155
19	0xbee50078	-0.4472692
20	0xbf35c5ec	-0.7100513
21	0xbe6a6a02	-0.22892001
22	0xbfae9ffc	-1.3642573
23	0xbefe9440	-0.4972248
24	0xbf209e22	-0.6274129
25	0xbec41b77	-0.38302204
26	0xbe683b8a	-0.22678962
27	0xbeb03f8c	-0.34423482
28	0xbebec75e	-0.3726148
29	0xbf1b314e	-0.6062211
30	0x3cc3fd90	0.023924619
31	0xbf34f2be	-0.70682895
32	0xbe82c38d	-0.25539818
33	0xbe89664b	-0.26835856
34	0xbee9e484	-0.45682156
35	0xbf03c192	-0.5146724
36	0xbf019bfa	-0.50628626
37	0xbf84e261	-1.0381585
38	0xbec856d8	-0.39128757
39	0xbf096aaa	-0.5367838
40	0xbec06502	-0.37577063
41	0xbf81e55c	-1.014812
42	0xbebd57b4	-0.36980975
43	0xbee09d90	-0.4387021
44	0xbe98901c	-0.29797447
45	0xbf5ff57b	-0.8748395
46	0xc0234adb	-2.5514438
47	0xbea93a7a	-0.33052427
48	0xbe191018	-0.14947546
49	0xbe5af53b	-0.2138261
50	0xbee0cdca	-0.43907005
51	0xbebbe632	-0.36699063
52	0xbfbba202	-1.4658816
53	0xbed05bee	-0.40695137
54	0xbf6da4d2	-0.9282962
55	0xbeebb3db	-0.46035656
56	0xbf0a1be9	-0.5394884
57	0xbea80852	-0.32818848
58	0xbeeadbe3	-0.45870885
59	0xbe6621a4	-0.2247377
60	0xbeab824f	-0.33497855
61	0xbf47b246	-0.780064
62	0xbf4e65ac	-0.8062389
63	0xbfe30dcf	-1.7738589

sequential_1/separable_conv2d_1/separable_conv2d/depthwise1 f4 [1, 3, 3, 1]
0	0x3e351aa1	0.1768594
1	0xbe92dc2e	-0.2868361
2	0xbe78cc61	-0.24296714
3	0x3ede7f7b	0.43456635
4	0x3e744e31	0.23857953
5	0xbeca1fcb	-0.3947738
6	0x3ee0e628	0.43925595
7	0x3dfdcf5f	0.123930685
8	0x3ef4b9f5	0.47798124
