Model/100k.tflite (tflite, 110568 bytes, 3 tensors)

tfl.pseudo_qconst i1 [4, 440]
00000000: 375c cee4 95ad bd53 1c60 ebe2 470e ede3
00000010: bacf 9f00 36cf 0c4b 6e9a 19f1 cdf7 0faa
00000020: 2174 3f87 8939 be3b 9ed1 18c9 8c6d 03c1
00000030: a316 6052 f48d 8b6d 5e6e 9af8 3fd0 37da
00000040: bee4 937a dd0c c9bb dfc7 5354 7194 1786
00000050: 8c79 cf19 73c1 a5c9 a5fc edbb e65e df6b
00000060: 90b8 769b 9a8f b65c f9f2 b5a5 be75 a84d
00000070: 0dba 0de2 440a 40a0 ec62 0db2 c45b c15a
00000080: e028 0dea cd85 0b43 7281 ef31 aeec c21d
00000090: e5ac ea67 24f4 8986 2e91 fadb c228 1294
000000a0: ada0 7e98 4466 b0c0 973e ab12 9f8b d662
000000b0: eb40 1b6f 4f69 4fcc 15a8 22cc 6311 8709
000000c0: 1f16 c3bc b75f ce26 babd 5f26 62c7 de5a
000000d0: 27d3 f202 b8db 721a b88d f583 c704 c2a8
000000e0: f197 4081 cda9 d77c ab1f 1c3c ce3c e15a
000000f0: b114 1f29 bef8 6b2c 63d7 0f4b 0295 8ee8
55 92 -50 -28 -107 -83 -67 83
28 96 -21 -30 71 14 -19 -29
-70 -49 -97 0 54 -49 12 75
110 -102 25 -15 -51 -9 15 -86
33 116 63 -121 -119 57 -66 59
-98 -47 24 -55 -116 109 3 -63
-93 22 96 82 -12 -115 -117 109
94 110 -102 -8 63 -48 55 -38
-66 -28 -109 122 -35 12 -55 -69
-33 -57 83 84 113 -108 23 -122
-116 121 -49 25 115 -63 -91 -55
-91 -4 -19 -69 -26 94 -33 107
-112 -72 118 -101 -102 -113 -74 92
-7 -14 -75 -91 -66 117 -88 77
13 -70 13 -30 68 10 64 -96
-20 98 13 -78 -60 91 -63 90
-32 40 13 -22 -51 -123 11 67
114 -127 -17 49 -82 -20 -62 29
-27 -84 -22 103 36 -12 -119 -122
46 -111 -6 -37 -62 40 18 -108
-83 -96 126 -104 68 102 -80 -64
-105 62 -85 18 -97 -117 -42 98
-21 64 27 111 79 105 79 -52
21 -88 34 -52 99 17 -121 9
31 22 -61 -68 -73 95 -50 38
-70 -67 95 38 98 -57 -34 90
39 -45 -14 2 -72 -37 114 26
-72 -115 -11 -125 -57 4 -62 -88
-15 -105 64 -127 -51 -87 -41 124
-85 31 28 60 -50 60 -31 90
-79 20 31 41 -66 -8 107 44
99 -41 15 75 2 -107 -114 -24

tfl.pseudo_qconst2 i1 [110, 3, 3, 100]
00000000: f4c9 63d1 d8db 7f1e e8c0 6ae2 beba 9913
00000010: c51e 96f5 6a58 bf96 c423 09f4 d9e1 9100
00000020: 5cf4 9b7b 8d69 341f 1234 c795 c56c faca
00000030: 58de 095f 1fe6 6ccb 9eec e814 29d4 153b
00000040: 51a2 9a6d cd4d 105c c5ea ff95 c652 c6ee
00000050: 1f8d f40b a178 3b34 0804 fafd 205a e20b
00000060: 78ab 509e bb2f 3fc8 9f62 361d acf6 a51a
00000070: ccba dbe7 f3e6 c3a2 3422 39ef a664 d659
00000080: 182e fea4 100a 574d 78fc 769d e653 a96f
00000090: 0781 c362 4765 71ec 56f8 fd9a b8d2 17a3
000000a0: 7430 a385 6d81 5fff f202 aedb d4ca acf6
000000b0: 9ccd 050a 1bf3 a6bd 0211 3506 8fa9 9324
000000c0: 6352 3e18 6498 9dc3 0e4b ec1e e1d0 2a8b
000000d0: 7519 6c5e c2eb 3a06 b76a 39c3 f825 a31c
000000e0: 4ee3 23ad c569 9d59 94b6 9d7e 6253 c9a8
000000f0: 9e75 8c2f 31fa 8fdc a5b8 f05d 6b5d 56e4
-12 -55 99 -47 -40 -37 127 30
-24 -64 106 -30 -66 -70 -103 19
-59 30 -106 -11 106 88 -65 -106
-60 35 9 -12 -39 -31 -111 0
92 -12 -101 123 -115 105 52 31
18 52 -57 -107 -59 108 -6 -54
88 -34 9 95 31 -26 108 -53
-98 -20 -24 20 41 -44 21 59
81 -94 -102 109 -51 77 16 92
-59 -22 -1 -107 -58 82 -58 -18
31 -115 -12 11 -95 120 59 52
8 4 -6 -3 32 90 -30 11
120 -85 80 -98 -69 47 63 -56
-97 98 54 29 -84 -10 -91 26
-52 -70 -37 -25 -13 -26 -61 -94
52 34 57 -17 -90 100 -42 89
24 46 -2 -92 16 10 87 77
120 -4 118 -99 -26 83 -87 111
7 -127 -61 98 71 101 113 -20
86 -8 -3 -102 -72 -46 23 -93
116 48 -93 -123 109 -127 95 -1
-14 2 -82 -37 -44 -54 -84 -10
-100 -51 5 10 27 -13 -90 -67
2 17 53 6 -113 -87 -109 36
99 82 62 24 100 -104 -99 -61
14 75 -20 30 -31 -48 42 -117
117 25 108 94 -62 -21 58 6
-73 106 57 -61 -8 37 -93 28
78 -29 35 -83 -59 105 -99 89
-108 -74 -99 126 98 83 -55 -88
-98 117 -116 47 49 -6 -113 -36
-91 -72 -16 93 107 93 86 -28

tfl.pseudo_qconst4 i1 [100, 3, 3, 1]
00000000: 1515 e20e 0675 de81 5301 62f4 1850 2181
00000010: 5ca6 10d8 657f 1453 e54d 3602 24f1 937f
00000020: bc30 aceb 65e1 5d7f 3aec 5df5 61ab 8dbb
00000030: 8b7f d1c5 8bfe 7a23 0cda ed81 b024 9c40
00000040: 81c7 d0e0 d6c2 5ac1 8c83 7f12 49b6 b82f
00000050: 58b0 e981 cba2 c26c 8a2a a528 6a26 b2a6
00000060: 8153 53c2 83f7 f1fd 99bc 81e1 5e44 be79
00000070: 482d 6f81 1e6f 7fb8 169e 8d26 eacb e25a
00000080: 759b 4065 c489 81d6 0c5d da4f b0d2 3c7f
00000090: a7ed c3e4 fe43 fc81 fd73 abbf a393 7f59
000000a0: 4448 7081 9e9a 6a70 a0b2 6ea7 a3b9 ebaf
000000b0: 7f20 8f15 7c1f ba05 86eb 75cd 811f 0505
000000c0: 909f 8144 597f 26d9 7f81 84d1 a78e d312
000000d0: 8a92 79c9 c6a7 9c81 53f2 81bd 07f2 bc9a
000000e0: 7598 810c 6007 63bc 4549 30b3 81c7 d9ec
000000f0: 37f0 4b41 4b45 b07f 8506 9772 1434 5099
21 21 -30 14 6 117 -34 -127
83 1 98 -12 24 80 33 -127
92 -90 16 -40 101 127 20 83
-27 77 54 2 36 -15 -109 127
-68 48 -84 -21 101 -31 93 127
58 -20 93 -11 97 -85 -115 -69
-117 127 -47 -59 -117 -2 122 35
12 -38 -19 -127 -80 36 -100 64
-127 -57 -48 -32 -42 -62 90 -63
-116 -125 127 18 73 -74 -72 47
88 -80 -23 -127 -53 -94 -62 108
-118 42 -91 40 106 38 -78 -90
-127 83 83 -62 -125 -9 -15 -3
-103 -68 -127 -31 94 68 -66 121
72 45 111 -127 30 111 127 -72
22 -98 -115 38 -22 -53 -30 90
117 -101 64 101 -60 -119 -127 -42
12 93 -38 79 -80 -46 60 127
-89 -19 -61 -28 -2 67 -4 -127
-3 115 -85 -65 -93 -109 127 89
68 72 112 -127 -98 -102 106 112
-96 -78 110 -89 -93 -71 -21 -81
127 32 -113 21 124 31 -70 5
-122 -21 117 -51 -127 31 5 5
-112 -97 -127 68 89 127 38 -39
127 -127 -124 -47 -89 -114 -45 18
-118 -110 121 -55 -58 -89 -100 -127
83 -14 -127 -67 7 -14 -68 -102
117 -104 -127 12 96 7 99 -68
69 73 48 -77 -127 -57 -39 -20
55 -16 75 65 75 69 -80 127
-123 6 -105 114 20 52 80 -103
