Model/189_kb_model.tflite (tflite, 63512 bytes, 15 tensors)

tfl.pseudo_qconst1 i1 [4, 32]
000000 fe 09 f3 ee da a0 e7 e2 fe 09 4a e9 1d 00 d8 20
       -2 9 -13 -18 -38 -96 -25 -30 -2 9 74 -23 29 0 -40 32
000010 f8 1c 0c 03 02 7f e8 0a b4 1e 9e 03 e8 e6 b6 ec
       -8 28 12 3 2 127 -24 10 -76 30 -98 3 -24 -26 -74 -20
000020 08 04 ef 08 4f 41 f0 46 fc 09 c4 f0 d7 fc d0 21
       8 4 -17 8 79 65 -16 70 -4 9 -60 -16 -41 -4 -48 33
000030 f9 0c 11 0c fb 7f 13 06 db fb 8f b3 ca db 05 06
       -7 12 17 12 -5 127 19 6 -37 -5 -113 -77 -54 -37 5 6
000040 00 db fa f2 e2 7f 0c e9 ff c5 d7 14 e6 00 12 ce
       0 -37 -6 -14 -30 127 12 -23 -1 -59 -41 20 -26 0 18 -50
000050 0b 0f 15 0d f4 46 fe fe c1 ec de 13 21 4d 16 0c
       11 15 21 13 -12 70 -2 -2 -63 -20 -34 19 33 77 22 12
000060 0c 0b 03 22 1b 18 fc f8 00 e9 ec ee 26 f7 28 fe
       12 11 3 34 27 24 -4 -8 0 -23 -20 -18 38 -9 40 -2
000070 ff c1 ba d0 05 89 11 7f 4b df 7e ff 21 f9 f3 0b
       -1 -63 -70 -48 5 -119 17 127 75 -33 126 -1 33 -7 -13 11

tfl.pseudo_qconst3 i1 [32, 64]
000000 00 00 00 00 00 00 00 00 00 00 00 00 00 00 00 00
       0 0 0 0 0 0 0 0 0 0 0 0 0 0 0 0
000010 00 00 00 00 00 00 00 00 00 00 00 00 00 00 00 00
       0 0 0 0 0 0 0 0 0 0 0 0 0 0 0 0
000020 00 00 00 00 00 00 00 00 00 00 00 00 00 00 00 00
       0 0 0 0 0 0 0 0 0 0 0 0 0 0 0 0
000030 00 00 00 00 00 00 00 00 00 00 00 00 00 00 00 00
       0 0 0 0 0 0 0 0 0 0 0 0 0 0 0 0
000040 00 00 16 16 00 00 00 00 2c 1c 95 00 d5 00 00 94
       0 0 22 22 0 0 0 0 44 28 -107 0 -43 0 0 -108
000050 a3 00 29 00 00 00 15 00 00 98 00 24 2a f5 27 00
       -93 0 41 0 0 0 21 0 0 -104 0 36 42 -11 39 0
000060 00 fb 00 81 20 1b e3 00 00 00 12 00 00 fb 00 00
       0 -5 0 -127 32 27 -29 0 0 0 18 0 0 -5 0 0
000070 00 00 00 00 34 34 11 00 00 00 00 00 24 00 25 44
       0 0 0 0 52 52 17 0 0 0 0 0 36 0 37 68
000080 00 00 00 00 00 00 00 00 00 00 00 00 00 00 00 00
       0 0 0 0 0 0 0 0 0 0 0 0 0 0 0 0
000090 00 00 00 00 00 00 00 00 00 00 00 00 00 00 00 00
       0 0 0 0 0 0 0 0 0 0 0 0 0 0 0 0
0000a0 00 00 00 00 00 00 00 00 00 00 00 00 00 00 00 00
       0 0 0 0 0 0 0 0 0 0 0 0 0 0 0 0
0000b0 00 00 00 00 00 00 00 00 00 00 00 00 00 00 00 00
       0 0 0 0 0 0 0 0 0 0 0 0 0 0 0 0
0000c0 00 00 69 5d 00 00 00 00 81 31 82 00 20 00 00 00
       0 0 105 93 0 0 0 0 -127 49 -126 0 32 0 0 0
0000d0 f1 00 dd 00 00 00 f4 00 00 d8 00 31 f1 01 53 00
       -15 0 -35 0 0 0 -12 0 0 -40 0 49 -15 1 83 0
0000e0 00 63 00 b5 21 a5 bc 00 00 00 34 00 00 b1 00 00
       0 99 0 -75 33 -91 -68 0 0 0 52 0 0 -79 0 0
0000f0 00 00 00 00 6c 45 d7 00 00 00 00 00 ea 00 3a fd
       0 0 0 0 108 69 -41 0 0 0 0 0 -22 0 58 -3

tfl.pseudo_qconst5 i1 [64, 128]
000000 00 00 00 00 00 00 00 00 00 00 00 00 00 00 00 00
       0 0 0 0 0 0 0 0 0 0 0 0 0 0 0 0
000010 00 00 00 00 00 00 00 00 00 00 00 00 00 00 00 00
       0 0 0 0 0 0 0 0 0 0 0 0 0 0 0 0
000020 00 00 00 00 00 00 00 00 00 00 00 00 00 00 00 00
       0 0 0 0 0 0 0 0 0 0 0 0 0 0 0 0
000030 00 00 00 00 00 00 00 00 00 00 00 00 00 00 00 00
       0 0 0 0 0 0 0 0 0 0 0 0 0 0 0 0
000040 00 00 00 00 00 00 00 00 00 00 00 00 00 00 00 00
       0 0 0 0 0 0 0 0 0 0 0 0 0 0 0 0
000050 00 00 00 00 00 00 00 00 00 00 00 00 00 00 00 00
       0 0 0 0 0 0 0 0 0 0 0 0 0 0 0 0
000060 00 00 00 00 00 00 00 00 00 00 00 00 00 00 00 00
       0 0 0 0 0 0 0 0 0 0 0 0 0 0 0 0
000070 00 00 00 00 00 00 00 00 00 00 00 00 00 00 00 00
       0 0 0 0 0 0 0 0 0 0 0 0 0 0 0 0
000080 00 00 00 00 00 00 00 00 00 00 00 00 00 00 00 00
       0 0 0 0 0 0 0 0 0 0 0 0 0 0 0 0
000090 00 00 00 00 00 00 00 00 00 00 00 00 00 00 00 00
       0 0 0 0 0 0 0 0 0 0 0 0 0 0 0 0
0000a0 00 00 00 00 00 00 00 00 00 00 00 00 00 00 00 00
       0 0 0 0 0 0 0 0 0 0 0 0 0 0 0 0
0000b0 00 00 00 00 00 00 00 00 00 00 00 00 00 00 00 00
       0 0 0 0 0 0 0 0 0 0 0 0 0 0 0 0
0000c0 00 00 00 00 00 00 00 00 00 00 00 00 00 00 00 00
       0 0 0 0 0 0 0 0 0 0 0 0 0 0 0 0
0000d0 00 00 00 00 00 00 00 00 00 00 00 00 00 00 00 00
       0 0 0 0 0 0 0 0 0 0 0 0 0 0 0 0
0000e0 00 00 00 00 00 00 00 00 00 00 00 00 00 00 00 00
       0 0 0 0 0 0 0 0 0 0 0 0 0 0 0 0
0000f0 00 00 00 00 00 00 00 00 00 00 00 00 00 00 00 00
       0 0 0 0 0 0 0 0 0 0 0 0 0 0 0 0

tfl.pseudo_qconst6 i1 [64] scale=0.007123496 zero_point=127
000000 bc 03 9a f8 c9 c4 19 06 bb ea e3 bf a6 02 da fa
       -1.3890817 -0.8833135 -1.6312805 -0.96167195 -1.2964762 -1.3320937 -0.7265966 -0.861943 -1.3962052 -1.0614009 -1.1112654 -1.3677112 -1.5457987 -0.890437 -1.1753768 -0.94742495
000010 d8 0b 05 ee e6 e1 d6 ec b6 df de db b9 da 3f 13
       -1.1896238 -0.82632554 -0.8690665 -1.0329069 -1.0898949 -1.1255124 -1.2038708 -1.047154 -1.4318227 -1.1397593 -1.1468829 -1.1682533 -1.4104522 -1.1753768 -0.45590374 -0.76933753
000020 e6 f3 cb 1f 80 04 15 f9 39 43 f1 a7 f2 1a d2 fd
       -1.0898949 -0.9972894 -1.2822293 -0.6838556 -1.8164915 -0.87619 -0.7550906 -0.9545485 -0.4986447 -0.42740977 -1.0115365 -1.5386751 -1.0044129 -0.71947306 -1.2323648 -0.9260545
000030 e5 08 e7 11 10 f7 ec e4 dd e7 d5 11 f5 ec f1 31
       -1.0970184 -0.847696 -1.0827714 -0.78358454 -0.79070807 -0.9687954 -1.047154 -1.1041418 -1.1540064 -1.0827714 -1.2109944 -0.78358454 -0.9830424 -1.047154 -1.0115365 -0.5556327

tfl.pseudo_qconst7 i1 [64] scale=0.0087247845 zero_point=-128
000000 df df d6 06 e0 eb 00 ec ea ed e0 df df 14 ef eb
       0.8288545 0.8288545 0.75033146 1.1691211 0.8375793 0.93355197 1.1167724 0.9422767 0.92482716 0.9510015 0.8375793 0.8288545 0.8288545 1.2912681 0.9684511 0.93355197
000010 f1 30 dd 11 cf ed 01 fd ea ee d2 f7 d7 d9 2f f9
       0.98590064 1.535562 0.81140494 1.2650938 0.689258 0.9510015 1.1254972 1.0905981 0.92482716 0.9597263 0.71543235 1.0382494 0.75905627 0.7765058 1.5268372 1.0556989
000020 de e6 f1 20 e1 00 e9 f5 0e 7f ea dd e7 f7 07 06
       0.82012975 0.88992804 0.98590064 1.3959656 0.8463041 1.1167724 0.91610235 1.0207998 1.2389194 2.2248201 0.92482716 0.81140494 0.8986528 1.0382494 1.177846 1.1691211
000030 f9 22 ef 0f e9 1b fa e6 09 e0 e2 06 ff f9 e9 4d
       1.0556989 1.4134151 0.9684511 1.2476442 0.91610235 1.3523417 1.0644237 0.88992804 1.1952955 0.8375793 0.85502887 1.1691211 1.1080476 1.0556989 0.91610235 1.7885808

tfl.pseudo_qconst9 i1 [64, 3, 3, 32]
000000 98 20 0d 0b 07 04 dd e0 11 e8 a5 ce 33 e2 e9 39
       -104 32 13 11 7 4 -35 -32 17 -24 -91 -50 51 -30 -23 57
000010 09 dd 19 29 f4 1e df ec b5 33 e2 03 db f8 02 bc
       9 -35 25 41 -12 30 -33 -20 -75 51 -30 3 -37 -8 2 -68
000020 ee fa ef 1a ed 0d 00 cf d4 e3 f9 10 1d cd 0b 32
       -18 -6 -17 26 -19 13 0 -49 -44 -29 -7 16 29 -51 11 50
000030 da ed e7 fb 10 e2 17 fc db 44 d8 f6 f2 e6 a8 ee
       -38 -19 -25 -5 16 -30 23 -4 -37 68 -40 -10 -14 -26 -88 -18
000040 38 8c 89 03 cb e0 f0 12 f8 03 32 d8 b5 21 07 0b
       56 -116 -119 3 -53 -32 -16 18 -8 3 50 -40 -75 33 7 11
000050 f5 c8 0f b8 32 1d bd 21 fc 27 21 b1 0b 40 0b c6
       -11 -56 15 -72 50 29 -67 33 -4 39 33 -79 11 64 11 -58
000060 d7 0c 03 29 43 0c c5 f2 1f f0 1e 28 f1 20 ee e6
       -41 12 3 41 67 12 -59 -14 31 -16 30 40 -15 32 -18 -26
000070 18 26 e9 d3 e0 ec 22 f0 21 26 15 1b c9 de f8 25
       24 38 -23 -45 -32 -20 34 -16 33 38 21 27 -55 -34 -8 37
000080 fc eb 13 11 ce c7 df 0c 03 0f cc 01 07 25 e4 18
       -4 -21 19 17 -50 -57 -33 12 3 15 -52 1 7 37 -28 24
000090 0d 0b dc f6 dd 15 06 0a 23 14 fc ff d1 05 38 fc
       13 11 -36 -10 -35 21 6 10 35 20 -4 -1 -47 5 56 -4
0000a0 2c 1a dd e1 d5 ef ff f7 19 19 0c ff e2 e6 17 b6
       44 26 -35 -31 -43 -17 -1 -9 25 25 12 -1 -30 -26 23 -74
0000b0 1f f0 b3 2a d1 de f9 fd e6 ee a6 09 d8 d9 2d ee
       31 -16 -77 42 -47 -34 -7 -3 -26 -18 -90 9 -40 -39 45 -18
0000c0 dc f8 e7 10 0e 22 ec f7 d5 ff 20 10 f9 fe ed fa
       -36 -8 -25 16 14 34 -20 -9 -43 -1 32 16 -7 -2 -19 -6
0000d0 53 0f e4 b6 17 d1 f7 06 1d ce 2e 1e 11 0b f3 1f
       83 15 -28 -74 23 -47 -9 6 29 -50 46 30 17 11 -13 31
0000e0 15 d1 31 2d f5 c2 f7 17 c1 e7 23 e1 08 de ff 09
       21 -47 49 45 -11 -62 -9 23 -63 -25 35 -31 8 -34 -1 9
0000f0 1e 0e 28 b0 44 de 15 f2 37 05 ef 0c f5 0a e8 1a
       30 14 40 -80 68 -34 21 -14 55 5 -17 12 -11 10 -24 26

tfl.pseudo_qconst10 i1 [32] scale=0.0066168 zero_point=111
000000 ff ec 7f 48 d6 55 ad 1e 99 06 04 57 cc d5 a3 24
       -0.7410816 -0.8668008 0.1058688 -0.2580552 -1.0123705 -0.1720368 -1.2836592 -0.5359608 -1.4159952 -0.694764 -0.7079976 -0.1588032 -1.0785384 -1.0189872 -1.3498272 -0.49626002
000010 20 2a 0a 62 28 bd 07 be 24 80 c0 e6 e5 31 e9 b0
       -0.5227272 -0.4565592 -0.6682968 -0.0860184 -0.4697928 -1.1777904 -0.6881472 -1.1711736 -0.49626002 -1.5814152 -1.15794 -0.9065016 -0.9131184 -0.4102416 -0.8866512 -1.2638088

tfl.pseudo_qconst11 i1 [32] scale=0.0012548999 zero_point=-128
000000 78 3f 6d 7f 35 3c 1e 65 2a 3b 39 2c 18 1f 2b 5f
       0.31121516 0.23968588 0.29741126 0.3199995 0.22713688 0.23592117 0.19827418 0.28737208 0.21333298 0.23466627 0.23215649 0.21584278 0.19074479 0.19952908 0.21458788 0.27984267
000010 78 31 1f 46 64 14 55 1c 41 14 3e 43 05 56 35 2a
       0.31121516 0.22211727 0.19952908 0.24847017 0.28611717 0.18572518 0.2672937 0.19576438 0.24219568 0.18572518 0.23843098 0.24470548 0.1669017 0.26854858 0.22713688 0.21333298

tfl.pseudo_qconst13 i1 [32, 3, 3, 32]
000000 e9 f1 1f 4b ee 0a 18 50 e4 30 00 0a 07 cd d5 fe
       -23 -15 31 75 -18 10 24 80 -28 48 0 10 7 -51 -43 -2
000010 f3 fa f0 22 e6 2d 0b 3f fb 1d 25 09 10 07 05 ef
       -13 -6 -16 34 -26 45 11 63 -5 29 37 9 16 7 5 -17
000020 f5 06 0d 2e e0 d7 d8 29 0e ec b6 fa 0d bb f0 da
       -11 6 13 46 -32 -41 -40 41 14 -20 -74 -6 13 -69 -16 -38
000030 db 29 f2 f6 e1 ec fa 1a 0f 23 eb 10 49 36 d0 08
       -37 41 -14 -10 -31 -20 -6 26 15 35 -21 16 73 54 -48 8
000040 17 d4 41 12 da cb ab 32 0e dd a4 12 25 cb dd dd
       23 -44 65 18 -38 -53 -85 50 14 -35 -92 18 37 -53 -35 -35
000050 c7 5c ec 15 d3 ee fc e2 de 1a bd e2 23 0b ee 1b
       -57 92 -20 21 -45 -18 -4 -30 -34 26 -67 -30 35 11 -18 27
000060 d4 f1 b0 25 1e d8 f2 26 00 9f d9 00 f5 c5 19 cb
       -44 -15 -80 37 30 -40 -14 38 0 -97 -39 0 -11 -59 25 -53
000070 ed e6 0a 4c 03 87 37 bf f9 f2 fc 3c 34 0a 26 eb
       -19 -26 10 76 3 -121 55 -65 -7 -14 -4 60 52 10 38 -21
000080 ef dc a4 f8 3a 20 f2 2b f9 c7 d2 f6 e6 f7 16 db
       -17 -36 -92 -8 58 32 -14 43 -7 -57 -46 -10 -26 -9 22 -37
000090 01 d3 2e 3d 0e 98 2c bb fd 24 cf 0c 06 0e 36 f0
       1 -45 46 61 14 -104 44 -69 -3 36 -49 12 6 14 54 -16
0000a0 09 bc be 00 63 47 04 59 f0 d6 e8 fe ba e5 47 2f
       9 -68 -66 0 99 71 4 89 -16 -42 -24 -2 -70 -27 71 47
0000b0 c9 04 13 00 dd e7 3e d7 de f2 c1 22 29 d8 20 f7
       -55 4 19 0 -35 -25 62 -41 -34 -14 -63 34 41 -40 32 -9
0000c0 e4 cc 0f e8 2c 10 24 12 df e6 de ee 10 a2 ff af
       -28 -52 15 -24 44 16 36 18 -33 -26 -34 -18 16 -94 -1 -81
0000d0 ea e2 fa 30 3c ef 1f e1 f0 fd c2 22 e0 e4 35 cc
       -22 -30 -6 48 60 -17 31 -31 -16 -3 -62 34 -32 -28 53 -52
0000e0 d7 14 fb f4 04 df 0e 07 0a bf ea 0a f9 a4 08 a0
       -41 20 -5 -12 4 -33 14 7 10 -65 -22 10 -7 -92 8 -96
0000f0 d0 c5 19 7c 3a eb ff 0b f5 0a e9 0d bd f7 43 ca
       -48 -59 25 124 58 -21 -1 11 -11 10 -23 13 -67 -9 67 -54

tfl.pseudo_qconst14 i1 [32] scale=0.006271318 zero_point=127
000000 31 80 fb e4 b3 f1 f5 cc 2e 07 6a 39 fd f8 a3 39
       -0.4891628 -1.5991861 -0.827814 -0.9720543 -1.2793489 -0.8905272 -0.8654419 -1.122566 -0.5079768 -0.7525582 -0.13169768 -0.43899226 -0.8152714 -0.84662795 -1.3796899 -0.43899226
000010 69 cb d0 ca e0 bd 3f 5d ee 3f ed e8 38 0a b5 d4
       -0.137969 -1.1288372 -1.0974807 -1.1351086 -0.9971396 -1.2166357 -0.40136436 -0.21322481 -0.9093411 -0.40136436 -0.91561246 -0.94696903 -0.4452636 -0.7337442 -1.2668062 -1.0723954

tfl.pseudo_qconst15 i1 [32] scale=0.001445244 zero_point=-128
000000 7f 54 0e 34 0f 22 39 4a 5f f6 f5 1e f3 07 0f 09
       0.36853722 0.30639172 0.20522465 0.2601439 0.20666988 0.23412952 0.26737013 0.2919393 0.3222894 0.17053878 0.16909355 0.22834854 0.16620305 0.19510794 0.20666988 0.19799842
000010 f6 19 6a fb 32 23 2b fe 34 fd 19 4b 1b 70 25 49
       0.17053878 0.22112232 0.3381871 0.17776501 0.2572534 0.23557477 0.24713671 0.18210074 0.2601439 0.1806555 0.22112232 0.29338452 0.2240128 0.34685856 0.23846525 0.29049402

tfl.pseudo_qconst17 i1 [32, 3, 3, 32]
000000 f8 f7 0f 23 22 95 f4 d9 e2 fe b9 ed fe 24 27 df
       -8 -9 15 35 34 -107 -12 -39 -30 -2 -71 -19 -2 36 39 -33
000010 eb d1 13 0f fb fb 30 15 12 16 30 de cc 20 ed 36
       -21 -47 19 15 -5 -5 48 21 18 22 48 -34 -52 32 -19 54
000020 04 dd 0a 2a eb 07 05 f6 fa cd d4 13 ec 18 05 0b
       4 -35 10 42 -21 7 5 -10 -6 -51 -44 19 -20 24 5 11
000030 f4 fb 1a 0f 0d ca 39 df ed 0e 24 f0 0b 21 fc 01
       -12 -5 26 15 13 -54 57 -33 -19 14 36 -16 11 33 -4 1
000040 d6 87 ee d0 e0 c9 fd d5 e7 d1 aa db c4 16 fb e9
       -42 -121 -18 -48 -32 -55 -3 -43 -25 -47 -86 -37 -60 22 -5 -23
000050 fe b7 0f 03 f9 d6 cf 06 92 f0 09 10 ed c5 ee b6
       -2 -73 15 3 -7 -42 -49 6 -110 -16 9 16 -19 -59 -18 -74
000060 fb 08 d0 da a1 eb 20 0e f4 16 f1 fa 1f ff eb 0e
       -5 8 -48 -38 -95 -21 32 14 -12 22 -15 -6 31 -1 -21 14
000070 21 14 1d ef d5 0d 19 11 a7 db 2e 4e 01 29 19 ce
       33 20 29 -17 -43 13 25 17 -89 -37 46 78 1 41 25 -50
000080 19 0c de 0c 5a 01 df 22 fa 02 e9 d5 da ef e8 e9
       25 12 -34 12 90 1 -33 34 -6 2 -23 -43 -38 -17 -24 -23
000090 f4 1f 21 f7 e2 04 14 81 81 e7 12 0d 25 02 03 40
       -12 31 33 -9 -30 4 20 -127 -127 -25 18 13 37 2 3 64
0000a0 3d ed d3 f7 cb fb c3 ff 25 d5 f0 1e fe 02 04 de
       61 -19 -45 -9 -53 -5 -61 -1 37 -43 -16 30 -2 2 4 -34
0000b0 02 9b 07 ed e6 12 f5 31 ae eb 12 10 e7 4f fa 2e
       2 -101 7 -19 -26 18 -11 49 -82 -21 18 16 -25 79 -6 46
0000c0 0c 1e 3c 1d fd 27 26 df 12 33 08 df 12 47 22 fc
       12 30 60 29 -3 39 38 -33 18 51 8 -33 18 71 34 -4
0000d0 ea d9 11 f0 07 d8 d4 f6 01 26 09 eb 3a 26 d4 1b
       -22 -39 17 -16 7 -40 -44 -10 1 38 9 -21 58 38 -44 27
0000e0 02 23 0f f7 a9 ed e3 d9 f8 f7 17 1e de 15 18 fd
       2 35 15 -9 -87 -19 -29 -39 -8 -9 23 30 -34 21 24 -3
0000f0 16 1a e5 fc ed e2 58 ea 17 f8 0e 0a 02 c7 c8 d5
       22 26 -27 -4 -19 -30 88 -22 23 -8 14 10 2 -57 -56 -43

tfl.pseudo_qconst18 i1 [32] scale=0.0062831743 zero_point=120
000000 56 0d 2f 7f 7d 18 c8 6a 7d 16 5a f3 6e ed dc 80
       -0.21362792 -0.6722996 -0.45867172 0.04398222 0.031415872 -0.6031847 -1.1058387 -0.08796444 0.031415872 -0.6157511 -0.18849523 -0.8356622 -0.062831745 -0.87336123 -0.9801752 -1.5582272
000010 d5 48 fc e4 3a 3e 29 66 6b e1 a0 52 2d 3b 4a 66
       -1.0241574 -0.30159235 -0.7791136 -0.92990977 -0.3895568 -0.3644241 -0.49637076 -0.11309714 -0.08168127 -0.9487593 -1.3571657 -0.23876062 -0.47123808 -0.38327363 -0.28902602 -0.11309714

tfl.pseudo_qconst19 i1 [32] scale=0.060117073 zero_point=-128
000000 26 9f a9 c0 dd b3 c8 c5 7f b3 9f c6 ae a1 98 e3
       9.979434 1.8636292 2.4648001 3.8474927 5.590888 3.0659707 4.328429 4.148078 15.329854 3.0659707 1.8636292 4.208195 2.7653854 1.9838635 1.4428098 5.95159
000010 b9 b3 96 c7 b7 93 46 3c a4 a3 a3 1d ac 0a 91 c5
       3.4266732 3.0659707 1.3225756 4.268312 3.306439 1.1422244 11.90318 11.30201 2.1642146 2.1040976 2.1040976 9.43838 2.6451511 8.296156 1.0219903 4.148078

tfl.pseudo_qconst21 i1 [32, 3, 3, 1]
000000 81 fc 7c ac fc 59 28 03 d6 fa cf e5 c3 ce cb 81
       -127 -4 124 -84 -4 89 40 3 -42 -6 -49 -27 -61 -50 -53 -127
000010 cf ad 7f 5e 10 06 03 cd 5a 5c d5 18 16 e9 e9 c1
       -49 -83 127 94 16 6 3 -51 90 92 -43 24 22 -23 -23 -63
000020 0d 85 d5 81 54 01 7f f9 85 2b a0 2c f8 fd 36 f8
       13 -123 -43 -127 84 1 127 -7 -123 43 -96 44 -8 -3 54 -8
000030 4a eb 6d 81 11 fd f0 17 50 08 fa 29 1d d3 81 02
       74 -21 109 -127 17 -3 -16 23 80 8 -6 41 29 -45 -127 2
000040 31 2f 30 fb 25 a6 cf 81 bb 4f d8 81 68 f6 f1 1a
       49 47 48 -5 37 -90 -49 -127 -69 79 -40 -127 104 -10 -15 26
000050 0b 1e dc 7f 14 57 52 0f 00 de d4 95 9c b7 d6 e9
       11 30 -36 127 20 87 82 15 0 -34 -44 -107 -100 -73 -42 -23
000060 7f 45 4f af ca 7f 7e 37 93 ab cf 1a 1d 29 5b c0
       127 69 79 -81 -54 127 126 55 -109 -85 -49 26 29 41 91 -64
000070 3f 81 aa 99 a5 ea e4 7f 15 eb cd 20 d0 7c 68 41
       63 -127 -86 -103 -91 -22 -28 127 21 -21 -51 32 -48 124 104 65
000080 7f cc 08 1d 28 39 03 60 18 81 d9 f3 5b fc 0a ac
       127 -52 8 29 40 57 3 96 24 -127 -39 -13 91 -4 10 -84
000090 6f a2 7f fe 0c bc eb ab d6 81 e0 55 4e dd a2 bb
       111 -94 127 -2 12 -68 -21 -85 -42 -127 -32 85 78 -35 -94 -69
0000a0 58 f2 fa 08 cd e3 f6 02 7f 5f 2e 81 7a 49 d6 2e
       88 -14 -6 8 -51 -29 -10 2 127 95 46 -127 122 73 -42 46
0000b0 35 90 46 09 7f 50 25 3f 59 f0 91 a4 a8 53 19 fa
       53 -112 70 9 127 80 37 63 89 -16 -111 -92 -88 83 25 -6
0000c0 81 d8 ed 0e fa 16 dc 81 1c be 3d 8b 0d b9 e1 e8
       -127 -40 -19 14 -6 22 -36 -127 28 -66 61 -117 13 -71 -31 -24
0000d0 19 17 9a 7f ac 35 87 23 ba e2 12 46 5c 0b 81 c1
       25 23 -102 127 -84 53 -121 35 -70 -30 18 70 92 11 -127 -63
0000e0 d3 7f f6 06 20 18 0e 05 e8 19 14 2b 0b 18 3e 7f
       -45 127 -10 6 32 24 14 5 -24 25 20 43 11 24 62 127
0000f0 31 26 34 ff 38 c8 00 7f 85 fe 48 bb b8 dc 12 42
       49 38 52 -1 56 -56 0 127 -123 -2 72 -69 -72 -36 18 66
