Model/20k.tflite (tflite, 26680 bytes, 3 tensors)

tfl.pseudo_qconst i1 [4, 256]
0	0x2c	44
1	0x1c	28
2	0xd9	-39
3	0xb6	-74
4	0x7d	125
5	0x12	18
6	0x2a	42
7	0x96	-106
8	0x58	88
9	0xee	-18
10	0x67	103
11	0xdf	-33
12	0x9d	-99
13	0xb2	-78
14	0x49	73
15	0x51	81
16	0x85	-123
17	0x4d	77
18	0x60	96
19	0x79	121
20	0xf5	-11
21	0x54	84
22	0x2c	44
23	0x68	104
24	0x7a	122
25	0x1d	29
26	0xe0	-32
27	0x78	120
28	0xd8	-40
29	0x09	9
30	0xab	-85
31	0x95	-107
32	0x9f	-97
33	0xf4	-12
34	0x48	72
35	0xe0	-32
36	0x24	36
37	0xae	-82
38	0x98	-104
39	0x8f	-113
40	0x57	87
41	0x36	54
42	0x47	71
43	0xae	-82
44	0x10	16
45	0x46	70
46	0xdb	-37
47	0xd9	-39
48	0xbe	-66
49	0x7e	126
50	0x82	-126
51	0x76	118
52	0x1f	31
53	0xf6	-10
54	0x81	-127
55	0xca	-54
56	0x67	103
57	0x16	22
58	0xcd	-51
59	0xd9	-39
60	0x34	52
61	0xe6	-26
62	0xa4	-92
63	0x9c	-100
64	0x84	-124
65	0x7f	127
66	0xad	-83
67	0x54	84
68	0xf6	-10
69	0xb9	-71
70	0xff	-1
71	0x8d	-115
72	0x8a	-118
73	0xa7	-89
74	0x89	-119
75	0xc0	-64
76	0x9a	-102
77	0xb8	-72
78	0x22	34
79	0x28	40
80	0x25	37
81	0x88	-120
82	0x53	83
83	0xa5	-91
84	0x46	70
85	0x8a	-118
86	0xb7	-73
87	0xb5	-75
88	0x65	101
89	0xb7	-73
90	0x89	-119
91	0x74	116
92	0xa1	-95
93	0x94	-108
94	0xd1	-47
95	0x44	68
96	0x09	9
97	0x36	54
98	0x66	102
99	0xeb	-21
100	0x10	16
101	0x0a	10
102	0xe4	-28
103	0xaa	-86
104	0xa8	-88
105	0x77	119
106	0xc2	-62
107	0xe1	-31
108	0x92	-110
109	0x92	-110
110	0xcc	-52
111	0xb3	-77
112	0xd1	-47
113	0xd3	-45
114	0xe7	-25
115	0xd0	-48
116	0x37	55
117	0x5d	93
118	0xa5	-91
119	0xc7	-57
120	0xef	-17
121	0xae	-82
122	0xf6	-10
123	0xa1	-95
124	0x0d	13
125	0x46	70
126	0xd6	-42
127	0x11	17
128	0x79	121
129	0xf1	-15
130	0x25	37
131	0x74	116
132	0x91	-111
133	0x26	38
134	0xa6	-90
135	0xdc	-36
136	0x90	-112
137	0x2a	42
138	0x16	22
139	0xcb	-53
140	0x1c	28
141	0x7b	123
142	0x24	36
143	0x9c	-100
144	0x72	114
145	0x20	32
146	0x74	116
147	0x71	113
148	0x17	23
149	0x2e	46
150	0xc5	-59
151	0x9b	-101
152	0xd2	-46
153	0x44	68
154	0xf1	-15
155	0x2b	43
156	0xf8	-8
157	0x8e	-114
158	0xac	-84
159	0xd9	-39
160	0x91	-111
161	0x2c	44
162	0x75	117
163	0x62	98
164	0xf8	-8
165	0x8d	-115
166	0xf8	-8
167	0x17	23
168	0xac	-84
169	0x2e	46
170	0xf7	-9
171	0x8b	-117
172	0xb4	-76
173	0x1b	27
174	0x86	-122
175	0x1d	29
176	0x38	56
177	0xe7	-25
178	0xd4	-44
179	0x45	69
180	0xf3	-13
181	0x82	-126
182	0xde	-34
183	0xa8	-88
184	0x20	32
185	0x52	82
186	0x86	-122
187	0xe3	-29
188	0x28	40
189	0xc4	-60
190	0x3c	60
191	0xc6	-58
192	0xb6	-74
193	0xc6	-58
194	0x2b	43
195	0x19	25
196	0xe6	-26
197	0x2b	43
198	0xea	-22
199	0xd7	-41
200	0x07	7
201	0xcb	-53
202	0xd1	-47
203	0x96	-106
204	0x15	21
205	0x0f	15
206	0x1f	31
207	0xeb	-21
208	0xff	-1
209	0x59	89
210	0x34	52
211	0xef	-17
212	0x8a	-118
213	0x8b	-117
214	0x54	84
215	0x33	51
216	0xad	-83
217	0x5e	94
218	0xc7	-57
219	0x70	112
220	0x99	-103
221	0x9b	-101
222	0x77	119
223	0x7d	125
224	0x77	119
225	0xe6	-26
226	0x19	25
227	0xab	-85
228	0xce	-50
229	0x8a	-118
230	0x29	41
231	0x06	6
232	0x7b	123
233	0xa7	-89
234	0xd2	-46
235	0xa9	-87
236	0x48	72
237	0xc2	-62
238	0x9b	-101
239	0x65	101
240	0xa4	-92
241	0xff	-1
242	0x5e	94
243	0x9a	-102
244	0x54	84
245	0xad	-83
246	0x14	20
247	0x46	70
248	0x84	-124
249	0xb0	-80
250	0x2a	42
251	0x56	86
252	0x23	35
253	0x0c	12
254	0x04	4
255	0xc0	-64

tfl.pseudo_qconst2 i1 [64, 3, 3, 34]
0	0x70	112
1	0x0e	14
2	0xde	-34
3	0x44	68
4	0x36	54
5	0x84	-124
6	0x1a	26
7	0x96	-106
8	0x0f	15
9	0x9a	-102
10	0x83	-125
11	0xdb	-37
12	0x4d	77
13	0x5c	92
14	0xae	-82
15	0xb3	-77
16	0x96	-106
17	0x13	19
18	0x1d	29
19	0x12	18
20	0xd5	-43
21	0x13	19
22	0x2a	42
23	0x07	7
24	0x7b	123
25	0xf7	-9
26	0xc7	-57
27	0x2a	42
28	0xea	-22
29	0x86	-122
30	0x2f	47
31	0x33	51
32	0xd7	-41
33	0xc1	-63
34	0x02	2
35	0x8b	-117
36	0x56	86
37	0xa4	-92
38	0x7b	123
39	0x7f	127
40	0xfa	-6
41	0xe4	-28
42	0xc3	-61
43	0x06	6
44	0x59	89
45	0xe9	-23
46	0x40	64
47	0x6c	108
48	0x8f	-113
49	0xcd	-51
50	0xe1	-31
51	0x23	35
52	0x25	37
53	0xaf	-81
54	0xc6	-58
55	0xbc	-68
56	0xbb	-69
57	0x21	33
58	0x3b	59
59	0xdc	-36
60	0x17	23
61	0x33	51
62	0xa7	-89
63	0x1a	26
64	0xcb	-53
65	0x16	22
66	0x5b	91
67	0x77	119
68	0x5c	92
69	0x1b	27
70	0xd0	-48
71	0xe5	-27
72	0x34	52
73	0x6a	106
74	0x15	21
75	0xe7	-25
76	0x00	0
77	0x35	53
78	0x55	85
79	0x5e	94
80	0x84	-124
81	0x85	-123
82	0x18	24
83	0x5c	92
84	0xac	-84
85	0xaa	-86
86	0xa6	-90
87	0xe3	-29
88	0xb3	-77
89	0xa1	-95
90	0x86	-122
91	0xef	-17
92	0x3b	59
93	0x22	34
94	0x6d	109
95	0xa4	-92
96	0xb0	-80
97	0xa0	-96
98	0x24	36
99	0x30	48
100	0x49	73
101	0x6a	106
102	0x58	88
103	0x8a	-118
104	0xa8	-88
105	0x13	19
106	0x5a	90
107	0x6c	108
108	0x0a	10
109	0x77	119
110	0x6f	111
111	0x91	-111
112	0x09	9
113	0x81	-127
114	0xfc	-4
115	0xf7	-9
116	0x7e	126
117	0xa0	-96
118	0x7b	123
119	0x0a	10
120	0x0f	15
121	0xc6	-58
122	0x46	70
123	0xa7	-89
124	0x29	41
125	0xda	-38
126	0x84	-124
127	0xfc	-4
128	0xd2	-46
129	0x8f	-113
130	0xcb	-53
131	0xad	-83
132	0xa3	-93
133	0xab	-85
134	0x20	32
135	0x77	119
136	0x81	-127
137	0x57	87
138	0xde	-34
139	0x62	98
140	0x1f	31
141	0x6f	111
142	0xf9	-7
143	0x3d	61
144	0x41	65
145	0x6a	106
146	0xdf	-33
147	0x5d	93
148	0x58	88
149	0x57	87
150	0xb3	-77
151	0xb5	-75
152	0xb6	-74
153	0x11	17
154	0x06	6
155	0x02	2
156	0xab	-85
157	0x33	51
158	0xd8	-40
159	0x2b	43
160	0x11	17
161	0x47	71
162	0x9f	-97
163	0xd4	-44
164	0x85	-123
165	0x13	19
166	0x04	4
167	0x51	81
168	0x9a	-102
169	0xea	-22
170	0x9c	-100
171	0xe1	-31
172	0x6b	107
173	0x8d	-115
174	0xd2	-46
175	0x2f	47
176	0x57	87
177	0x62	98
178	0x1b	27
179	0xa2	-94
180	0xef	-17
181	0x4f	79
182	0x8d	-115
183	0xeb	-21
184	0x54	84
185	0x7a	122
186	0xf0	-16
187	0x9e	-98
188	0x67	103
189	0x79	121
190	0xe5	-27
191	0xa8	-88
192	0xb3	-77
193	0x15	21
194	0x38	56
195	0x6e	110
196	0xc8	-56
197	0xaf	-81
198	0xb5	-75
199	0x9a	-102
200	0x88	-120
201	0xd9	-39
202	0x71	113
203	0x60	96
204	0x38	56
205	0xd3	-45
206	0x87	-121
207	0xb5	-75
208	0x2b	43
209	0xbf	-65
210	0x7f	127
211	0x67	103
212	0x1a	26
213	0x23	35
214	0x4a	74
215	0xbf	-65
216	0x1b	27
217	0x81	-127
218	0x30	48
219	0x28	40
220	0x3e	62
221	0x59	89
222	0x11	17
223	0x9d	-99
224	0x0b	11
225	0xe9	-23
226	0x78	120
227	0x63	99
228	0x63	99
229	0xf2	-14
230	0x0d	13
231	0x7a	122
232	0x78	120
233	0xde	-34
234	0x2b	43
235	0x22	34
236	0x52	82
237	0x57	87
238	0xa4	-92
239	0xba	-70
240	0x39	57
241	0x71	113
242	0x05	5
243	0xd2	-46
244	0xad	-83
245	0xc0	-64
246	0x15	21
247	0xcb	-53
248	0xd7	-41
249	0x31	49
250	0xc3	-61
251	0xda	-38
252	0x0f	15
253	0xb8	-72
254	0x0b	11
255	0x78	120

tfl.pseudo_qconst4 i1 [34, 3, 3, 1]
0	0x3e	62
1	0x9b	-101
2	0xcc	-52
3	0x62	98
4	0x81	-127
5	0x98	-104
6	0x82	-126
7	0xa1	-95
8	0xa2	-94
9	0xf9	-7
10	0x42	66
11	0xbe	-66
12	0x2f	47
13	0x81	-127
14	0x6d	109
15	0x73	115
16	0xe3	-29
17	0xf3	-13
18	0x3d	61
19	0xf5	-11
20	0x0c	12
21	0xbf	-65
22	0xbd	-67
23	0xb9	-71
24	0x81	-127
25	0x64	100
26	0x94	-108
27	0x7f	127
28	0xd2	-46
29	0xf3	-13
30	0x8c	-116
31	0x5f	95
32	0x8d	-115
33	0xa3	-93
34	0xcc	-52
35	0x5a	90
36	0x81	-127
37	0x2e	46
38	0xfa	-6
39	0x7d	125
40	0xe3	-29
41	0x4b	75
42	0x40	64
43	0xa9	-87
44	0x3e	62
45	0x5f	95
46	0xa9	-87
47	0xc2	-62
48	0x81	-127
49	0x98	-104
50	0x91	-111
51	0x16	22
52	0x88	-120
53	0xdc	-36
54	0x15	21
55	0x6b	107
56	0x7e	126
57	0xb5	-75
58	0xc7	-57
59	0xf5	-11
60	0x81	-127
61	0xa7	-89
62	0xbc	-68
63	0x37	55
64	0x3f	63
65	0x3e	62
66	0xc4	-60
67	0xd9	-39
68	0x34	52
69	0x8a	-118
70	0x92	-110
71	0x7f	127
72	0x47	71
73	0x1a	26
74	0xe4	-28
75	0x45	69
76	0x7f	127
77	0x7f	127
78	0x77	119
79	0xe5	-27
80	0x27	39
81	0xc4	-60
82	0xe2	-30
83	0x58	88
84	0xa8	-88
85	0x7f	127
86	0x97	-105
87	0x02	2
88	0x98	-104
89	0xc4	-60
90	0x08	8
91	0x99	-103
92	0x81	-127
93	0x59	89
94	0x7a	122
95	0xf7	-9
96	0x59	89
97	0xa2	-94
98	0x81	-127
99	0x13	19
100	0x00	0
101	0x31	49
102	0x81	-127
103	0x48	72
104	0x1c	28
105	0x49	73
106	0xf8	-8
107	0x71	113
108	0x38	56
109	0xb2	-78
110	0x65	101
111	0x9a	-102
112	0x7f	127
113	0x18	24
114	0x46	70
115	0x32	50
116	0x88	-120
117	0x12	18
118	0x18	24
119	0x7b	123
120	0xf4	-12
121	0x73	115
122	0x47	71
123	0x7f	127
124	0xb9	-71
125	0x21	33
126	0x81	-127
127	0xf6	-10
128	0x3f	63
129	0x8b	-117
130	0x16	22
131	0x96	-106
132	0x8b	-117
133	0x9e	-98
134	0xef	-17
135	0x7f	127
136	0x62	98
137	0xea	-22
138	0x50	80
139	0x25	37
140	0x3b	59
141	0x9e	-98
142	0xa2	-94
143	0x20	32
144	0x3d	61
145	0x6b	107
146	0x6f	111
147	0x79	121
148	0x63	99
149	0xe7	-25
150	0x1e	30
151	0x81	-127
152	0x8b	-117
153	0x94	-108
154	0xbb	-69
155	0x23	35
156	0x83	-125
157	0x0e	14
158	0x7f	127
159	0x29	41
160	0x9c	-100
161	0x8c	-116
162	0xb3	-77
163	0xb7	-73
164	0x26	38
165	0x90	-112
166	0x81	-127
167	0x21	33
168	0xa8	-88
169	0x5f	95
170	0xf1	-15
171	0x13	19
172	0x1b	27
173	0x23	35
174	0x32	50
175	0x3e	62
176	0x81	-127
177	0x02	2
178	0xb8	-72
179	0x37	55
180	0xf4	-12
181	0x33	51
182	0x09	9
183	0x41	65
184	0xaf	-81
185	0x81	-127
186	0x05	5
187	0xab	-85
188	0x51	81
189	0xe8	-24
190	0x7f	127
191	0xa8	-88
192	0x1e	30
193	0xe9	-23
194	0x82	-126
195	0x7e	126
196	0x55	85
197	0xd4	-44
198	0xdc	-36
199	0x7e	126
200	0x35	53
201	0x70	112
202	0x5a	90
203	0x6c	108
204	0xa8	-88
205	0x0e	14
206	0x81	-127
207	0x27	39
208	0x7f	127
209	0xfe	-2
210	0x9f	-97
211	0xfe	-2
212	0xd1	-47
213	0x10	16
214	0x3e	62
215	0x54	84
216	0x42	66
217	0xc3	-61
218	0x38	56
219	0x07	7
220	0xf8	-8
221	0xb0	-80
222	0x81	-127
223	0x61	97
224	0x16	22
225	0x23	35
226	0xc3	-61
227	0xf8	-8
228	0x0a	10
229	0xe0	-32
230	0xbf	-65
231	0x50	80
232	0xbf	-65
233	0x7f	127
234	0x9a	-102
235	0xa9	-87
236	0x52	82
237	0x41	65
238	0x69	105
239	0x99	-103
240	0x72	114
241	0xad	-83
242	0x81	-127
243	0x55	85
244	0xaf	-81
245	0x90	-112
246	0x7f	127
247	0x75	117
248	0xae	-82
249	0xeb	-21
250	0x91	-111
251	0x37	55
252	0xad	-83
253	0xc8	-56
254	0xf1	-15
255	0x7f	127
