Model/cnn.tflite (tflite, 608044 bytes, 28 tensors)

arith.constant f4 [64]
00000000: e2a4 69bf c534 f4be 72a4 6fbf 73f0 48bf
00000010: f657 43bf bf39 cdbe 85f8 8cbe 2c54 99bf
00000020: b400 a7bf 054d 88bf 474b 44bf d8f5 5cbf
00000030: 5693 8ebf 898c b3bf 541c 08bf dd84 8fbf
00000040: 2a2e a1bf cefe 17bf 7cff 09bf 380d 25bf
00000050: 19c1 e3be a89f 80bf f919 a2bf d4da 9cbf
00000060: 155e 9dbf 5c89 a1bf 96c3 5cbf eada 7bbf
00000070: 9813 71bf 944e a8be dedf 30bf d375 98bf
00000080: d0e7 0bbf d11a 98bf ba9c 8bbf 22b4 3fbf
00000090: 8849 8bbf be2e 83bf 95ad 66bf 3d78 89bf
000000a0: cec8 66bf a326 4abf 5d46 8cbf 58f6 afbe
000000b0: fc8b 8ebf 0a05 83bf 523f 5bbf 20be babe
000000c0: 8f8c 3dbf d8e9 a2bf 1eb4 43bf a488 8bbf
000000d0: 2458 21bf 270c 43bf 7329 8ebf 2c97 08bf
000000e0: a27a 0dbf d9c7 6cbf 7e19 90bf c423 4abf
000000f0: b085 78bf 9f72 54bf 5908 24bf 1324 35bf
-0.91267216 -0.4769651 -0.936103 -0.78491896 -0.7630609 -0.4008312 -0.27533355 -1.1978812
-1.304709 -1.0648504 -0.76677364 -0.8631263 -1.1138713 -1.4027263 -0.53168225 -1.1212422
-1.2592213 -0.59373176 -0.53905463 -0.64473295 -0.4448326 -1.0048723 -1.2664176 -1.2254281
-1.2294337 -1.2620044 -0.8623594 -0.9838091 -0.9417052 -0.3287245 -0.69091594 -1.1910957
-0.5465059 -1.1883184 -1.0907204 -0.74884236 -1.0881815 -1.024864 -0.90108615 -1.0739819
-0.90150154 -0.78965205 -1.0958973 -0.34367633 -1.113647 -1.0235913 -0.85643494 -0.3647318
-0.740426 -1.2727613 -0.7644671 -1.0901074 -0.63025117 -0.7619042 -1.1106399 -0.5335567
-0.5526525 -0.92492443 -1.125778 -0.78960824 -0.9707899 -0.829874 -0.6407524 -0.7075817

arith.constant1 f4 [64]
00000000: afa3 7cbf 8d3b d4bf 7a5c 57bf abaf 72bf
00000010: 2f50 c5bf ba8c 6dbf 95b4 ddbe 1cf7 94bf
00000020: ba5a 3cbf 868a bbbf 296d 89bf b05d 61bf
00000030: 4bad 04bf de71 96bd f5ae 42bf 26f1 00be
00000040: cbda e8be 244d 24bf b150 57bf fc9a 5ebf
00000050: ba3c 72bf 804d 34bf 990c 19bf 1d61 83bf
00000060: a823 85be 6aac 7fbf 84bf 24bf b7e2 94be
00000070: 8c91 2ebf f3bf 92bf 2ef7 dcbe 8985 02bf
00000080: 63f2 6abf 2689 b3bf e331 24bf 4e66 21bf
00000090: 16ea 3dbf 91e7 3abf 065e 95be 8c6d 59bf
000000a0: 2fe7 c8be bdb5 04c0 8297 acbf cf7b 36bf
000000b0: 462c 7ebf 5e78 4bbf 0ace 78bf 32a8 cebe
000000c0: 47ac b5bf 6fdd 9cbf e100 7bbf 77c0 5ebf
000000d0: fb57 8bbf 083c 32bf 56e8 5ebf 1c04 e0bf
000000e0: 6554 5fbf a818 92be 1f13 fbbe c952 a0be
000000f0: 7f81 bdbc 9a47 9bbf edb7 afbf feba 93bf
-0.9868726 -1.6580673 -0.84125483 -0.947993 -1.5415095 -0.92792857 -0.43301836 -1.1637912
-0.7357594 -1.4651649 -1.0736438 -0.8803358 -0.51826924 -0.07345937 -0.76048213 -0.12591991
-0.45479426 -0.6418021 -0.841075 -0.8695524 -0.9462391 -0.70430756 -0.5978485 -1.0264012
-0.26003766 -0.9987246 -0.6435473 -0.2907922 -0.68190837 -1.1464828 -0.43157333 -0.5098501
-0.917761 -1.4026229 -0.6413862 -0.6304673 -0.7418531 -0.7300959 -0.29173297 -0.8493278
-0.3923888 -2.0735924 -1.3483737 -0.71282667 -0.99286306 -0.7948054 -0.9718939 -0.40362698
-1.41932 -1.2255076 -0.98048216 -0.8701243 -1.0886225 -0.6962285 -0.87073267 -1.7501254
-0.8723815 -0.28534436 -0.49038026 -0.3131316 -0.023133038 -1.2131226 -1.3728005 -1.154144

arith.constant2 f4 [64]
00000000: 55cb d83d a98f 3bbf 2e68 49be 8664 bcbe
00000010: 1906 e5be 92a6 2bbf ba03 503e 8b64 74bf
00000020: e1eb 4dbf 9c09 98be ff23 80bf b391 e7bf
00000030: 17a1 86bf a478 eebe 68cb b2bf 0f14 1ebf
00000040: 8d2b 07bf 635a 25bf deba 203e baae fe3e
00000050: 4438 8abf f304 05bf e6c1 21bf c27b a9be
00000060: 9cf4 e1be e82a 8cbe 5d55 5ebe 9b2f 8b3e
00000070: e425 1ebf e14c e1bc 332d 13bf 2918 4cbe
00000080: 2b5b a8be 3e7a c8be 8488 a1bf 7690 a6be
00000090: 21e7 24bf f9c5 fdbe 5e4d d53d 2b39 53bf
000000a0: cbb9 eebd 7765 633e e378 60bf e03b 5bbf
000000b0: 685d 18bf a3ba aa3e e17e 30bf b8c9 863f
000000c0: 1b18 87be 459d 6fbf 08d3 6abe f530 6dbf
000000d0: a0e2 f8bd c4ec 02bf c7be 5bbf dac5 a0bf
000000e0: 2184 07bf e4c0 7abe 7878 703d 16eb 713c
000000f0: 3ff7 39bf 0f12 8bbe 12be 403f 0ccb 06be
0.105856575 -0.73266083 -0.19668648 -0.36795443 -0.44731215 -0.6705104 0.20313922 -0.95465916
-0.8043805 -0.2969483 -1.0010985 -1.8091339 -1.0517911 -0.46576416 -1.3968325 -0.61749357
-0.5280083 -0.64591044 0.15696284 0.4974268 -1.0798421 -0.51960677 -0.6318649 -0.33102232
-0.44131935 -0.27376485 -0.21712251 0.27184758 -0.61776567 -0.027502479 -0.57490844 -0.19931091
-0.32882056 -0.39155763 -1.2619786 -0.3253209 -0.64415175 -0.49565104 0.10415147 -0.82509106
-0.11656531 0.22206675 -0.8768446 -0.85638237 -0.59517527 0.33345518 -0.689436 1.053031
-0.2638558 -0.9359935 -0.22932065 -0.9265283 -0.121526 -0.51142526 -0.8583798 -1.256038
-0.5293599 -0.24487644 0.058708638 0.0147655215 -0.7264289 -0.27162215 0.75290024 -0.13163394

arith.constant3 f4 [64]
00000000: d5d4 4d3f 3589 29be cd9b 96bf 771e 4ebf
00000010: c9a7 3cbf bf1a 0fbe 2086 41be 34cd 4e3e
00000020: 79ed 9dbf 8575 8d3d fc96 06bf f820 24bf
00000030: 8297 bbbe 0479 983e 41c6 bfbf f248 62be
00000040: 518c a63d 7b05 35bf 00e7 56bd cd3d 713d
00000050: 8eac b63f b658 cabd ddd2 ad3e 5f22 d8be
00000060: 8d8a 91be deab 263f 9b7c b4bf 3216 35bf
00000070: 0a4b b3bf 191b 49bf 1c08 74bf 3f03 e6bf
00000080: 1034 96bf 3a2e 72be 1da6 49bf be35 bebd
00000090: 9742 f73e d736 4c3e 749f 12be 3c46 c9bf
000000a0: 0dcf a63e 4756 2cbf ba03 16be aefb 023f
000000b0: 48de a3be 90c9 9f3e dc3d 8ebe 30b5 b93d
000000c0: b67e 30bf a624 ffbe b694 90bf 5445 80bd
000000d0: db7f a0be a88f 113e ce09 dc3e cdda ddbd
000000e0: f763 61be 3d29 493d 074f 0e3e e7d5 01bf
000000f0: 8523 54be bd34 103e 67e2 96bf 6c8d ce3e
0.8040288 -0.16556247 -1.1766297 -0.80515236 -0.7369352 -0.13975047 -0.18898821 0.20195466
-1.2338096 0.06907181 -0.52574134 -0.64112806 -0.3663903 0.29779828 -1.4982377 -0.22098139
0.08132232 -0.7071149 -0.052466393 0.05889683 1.427141 -0.098802015 0.33949938 -0.42213723
-0.28426018 0.65106 -1.4100527 -0.7073699 -1.4007275 -0.7855697 -0.95324874 -1.7969741
-1.1734638 -0.23650447 -0.78769094 -0.09287594 0.48292992 0.19942795 -0.14318639 -1.5724559
0.32579842 -0.6731915 -0.14649859 0.5116528 -0.32005525 0.31208467 -0.2778157 0.09067762
-0.68943346 -0.49832648 -1.1295383 -0.06263223 -0.31347546 0.14214957 0.4297623 -0.108327486
-0.2201079 0.049111594 0.13897334 -0.50717014 -0.20716675 0.14082618 -1.1787843 0.4034227

arith.constant4 f4 [32]
00000000: 9d35 333e 145f 383f c913 e83e 6ec5 99bd
00000010: cb67 62bf 9462 33bf 25a4 82be e5e5 f73e
00000020: 00df cfbd 75fd a4bd 3eaf 60bd 6327 a8be
00000030: 8445 90be 2638 3a3e 66d7 393f 157d 23be
00000040: d014 df3e c607 723e 7384 343f e2d2 793e
00000050: dd5b 60bf 3eb8 0bbf 62e3 c93e e8d4 93be
00000060: 9971 003c 9029 39bf 51b1 85be 2d52 573e
00000070: ba49 87bd 5493 45bf d691 02be bef9 523e
0.1750092 0.7202008 0.45327595 -0.0750836 -0.88439626 -0.70072293 -0.25515857 0.48417583
-0.10149956 -0.080561556 -0.054854624 -0.3284255 -0.28178036 0.18185481 0.72594297 -0.15965684
0.43570566 0.23635778 0.705146 0.24396852 -0.8764017 -0.54578006 0.39431292 -0.28873372
0.007839584 -0.72329044 -0.26111844 0.21027441 -0.06605859 -0.7717793 -0.12750944 0.20603082

arith.constant5 f4 [64, 3, 3, 64]
00000000: 5048 abbe 8f32 a9be 151b 963d 51ab 473f
00000010: 2397 47be 912b e73e 7ece 90be 99f2 17bf
00000020: bbac 1a3f 7dc6 ca3e 4962 083e a3d3 48bf
00000030: edf1 453e 5ac8 a0be f969 3abf bc59 033d
00000040: 4cdf d4be 15f3 a8bf 55a0 f2be 10f1 123f
00000050: 7375 ad3e 8504 e83e c68d 16bd 51da abbf
00000060: dbf6 8dbe 0876 e13c 05c3 4b3e 58da 0f3f
00000070: 7a3f 9cbf e496 fb3e da87 a93f 8462 0cbf
00000080: 95dc 20bf 6168 efbd 782e 60be e763 4e3d
00000090: 37d5 2d3e a5cb 40bf 7113 2abf f884 39be
000000a0: b7c4 a33e 456e 583f ab54 58be ba88 a4bd
000000b0: b315 ea3b a068 d53d ed10 6ebd 62fb 54bf
000000c0: 3888 063f 1361 c9bf 9088 93bc 0699 68bf
000000d0: 5f44 e83e e30d 96be 46b4 343f 9953 52bf
000000e0: 405a 7f3f 14e6 b53f 873a f43e 6f3b a73e
000000f0: 4188 2a3e 0b6c d7bd 9c66 413f 170e a93e
00000100: 00b4 01bf 3bf2 473e 3c1f 143c e281 033f
00000110: 711a c53e 2ea4 abbf 607b 52be ebd0 6abd
00000120: cb1e 8bbe d9c7 52be 600e a5bf 9019 863e
00000130: fd62 343e 4778 6b3f e005 c83e 4dbb 183d
00000140: cd98 283f 8a00 3bbe 97b6 d8be 19ba 243f
00000150: edde 6c3e c294 c7bc 3661 9dbc cc3a ea3e
00000160: 4883 78bf 5e76 39bd 3cd7 9bbe e028 5abe
00000170: 3a28 7cbf 111a 1ebf 5cc3 be3e 244c 32bf
00000180: 6c41 ff3e c218 15bd 8b72 bfbe 50f2 963e
00000190: 147a 1e3d 1afd c53e 3686 dfbe 3aa6 ba3e
000001a0: 830f 0f3e 9a95 53bf e456 8abf 481f 74bc
000001b0: 7ef6 263f d72d 093f f8ca 813d 7c50 2c3f
000001c0: 405b 39bd 2b1b d93e aee1 e1be 39ba 563e
000001d0: bb1c 89be be7f 76be f009 7abe 9459 933e
000001e0: cbcd c3be 03e5 4abf b352 893e f5d1 5cbe
000001f0: 5735 cc3e 4c10 8ebe 906e 1cbf 11d9 a73e
00000200: de35 4abe fe84 f03d d68c 393f 6635 cabd
00000210: 427a 11bc 7193 dd3e 5ed9 663f 5098 113f
00000220: a49c 04bf 6458 d7bd 30e4 813d d5b4 823e
00000230: 9336 c93d e25b 93be b472 603e e60c c43e
00000240: 5ccc 02bf 22da a53c 882e 1f3f a8c7 213f
00000250: 0e06 b43e 0672 093f be8e 10be a140 503f
00000260: 0b71 833d bc35 053e 2e08 a7bf 6e72 933d
00000270: 9471 263f 33ae 9cbf a576 2d3f 7d27 f8bd
00000280: da3a 0a3f c19c 95bf f47e c9bd 9598 673f
00000290: 5802 0dbe 2e12 3bbf de62 013f 331b a9be
000002a0: 3825 89be f35b 913e c156 9dbe 07c8 c6bd
000002b0: bc8e 8b3e 69fb bdbf be08 96bf 9121 8fbf
000002c0: f343 5c3f 9163 02bf d0f8 b33e 1bdd 223f
000002d0: 6dfc 193e 2478 94be 4c4e 31be 8778 79bc
000002e0: 7327 3c3e e771 17bf 0cbc 3fbe 3465 b53e
000002f0: 5b54 9f3a 2ae9 9ebe 46df 0abe e243 2f3f
00000300: e988 8dbe 61ec 223f 9131 bd3d 1ed1 92be
00000310: 7304 453f f20f 7abf ad96 c13c dc0e 5c3f
00000320: 1760 993e ebd4 a13c 4dc6 1c3e 1fb6 033f
00000330: 8b44 a3bd 270c 11bf dec9 e83e 961c 173f
00000340: 9556 a63e ebe9 9ebe 2f04 97be f643 303e
00000350: f5ea 863e f699 e0be 7ca0 4bbf 1d99 e6be
00000360: 6ef6 babe fe42 d73e 237c 15bf 0480 50bf
00000370: f4c7 043f d087 45be 5cce 253e d86a 083f
00000380: 7a10 813f 2ff5 e5bc 03fe 5fbf bf23 e13e
00000390: 44c4 c9bc f466 ec3d 4c6f f73d bce1 0ebf
000003a0: 314b 723f 572c 513e 00cb 1f3f 6ea2 b03f
000003b0: 9a2c f4be 3465 8b3e 0e89 3cbf 4bb3 acbe
000003c0: e0b0 5bbe e861 9c3e a3e2 18bf 8f1d 09be
000003d0: e7e2 143f 81e5 d4be 39e1 c2be eb83 65bf
000003e0: becc 2dbd bfd9 5dbe 11c4 933d 2694 123e
000003f0: c177 f03e 72cd 033f b68f 23bf c0e1 173f
-0.33453608 -0.33046386 0.07329384 0.77995783 -0.19491248 0.45150426 -0.2828254 -0.5935455
0.60419816 0.3960456 0.13318743 -0.7844793 0.19330569 -0.31402856 -0.7281795 0.032068
-0.41576612 -1.3199183 -0.4738795 0.5739908 0.3387867 0.45315948 -0.0367563 -1.3426
-0.27727398 0.027522102 0.19898613 0.5619254 -1.2206872 0.49138558 1.3244584 -0.5483782
-0.6283658 -0.116898306 -0.21892726 0.050388243 0.16975866 -0.75310737 -0.66435915 -0.1811713
0.3198602 0.8454326 -0.21126048 -0.08033891 0.0071437 0.10420346 -0.05812161 -0.8319608
0.52551603 -1.573275 -0.018009454 -0.90858495 0.45364663 -0.2930747 0.70587575 -0.8215881
0.99747086 1.4210839 0.47700903 0.32662532 0.16653539 -0.105186544 0.75547194 0.33018562
-0.50665283 0.19525997 0.00904065 0.5137006 0.38496736 -1.3409479 -0.20554876 -0.057328146
-0.2717193 -0.20584048 -1.2895012 0.26191378 0.17615886 0.91980404 0.39066982 0.037288
0.65858155 -0.18261924 -0.42326805 0.6434646 0.23131914 -0.024362925 -0.019211393 0.45747983
-0.9707532 -0.0452789 -0.30437648 -0.21304655 -0.9849888 -0.61758524 0.37258422 -0.6964743
0.498546 -0.036400564 -0.37392077 0.29481745 0.03869064 0.38669664 -0.43657082 0.36454946
0.13970761 -0.8265015 -1.0807767 -0.014900036 0.6521987 0.5358557 0.06337541 0.6731031
-0.04525304 0.4240354 -0.44117492 0.20969476 -0.26779732 -0.24072167 -0.24417853 0.2877928
-0.38242945 -0.79255694 0.26820907 -0.21564467 0.39884445 -0.2774681 -0.61106205 0.32782796
-0.19747111 0.11744116 0.72480524 -0.09873466 -0.008879246 0.4327655 0.90175426 0.56873035
-0.51801515 -0.10514906 0.063423514 0.2552859 0.09824862 -0.2878104 0.21918756 0.3829109
-0.5109308 0.020245615 0.62180376 0.63195276 0.3516087 0.5368961 -0.14116952 0.81348616
0.064180456 0.1300878 -1.3049371 0.0719956 0.65017056 -1.2240661 0.6775916 -0.12116907
0.5399605 -1.1688462 -0.098386675 0.90467197 -0.13770425 -0.73074615 0.50541484 -0.33028564
-0.26786208 0.28390464 -0.3073025 -0.09706121 0.27257335 -1.4842349 -1.1721418 -1.1182119
0.8604118 -0.50933176 0.35150766 0.6361863 0.15037699 -0.2899791 -0.17315024 -0.01522649
0.18374424 -0.59158176 -0.18724078 0.35428774 0.0012155877 -0.31037265 -0.13561735 0.68462956
-0.27643517 0.63641936 0.0923797 -0.2867517 0.76959914 -0.9768058 0.023631418 0.85960174
0.29956123 0.019754848 0.1531002 0.5144977 -0.07972058 -0.5665917 0.45466512 0.59027994
0.32487932 -0.3103784 -0.2949538 0.17213425 0.26351133 -0.43867463 -0.79541755 -0.4503869
-0.36516136 0.42043298 -0.5839254 -0.81445336 0.51867604 -0.1929009 0.16192001 0.5328803
1.0083153 -0.028071014 -0.87496966 0.43972585 -0.02462972 0.11543074 0.12081775 -0.55813193
0.94645983 0.2042707 0.6241913 1.379957 -0.47690278 0.2722565 -0.7364663 -0.3373054
-0.21454191 0.30543447 -0.5972082 -0.13390182 0.58158726 -0.41581348 -0.38062456 -0.89654416
-0.042431585 -0.21665095 0.07215131 0.14314327 0.46966365 0.5148536 -0.6389116 0.5932884

arith.constant6 f4 [64, 3, 3, 64]
00000000: b4a6 603e 8524 3cbe 0391 3a3f da4d 073f
00000010: ce3e af3e da94 0ebf 4fc7 99bf 7bb6 1d3f
00000020: 9eb5 8a3e 6c95 c2be 8b48 103f 1360 5fbb
00000030: 818a bbbe 7dcd 26be b52c 09bf 3ab0 3bbf
00000040: 94ad 893e 90c0 9fbe fbe2 f9bd 97b8 c33e
00000050: 4e27 90be 30e1 0dbf 493d 8dbe d341 e73e
00000060: 4da3 ffbe b9d9 29bd 526b c0be ed02 10bf
00000070: 49db 62bd c3f6 03bc 53a4 2dbf 5d26 d6be
00000080: 94da 67bf a40d 6f3e 2fff dbbe 55d4 40be
00000090: b24b 8b3e dccf 773f 89f4 43bf 5ad2 79be
000000a0: fc8d d8be 1c93 83be 1e11 5b3f 9879 aabc
000000b0: 00d7 a0bd 0697 51be 2534 e33d 22b8 04bf
000000c0: 6d60 4fbf e2bf c83d 89fb c5be 49a9 c6bf
000000d0: 75c1 6c3a 4854 2a3f a883 ed3c a1c8 98bd
000000e0: 1ef5 d7be 42df 18bc 433d 1a3e af5e 0c3f
000000f0: 6341 703f 26a1 44be 076f 5f3e 7e14 40be
00000100: e000 bcbe 3e31 c2bd afab b33d 3372 b73e
00000110: c29b b6be 8c84 2abe 5e37 e2be fa73 d23d
00000120: 7b1e 5ebf c7df 61bf c104 603f 7698 c2bc
00000130: f1f3 00bf 83aa 44bf 8300 ccbe a990 ad3c
00000140: 8748 aabe 9532 c4be 76ba 40be 4a2e 9b3e
00000150: 5375 30bc 3f9a 0ebf 260b a9be fb47 193f
00000160: 1b29 da3e 152e 35bf e59b ef3e 686e f6bd
00000170: 0ddd 73be 7dbb b4be 1a46 bbbe 264e 0f3f
00000180: 7335 61be 2c3c 173f 1364 11bd ce19 a1bd
00000190: 2b98 af3e 2983 f3be 2511 6bbe 9ffa 8e3e
000001a0: bf2e bebe 722b 1cbe 1f15 92bd 84cf 503f
000001b0: cd79 4e3f 9fc1 de3e 3775 033f 6b3a c3be
000001c0: b4df f3bd fb95 043d 951a 0e3f b299 0ebd
000001d0: 74fb a1bf 8c25 99bd fd4a fdbe 683a b8be
000001e0: 8991 0a3e 2b6d d6be 938a 273f 8aed db3c
000001f0: 2eb9 08bf 727b c13e 3677 2d3f 815a c83e
00000200: 6ec7 40bf b7c8 a5be 6ccd b8be e9f2 d2bd
00000210: 04d0 543f 668b 87be 411c 933e 50b2 f23e
00000220: 04a0 abbe 6a0c 36bc 3a54 b03f 4423 8dbe
00000230: 9742 07bf 1d19 9cbe c34e c93e a3dd f33e
00000240: bc4e 223d 3fc4 143e 9ade 993d fc1f 923e
00000250: 3eb4 44be ef1d bebe 6d06 a23e 18f1 0fbd
00000260: b822 733e 38ff 09bf e80a ad3d 855d 793f
00000270: d582 1bbf 65d1 be3d 1292 dabe b478 123f
00000280: 23f2 833e 6810 7dbd 06b0 34bf cd2b f9be
00000290: fdd1 79bf 5adf 00bf 308e 80bf 0bb5 8cbc
000002a0: 31d0 88bf e0d6 4a3e f6b5 083f e6c2 0c3f
000002b0: 2d43 b63e ac4a b6be b6ce f2bf fdc2 4ebe
000002c0: 03a0 cfbe 9d4e 523f 5f3f d53e 6043 263f
000002d0: a0c9 9f3e 0433 9f3d c192 bfbe 93e4 ab3e
000002e0: 08ff c8bf 083c c4be 0d2e ce3e 0132 32bd
000002f0: 5e11 043e 8974 84bc dba8 103f 1306 e7bd
00000300: 1b55 af3e a050 f4be 2999 0d3e f28b 17bf
00000310: 2864 5ebf 82e0 1cbe eb8b 843f e1fa 283f
00000320: 9eab 0bbf 08da a3be d76d 9e3e d5be a4bc
00000330: a135 45bf 6395 973e e238 adbd fab4 e63e
00000340: 348c 8e3f 65a5 47bb 44bf 91bc 745d d43e
00000350: d0c5 6abf 540c 133e 5ea7 c8be 3393 223e
00000360: 797f 2f3f e942 b6be 907f d03e 4c53 0ebf
00000370: e79a c8be fd55 29bf 0684 6d3f 1966 c03e
00000380: eda6 ffbd 70e4 00bf 30b8 103f 9eb5 97be
00000390: 79cf e8bf a782 c2be f403 9ebe 28b6 6b3f
000003a0: 92e0 05bf 9b2c 203d 3d86 343d c1d8 503e
000003b0: 7e12 f93d b225 99bd c7be 60bf 3169 e1be
000003c0: a71b 793d 12b7 493e 1c19 e9be 7349 d6be
000003d0: d153 60bf 2db5 bf3e c4c5 c83e b8b2 07bf
000003e0: 646e 40bf 226a a9bf 2579 653e aa1d a9be
000003f0: 65f9 953e cf22 0c3f b9f3 a53e 3fcd 20be
0.21938592 -0.18373306 0.7287752 0.5285317 0.34227604 -0.5569588 -1.2013949 0.6160657
0.27091688 -0.38004625 0.5636069 -0.0034084364 -0.36629108 -0.16289325 -0.5358384 -0.73315775
0.26890242 -0.312016 -0.12201496 0.38226768 -0.28154987 -0.55421734 -0.2758582 0.45167407
-0.49929276 -0.041467402 -0.3758188 -0.56254464 -0.055384908 -0.008054438 -0.67828864 -0.41826144
-0.905679 0.23345047 -0.42968127 -0.18830998 0.27206188 0.96801543 -0.76545006 -0.24396649
-0.42295825 -0.25698173 0.85572994 -0.020809934 -0.07853508 -0.20467767 0.1109393 -0.51843464
-0.8100651 0.09802224 -0.3866847 -1.5520412 0.0009031513 0.66534853 0.028993443 -0.07460142
-0.42179197 -0.009330573 0.15062432 0.54831976 0.9384977 -0.19202098 0.21819697 -0.18757817
-0.36719418 -0.094820485 0.087729804 0.35829315 -0.3566571 -0.16652125 -0.44182867 0.10276027
-0.8676526 -0.8823208 0.87507254 -0.02375434 -0.50372225 -0.7682268 -0.3984414 0.021187143
-0.3325846 -0.3831984 -0.18821129 0.30308753 -0.01077016 -0.5570411 -0.33016318 0.5987546
0.42609486 -0.7077344 0.46798626 -0.12032777 -0.23814793 -0.35299292 -0.3657692 0.5597862
-0.21993046 0.5907619 -0.03549583 -0.0786625 0.34295782 -0.47561005 -0.22955759 0.27925584
-0.3714504 -0.15250948 -0.07132935 0.81566644 0.80654603 0.43507096 0.5135073 -0.38130507
-0.11907902 0.032369595 0.5550931 -0.034814544 -1.2654862 -0.074778646 -0.49471274 -0.3598206
0.1353208 -0.41880164 0.6544582 0.026846666 -0.5340756 0.37789494 0.67760026 0.3913155
-0.75304306 -0.32379696 -0.36094224 -0.10300238 0.83129907 -0.2647354 0.28732494 0.47401667
-0.3352052 -0.011111358 1.3775704 -0.27565968 -0.52835983 -0.3048791 0.39317903 0.47630033
0.03962587 0.14527987 0.07513161 0.28540027 -0.19209382 -0.37132213 0.31645527 -0.035142034
0.23743713 -0.5390506 0.08449346 0.97408324 -0.6074651 0.093172826 -0.42689568 0.5721543
0.25770673 -0.061783224 -0.7058109 -0.4866623 -0.9758604 -0.5034081 -1.0043392 -0.017176172
-1.0688535 0.19808531 0.5340265 0.5498489 0.35598126 -0.35603845 -1.8969333 -0.2019157
-0.40551767 0.82151204 0.4164991 0.64946556 0.31208515 0.07773402 -0.37416652 0.33572826
-1.5702829 -0.3832705 0.4026951 -0.04350472 0.1289725 -0.01616885 0.56507653 -0.112804554
0.34244618 -0.47717762 0.13827957 -0.59197915 -0.86871576 -0.15320018 1.03552 0.6600781
-0.5455874 -0.32002282 0.30943176 -0.020110527 -0.77034956 0.2960616 -0.08458115 0.4505995
1.1136537 -0.0030463573 -0.017791398 0.4147755 -0.9170809 0.14360172 -0.3919019 0.15876465
0.6855388 -0.35597923 0.40722322 -0.5559585 -0.3918068 -0.6614683 0.92779577 0.37577894
-0.124830104 -0.5034857 0.5653105 -0.2963075 -1.8188316 -0.37990305 -0.3086239 0.92074823
-0.5229579 0.03910504 0.044073332 0.20395185 0.1216173 -0.07477893 -0.87791103 -0.44025567
0.060817387 0.19698742 -0.4552697 -0.41852912 -0.87627894 0.37442914 0.39213383 -0.5300708
-0.7516844 -1.3235514 0.22409494 -0.33030444 0.29291835 0.54740614 0.32412508 -0.15703295

arith.constant7 f4 [64, 3, 3, 64]
00000000: 4663 663f 8c69 23bf 1b3c 14bf fa15 873f
00000010: 3728 6dbe dea0 3abf d31f f73e 76d9 cdbe
00000020: 6378 f23d 9b55 8b3f 898a 36be fa42 9ebe
00000030: 5b14 943e 08e8 e13e b994 dfbe 1879 94bc
00000040: e45e 0ebf 6ffc dd3e 626c dc3e d3e1 dcbf
00000050: 5d4f 033e 73b2 d7bd 0b8f 233e 57fb 85bd
00000060: ae3c 20be 9a6c 243f 5b82 973d ee28 00be
00000070: b4ea 1c3e b0e8 f6be 3962 13bf fbbd 823e
00000080: 988b 063f e8d3 5f3f db7a 83bd a532 4cbe
00000090: f8e8 8dbf 70b0 01bd 70a1 e3be d788 e03e
000000a0: 4a30 85be 87c6 0cbe 8d1e e13e 11fe 12bf
000000b0: b44a c43c 219b 00bf 9a95 30be 08a5 893e
000000c0: 7385 e13c 3c2e 2dbe 9dbe 3cbf 7e4f 49bf
000000d0: 9b86 b4be 9c2d c73e 7087 bd3e d7bc 60be
000000e0: b7de 2d3e 3f9d aebd 7c07 81bf 5d30 ea3e
000000f0: eae9 9b3f 1858 a6be 0e31 a9bf df7c ac3e
00000100: 2378 4dbe 7f86 adbe 1322 3fbe e0a4 3fbe
00000110: 1ac0 98be fa55 0dbe 23ad debc ca5c 37bf
00000120: 33c4 f4bd 9b22 203f 99b1 00bf 8a97 cabe
00000130: 14b5 efbe d21d 8d3e 20ee 8ebe 5e80 083e
00000140: 333d 4e3e 531b 89be 3f92 fabe 4e40 08bf
00000150: 1e21 acbe 1102 06bd 4c70 0ebf d390 913e
00000160: d024 97be 967f 8a3c 51fd 093e ed89 7cbe
00000170: ab03 18bf 7794 d0be c68a 3ebf fbdf c63e
00000180: 8a83 41bd 34b3 ba3e ff8f d0be f415 7a3e
00000190: d08b 80bf 2cbb 5bbe 026a 39be 8256 aa3e
000001a0: 4c18 8dbe 4bf2 f93d f150 0a3f e205 86bf
000001b0: 9d5d 04bf 2ca6 46bf da95 b43e 388a 7ebe
000001c0: dd37 cdbd 8eb6 ca3d 1788 c2be 598f 2fbf
000001d0: 34cd dc3e 0d61 4c3d 8afe e93e ea46 913b
000001e0: 0f5a 763d 95ee 60bf 1f71 07bf 4ae2 60bf
000001f0: fcdc 9d3d 49b7 63bf 3cd1 0cbf d9e1 443e
00000200: b762 d6bd 4c32 74bf 40be a03f 37e9 52be
00000210: d228 873e 2a87 4b3e 089a a9be 9170 e13c
00000220: c621 40bf 0575 003f 0b0c aa3d 5825 50bf
00000230: 5b9d 903e c582 893e ffb8 543d 5520 aebe
00000240: f1bd dabe c2df 47bf 3fa9 49bf dced 5dbf
00000250: e8a4 ce3e 31c6 bfbe 0675 52be 2310 733e
00000260: 3f78 6ebe 92b1 123f 8a48 803e 23b1 983c
00000270: 4d4c 9d3e 6084 dcbf 8cb9 4fbe c2a8 b0be
00000280: 3410 07bf 2c52 77bf 63c7 56bf 389a 0ebb
00000290: 5769 40bf b39b 10bf db40 e13e 804b 7d3e
000002a0: 9dfe 873e 6fbb 223f cc7b bcbe 9fd2 9cbe
000002b0: 4935 0b3e c9a3 00bf 6d20 b03f fe1a 0e3e
000002c0: 0c71 203b 5202 90be 70e2 27bf affe 4abf
000002d0: d1e8 553e c02c 963e ead4 d73d 47a7 ed3e
000002e0: 07de 70bf 4ad2 b7be 6e3f 1abe ba2c 34bf
000002f0: 9cda 0dbf d2d1 6dbe 96ca 74be 3807 123f
00000300: f7fc 92be 4609 4e3f 421f c0be 877b dabc
00000310: 2f8e c93e ae62 fbbe 36b3 373e 1468 633e
00000320: 0eb0 13bf 3ee6 a8be 7769 f7be ec3a b83e
00000330: 8fe2 83be bc2e e1bc b763 a0bd c3bc 0fbf
00000340: 3a9a 90bf 1de1 cdbd af77 16bf 1848 62be
00000350: d342 2ebf 4361 443f cffb 83bf d7ed fcbe
00000360: 304e 67bf c602 813e 0daa ee3e ed58 593e
00000370: 23c6 3abf 9636 f9be 6520 fbbe d0fe 30be
00000380: 9d92 2abf 9a72 983e 5fdb d6bd a37a 18bf
00000390: f0b8 0bbc b4a2 11bf 41f9 61bf d149 0fbf
000003a0: ec7c 25be f6e1 f1bd 3920 2fbe 7f51 a73e
000003b0: 74f7 83bf 2e27 7a3e ac07 1a3f f980 90bd
000003c0: fff4 b2bd ec2d c2be 0f46 263f a42b 21bf
000003d0: 6911 153e 8805 94be 7b1a 02be 0e28 40be
000003e0: c7ea 2d3e ea07 c23d e68e 0bbf 4bb6 80bf
000003f0: 04eb 343f 9963 253f c455 74bf ee40 67be
0.8999523 -0.63832927 -0.57904214 1.0553582 -0.23159872 -0.72901714 0.48266467 -0.40204972
0.11839368 1.08855 -0.17826284 -0.30910474 0.2892178 0.44122338 -0.43668154 -0.018124148
-0.5561354 0.43356654 0.4305144 -1.7256416 0.12823243 -0.10532083 0.15972535 -0.0654208
-0.15648147 0.6422821 0.0739791 -0.12515613 0.15323907 -0.482244 -0.5757175 0.2553557
0.52556753 0.8743272 -0.06419917 -0.19941194 -1.1086721 -0.031662405 -0.44459105 0.438544
-0.26013404 -0.13747607 0.4396862 -0.57418925 0.023961402 -0.5023671 -0.17244568 0.2688372
0.027529454 -0.16912168 -0.7372835 -0.7863692 -0.35258946 0.38901985 0.37017393 -0.21947037
0.1697949 -0.08526086 -1.0080409 0.45740023 1.218076 -0.32489085 -1.3218095 0.3368902
-0.2006536 -0.33891675 -0.18665342 -0.18715239 -0.29834062 -0.13802329 -0.027182167 -0.7162596
-0.119514845 0.62552804 -0.5027099 -0.3956874 -0.4681784 0.27561814 -0.2791605 0.13330218
0.20140533 -0.2677866 -0.48939702 -0.5322312 -0.33619016 -0.032716814 -0.556401 0.28430805
-0.29520273 0.01690654 0.13475539 -0.2466199 -0.59380597 -0.4073827 -0.744305 0.3884276
-0.047244586 0.36464846 -0.4073486 0.24422437 -1.0042667 -0.21458119 -0.18106845 0.33269125
-0.275576 0.12204417 0.54029757 -1.0470545 -0.5170534 -0.7759731 0.35270578 -0.24857414
-0.10020421 0.09898101 -0.37994453 -0.68578106 0.43125308 0.049897242 0.4570201 0.0044335024
0.06014448 -0.8786405 -0.52906984 -0.8784529 0.07708165 -0.88951546 -0.55006766 0.19226779
-0.10468047 -0.95389247 1.255806 -0.20596777 0.2639833 0.1987578 -0.3312533 0.027519496
-0.75051534 0.5017856 0.08303078 -0.8130698 0.28245053 0.26857582 0.05193424 -0.34009042
-0.4272304 -0.780758 -0.78773874 -0.8669107 0.40360188 -0.37455896 -0.20552453 0.23736624
-0.23288058 0.573022 0.25055343 0.018639153 0.30722275 -1.7227898 -0.20285624 -0.34503752
-0.527591 -0.9660976 -0.8389799 -0.0021759402 -0.75160736 -0.5648758 0.43994793 0.24735832
0.26561442 0.6356725 -0.368132 -0.3062944 0.13594545 -0.50249916 1.3759896 0.13877484
0.0024481444 -0.2812677 -0.6557989 -0.79294866 0.20889594 0.29331017 0.10538657 0.46416685
-0.94088787 -0.35902625 -0.15063259 -0.7038075 -0.55411696 -0.23224571 -0.23905405 0.57042265
-0.28708622 0.804829 -0.37523848 -0.02667023 0.3936629 -0.49098724 0.17939457 0.22207671
-0.57690513 -0.3298816 -0.4832265 0.35982454 -0.25758788 -0.027488105 -0.07831519 -0.561474
-1.1297066 -0.100527026 -0.5877637 -0.22097814 -0.68070716 0.7671091 -1.0311221 -0.49400207
-0.9035368 0.25197428 0.46614113 0.21225329 -0.7295858 -0.48674458 -0.49048153 -0.17284703
-0.66629964 0.29774934 -0.104910605 -0.5956213 -0.008527979 -0.5688889 -0.88270956 -0.5597201
-0.16160935 -0.11810677 -0.17102136 0.32679364 -1.0309892 0.24429008 0.60167956 -0.070558496
-0.087381355 -0.3792566 0.6495065 -0.62957215 0.14557423 -0.2891047 -0.12705414 -0.1876528
0.16984092 0.09474166 -0.5451492 -1.0055631 0.70671105 0.646051 -0.9544337 -0.22583362

arith.constant8 f4 [64, 3, 3, 32]
00000000: bb46 c53e bd70 d43e 0749 b8bf b23e b43d
00000010: 0dc8 28bf 8cd1 353e 2c5d 0cbd 622c 5d3e
00000020: aca0 e4be e5af 853d 7389 243d 2b99 03bd
00000030: a2d0 67bd 353f e03e 1933 243d 4bc7 d43e
00000040: a887 75bf 99e9 c9be 5057 9dbf 32a1 c9bf
00000050: 87dc cebe 051f abbd 7c00 843e 9fa6 62be
00000060: b471 4abf 77cb b3be d93b febe c497 a53d
00000070: 8ee0 2fbf eb66 eebe d649 b93c 6d77 31be
00000080: 1c4b 293e 694a 0b3e 765c 95bf 9d62 3e3d
00000090: 2af2 f3be 44b9 983e bfab fabc 79f7 9d3e
000000a0: 4bc1 4dbf 2cfe 0b3e e95b c8bc 975d 13be
000000b0: 24da 95bd 8bb3 d13e 8c8d e63d 0109 afbd
000000c0: 436e 65bf 79c4 7cbc d173 60bf c1fa 95bf
000000d0: b783 cebe c83a 29bf 98f4 afbd 4458 483e
000000e0: 6454 1cbf d64b de3e f0f1 3ebe ee4f 6b3e
000000f0: faba 16bf b223 963e 1fda aabe 0d7b 0b3e
00000100: 23d0 b23e 18c0 28bd 0423 913e 515a 0e3f
00000110: 54d3 9bbe eb92 e1be ed1f 8cbe 71eb c23e
00000120: 04ec ae3e 73f2 e93e 6359 a33d 3ea1 bcbe
00000130: d781 eb3d 90d8 3a3f c1c5 9abf d19c af3e
00000140: 8e95 7abf c670 cebe 0709 0cbf 95ea 46bf
00000150: d1ec 3bbe 9017 d9be 9cfd 173f e007 803b
00000160: 788f 38be 29c5 1f3f 3891 e43e 59ce 653e
00000170: f386 8ebf 3c73 dc3e 9d0e 4b3d 2fcb 9c3f
00000180: 1f28 743d 1dc1 67be 5404 a8be ed10 19bf
00000190: 3c48 c93d 6996 09bf 9276 01bf d2aa d13e
000001a0: b9b2 7cbf 38ee acbf d935 2cbf 9fda 09bf
000001b0: 947c 003d 1759 c1be 3987 013e 2c9c 993e
000001c0: e178 373e ce52 003f 8ee6 623e 3446 88be
000001d0: dc1b b1be 2e26 8b3d 786a bfbe 0d53 aabe
000001e0: 8ce7 673f 0545 6bbe 8d29 54bf e992 e7be
000001f0: a3a9 3cbf 2da0 38be 7d6a 1dbd 4e63 963e
00000200: e0ac 8abe e4d5 fcbd 80a5 883e 9509 6cbf
00000210: 4cb0 f9bc d544 d9bc b88d 27be 91dc f73e
00000220: 200f 58be 72bb a1bf a87e 84bf 1920 2ebf
00000230: bd2b 18bd e34d 97bf 0509 903e 548c 0b3d
00000240: 33eb 6f3e 43c4 1d3f fb0e 493e 721b bcbe
00000250: 22f2 433e 04c4 9bbd fe69 bbbe 0576 223d
00000260: d23a 283e d5f4 423e 5977 19bf bf6b 18bf
00000270: e42d 34be ed10 debd 8050 a03e 7b12 bf3d
00000280: 98a3 9cbe af6f c23e e8c9 d93d 8b9d f2be
00000290: bfa5 2fbf f0e7 24bf def1 68be 1e10 613f
000002a0: 9313 743e aad6 78bf ca99 acbf 494d b0be
000002b0: b904 173e 928a 00c0 cde7 713f 155f 0e3e
000002c0: 3711 95bd 62ce 5b3f d38f fc3e 9d7f 02bf
000002d0: e072 3abe 15bf 28bf 4cfb 3ebf 66e0 57be
000002e0: e164 c3be b40b 27be aab2 cf3c 1d9a 46bf
000002f0: 2d37 d33c f79a dabe 4c86 183d 7a06 be3d
00000300: 6e82 26bf 8517 cbbd 7951 003f 07f5 7cbf
00000310: 7202 143d 0a1d 023f 9042 0fbf 53ac ea3e
00000320: 9fdf b13e 554a b7bd c5c7 4cbf 0067 b5be
00000330: fc34 6abf d215 43be f7dd 8b3e 4e78 4bbe
00000340: f757 bc3c 1507 95ba b044 4e3e aeb9 b4bf
00000350: d54b c7be 7f01 00bf bafb 57bf b207 623f
00000360: f3b1 23bf 2632 70be 845d 51bf 0fd5 fbbd
00000370: c1a2 84be 3330 dcbe 4c1b 103f 6041 8fbe
00000380: 4218 25bf e636 983e 2be5 4c3f b557 a5be
00000390: ef8c bebe d2f7 8e3e b9d9 19bf 6fab f53e
000003a0: 8a1a 2dbf b5ae cabd 43f2 3fbf 78bb 2ebf
000003b0: 5818 8dbf 61b2 1f3e 5a3b d03d a775 a43d
000003c0: 75d7 9f3d d9e1 17be 8f8f 8bbe 0a00 fdbe
000003d0: 6592 253f 2b51 d2be 0196 1fbe 87f3 913e
000003e0: 7956 09bf 33d9 083e 7c17 30be 4bc9 adbe
000003f0: 0682 d8be 37ea c5be e4c4 0c3f 4ca6 e33e
0.38530526 0.41492262 -1.4397286 0.08801021 -0.65930253 0.17755717 -0.034268543 0.21598962
-0.44653833 0.0652769 0.040170144 -0.032128494 -0.056595452 0.43798223 0.040087793 0.41558298
-0.9591012 -0.39436033 -1.2292271 -1.5752318 -0.40402624 -0.08355526 0.2578162 -0.22133873
-0.7907975 -0.3511617 -0.49655035 0.080855876 -0.6870202 -0.46562895 0.022618216 -0.17330714
0.16532558 0.13602604 -1.1668842 0.046480764 -0.47645694 0.29828846 -0.030599473 0.3085287
-0.80373067 0.13671178 -0.024457889 -0.1439117 -0.07316998 0.40957293 0.11257467 -0.08546639
-0.8962137 -0.015427702 -0.8767672 -1.1717149 -0.40334865 -0.6610532 -0.085915744 0.1956492
-0.6106627 0.43417233 -0.1864698 0.2297971 -0.58879054 0.29324108 -0.33369538 0.13621159
0.3492442 -0.04119882 0.28347027 0.5560656 -0.30434668 -0.44057402 -0.27368107 0.38070253
0.3416444 0.45692787 0.079760335 -0.36841768 0.11499374 0.729867 -1.20916 0.3429933
-0.9788445 -0.40320414 -0.54701275 -0.77701694 -0.18352057 -0.4240079 0.5937135 0.003907189
-0.18023479 0.6241022 0.44642043 0.22441997 -1.1134933 0.43056667 0.049574483 1.2249507
0.059608575 -0.2263226 -0.32815802 -0.5979145 0.09828231 -0.5374513 -0.5057155 0.40950638
-0.9871021 -1.3510199 -0.67269665 -0.53849214 0.031368807 -0.37763283 0.1264924 0.30001962
0.17917205 0.5012635 0.22158262 -0.2661606 -0.34591568 0.067943916 -0.37385917 -0.33266488
0.9058769 -0.22975548 -0.828759 -0.4522927 -0.73696345 -0.18029852 -0.038431633 0.29372638
-0.27085018 -0.12345484 0.26688766 -0.9220212 -0.030479573 -0.02652208 -0.16362655 0.48410466
-0.2109952 -1.2635329 -1.0351152 -0.6801773 -0.037151087 -1.1820644 0.2813188 0.034069374
0.23429565 0.61627597 0.19634621 -0.3673969 0.19135335 -0.076057464 -0.36604303 0.039663333
0.16428688 0.19038709 -0.59947735 -0.5953941 -0.17595631 -0.10843072 0.31311417 0.09329697
-0.30593562 0.37975833 0.10634214 -0.4738582 -0.68612283 -0.6441641 -0.22748515 0.8791522
0.23835592 -0.9720255 -1.3484433 -0.34433964 0.14747895 -2.0084577 0.94494325 0.13903458
-0.07278674 0.8586179 0.4932848 -0.5097597 -0.18207884 -0.6591657 -0.746022 -0.21081695
-0.38162902 -0.16313058 0.025353748 -0.7757891 0.025783146 -0.42696354 0.03723745 0.09278579
-0.6504277 -0.09916595 0.5012432 -0.9881138 0.036135145 0.5082556 -0.5596094 0.45834598
0.34740922 -0.089497246 -0.79992324 -0.35430145 -0.914871 -0.19051293 0.27317783 -0.19870111
0.022991164 -0.0011369908 0.2014339 -1.4119165 -0.38925043 -0.5000228 -0.8436848 0.8829299
-0.63943404 -0.2345663 -0.8178332 -0.12296497 -0.2590542 -0.43005523 0.5629165 -0.27979565
-0.6449014 0.29729384 0.8003718 -0.32293478 -0.372169 0.27923447 -0.60097843 0.47982356
-0.6761862 -0.09896604 -0.7497904 -0.68254805 -1.1023054 0.1559539 0.101675704 0.08030253
0.07804767 -0.14832248 -0.27257964 -0.49414092 0.64676505 -0.4107755 -0.15584566 0.2850611
-0.5364757 0.13364105 -0.17196459 -0.33942637 -0.422867 -0.38655254 0.5498793 0.44462812

arith.constant9 f4 [32, 3, 3, 32]
00000000: 88a1 79be 0869 173f 7442 30bf 03fb 633f
00000010: 0a27 663e 6430 aabe 4788 923b de73 a33f
00000020: 94a3 79bf 115a 503f 602f 023e a1dc 813d
00000030: baac 01bf 328a 3d3f 0c6e 0a3d 6e7a 06bf
00000040: d28a 3ebd 62d9 0d3f 9b14 b63e 2860 43bc
00000050: 9669 383f 5dec dfbd ae25 c93e 79f1 bb3e
00000060: 32e5 7d3f 1202 853f 0ad4 ca3e 317a 033f
00000070: f414 afbd 8cfe 18bf 4bfd 41be c54a 053f
00000080: 9e7a e9be 2171 ae3e 930f 10be b5aa 673f
00000090: 791c b53e 298a 9fbe 9581 143e af33 9c3f
000000a0: 95c8 223f bbd5 7d3f 7802 463e 649f 443e
000000b0: 755e a03e 3915 673f 4866 323e 661d c0be
000000c0: 250d 40be aadc 2d3f 1bb6 073e 2cdf 47bc
000000d0: 2f8f 413f edb6 983d 99b1 923e eb40 f83e
000000e0: 9bd7 8f3f 9647 9c3f a47f 093f fa51 d53e
000000f0: 1a25 0abe 450e 8ebe 8993 abbe eb3e 0f3f
00000100: f062 adbd 4ebe 403f a7bc 02bf 34a4 773f
00000110: 9821 1e3e ee5e 323f 8564 f63d 3ccd 943f
00000120: 88b7 9c3d f8f0 833f 9e94 133d 5b3e 123e
00000130: 7e0d fbbc 1c3d 583f ca65 ba3e 86bf d9be
00000140: e48d 003f 044c f53e 0983 7e3e 3ee6 2c3d
00000150: e96f 653f 9113 2b3d 25da b03e 2f0c 9c3e
00000160: 834a 8f3f 8022 a23f 6695 2b3f 1d8e bb3e
00000170: e747 eebd d6a7 9abe 1a59 243f 8769 ac3e
00000180: 4ae2 f33d 112c 853e fda5 853e 1f8b a83e
00000190: 0ed7 a7be 5f0d e9bd c2a2 5bbe 317e e23e
000001a0: c752 3d3f 981c 013f bafc 153f ea14 b63d
000001b0: 828f 4f3d e5c3 2a3e 50a9 373e eb48 c7bd
000001c0: 26eb 05be 2021 0c3e fed4 873f 4940 433f
000001d0: 04dc f43e b829 1f3f eb00 093d edf9 e93e
000001e0: 0087 ab3e cc45 093f 3f11 4fbd f680 24be
000001f0: 5433 f43e 7326 773e e580 0abf 821b 8b3e
00000200: 2c0f aa3c dace 1c3f 7f75 8f3e a4f9 993e
00000210: 3b7f b7be 00fb 083d ae44 2f3e 80b1 983e
00000220: 0dee 34bf 7f75 823e 5e68 153f 2876 b3bd
00000230: 0886 0d3d f02d 933d e041 003e fbe1 503e
00000240: d052 533e 2b93 723f 94ac 8a3d 75c2 e93e
00000250: 31fa 9c3f a421 5f3f 99f1 373d a676 6b3f
00000260: a75d e03e d1a8 ec3e 1860 c9bd 2b42 a1be
00000270: c9bf d33e 6c02 003e e816 0a3f f0c8 fc3d
00000280: eee4 943d 8f49 643e 9c5b 033f 478a 213e
00000290: dd7d a0be 323a e73e efb3 32bd 9797 efbc
000002a0: c120 dfbd 7ae2 dd3e 781b 343f 4139 94bb
000002b0: 8f6e a23e 92c4 fd3d ac26 093e 9fc6 ee3c
000002c0: 1855 1a3f edf0 353f 94e2 d3be 55f0 303f
000002d0: e153 0b3e b5cf 2b3f 0c1c ab3e 95b1 0c3f
000002e0: ba7d 033f 3350 193f d378 02be 3b1a c8bd
000002f0: 0a22 3e3f c4f2 9cbd 27f2 973e 51f7 353e
00000300: ce3a c43e 47a9 bd3e 2a7d 1bbe 9068 83be
00000310: d0bb 0ebf d128 993d 2717 a0be 3e46 64bd
00000320: 1512 e83e 2539 43bf 4915 123f f28e 4abe
00000330: ca24 b3be 2487 d3be 1ac3 08bf 5e80 bb3e
00000340: 68d2 513d 7a5f d7be 8e61 be3e ea21 1bbf
00000350: ee61 203f f617 1b3e 1de0 32bf a859 6abe
00000360: 0073 01bf 2121 d0be 7076 64be aed0 80bf
00000370: a331 453f 06a2 683d bef6 bcbe 3ee6 4ebf
00000380: 5673 f03e 709b 093f baa9 053f bb56 89be
00000390: af5f 1cbf 3f13 69be 0ad1 b8be 0cef 33bd
000003a0: 5d16 0d3f 7983 2ebf 7b37 213f 9620 4ebe
000003b0: a763 41be 7b71 a5be 0b2a ffbe 8f3f 8c3e
000003c0: 7d5f 173f 32fa 22be 0e2f a63e 14e0 26bf
000003d0: 2c63 c23e 0f44 c43e c278 00bf f348 613e
000003e0: 01ce b6be c47c f6be 0eb8 97be 4d2f 90bf
000003f0: 8cc0 0a3f e47f d13c 3b65 8f3f 7496 74bf
-0.24378026 0.5914464 -0.688514 0.8905489 0.2247583 -0.33240044 0.004471812 1.2769735
-0.97515225 0.8138743 0.12713385 0.0634091 -0.50654185 0.74038994 0.033796355 -0.5253056
-0.046519108 0.55409825 0.35562596 -0.011924781 0.7203611 -0.109337546 0.3928656 0.36707667
0.9917785 1.0391257 0.39614898 0.51358324 -0.08548918 -0.5976341 -0.1894428 0.52067214
-0.45601362 0.34070686 -0.14068441 0.90494853 0.35373285 -0.31160095 0.14502557 1.2203273
0.63587314 0.9915425 0.19336879 0.19201428 0.31322065 0.9026676 0.1742183 -0.3752243
-0.18755014 0.6791483 0.13253061 -0.012199204 0.75609106 0.07456765 0.2865112 0.48487028
1.1237673 1.2209346 0.5371039 0.41664106 -0.13490716 -0.27745262 -0.33510998 0.5595538
-0.084661365 0.7529038 -0.5106911 0.9673493 0.15442502 0.696761 0.12030891 1.1625133
0.07652193 1.0307913 0.036030404 0.14281599 -0.030646082 0.84468246 0.36405784 -0.42528933
0.5021651 0.47909558 0.24854673 0.042211764 0.89623886 0.041766707 0.3454143 0.30478045
1.1194614 1.2666779 0.6702484 0.3663186 -0.11634808 -0.30206174 0.6419846 0.3367426
0.119083956 0.26010182 0.26103202 0.3291864 -0.3278126 -0.113795035 -0.21448806 0.442369
0.73954433 0.50434256 0.58588755 0.08890708 0.05067397 0.1667629 0.17935681 -0.09730705
-0.13077983 0.13684511 1.0611875 0.76269966 0.4782411 0.6217303 0.03344814 0.4569849
0.33501434 0.53622127 -0.050553557 -0.1606482 0.4769541 0.24135761 -0.5410293 0.27169424
0.020759188 0.6125313 0.2801933 0.30073273 -0.35839257 0.033442497 0.17116043 0.29822922
-0.70675737 0.25480267 0.58362377 -0.08762771 0.03455165 0.07186496 0.1252513 0.20398705
0.20637059 0.9475581 0.06771198 0.4565617 1.2263852 0.87160707 0.04490814 0.9197792
0.4382145 0.46222547 -0.098327816 -0.31495795 0.41357258 0.12500924 0.539412 0.12343013
0.072702274 0.22293685 0.5131166 0.15775405 -0.31346026 0.45161587 -0.04362863 -0.029247088
-0.10894919 0.4333685 0.70354414 -0.0045234268 0.31724975 0.123910084 0.13393658 0.029147444
0.6028609 0.7107075 -0.41383803 0.6911672 0.13606216 0.6711381 0.33419836 0.5495847
0.5136372 0.59888 -0.12741403 -0.09770628 0.7427069 -0.07663491 0.29676935 0.17770125
0.38326114 0.3704321 -0.15184465 -0.25665712 -0.5575533 0.07478488 -0.31267664 -0.05573105
0.45326295 -0.7625907 0.5706373 -0.19781092 -0.34989005 -0.41314042 -0.534227 0.36621374
0.05122605 -0.4206503 0.37183803 -0.60598624 0.6264943 0.15145859 -0.6987322 -0.22885764
-0.505661 -0.40650275 -0.22310805 -1.0063684 0.77028865 0.056795143 -0.36907 -0.8082007
0.46962994 0.53752804 0.5221211 -0.26823983 -0.610835 -0.22761248 -0.36096984 -0.043929145
0.5511225 -0.6816936 0.6297528 -0.20129618 -0.1888567 -0.3231314 -0.49836764 0.2739224
0.5913008 -0.15915754 0.32457775 -0.65185666 0.37966287 0.38333175 -0.5018426 0.22000484
-0.35704044 -0.48142064 -0.2963261 -1.1264435 0.54200053 0.025573678 1.1202768 -0.95542073

arith.constant10 f4 [4, 32]
00000000: 58fe c63d 793b 60bf 838d 05c0 74eb 1a3f
00000010: cfca fc3b eb94 773d b00d c2bd 3895 3b3d
00000020: 659f 95bf 85fd 4f3e d77c 263f d52b 983c
00000030: 6120 283e de55 203f d49c 213d 36f6 35bc
00000040: 7630 71bf 4056 e9bf 8ac9 a0c0 d48d c0be
00000050: d613 a03e 3b4e 183e 677c 033f 47d9 5bbd
00000060: 8860 753d 7628 39be 5cef cd3d e18f 023e
00000070: 005b cc3d 4faa aebd 43cd d0bd 782a 91be
00000080: 380e 8e3e 9e3d 90be d9ec 8d3b d8eb eebd
00000090: e8e5 a83e 9015 283d 770a 68be 9a3d 37bd
000000a0: 154c 2e3f af71 92be 8479 753e 4506 823e
000000b0: fcb1 1c3e 9d54 eebe 8b04 5a3e 2b20 babe
000000c0: 4b5d 62be 6a05 03be e551 a4bd 9ef4 113d
000000d0: 3f0f 5c3e 0a98 cabe fd62 b1be 1c20 8dbe
000000e0: c327 8e3e 57ae 87be 2172 fd3d 759a 92be
000000f0: d32c a0be a0e8 423e 1274 a6be c35d 9f3e
00000100: 4584 ecbe 1847 cfbe 1585 b9bd d5df 95be
00000110: fc5d c63d 9d8f 28be ec72 80bd aeab 95be
00000120: 0ec8 cdbe 0cb2 873e e5cb 88be 56cc 73be
00000130: 2e3d 633e 134f d83e a1eb f9bd 2ff1 9dbe
00000140: ce66 3e3f bcf2 583e 5cfe 61bd 01b9 fbbc
00000150: 6b6a d23d 0fda 363e 2acc c1be db64 b83e
00000160: fd46 e33c 3460 a63e 94cd df3d 2ce3 293e
00000170: 5c88 263e 01b0 b63d c016 5a3d 4f3c f8bc
00000180: cc64 413e d826 363f 0df5 d13d 8578 5ebd
00000190: cb0e ae3d 1c7f 12be 42a1 0d3d e856 8abd
000001a0: a9d5 9bbe 0bb7 10be f32f 0bbf dbc6 4f3d
000001b0: ae00 0cba ae37 cabe 8512 923e 8e80 d23e
000001c0: f25d 0cbf c305 4e3e d290 17bd c28e 2d3d
000001d0: 7d40 0d3e bb87 c3be b2e3 f8be 21cd 72be
000001e0: 67a8 29be 566e 17be 945b 87bd 6adb dfbd
000001f0: ec32 6ebe b8fd 09be ee0a 4c3e 9a4a dabc
0.09716481 -0.8759075 -2.0867622 0.6051552 0.0077146064 0.060444754 -0.09475267 0.045796603
-1.1689268 0.20311554 0.6503424 0.018575588 0.16418602 0.6263102 0.039456204 -0.011106065
-0.9421457 -1.8229446 -5.024602 -0.37608206 0.31265134 0.14873593 0.513617 -0.05367401
0.059906512 -0.18081841 0.1005542 0.12750198 0.099782944 -0.085285775 -0.101954006 -0.28352714
0.27745223 -0.2817201 0.004331213 -0.116660774 0.32987905 0.04103619 -0.22660242 -0.044736482
0.6808484 -0.2860236 0.23972136 0.25395408 0.1530227 -0.4654893 0.21290796 -0.36352667
-0.22105901 -0.12795034 -0.08023433 0.035633676 0.21490191 -0.39569122 -0.34645835 -0.2756356
0.2776471 -0.26500198 0.12375284 -0.28633466 -0.31284198 0.19034052 -0.3251043 0.31126222
-0.46194664 -0.40483928 -0.090585865 -0.29272333 0.09685895 -0.16461034 -0.062719196 -0.29232544
-0.40191692 0.26503026 -0.2671806 -0.23808417 0.22191307 0.4224783 -0.12203146 -0.3084807
0.7437562 0.21186346 -0.055174217 -0.030727865 0.10274204 0.1785662 -0.37851077 0.36014447
0.02774381 0.32495272 0.10927883 0.16590565 0.16262954 0.08920289 0.053244352 -0.030302195
0.18886107 0.7115302 0.10251818 -0.054314155 0.08498915 -0.14306301 0.034577616 -0.06754857
-0.30436447 -0.14132325 -0.5437004 0.050726753 -0.00053406775 -0.39495605 0.28529754 0.41113704
-0.5483085 0.20119385 -0.037003346 0.042372473 0.13794132 -0.38189492 -0.48611218 -0.23711063
-0.16568147 -0.14788184 -0.06609264 -0.10930522 -0.23261613 -0.13475692 0.19926044 -0.0266469

arith.constant11 f4 [32, 64]
00000000: b0c3 0180 8a94 193e 8664 0000 f300 0000
00000010: be65 0300 8eff 0200 d95e 0080 88af 0000
00000020: 3ec0 0100 1319 0080 c567 0280 7a52 0100
00000030: 2dec 0280 ac9b 0000 b879 0080 68c1 0080
00000040: 3726 0100 e6f8 0000 2af0 0180 1c0b 0080
00000050: 7523 0100 5fbb 0000 362a b63a 027d 0180
00000060: d5c0 0380 4d76 0380 c503 0080 6683 0200
00000070: 153c 0000 1a51 0280 957f 0100 72f6 0000
00000080: 860b 0000 beec 0080 a480 0180 1228 0180
00000090: 8c45 0180 258a 82bd 7c9a 0000 4d45 0000
000000a0: b541 0180 5170 0000 f062 0080 a361 0200
000000b0: 8930 0380 e323 0080 6e55 0080 aaa9 0300
000000c0: e773 0100 6f6b 0100 ff95 0180 4376 0300
000000d0: b62c 0100 34fc 0280 b4c0 0080 0c55 0080
000000e0: 9b2e 0000 ef33 0380 5a19 683d e7c4 0200
000000f0: 3523 0100 5e8f 81bd e8b4 0080 0474 0180
00000100: 86da 0000 d6b1 c43d 1707 0100 a13a 0000
00000110: 2809 0000 465a 0100 c5b7 0180 12e5 0000
00000120: d1a5 0200 7b49 0080 04a7 0080 7514 0000
00000130: ac68 0000 2e23 0080 41e3 0200 c8ea 0080
00000140: 628c 0080 5205 0100 b7cb 0080 e78e 0200
00000150: 8c1f 0000 69fd 0000 0bfa cfbd fcba 0080
00000160: 78d4 0180 f70c 0380 a9d9 0000 01da 0080
00000170: 7182 0080 f104 0000 7e90 0180 9962 0080
00000180: 804d 0080 4046 0180 d423 0100 9e5b 0280
00000190: 22d5 0000 b008 803e 5046 0180 2d37 0100
000001a0: 853d 0180 7cbe 0080 d384 0100 5737 0000
000001b0: 488b 0080 d973 0200 597d 0180 cc12 0000
000001c0: 7c8a 0280 d368 0180 f230 0080 9797 0000
000001d0: 7f84 0000 897b 0080 2d2f 0180 4c5a 0080
000001e0: 464a 0280 8654 0180 6dbd d7bd c58e 0380
000001f0: e012 0000 55fa 15bd 902d 0280 040a 0180
00000200: 7649 0180 1953 143d e38a 0180 4a09 0180
00000210: 1fac 0000 20f6 0080 c469 0000 8b99 0180
00000220: 80f6 0280 eb9e 0380 b009 0080 d7ab 0080
00000230: bd2e 0080 fe1a 0000 9a20 0300 02b2 0080
00000240: 2500 0080 f567 0080 261d 0000 d8ab 0080
00000250: 4a26 0080 77a7 0000 7ed3 973c e52b 0000
00000260: 336e 0080 1966 0100 4dc7 0080 3e46 0180
00000270: 8e53 0200 5c89 0000 d115 0000 8d8f 0000
00000280: 2cca 0100 3829 0080 4f1d 0000 5daa 0000
00000290: ad13 0000 9ece 22bc 235f 0000 cecc 0000
000002a0: 0a4a 0000 c974 0280 6ef6 0100 6f5b 0000
000002b0: 674a 0100 be80 0100 f508 0200 2768 0080
000002c0: 7098 0000 167f 0000 07bd 0200 72bc 0100
000002d0: 9f71 0080 c0fe 0180 7910 0080 48bb 0000
000002e0: cbac 0100 b748 0000 d92c 29be e39a 0080
000002f0: ecba 0200 5ca6 93bd fe45 0000 4ca6 0000
00000300: 2663 0000 98c3 fb3a 16ee 0080 7cc2 0180
00000310: a329 0180 6fb2 0080 1c1a 0080 d17c 0100
00000320: f85b 0100 5421 0000 203b 0100 bb9b 0000
00000330: e968 0200 f531 0000 5001 0200 87de 0080
00000340: e6aa 0000 1516 0100 e4a2 0000 c1e4 0000
00000350: 50d2 0200 c035 0080 4ed0 6bbd de70 0180
00000360: 4200 0180 534d 0280 0cab 0000 49a7 0080
00000370: a3ad 0000 3f45 0080 c458 0100 b0b3 0080
00000380: b1dc 0280 86a6 0080 7078 0100 7e53 0300
00000390: c34b 0180 cbbf f13c 7153 0300 33bc 0000
000003a0: c789 0080 2e48 0100 4725 0000 d9be 0180
000003b0: 773f 0180 485e 0000 c80b 0180 a465 0000
000003c0: 9dd1 0180 4e4e 0080 7b3f 0000 f922 0100
000003d0: 38d0 0080 68b1 0000 3f5f 0080 4f28 0100
000003e0: f25b 0200 f7eb 0080 29e9 2b3e 2967 0000
000003f0: fe7c 0000 4189 05bd 1ea0 0000 1fa0 0080
-1.62035e-40 0.1499807 3.6061e-41 3.4e-43 3.12005e-40 2.75347e-40 -3.4025e-41 6.2969e-41
1.60799e-40 -8.995e-42 -2.20896e-40 1.21423e-40 -2.68395e-40 5.5845e-41 -4.3664e-41 -6.9381e-41
1.05544e-40 8.9288e-41 -1.7799e-40 -3.985e-42 1.04555e-40 6.7216e-41 0.0013898078 -1.3668e-40
-3.44682e-40 -3.17945e-40 -1.352e-42 2.30808e-40 2.1553e-41 -2.12765e-40 1.37603e-40 8.8408e-41
4.134e-42 -8.4927e-41 -1.37983e-40 -1.0621e-40 -1.16784e-40 -0.06374005 5.5419e-41 2.486e-41
-1.15407e-40 4.0292e-41 -3.5492e-41 2.18696e-40 -2.92918e-40 -1.2874e-41 -3.0646e-41 3.3637e-40
1.33413e-40 1.30375e-40 -1.45644e-40 3.17931e-40 1.07875e-40 -2.74144e-40 -6.9129e-41 -3.0509e-41
1.6719e-41 -2.94137e-40 0.056664802 2.54306e-40 1.04465e-40 -0.06326173 -6.4897e-41 -1.33454e-40
7.8391e-41 0.09604232 9.4379e-41 2.1032e-41 3.285e-42 1.2422e-40 -1.5776e-40 8.2175e-41
2.43155e-40 -2.636e-41 -5.9914e-41 7.339e-42 3.7549e-41 -1.262e-41 2.65194e-40 -8.4224e-41
-5.036e-41 9.3744e-41 -7.3079e-41 2.34935e-40 1.1317e-41 9.0906e-41 -0.10155114 -6.7077e-41
-1.68055e-40 -2.80157e-40 7.8082e-41 -7.8205e-41 -4.6794e-41 1.773e-42 -1.4367e-40 -3.537e-41
-2.7802e-41 -1.17036e-40 1.04688e-40 -2.16537e-40 7.6458e-41 0.25006628 -1.17059e-40 1.11629e-40
-1.13905e-40 -6.8333e-41 1.39484e-40 1.9852e-41 -4.9965e-41 2.2523e-40 -1.36802e-40 6.743e-42
-2.3335e-40 -1.2944e-40 -1.7558e-41 5.438e-41 4.753e-41 -4.4316e-41 -1.08759e-40 -3.2392e-41
-2.10315e-40 -1.22157e-40 -0.10534177 -3.26723e-40 6.771e-42 -0.03661569 -2.00016e-40 -9.5428e-41
-1.18188e-40 0.03621206 -1.41659e-40 -9.5168e-41 6.1745e-41 -8.8293e-41 3.7942e-41 -1.46916e-40
-2.72099e-40 -3.32516e-40 -3.475e-42 -6.1645e-41 -1.6767e-41 9.683e-42 2.87202e-40 -6.3857e-41
-5.2e-44 -3.7293e-41 1.0456e-41 -6.1646e-41 -1.3736e-41 6.0075e-41 0.018533465 1.5746e-41
-3.9532e-41 1.28461e-40 -7.1496e-41 -1.17034e-40 2.13645e-40 4.9275e-41 7.826e-42 5.1496e-41
1.64361e-40 -1.4787e-41 1.0514e-41 6.1115e-41 7.058e-42 -0.009936957 3.4129e-41 7.347e-41
2.656e-41 -2.25566e-40 1.80238e-40 3.28e-41 1.18526e-40 1.3802e-40 1.86884e-40 -3.7363e-41
5.4684e-41 4.559e-41 2.51481e-40 1.59437e-40 -4.076e-41 -1.83223e-40 -5.909e-42 6.7184e-41
1.53822e-40 2.6085e-41 -0.16521014 -5.5563e-41 2.50726e-40 -0.07209465 2.5108e-41 5.9656e-41
3.5568e-41 0.0019208072 -8.5409e-41 -1.61603e-40 -1.06772e-40 -6.401e-41 -9.366e-42 1.36611e-40
1.24828e-40 1.1956e-41 1.13046e-40 5.5866e-41 2.21306e-40 1.7921e-41 1.84142e-40 -7.9828e-41
6.1307e-41 9.9757e-41 5.8434e-41 8.2061e-41 2.59117e-40 -1.9282e-41 -0.0575717 -1.32325e-40
-9.1928e-41 -2.1141e-40 6.136e-41 -6.001e-41 6.2289e-41 -2.4841e-41 1.23679e-40 -6.446e-41
-2.6284e-40 -5.9737e-41 1.3504e-40 3.05458e-40 -1.19014e-40 0.0295104 3.0544e-40 6.7513e-41
-4.9425e-41 1.17729e-40 1.3373e-41 -1.60299e-40 -1.14602e-40 3.3822e-41 -9.6062e-41 3.6462e-41
-1.6703e-40 -2.809e-41 2.2773e-41 1.04381e-40 -7.4695e-41 6.3641e-41 -3.4168e-41 1.06295e-40
2.16655e-40 -8.4648e-41 0.16788162 3.7007e-41 4.4839e-41 -0.0326016 5.7439e-41 -5.744e-41
