Model/cnn1.tflite (tflite, 608220 bytes, 28 tensors)

arith.constant f4 [64]
0	0xc001c39a	-2.0275636
1	0xbfbf1d82	-1.493088
2	0xbfba32be	-1.4546735
3	0xbfb7264a	-1.430856
4	0xbfb71844	-1.430428
5	0xc004edef	-2.0770223
6	0xbf97bf1d	-1.1855198
7	0xbf98e89a	-1.1945984
8	0xbf220cd9	-0.63300854
9	0xbeab4f21	-0.33458808
10	0xbf91df28	-1.1396227
11	0xbf933c03	-1.1502689
12	0xbd94292a	-0.07234414
13	0xbfcc259d	-1.5948979
14	0xbfb0acbd	-1.3802716
15	0xbeecbb01	-0.46236423
16	0xbfa4f2ca	-1.2886593
17	0xbf3fcebd	-0.7492483
18	0xbf38263d	-0.71933347
19	0xbf8e8d66	-1.1136901
20	0xbfd08459	-1.6290389
21	0xbfc8ac7d	-1.5677639
22	0x3d125674	0.03572698
23	0xbf6697ec	-0.90075564
24	0xbfd15458	-1.6353865
25	0xbfdb0c53	-1.7113136
26	0xbf4d5e38	-0.8022189
27	0xbfb2d44b	-1.3971037
28	0xbfb42da7	-1.4076432
29	0xbf3ae8eb	-0.73011655
30	0xbfd9c7b6	-1.7014072
31	0xbf20824e	-0.6269883
32	0xbf49e27c	-0.7886121
33	0xbfa777a4	-1.3083386
34	0xbf105e52	-0.5639392
35	0xbf17e0db	-0.5932748
36	0xbf87ca8d	-1.0608689
37	0xbf224478	-0.63385725
38	0xbf31abf2	-0.6940299
39	0xbf530c4b	-0.8244063
40	0xbf10e3a4	-0.5659735
41	0xbf99befd	-1.201141
42	0xbf8c97de	-1.0983846
43	0xbf31148e	-0.6917199
44	0xbf68a020	-0.9086933
45	0xbf144eca	-0.5793272
46	0xbf716386	-0.94292486
47	0xbf985c48	-1.1903162
48	0xbfadc88c	-1.3576827
49	0xbf20556e	-0.62630355
50	0xbf7960d6	-0.97413385
51	0xbffd0880	-1.9768219
52	0xbfcc704e	-1.5971773
53	0xbfb04bde	-1.3773153
54	0xbfaa2365	-1.3292052
55	0xbef836ac	-0.4847921
56	0xbf845b86	-1.0340431
57	0xbfad24c4	-1.3526845
58	0xbfdcbe50	-1.7245579
59	0xbfd22aee	-1.6419351
60	0xbf63d386	-0.88994634
61	0xbfe3d167	-1.779828
62	0xc0042e00	-2.0653076
63	0xbfd66e81	-1.6752473

arith.constant1 f4 [64]
0	0xbffb2dc9	-1.9623348
1	0xbf559841	-0.83435446
2	0xbf66a31f	-0.90092653
3	0xbf58621b	-0.845247
4	0xbede03ef	-0.43362376
5	0xbf9f1d8b	-1.2430891
6	0xbf3fd803	-0.7493898
7	0xbf777ae6	-0.96671903
8	0xc00eccd7	-2.2312524
9	0xbf7bf1d2	-0.98415864
10	0xbf9b21f0	-1.2119732
11	0xbf9327a7	-1.1496476
12	0xbec4c041	-0.38427928
13	0xbfdb746e	-1.7144907
14	0xbfc7e52c	-1.5616813
15	0xbf4ba7b4	-0.7955277
16	0xbfce8af4	-1.6136155
17	0xbfe1b0b4	-1.763205
18	0xbee32287	-0.4436228
19	0xc00dfd7c	-2.2185965
20	0xbfb5f320	-1.4214821
21	0xbfdcc432	-1.7247374
22	0xbfa032c1	-1.2515489
23	0x3cb8855a	0.022524524
24	0xbf89b11c	-1.0757174
25	0xbf594e8f	-0.84885496
26	0xbfc596b6	-1.5436618
27	0xbd7f579e	-0.062339418
28	0xbfe97fb8	-1.8242102
29	0x3f60dd7f	0.87837976
30	0xbf52df1d	-0.82371694
31	0xbf96779a	-1.175525
32	0xbf42506c	-0.75903964
33	0xbf5ef052	-0.8708545
34	0xbfa05728	-1.2526598
35	0xbf827f7c	-1.0195155
36	0xc00b66f5	-2.178159
37	0xbffcbc83	-1.9745029
38	0xbfc0509b	-1.5024599
39	0xbf72d3c4	-0.9485438
40	0xbf13015a	-0.5742394
41	0xc0179331	-2.3683589
42	0xbf1d9183	-0.6155016
43	0xbefdaed5	-0.4954745
44	0xc0131a71	-2.2984889
45	0xbfcc5fda	-1.5966752
46	0xbfbfa2e9	-1.4971591
47	0xbf772843	-0.9654581
48	0xbf968712	-1.175997
49	0xbe3ad413	-0.18244962
50	0xbfb34d81	-1.4008027
51	0xbf232124	-0.63722444
52	0xbeedff5a	-0.4648388
53	0x3eed862a	0.46391422
54	0xbfca1ca8	-1.5789995
55	0xbfb9b567	-1.4508485
56	0xbf7c625f	-0.985876
57	0xc0024364	-2.0353632
58	0xbfd8a838	-1.6926336
59	0xbf16db3b	-0.5892827
60	0x3f4ffda8	0.81246424
61	0xbf72acaf	-0.94794744
62	0xbfea55d2	-1.830744
63	0xbfaadfcf	-1.3349551

arith.constant2 f4 [64]
0	0x3d5b3995	0.05352171
1	0xbf8d5492	-1.1041434
2	0xbf4d8a26	-0.8028892
3	0x3efc4957	0.49274704
4	0xbf3477d2	-0.7049533
5	0xbf8c075c	-1.0939746
6	0x3ec18726	0.37798423
7	0xbe979378	-0.29604697
8	0x3ea42e46	0.32066554
9	0xbfa002fd	-1.2500912
10	0xbd1350b6	-0.035965644
11	0xbe3113ac	-0.1729266
12	0xbf6eaf0c	-0.9323585
13	0xbf0194fa	-0.50617945
14	0xbe76d283	-0.24103741
15	0xbf7ed570	-0.9954443
16	0xbf164d0c	-0.58711314
17	0xbf7135ce	-0.94222724
18	0xbf778b50	-0.9669695
19	0x3ed8eb0e	0.42366832
20	0xbf38fa59	-0.72257
21	0xbe838547	-0.2568762
22	0xbfda9de2	-1.7079432
23	0xbc845373	-0.016153073
24	0xbddd0808	-0.107925475
25	0xbf82a8a3	-1.0207714
26	0xbf48b83d	-0.78406125
27	0xbf0b99b7	-0.54531425
28	0xbfd692e0	-1.6763573
29	0xbf7f1740	-0.9964485
30	0x3fbd1b03	1.4773868
31	0x3f122209	0.57083184
32	0xbed3e451	-0.4138513
33	0x3e902cea	0.28159267
34	0xbe4511f4	-0.1924513
35	0xbfa87832	-1.3161681
36	0xbe73c9fa	-0.23807517
37	0x3f10b54e	0.5652665
38	0x3d1362e0	0.035982966
39	0x3d9d6cf5	0.076867975
40	0x3de4ff75	0.11181537
41	0xbf26ceb3	-0.6515915
42	0xbf3134a1	-0.6922093
43	0xbf260823	-0.64856166
44	0xbf135ec7	-0.57566494
45	0x3f009487	0.50226635
46	0xbeb2d02a	-0.34924442
47	0xbf3d0bd2	-0.7384616
48	0x3db2cc97	0.08730429
49	0xbfa1336e	-1.259382
50	0x3f07b5ef	0.53011984
51	0x3e13f8a5	0.14450319
52	0x3d6fa680	0.058508396
53	0xbfdbffe0	-1.7187462
54	0xc00faf94	-2.2450914
55	0xbdcc81f1	-0.09985722
56	0xbd97f309	-0.07419402
57	0xbf5975c1	-0.84945303
58	0x3edf345c	0.43594635
59	0xbf89ac06	-1.0755622
60	0x3f6bf982	0.92177594
61	0xbef63723	-0.4808894
62	0xbe3f74a0	-0.18696833
63	0xbf9b765b	-1.2145494

arith.constant3 f4 [64]
0	0xbf6d8d57	-0.9279379
1	0xbeacb1a6	-0.33729285
2	0xbf4ffc3f	-0.8124427
3	0xbe9d1706	-0.30681628
4	0x3fae08d6	1.3596447
5	0xbf6f72a6	-0.93534315
6	0xbf1e32bc	-0.61796165
7	0x3f26db55	0.65178424
8	0xbf5ad358	-0.85478735
9	0x3dc72769	0.09724314
10	0xbfdd4c77	-1.728896
11	0xbf20c6ef	-0.6280355
12	0xbea937e6	-0.3305046
13	0x3cda0fca	0.026618857
14	0xbfb27dcc	-1.394464
15	0xbf0f552c	-0.55989337
16	0x3e451905	0.19247825
17	0xbef3c4bc	-0.47611034
18	0x3da13cd0	0.07872927
19	0x3e268216	0.16260561
20	0xbf9126e0	-1.1339989
21	0x3ea030f8	0.3128736
22	0xbe9ec551	-0.31009915
23	0x3ebfae39	0.3743761
24	0xbe64ae02	-0.22332004
25	0xbf9134a5	-1.1344191
26	0xbf6d5580	-0.9270859
27	0xbf76f25b	-0.96463555
28	0xbf64d164	-0.89382005
29	0xbe9f1463	-0.3107024
30	0xbfaadf3d	-1.3349377
31	0xbfaea08b	-1.3642744
32	0x3f554b03	0.83317584
33	0xbf73c52d	-0.9522274
34	0xbfbf5348	-1.494729
35	0xbf95d3f8	-1.1705313
36	0xbf350af5	-0.70719844
37	0xbfad6135	-1.354529
38	0x3f9459cd	1.1589905
39	0xbf488084	-0.783211
40	0xbf28e71c	-0.65977645
41	0xbf42fe6d	-0.7616947
42	0xbde92e90	-0.11385834
43	0x3f483175	0.78200465
44	0xbfbb205a	-1.4619248
45	0xbf7d0bc3	-0.9884607
46	0x3ec3b39f	0.38222978
47	0x3f89cc45	1.0765463
48	0x3e1c9d95	0.15294488
49	0x3ed1ab15	0.40950838
50	0xbf4a2260	-0.789587
51	0xbec9c424	-0.39407456
52	0xbf43056c	-0.7618015
53	0xbec956a3	-0.3932391
54	0x3d6bba9e	0.05755102
55	0xbd8fdf4c	-0.070250124
56	0xbed0790c	-0.4071735
57	0xbeabf17c	-0.33582675
58	0xbe926991	-0.28596166
59	0xbf7e8a06	-0.9942936
60	0xbe7b9661	-0.24569084
61	0x3e7dd321	0.2478757
62	0xbf8e0f26	-1.1098373
63	0xbf65310a	-0.8952795

arith.constant4 f4 [32]
0	0x3f5716d0	0.84019184
1	0x3f90e620	1.1320229
2	0x3fd4b82e	1.6618707
3	0xbde774ce	-0.113015756
4	0x3e12d1e8	0.14337885
5	0xbe1c592f	-0.15268396
6	0xbd9ea133	-0.0774559
7	0x40375681	2.8646548
8	0x3ea68e71	0.3253055
9	0x3ee58c19	0.4483345
10	0x3f14211e	0.5786303
11	0xbf273e55	-0.65329486
12	0x3f8c6ef2	1.0971358
13	0x3f44d51b	0.76887673
14	0xbf0441b5	-0.5166276
15	0x3f44e09a	0.76905215
16	0x3f814052	1.0097754
17	0xbe3bf7f4	-0.18356305
18	0xbf5c8b95	-0.86150485
19	0xbf7fea6f	-0.9996709
20	0xbe41f5b7	-0.18941389
21	0x3f2ef0bb	0.68336076
22	0xbe0a4dce	-0.13506243
23	0xbd7dc407	-0.061954524
24	0xbecafb68	-0.39644933
25	0xbeed0f80	-0.46300888
26	0x3f3024a1	0.6880589
27	0xbf20acc1	-0.627636
28	0xbea678bb	-0.32513985
29	0x3f19ac5f	0.6002864
30	0x3e37442e	0.17897102
31	0xbf0d7208	-0.5525212

arith.constant5 f4 [64, 3, 3, 64]
0	0xbf1a09c9	-0.6017118
1	0xbf086016	-0.53271616
2	0x3f5171d2	0.818143
3	0x3efdb3b0	0.49551153
4	0xbfa242b4	-1.2676606
5	0xbf2a3aeb	-0.6649615
6	0x3c61ce03	0.013782027
7	0x3f40b736	0.7527956
8	0x3f4a52a4	0.7903235
9	0xbfc1f1d3	-1.5151924
10	0x3edad7ac	0.4274267
11	0xbf33c6ad	-0.7022503
12	0xbf186daa	-0.59542334
13	0x3e3139c7	0.17307197
14	0xbe88c255	-0.26710764
15	0xbfac56b5	-1.3463961
16	0xbf31a58c	-0.6939323
17	0x3f50f9ee	0.8163136
18	0xbead83e0	-0.33889675
19	0x3d2d4abf	0.04230761
20	0x3ed9661e	0.42460722
21	0xbde9f854	-0.11424318
22	0xbf848cac	-1.035543
23	0x3e8b6880	0.27228165
24	0x3f970a1d	1.1799961
25	0xbd9c2d43	-0.076258205
26	0x3f2a21a4	0.6645758
27	0xbf939567	-1.1529969
28	0xbe11b4e6	-0.14229164
29	0x3e13d2cc	0.14435881
30	0xbfa74ead	-1.3070885
31	0x3f60cb77	0.8781046
32	0x3ec3c842	0.38238722
33	0xbd0fe407	-0.035129573
34	0xbe0aedc8	-0.13567269
35	0x3ed78bf0	0.4209895
36	0xbf824772	-1.0178053
37	0xbf45edb1	-0.77315813
38	0x3faa5715	1.3307825
39	0x3e3b4058	0.18286264
40	0x3b88c70b	0.0041741184
41	0xbea9f909	-0.3319781
42	0x3d7cf3a0	0.061755776
43	0xbf1e3009	-0.61792046
44	0xbda1eb0c	-0.0790616
45	0x3f1c760f	0.61117643
46	0x3ee8f44b	0.4549888
47	0x3f9945eb	1.1974462
48	0xbdd4bee1	-0.1038797
49	0x3e1b6436	0.15174946
50	0xbf8f67c1	-1.1203538
51	0xbeabea72	-0.33577305
52	0xbe6d6d99	-0.2318634
53	0x3ca0f228	0.01964672
54	0x3f87bed3	1.060511
55	0x3e81ca2b	0.25349554
56	0xbf973609	-1.1813365
57	0x3e8eff08	0.27928948
58	0xbfe16e2a	-1.7611744
59	0x3f9b09d8	1.2112379
60	0x3f02f22d	0.5115078
61	0xbe5fd6e1	-0.21859314
62	0xbf2e445e	-0.6807307
63	0xbf16311d	-0.5866869
64	0xbf25a06a	-0.646979
65	0x3f216cbb	0.63056535
66	0xbfb67069	-1.4253055
67	0xbef4e84c	-0.47833478
68	0x3eb933a9	0.36172226
69	0xbf70d56c	-0.94075656
70	0xbed80314	-0.42189848
71	0x3e65fb2b	0.22459094
72	0x3efdcebd	0.4957179
73	0xbe13c655	-0.14431126
74	0xbfb96e2c	-1.4486747
75	0xbdc223ee	-0.09479509
76	0xbf552287	-0.8325581
77	0x3f2b13b2	0.6682693
78	0x3ec2ad86	0.38023013
79	0x3e9e1c54	0.30880988
80	0xbe874587	-0.26420233
81	0xbe4459b5	-0.19174846
82	0x3e6967e3	0.22793536
83	0x3f2ec74b	0.68272847
84	0xbe560b07	-0.20902644
85	0x3e06675b	0.13125364
86	0x3cff89e3	0.03119368
87	0xbf1ba8ca	-0.60804427
88	0xbf94d3ef	-1.1627177
89	0x3c9f0449	0.019411223
90	0xbde78ac7	-0.113057666
91	0xbea46650	-0.32109308
92	0xbf314e94	-0.69260526
93	0xbf0bb0d1	-0.54566675
94	0xbf373021	-0.71557814
95	0x3f8adea8	1.0849199
96	0xbe70709a	-0.23480454
97	0x3ecc96b4	0.39958727
98	0x3eac4b49	0.33651188
99	0xbe845715	-0.25847688
100	0xbcf2224d	-0.029557372
101	0xbb9d13b3	-0.004793608
102	0xbf9d0dc4	-1.2269826
103	0xbf303f61	-0.6884671
104	0xbe00d625	-0.1258169
105	0xbf1eb0e7	-0.6198868
106	0x3b2798b7	0.0025573203
107	0x3e4561db	0.1927561
108	0x3e911497	0.2833602
109	0x3f40b6b4	0.7527878
110	0x3e20fd2d	0.15721579
111	0x3e2aa09e	0.16662833
112	0x3e817ead	0.25291958
113	0x3e8c4500	0.27396393
114	0xbe0fcf41	-0.14043905
115	0xbe56fb35	-0.20994265
116	0x3f0d6de2	0.5524579
117	0x3df6c11d	0.12048552
118	0xbf44a883	-0.7681963
119	0xbfbcbb9f	-1.4744757
120	0x3f8a34d3	1.0797371
121	0xbe46f86e	-0.19430706
122	0x3efb4583	0.4907647
123	0x3f654aaa	0.89567053
124	0xbe05165a	-0.12996808
125	0xbf2b0ebf	-0.66819376
126	0xbf02a33f	-0.51030344
127	0x3ef3d769	0.47625282
128	0x3f052165	0.5200408
129	0x3f235ed7	0.6381659
130	0xbfa6d69b	-1.3034242
131	0xbeb97e53	-0.3622919
132	0x3e654430	0.22389293
133	0x3f288fb9	0.65844303
134	0x3ec54c73	0.3853489
135	0x3f690baa	0.9103342
136	0xc02c6bdc	-2.6940832
137	0x3e10985f	0.14120625
138	0xbdf2dec0	-0.118588924
139	0x3f243fd7	0.6415991
140	0x3eed22cc	0.4631561
141	0xbfa638f2	-1.2986128
142	0xbf2d4c00	-0.6769409
143	0x3bb58ad8	0.005540233
144	0xbed888a0	-0.42291737
145	0x3e0c93e5	0.13728292
146	0xbc712c47	-0.014720029
147	0xbf0852ed	-0.53251535
148	0x3d18fbb9	0.037349436
149	0xbc15dcb2	-0.009146856
150	0x3e4096b0	0.18807483
151	0xbe0d338a	-0.13789192
152	0xbfe305be	-1.7736127
153	0x3f2c98d6	0.6742071
154	0xbfbb9fa5	-1.4658095
155	0xbe81b752	-0.25335175
156	0xbec5385a	-0.38519555
157	0xbf08fb75	-0.5350869
158	0xbdaf7366	-0.085669324
159	0x3eaa6a58	0.3328426
160	0xbeae1e46	-0.34007472
161	0xbe8c3656	-0.27385205
162	0xbe07c2b9	-0.13257875
163	0x3ecf238e	0.40456814
164	0xbdb2899e	-0.08717655
165	0x3f2e705c	0.68140197
166	0xbfaa4da1	-1.330494
167	0x3eef48ad	0.46735135
168	0x3f10fb42	0.5663339
169	0xbe0f6c97	-0.14006267
170	0xbeb991cf	-0.36244056
171	0xbf0e2a46	-0.55533254
172	0x3ede77b7	0.4345071
173	0x3bb1126c	0.0054038074
174	0x3ea7bebf	0.32762715
175	0xbda10d9e	-0.078639254
176	0xbf2152db	-0.6301705
177	0x3ebe4e99	0.3716934
178	0x3f86a0a4	1.0517774
179	0x3ef2e69a	0.4744156
180	0x3e823b1c	0.25435722
181	0x3f13d132	0.5774108
182	0xbebb02d6	-0.365256
183	0x3f7d2c1a	0.9889542
184	0xbf99a2b5	-1.2002779
185	0xbfbeae64	-1.489697
186	0xbf2df66d	-0.6795414
187	0xbeb5eb43	-0.35531053
188	0xbf098cf0	-0.5373068
189	0xbf1a1fb8	-0.6020465
190	0x3d8e7dc8	0.069575846
191	0x3d694aa2	0.05695594
192	0xbf50690d	-0.81410295
193	0xbf29a0d4	-0.6626103
194	0xbf961362	-1.1724665
195	0x3f8b0998	1.0862303
196	0xbe8ba5cc	-0.2727493
197	0xbe1e0da0	-0.15434885
198	0xbf04c168	-0.51857615
199	0xbcf4201a	-0.029800463
200	0xbf76379f	-0.9617862
201	0x3f1efe81	0.6210709
202	0xbf06c933	-0.52650756
203	0xbe9c7ce5	-0.30564037
204	0xbed1d74e	-0.40984577
205	0x3e91526f	0.28383204
206	0xbe523ad6	-0.20530257
207	0xbe8cb3b9	-0.27480868
208	0xbf82736a	-1.0191472
209	0x3ef60e72	0.48057896
210	0xbf5fe6d1	-0.8746157
211	0x3eb53e34	0.3539902
212	0xbfdcc10d	-1.7246414
213	0xbecdb481	-0.40176776
214	0x3f4cc22a	0.7998377
215	0x3ebc1672	0.36735874
216	0x3ebfb47d	0.3744239
217	0xbf107f71	-0.5644446
218	0x3d183b52	0.037165947
219	0x3ef2b595	0.4740416
220	0x3f304b96	0.68865335
221	0xbfa3ddf0	-1.2802105
222	0xbf44446d	-0.7666691
223	0x3e99545e	0.2994718
224	0x3e745ab7	0.2386273
225	0x3eaff05a	0.3436306
226	0xbcb39530	-0.021921724
227	0x3db35c5e	0.08757852
228	0xbe79e265	-0.24402769
229	0x3f298f69	0.6623445
230	0x3f7175e6	0.94320524
231	0xbf86dee3	-1.053677
232	0xbd8e5015	-0.06948868
233	0x3f8ab4fe	1.0836484
234	0xbf70aef0	-0.94016933
235	0x3ed4fade	0.41597646
236	0xbf03fd78	-0.5155864
237	0x3e960ff2	0.2930904
238	0xbefc0966	-0.4922592
239	0xbe83d698	-0.2574966
240	0x3f9c24d0	1.2198734
241	0x3f01f8ed	0.50770456
242	0xbf35f3c0	-0.7107506
243	0xbd263149	-0.040574346
244	0x3fa4b5eb	1.2868017
245	0xbe9fb3e1	-0.31191924
246	0x3e75460d	0.23952504
247	0xbee6deb5	-0.45091787
248	0xbf9a8f59	-1.2074996
249	0x3ed98983	0.42487726
250	0xbf3d6910	-0.7398844
251	0xbe80c7f7	-0.2515256
252	0xbf5d35d5	-0.86410266
253	0x3eda92d7	0.42690155
254	0x3e9cf55f	0.30655953
255	0xbf43d8a5	-0.7650245

arith.constant6 f4 [64, 3, 3, 64]
0	0xbdc329dc	-0.095294684
1	0xbf0507ac	-0.5196483
2	0x3f9a8c7c	1.2074122
3	0x3f292ef8	0.66087294
4	0x3ec45f94	0.3835417
5	0x3f68fce7	0.910109
6	0xbe750ac8	-0.23929894
7	0xbf8d52a5	-1.1040846
8	0xbe955ab9	-0.29170778
9	0x3e4c2815	0.19937165
10	0xbcfc4ecc	-0.030799292
11	0x3e0a33fb	0.13496391
12	0xbf39c673	-0.72568434
13	0xbfb29cb6	-1.3954074
14	0x3ec90b03	0.39266214
15	0xbd9922ed	-0.07477365
16	0xbe231ca3	-0.15928893
17	0x3df85960	0.12126422
18	0x3e0096d7	0.12557541
19	0x3eb36a1a	0.35041887
20	0x3f0fbb44	0.5614512
21	0xbf300a5c	-0.6876581
22	0x3f2dd096	0.678964
23	0xbe97dce7	-0.29660723
24	0xbd62c0d5	-0.05535968
25	0xbd791ecf	-0.060820397
26	0xbf0d9690	-0.55307865
27	0xbf8265cf	-1.018732
28	0x3e199872	0.1499956
29	0xbf8baea8	-1.0912676
30	0x3d59cdfb	0.053174954
31	0x3d1f033c	0.038821444
32	0xbf0400d7	-0.5156378
33	0xbf5c1453	-0.8596851
34	0xbf7e89a1	-0.99428755
35	0x3eee549a	0.4654892
36	0x3e4c1c49	0.19932665
37	0x3ebef03b	0.37292656
38	0xbebb99c6	-0.36640757
39	0x3d07102d	0.03297441
40	0xbf359e0f	-0.70944303
41	0x3de2329c	0.11044809
42	0xbe00259e	-0.1251435
43	0xbf76c419	-0.9639297
44	0x3f140c7d	0.57831556
45	0xbea168cf	-0.31525275
46	0x3e19bcbb	0.15013401
47	0xbe9e3484	-0.3089944
48	0x3f272da6	0.6530403
49	0x3df295c1	0.118449695
50	0x3e567ffe	0.20947263
51	0x3e7f076b	0.24905173
52	0x3eb1d2be	0.34731096
53	0x3f3dadb2	0.74093163
54	0xbd4a842d	-0.04944246
55	0x3f27dfc9	0.65575844
56	0xbf5c1caf	-0.8598127
57	0xbe39aa9f	-0.18131493
58	0xbed9745f	-0.42471597
59	0x3f6d38fc	0.92665076
60	0xbf6c9e58	-0.92429113
61	0xbd87ecea	-0.06636985
62	0xbfc1a4b3	-1.5128387
63	0x3f730c9c	0.94941115
64	0x3f860085	1.0468909
65	0xbf514104	-0.8173983
66	0xbe712de3	-0.2355266
67	0xbe435a75	-0.19077475
68	0xbec32913	-0.38117275
69	0x3cf80746	0.030276906
70	0x3d7deacf	0.06199151
71	0xbf9aa22c	-1.2080741
72	0xbce2d368	-0.027688697
73	0x3e021099	0.12701644
74	0x3ddf3f9e	0.10900806
75	0xbeb61304	-0.35561383
76	0xbe0734dd	-0.1320376
77	0xbe2c0873	-0.16800098
78	0xbec277bf	-0.37981984
79	0x3e2aac4b	0.16667287
80	0xbeb55096	-0.35413045
81	0x3e0395e3	0.12850146
82	0xbe8f9b74	-0.2804829
83	0x3c84867d	0.01617741
84	0x3f4f3913	0.80946463
85	0xbf9477d9	-1.1599075
86	0x3e8dd5c6	0.2770216
87	0xbe23649f	-0.15956353
88	0xbe05f399	-0.13081206
89	0x3e9a20e5	0.30103222
90	0x3f46d8da	0.7767464
91	0xbe3d2245	-0.18470104
92	0xbe9adbf0	-0.30245924
93	0xbf2cc47d	-0.6748732
94	0x3e3618a6	0.1778284
95	0x3f2dc17d	0.67873365
96	0xbef7e5b1	-0.48417428
97	0x3eaf2d92	0.34214455
98	0xbf2f1b49	-0.6840101
99	0xbdbc7b8a	-0.09203251
100	0xbf083a04	-0.53213525
101	0x3d22f98a	0.03978876
102	0xbe80d69b	-0.2516373
103	0xbd996d68	-0.07491571
104	0xbf066755	-0.5250142
105	0xbe779464	-0.241777
106	0x3eb6c564	0.35697472
107	0xbe39cb19	-0.18143882
108	0xbea41c7f	-0.3205299
109	0x3f0f988d	0.5609215
110	0x3ee7cef4	0.4527508
111	0xbfbcd7db	-1.4753374
112	0xbe5a441e	-0.21315047
113	0xbe9dafe5	-0.3079826
114	0xbe52dc41	-0.20591833
115	0xbf279658	-0.6546378
116	0x3f81e5da	1.014827
117	0xbe8a5286	-0.27016085
118	0x3ea33d60	0.31882763
119	0x3e89c902	0.2691117
120	0xbf14dc40	-0.58148575
121	0x3f3d54b4	0.7395737
122	0xbe8b48d2	-0.27203995
123	0x3f31f8a8	0.69520044
124	0xbe48d544	-0.19612604
125	0xbe719934	-0.23593599
126	0xbf2bcc48	-0.67108583
127	0xbeb4811d	-0.35254756
128	0x3f0f04bf	0.55866617
129	0x3f61f1e4	0.8825972
130	0x3ea7b361	0.32754043
131	0x3e2bf94d	0.1679432
132	0x3ec5f52c	0.38663614
133	0xbf0b5284	-0.54422784
134	0xbf4b5dab	-0.794398
135	0x3ea63a7d	0.32466498
136	0xbe3779cc	-0.17917556
137	0xbd811cdd	-0.06304333
138	0xbec92c2e	-0.3929152
139	0xbe9a638e	-0.3015408
140	0xbefe6e83	-0.4969369
141	0x3e108f2a	0.14117113
142	0x3e7fd43c	0.24983305
143	0x3ea021ae	0.31275696
144	0x3ee75104	0.45178998
145	0x3e5af6ed	0.21383257
146	0x3e203905	0.15646751
147	0xbef51f1e	-0.47875303
148	0xbfb0ed7f	-1.3822478
149	0x3e901d83	0.28147516
150	0xbf03f4d3	-0.5154545
151	0x3e21cfcc	0.15801924
152	0x3efd910e	0.4952473
153	0xbd2bd280	-0.041948795
154	0xbf418742	-0.7559701
155	0xbfa0a635	-1.2550722
156	0xbea1aa8c	-0.3157543
157	0x3f6f12c4	0.9338801
158	0x3ec8466b	0.39116225
159	0x3f537da1	0.8261357
160	0xbf1a1877	-0.6019358
161	0xbeb35f61	-0.35033706
162	0xbe92a42d	-0.2864088
163	0x3f7f5995	0.99746066
164	0x3e66121f	0.2246785
165	0xbf146d9c	-0.5797975
166	0xbf218096	-0.6308683
167	0x3f235267	0.6379761
168	0xbecad1e6	-0.39613265
169	0x3f29b150	0.6628618
170	0xbf622cbd	-0.88349515
171	0xbf552117	-0.83253616
172	0x3f37ee14	0.71847653
173	0x3f29e903	0.6637117
174	0x3eef0c19	0.46688917
175	0x3f8616d1	1.0475713
176	0xbf8e19a4	-1.1101575
177	0xbdb0cbf6	-0.086326525
178	0x3eb7d30a	0.35903198
179	0x3f7b8d01	0.9826203
180	0x3edc81de	0.4306783
181	0xbf5cc8e2	-0.8624402
182	0xbf0c4155	-0.5478719
183	0xbf30321b	-0.68826455
184	0xbf9a9648	-1.2077112
185	0x3eaa2414	0.3323065
186	0xbe36de49	-0.17858233
187	0x3e2a3692	0.1662238
188	0x3f8651f6	1.0493762
189	0xbee8dbb3	-0.45480117
190	0xbfb2d7e8	-1.3972139
191	0xbdea45df	-0.11439108
192	0x3fcd22ac	1.6026206
193	0x3dc62481	0.09674931
194	0xbf0c0293	-0.5469143
195	0xbf0731a9	-0.5281015
196	0x3dc18dad	0.09450851
197	0xbf8123db	-1.0089067
198	0x3e4ad8e2	0.19809297
199	0xbe150d36	-0.14555821
200	0x3cba6799	0.022754477
201	0xbe4dd5f4	-0.20101148
202	0xbef38b69	-0.475673
203	0xbdac5e18	-0.084163845
204	0xbe552f6c	-0.20818871
205	0x3ed2ef47	0.4119818
206	0xbea2ecdf	-0.31821343
207	0x3e1237a0	0.14279032
208	0x3e398b5c	0.18119568
209	0x3f1e22d0	0.6177187
210	0xbe222840	-0.15835667
211	0xbd530498	-0.051518053
212	0xbeb3afbb	-0.3509501
213	0xbe300282	-0.17188457
214	0x3f2fec0a	0.6871954
215	0xbf638ea4	-0.8888953
216	0x3e57409d	0.21020742
217	0xbe53503b	-0.20636074
218	0xbd4ef0bd	-0.050522555
219	0x3f1689e4	0.58804154
220	0xbef5cfc5	-0.48010078
221	0xbefc186f	-0.4923739
222	0x3eb9da58	0.36299396
223	0xbf4f65f4	-0.81014943
224	0xbf8f44de	-1.1192892
225	0xbf047a14	-0.51748776
226	0xbe1d57cc	-0.15365523
227	0x3f803ded	1.0018898
228	0x3f277102	0.6540681
229	0x3f33479d	0.7003115
230	0xbe82a919	-0.25519636
231	0x3f0654ca	0.5247313
232	0xbe95f124	-0.29285538
233	0xbe64f4df	-0.22359036
234	0xbf4e3347	-0.80546993
235	0x3f7239b9	0.9461933
236	0xbeca5972	-0.39521366
237	0x3e03128e	0.12800047
238	0x3f7a6ed8	0.97825384
239	0x3f04488d	0.51673204
240	0xbe8b73fd	-0.2723693
241	0x3f1bf206	0.60916173
242	0x3e7c9d80	0.24669456
243	0xbeee07e9	-0.4649041
244	0xbf4af131	-0.7927428
245	0x3e8f3d4c	0.27976453
246	0x3e598236	0.21241078
247	0x3f267e80	0.65036774
248	0xbf566fc4	-0.8376429
249	0x3e81b8ba	0.25336248
250	0xbef54331	-0.47902825
251	0xbf76825f	-0.9629268
252	0xbe2bdf0d	-0.16784306
253	0xbe24b965	-0.16086347
254	0x3f2cf94c	0.67567897
255	0x3eb984e5	0.36234203

arith.constant7 f4 [64, 3, 3, 64]
0	0xbe84a922	-0.25910288
1	0x3ec186bd	0.3779811
2	0x3f6cc0f7	0.9248194
3	0x3b8a2019	0.004215252
4	0x3f1b37d5	0.6063207
5	0xbd97f7b5	-0.07420293
6	0x3e26559f	0.162436
7	0xbea90964	-0.33014977
8	0xbc4c3b88	-0.012465365
9	0x3ea486b4	0.3213402
10	0x3ea2549b	0.31705174
11	0xbe06b097	-0.13153301
12	0x3eb75ae9	0.35811546
13	0xba434364	-0.00074487017
14	0x3e6407cf	0.22268604
15	0x3b04c31e	0.00202579
16	0xbe388b03	-0.18021779
17	0x3e4e4b5f	0.2014594
18	0xbe5ab123	-0.21356635
19	0x3f50ee08	0.81613207
20	0x3e9e7349	0.3094733
21	0xbf795687	-0.97397655
22	0x3ef1fe57	0.47264358
23	0xbed87210	-0.42274523
24	0x3ee166e9	0.44023827
25	0xbf2e50b5	-0.680919
26	0x3d9a395f	0.07530474
27	0xbd472fa9	-0.048629437
28	0x3f3212b1	0.6955977
29	0xbf0848c1	-0.53236014
30	0xbf2b6523	-0.669512
31	0x3dcd46ca	0.100232676
32	0x3f10e036	0.5659212
33	0xbf378ad8	-0.71696234
34	0x3ea48730	0.3213439
35	0x3ce44ec1	0.027869584
36	0x3ee0fe74	0.43944132
37	0xbe775818	-0.24154699
38	0x3fe662d7	1.7998914
39	0xbf4c50f6	-0.79811037
40	0xbccfcda8	-0.02536662
41	0xbf4c1977	-0.79726356
42	0x3e86e70c	0.2634815
43	0x3ee21fcf	0.44164893
44	0xbf4a03c7	-0.78912014
45	0x3e560100	0.20898819
46	0x40023fa1	2.0351336
47	0x3f0721a4	0.52785707
48	0x3f63aba8	0.889338
49	0xbf40f965	-0.75380546
50	0x3f7224e0	0.94587517
51	0x3f6bd90f	0.9212808
52	0xbfb6af85	-1.4272314
53	0x3dff0840	0.124527454
54	0xbed9f38c	-0.42568624
55	0xbeaa8123	-0.33301648
56	0xbf28c031	-0.6591826
57	0x3ead8713	0.33892116
58	0x3f2148b1	0.63001543
59	0xbf0d173b	-0.5511357
60	0xbe00f1b5	-0.12592204
61	0xbf881288	-1.0630655
62	0x3f513199	0.81716305
63	0x3dfaa815	0.1223909
64	0x3c793526	0.0152104255
65	0x3ea18f75	0.31554762
66	0x3da65511	0.08121694
67	0xbb48aa6d	-0.003061916
68	0x3e3eb956	0.18625388
69	0xbf83a8b7	-1.0285863
70	0x3ee14122	0.43995005
71	0x3d92ab77	0.071616106
72	0xbec4c68c	-0.3843273
73	0xbf00c105	-0.50294524
74	0xbe541c36	-0.20713887
75	0x3e984f78	0.2974813
76	0x3f1d7f00	0.6152191
77	0x3f2ff9d9	0.6874061
78	0xbe937d3e	-0.2880649
79	0x3ebb5d49	0.36594608
80	0x3d8cae15	0.06869141
81	0xbdedde9a	-0.116147235
82	0xbf731369	-0.9495149
83	0x3f378478	0.71686506
84	0xbeb20d8c	-0.3477596
85	0xbf4185bd	-0.75594693
86	0xbe0208cf	-0.12698673
87	0x3eaad5fd	0.33366385
88	0xbf0234c3	-0.5086176
89	0xbfbb96ba	-1.4655373
90	0xbee1cf70	-0.44103575
91	0x3e3aa447	0.1822673
92	0xbf6a9228	-0.91629267
93	0xbdbf476c	-0.093397945
94	0xbe9ba1d6	-0.3039691
95	0xbefc96f8	-0.4933393
96	0xbc9a7179	-0.018852936
97	0x3f2b4604	0.6690371
98	0xbb361d6d	-0.0027788535
99	0x3e58afdc	0.21160835
100	0x3f141042	0.5783731
101	0xbec5696c	-0.38556993
102	0x3e254a0c	0.16141528
103	0xbe7c539a	-0.24641266
104	0x3ebabbc5	0.36471382
105	0xbfb07962	-1.3787043
106	0x3ee01c81	0.43771747
107	0xbe323f37	-0.17406927
108	0xbfa57eab	-1.2929281
109	0xbd36c035	-0.044616897
110	0x3fc54dda	1.5414383
111	0x3ebb66fd	0.3660201
112	0x3f89263e	1.0714796
113	0xbf8f3834	-1.1189027
114	0x3f11e26a	0.56986105
115	0x3eaa72cc	0.33290708
116	0x3eb423cb	0.35183558
117	0xbea0a3f7	-0.31375095
118	0xbd0e8a21	-0.0347997
119	0xbeafb2b8	-0.3431604
120	0xbf09d2aa	-0.5383707
121	0x3e158de0	0.14604902
122	0xbdf736d8	-0.120710075
123	0xbf078219	-0.5293289
124	0xbdea6a6f	-0.11446082
125	0xbe4d8816	-0.20071444
126	0xbe4b2e9d	-0.19842
127	0xbe27bf60	-0.16381598
128	0xbf82cdbd	-1.0219036
129	0xbd93da08	-0.072193205
130	0xbf2246c1	-0.6338921
131	0xbdc1904c	-0.094513506
132	0x3ec43745	0.38323417
133	0xbe12797c	-0.14304155
134	0x3e97057e	0.29496378
135	0x3e4a3271	0.19745804
136	0xbdfe8f28	-0.12429649
137	0xbf36dfd6	-0.71435297
138	0xbf1711cb	-0.59011525
139	0x3dbfaedf	0.09359526
140	0xbdcc4dd6	-0.099757835
141	0x3e375451	0.17903258
142	0xbea791eb	-0.32728514
143	0x3f62c930	0.8858824
144	0xbc00bda3	-0.007857713
145	0x3e81b056	0.25329846
146	0xbf31788b	-0.6932456
147	0x3f825874	1.0183244
148	0x3f1d40d1	0.61427027
149	0xbf29378e	-0.66100395
150	0xbfd57e15	-1.6679102
151	0x3f3907d5	0.72277576
152	0xbea91e39	-0.3303087
153	0xbdc026d3	-0.09382405
154	0xbf297922	-0.6620046
155	0x3d58c722	0.052924283
156	0x3daca1b3	0.08429279
157	0x3e914683	0.2837411
158	0x3f0176f6	0.50572145
159	0x3f138d13	0.5763714
160	0xbe68eef9	-0.22747411
161	0x3df1e192	0.11810602
162	0xbe691aee	-0.22764179
163	0x3f8bb95d	1.0915943
164	0x3f0b4e03	0.5441591
165	0x3e888ec7	0.2667143
166	0x3f31c1f5	0.6943658
167	0x3f2a69f6	0.66567934
168	0x3f84ace8	1.0365267
169	0xbf529591	-0.8225947
170	0xbe847dcf	-0.25877234
171	0x3ea89aff	0.32930753
172	0xbe9c7eae	-0.305654
173	0xbe4b306f	-0.19842695
174	0x3e9aa636	0.30204934
175	0x3e92b1ed	0.28651372
176	0x3f425fea	0.75927603
177	0x3da57f5a	0.08080931
178	0x3f7f0933	0.9962341
179	0xbe656d6c	-0.22405022
180	0x3f4d9aef	0.80314535
181	0x3e01b9aa	0.12668481
182	0xbe5c54cb	-0.21516721
183	0xbebabbc4	-0.3647138
184	0xbdb02569	-0.086008854
185	0xbee56fb4	-0.44811785
186	0x3f11616f	0.56789297
187	0x3e82ded6	0.25560635
188	0x3badf4d3	0.0053087263
189	0x3f29d83b	0.66345567
190	0x3f182aa9	0.59440094
191	0xbee73f95	-0.45165697
192	0x3ef8b9ee	0.48579353
193	0xbf21ff5a	-0.6328026
194	0xbefed7d9	-0.49774054
195	0xbe29c40d	-0.16578694
196	0x3fd21f6c	1.6415839
197	0xbf8a9f02	-1.0829775
198	0xbf500bfe	-0.812683
199	0xbc464963	-0.012102458
200	0xbf119ce5	-0.5688003
201	0xbf0d5571	-0.552085
202	0xbede51cb	-0.43421778
203	0x3dca38b7	0.09874099
204	0xbfa1408d	-1.2597824
205	0x3983d50b	0.00025144996
206	0x3ea5dcf9	0.3239515
207	0x3e32ec9c	0.17473072
208	0x3ecb016a	0.39649516
209	0x3ec4bf95	0.38427415
210	0x3e72fe29	0.23729767
211	0xbf31d7c0	-0.69469833
212	0x3f674cf1	0.9035178
213	0xbf3096ef	-0.68980306
214	0xbe5a8de5	-0.21343191
215	0x3f3c18f0	0.7347555
216	0x3e8014eb	0.2501596
217	0x3d003c03	0.03130723
218	0xbece2b7e	-0.40267557
219	0xbf15353b	-0.5828435
220	0xbe389898	-0.1802696
221	0x3f023f68	0.50878
222	0x3f15e647	0.585545
223	0xbf335ad4	-0.7006047
224	0xbf25f7f3	-0.64831465
225	0xbeedbd83	-0.46433648
226	0x3d326530	0.04355353
227	0x3bdbaee1	0.006704197
228	0xbe3e2efe	-0.18572614
229	0x3eca0e61	0.39464095
230	0xbefef7a2	-0.49798304
231	0xbf45fc74	-0.7733834
232	0xbef0ec01	-0.47055057
233	0xbf140504	-0.57820153
234	0xbe64ca4f	-0.223428
235	0xbeb38f0e	-0.3507008
236	0x3e8cd39e	0.275052
237	0xbeaba52b	-0.3352445
238	0xbef91649	-0.48649815
239	0xbe5b1177	-0.21393381
240	0xbf966c1d	-1.1751744
241	0xbea0c007	-0.31396505
242	0x3f127b0e	0.57219017
243	0x3e86df3f	0.26342198
244	0x3ea88360	0.3291273
245	0x3d710a33	0.058847617
246	0xbf293ba7	-0.6610665
247	0x3d2dd5f2	0.042440362
248	0xbf4f79fd	-0.81045514
249	0x3e4b4b02	0.19852832
250	0xbf9932e4	-1.1968656
251	0xbf280a59	-0.6564079
252	0x3ebcf268	0.3690369
253	0xbe91508e	-0.2838177
254	0x3dbe25cb	0.09284552
255	0x3e42974c	0.19003028

arith.constant8 f4 [64, 3, 3, 32]
0	0x3f24cea4	0.6437781
1	0xbdbb6eb3	-0.091519736
2	0x3e8cf515	0.27530733
3	0x3f0c672d	0.54844934
4	0x3f3fb48a	0.74884856
5	0xbf9dda57	-1.2332257
6	0xbf150c92	-0.58222306
7	0x3e46d018	0.19415319
8	0x3ea5c63d	0.32377806
9	0x3e938c3f	0.28817937
10	0x3e26896a	0.16263357
11	0xbfe4cf06	-1.7875679
12	0x3e549629	0.20760407
13	0x3e50e49b	0.20399706
14	0x3eb9bc5c	0.3627652
15	0xbfb3d013	-1.4047874
16	0x3eaf20b9	0.34204653
17	0xbe2b5d6d	-0.16734858
18	0x3b69a589	0.0035651645
19	0xbed2ccb5	-0.41171804
20	0x3eba1f93	0.36352214
21	0xbe6a27c6	-0.22866735
22	0x3f7b7f2e	0.98240936
23	0xbf1b77dc	-0.60729766
24	0x3e40b0cc	0.18817443
25	0xbee38d0b	-0.44443545
26	0xbf2bb70a	-0.6707617
27	0x3f30ab04	0.6901095
28	0x3e8b54eb	0.27213225
29	0xbefae616	-0.49003667
30	0xbf21a98e	-0.63149345
31	0xbe646be0	-0.22306776
32	0xbbb79036	-0.005601908
33	0xbf2922fa	-0.66068995
34	0xbedea62d	-0.43486157
35	0x3dfbfcf6	0.12304108
36	0x3aa73c2b	0.001275902
37	0xbef6e74e	-0.48223346
38	0xbebffbd4	-0.37496817
39	0x3ec30295	0.38087907
40	0xbe144b6e	-0.14481899
41	0x3d9dac19	0.07698841
42	0x3d84c8fa	0.06483646
43	0xbf78e144	-0.9721873
44	0x3f6ca2f7	0.92436165
45	0xbdaf7562	-0.08567311
46	0x3d60de7a	0.05489967
47	0xbdea1bc2	-0.11431076
48	0x3bc7ed4f	0.0061012874
49	0x3d26ddaa	0.04073874
50	0xbe1e2d80	-0.15447044
51	0xbe60a150	-0.21936536
52	0xbdb651f8	-0.08902353
53	0x3e3190d1	0.173404
54	0xbf19bd1d	-0.6005419
55	0xbeace9da	-0.33772165
56	0x3e651c60	0.22374105
57	0xbeab1a4d	-0.33418503
58	0xbeee54cf	-0.4654908
59	0xbe8ca785	-0.27471557
60	0x3f17a254	0.5923207
61	0x3dc8797a	0.09788795
62	0xbe261b9e	-0.16221473
63	0xbee329e2	-0.44367892
64	0x3e8cc2f6	0.27492493
65	0xbec079ba	-0.3759287
66	0xbf259b1b	-0.646898
67	0x3ea7374a	0.3265937
68	0x3f8384a5	1.0274855
69	0xbf4c0818	-0.7969985
70	0xbe9e9e0f	-0.30979964
71	0x3ef8147a	0.48453122
72	0x3ed39a81	0.41328815
73	0xbe9ba6cc	-0.30400693
74	0x3e8edd91	0.27903417
75	0xbf5091e9	-0.8147264
76	0x3e3dd79a	0.18539277
77	0xbde5b78c	-0.112166494
78	0x3ecbafce	0.39782566
79	0xbde49f53	-0.11163201
80	0x3cc1c9c8	0.023655787
81	0xbd1e5093	-0.03865106
82	0x3f4d345e	0.8015803
83	0xbca90469	-0.020631986
84	0xbf2d1a83	-0.6761858
85	0xbf22d8f7	-0.6361231
86	0xbdbcc828	-0.09217864
87	0xbf5b9888	-0.8577962
88	0xbef80df1	-0.48448136
89	0x3d266d0d	0.040631343
90	0xbea5eba5	-0.32406345
91	0x3f42853e	0.7598456
92	0x3ee5b47b	0.44864258
93	0xbf83ecc1	-1.0306627
94	0x3d826599	0.063670345
95	0xbed1e3f4	-0.40994227
96	0x3dd06dba	0.10177179
97	0xbd3f2ae3	-0.04667176
98	0x3ded0ebc	0.11575076
99	0x3f0507e7	0.51965183
100	0xbf16800e	-0.58789146
101	0x3eb03e08	0.34422326
102	0x3d527ef3	0.0513906
103	0xbe41ae45	-0.18914135
104	0xbf0f484f	-0.5596971
105	0xbd8a404a	-0.067505434
106	0x3d8e6954	0.069536835
107	0xbce91fd7	-0.028457565
108	0x3f3b2c93	0.7311489
109	0xbd792080	-0.06082201
110	0xbe170e3a	-0.14751521
111	0xbf73f904	-0.9530184
112	0xbf1be590	-0.6089716
113	0xbe7f585e	-0.24936053
114	0x3ec720d1	0.38892224
115	0xbf836d2c	-1.0267692
116	0x3fa8a472	1.3175185
117	0xbe9d7ac4	-0.30757725
118	0x3f0db2d8	0.5535102
119	0x3f3b4ce5	0.73164207
120	0xbd6da5a3	-0.05801929
121	0xbec0cb63	-0.37655172
122	0x3e9885a2	0.29789454
123	0x3de398d3	0.11113133
124	0x3dc35e25	0.09539441
125	0x3e9d4323	0.30715284
126	0xbe9ab365	-0.30214992
127	0x3e95a391	0.29226354
128	0x3ed61e1f	0.41819856
129	0xbe02fe9f	-0.12792443
130	0x3e7512d3	0.23932962
131	0xbe79e902	-0.24405292
132	0xbeadc851	-0.33941892
133	0xbeba2186	-0.363537
134	0x3e82012b	0.25391516
135	0xbe689fe0	-0.22717237
136	0x3bbf0326	0.0058292327
137	0x3e8e5244	0.2779714
138	0xbef57936	-0.4794404
139	0x3c3df05e	0.011592953
140	0xbed94f40	-0.42443275
141	0xbef76753	-0.48321018
142	0xbda7d8d9	-0.08195657
143	0xbf37382d	-0.7157009
144	0xbd3f4f59	-0.04670653
145	0x3e6fbc95	0.23411782
146	0x3ec8c9cd	0.39216462
147	0xbf314e9a	-0.6926056
148	0x3e7d3827	0.24728452
149	0x3e9fc168	0.31202245
150	0x3e2762e5	0.16346319
151	0x3eb66549	0.3562415
152	0xbe8e839e	-0.2783479
153	0x3e95774f	0.29192588
154	0x3af0263a	0.0018321939
155	0xbf144062	-0.5791074
156	0xbe7cc107	-0.24683009
157	0x3e3645b9	0.17800035
158	0x3f0d3692	0.5516139
159	0x3e5527cc	0.20815963
160	0xbdbc979d	-0.092086054
161	0xbf0c4a87	-0.5480122
162	0x3e8223bc	0.25417888
163	0xbd3e8e3c	-0.046522364
164	0xbe9bd7a7	-0.30437967
165	0x3e4b7a26	0.19870815
166	0x3f0277f2	0.5096427
167	0x3ef8e7fb	0.48614487
168	0xbeee17f9	-0.46502665
169	0xbe36b8ed	-0.17843981
170	0xbf0581cf	-0.521512
171	0xbec99805	-0.39373794
172	0xbdff1c25	-0.1245654
173	0xbf105a33	-0.56387633
174	0x3cef85ed	0.029238665
175	0xbe00b6e9	-0.12569775
176	0xbe06a711	-0.13149668
177	0xbe2f8dc1	-0.17143919
178	0x3e369f0b	0.17834108
179	0xbfac32ee	-1.3453043
180	0x3e8fe52d	0.28104535
181	0xbf229724	-0.6351187
182	0x3f1c6aa7	0.6110024
183	0x3ee981f8	0.4560697
184	0x3da67e14	0.08129516
185	0x3db91a37	0.09038203
186	0x3f98918a	1.1919415
187	0x3e87e299	0.26540068
188	0x3e884957	0.26618454
189	0x3e06bb60	0.13157415
190	0x3ddb8a21	0.107197054
191	0xbf5bce02	-0.8586122
192	0x3f24c1de	0.6435832
193	0x3f1294d4	0.57258344
194	0x3de16ab7	0.11006682
195	0x3f9494b5	1.1607882
196	0xbf96b173	-1.1772903
197	0xbff5fc0b	-1.9217542
198	0x3ec732ed	0.3890604
199	0x3db8bedc	0.090207785
200	0xbf3b81c0	-0.7324486
201	0x3d55b80f	0.052177485
202	0x3e658de6	0.22417411
203	0xbfaadcb8	-1.3348608
204	0x3e765c28	0.24058592
205	0x3f1c7884	0.6112139
206	0x3f0b2b6c	0.5436313
207	0xbf349db0	-0.7055311
208	0x3e658809	0.22415175
209	0x3fd61bd3	1.6727241
210	0x3ee2fffd	0.4433593
211	0xbe8a0b98	-0.2696197
212	0x3f423347	0.75859493
213	0xbed1d8b7	-0.40985653
214	0x3f959428	1.1685839
215	0xbf53e8db	-0.82777184
216	0x3ede5ee9	0.43431786
217	0x3d3fda4c	0.046839043
218	0xc02337a9	-2.5502722
219	0x3e43f352	0.19135788
220	0x3f22b066	0.6355041
221	0xbf1213db	-0.5706155
222	0xbf42638f	-0.75933164
223	0xbfb3766f	-1.4020518
224	0xbe454cdb	-0.192676
225	0x3d6ca959	0.05777869
226	0xbcc97d25	-0.024595806
227	0x3dc31d4e	0.09527074
228	0xbdde73db	-0.108619414
229	0xbf17b368	-0.5925813
230	0x3e8d3a1f	0.27583405
231	0xbc9a0c75	-0.018804768
232	0xbdeae7ac	-0.11469969
233	0x3e88a655	0.266894
234	0xbcea1fd0	-0.028579623
235	0xbf3dfeb6	-0.74216783
236	0x3f0bbbc7	0.545834
237	0xbcf669a2	-0.030079667
238	0xbe8fea53	-0.28108463
239	0x3e24171d	0.16024442
240	0xbe63eb0a	-0.22257629
241	0x3e342262	0.17591241
242	0x3e8e2e2b	0.27769598
243	0x3e6f249d	0.2335381
244	0xbd37759c	-0.044789895
245	0xbdaa3bca	-0.08312185
246	0xbea121c0	-0.31471062
247	0x3dea75dd	0.11448262
248	0xbe9905d8	-0.2988727
249	0xbeb8c721	-0.36089423
250	0xbf73ffbc	-0.95312095
251	0xbf488b73	-0.7833778
252	0x3ea8ba2b	0.32954535
253	0xbe745bea	-0.23863187
254	0xbec37e9e	-0.3818254
255	0xbf23b8a3	-0.6395361

arith.constant9 f4 [32, 3, 3, 32]
0	0xbebb3b59	-0.36568716
1	0xbe5e6eaa	-0.21721902
2	0xbd4a7bc9	-0.049434457
3	0xbe23db2f	-0.1600158
4	0xbe9b2db3	-0.30308303
5	0x3eb825b7	0.35966274
6	0x3d99500b	0.0748597
7	0x3f2acdd4	0.6672032
8	0xbe3fc3b1	-0.18726994
9	0xbe57e040	-0.21081638
10	0x3c26350f	0.010144486
11	0xbf0f71e8	-0.5603318
12	0xbdcfca3b	-0.10145994
13	0xbe48f594	-0.1962493
14	0xbede3066	-0.433963
15	0xbeb86f6b	-0.36022505
16	0x3e9b2aaa	0.30305988
17	0x3ea34479	0.31888178
18	0x3f0c38f6	0.54774415
19	0xbea43d61	-0.32078078
20	0xbee8d793	-0.4547697
21	0x3f5a9da8	0.85396814
22	0xbf1085c3	-0.56454104
23	0x3e9b86ea	0.3037637
24	0x3db04da3	0.08608558
25	0x3e25a520	0.16176271
26	0x3c971aab	0.018445333
27	0x3ef76be9	0.48324516
28	0xbf467ac6	-0.7753109
29	0xbf311653	-0.6917469
30	0xbf9055e5	-1.1276213
31	0x3e89e11c	0.26929557
32	0xbe49ee86	-0.19719896
33	0x3dae5baa	0.08513577
34	0xbe7f87bc	-0.24954122
35	0xbdfe9ba4	-0.1243203
36	0xbf58326f	-0.84451956
37	0x3e04e462	0.12977746
38	0x3de912b4	0.113805205
39	0x3eba6d78	0.36411643
40	0x3d68557d	0.056722153
41	0xbee095c9	-0.43864277
42	0x3e703cb9	0.23460664
43	0xbe954b23	-0.29158887
44	0xbd9c131d	-0.07620833
45	0xbe75d481	-0.24006845
46	0xbf0fc5da	-0.5616127
47	0xbc9f9638	-0.01948081
48	0xbe199478	-0.14998043
49	0x3e42afd2	0.19012383
50	0x3e09a775	0.13442786
51	0xbe1c6ab2	-0.15275076
52	0xbe2cb4c8	-0.16865838
53	0x3f349d32	0.7055236
54	0xbf467030	-0.77514935
55	0xbe13de6d	-0.14440317
56	0x3da11d97	0.07866972
57	0x3e315e7f	0.17321204
58	0xbe86d193	-0.26331767
59	0x3e9facba	0.31186467
60	0xbe853301	-0.26015475
61	0x3e79c6dd	0.24392267
62	0xbf9e3aa1	-1.2361642
63	0x3f8f5bfe	1.1199949
64	0x3e5fe7b5	0.21865733
65	0x3dc0828d	0.093999006
66	0x3f1b5b52	0.6068622
67	0x3e457cab	0.19285838
68	0xbee47ff0	-0.4462886
69	0xbe8b9960	-0.27265453
70	0x3f14dc75	0.5814889
71	0x3e81cf3e	0.25353426
72	0x3d0e2707	0.034705188
73	0xbd5cfa26	-0.053949498
74	0x3e71dff1	0.23620583
75	0xbe644fb3	-0.22296028
76	0xbd125e98	-0.035734743
77	0xbe861506	-0.26187915
78	0xbea601f6	-0.3242337
79	0x3e88ca00	0.26716614
80	0xbe574138	-0.21020973
81	0x3ec5b13f	0.3861179
82	0x3ed619ff	0.41816708
83	0xbec94fad	-0.393186
84	0x3d9f5169	0.077792
85	0x3e842506	0.25809497
86	0xbe756433	-0.23964004
87	0x3c81e1d0	0.015854746
88	0xbd22f71e	-0.03978645
89	0xbecfd001	-0.40588382
90	0x3d586bad	0.052837063
91	0x3dc5465c	0.096325606
92	0xbe198fc0	-0.14996243
93	0xbf132f56	-0.57494104
94	0xbec3a111	-0.3820882
95	0x3b642338	0.003481103
96	0x3e9fc87d	0.31207648
97	0xbe8bb8e7	-0.27289507
98	0x3c65852a	0.0140088
99	0xbdab45de	-0.083629355
100	0x3dfeda84	0.12444022
101	0xbfece668	-1.8507814
102	0x3c9acfb8	0.018897876
103	0x3e5b62dc	0.2142443
104	0x3ebea6ec	0.37236726
105	0xbf8e787d	-1.113052
106	0xbf0fb985	-0.56142455
107	0x3f8888f9	1.0666801
108	0x3c1b2749	0.0094698155
109	0x3efeb729	0.49749115
110	0xbf0a5b41	-0.5404549
111	0x3e7def34	0.2479828
112	0x3e2866e4	0.164455
113	0x3eabaca1	0.33530143
114	0xbfc5f2f1	-1.5464765
115	0x3f83a3a5	1.0284315
116	0x3ebc37ab	0.3676122
117	0x3e79712c	0.24359578
118	0x3eab4d68	0.33457494
119	0xbd565776	-0.052329503
120	0x3ccc5557	0.024943037
121	0x3d96072b	0.07325586
122	0x3d6fbd5e	0.058530204
123	0xbfe58e94	-1.7934136
124	0xbedf535b	-0.43618283
125	0x3d30056a	0.042973913
126	0xbe7d26e8	-0.24721873
127	0xbf4375d5	-0.7635167
128	0x3eba4123	0.3637782
129	0xbdad2109	-0.084535666
130	0x3ebd3cc1	0.36960414
131	0x3ec4db31	0.3844848
132	0xbe68a953	-0.22720842
133	0xbf45503b	-0.77075547
134	0xbdc0fa0e	-0.09422694
135	0x3e9538c0	0.2914486
136	0x3e9596a9	0.29216507
137	0xbf9c4d73	-1.2211136
138	0xbf99d7ed	-1.201902
139	0x3f6a7431	0.91583544
140	0x3a13c127	0.0005636387
141	0x3c971628	0.018443182
142	0xbf56ff16	-0.8398298
143	0xbea14e84	-0.31505215
144	0x3ea1acff	0.31577298
145	0x3ec6904d	0.38781968
146	0xbf38cb33	-0.7218506
147	0x3f3035ba	0.6883198
148	0x3f5b85a3	0.8575079
149	0x3ed04d80	0.40684128
150	0x3e873106	0.2640459
151	0x3de9dfdc	0.11419651
152	0xbedad4c4	-0.42740452
153	0x3e32f150	0.17474866
154	0xbe057493	-0.13032751
155	0xbf9a7446	-1.2066734
156	0xbee4bb74	-0.44674265
157	0x3e8fa05e	0.28052038
158	0xbe230a3e	-0.15921876
159	0xbf408b70	-0.75212765
160	0x3ecea780	0.40362167
161	0xbe88002f	-0.2656264
162	0xbfdb762d	-1.7145439
163	0xbe81f5dd	-0.2538289
164	0xbf3d2fcd	-0.73901063
165	0xbd367495	-0.044544775
166	0x3e0f09e6	0.1396862
167	0x3f1b237f	0.6060104
168	0x3f039889	0.51404625
169	0xbe3c6d9a	-0.18401185
170	0x3f3b515e	0.7317103
171	0x3e830453	0.25589237
172	0x3d9350c7	0.071931414
173	0x3e14f5a1	0.14546825
174	0xbe98767c	-0.29777896
175	0x3f7a56b8	0.9778857
176	0xbfabaf3d	-1.3412853
177	0x3f6ee235	0.93313915
178	0x3ebd4de2	0.36973482
179	0x3ea754ba	0.3268183
180	0x3f04eb01	0.5192109
181	0x3ea8cc95	0.32968584
182	0x3f4c37bf	0.7977256
183	0x3f72c202	0.9482728
184	0x3ea1c45b	0.3159512
185	0xbe60a185	-0.21936615
186	0x3f27a881	0.6549149
187	0x3ea18b00	0.3155136
188	0x3eb5104b	0.35363993
189	0x3f5c934b	0.8616225
190	0xbea7b886	-0.32757968
191	0x3e99c291	0.30031255
192	0xbf6612ad	-0.89872247
193	0xbef1f5f6	-0.47257966
194	0x3ee33ff4	0.4438473
195	0xbd8f3fb7	-0.069945745
196	0x3ed496f2	0.41521412
197	0xbd9acec7	-0.07558971
198	0xbfdc6314	-1.7217736
199	0xc02a3491	-2.6594584
200	0xbf98904e	-1.1919038
201	0xbf314caf	-0.69257635
202	0xbef809f2	-0.48445088
203	0xbf8c2245	-1.0947958
204	0xc00038c6	-2.0034652
205	0xbe1826a8	-0.14858496
206	0x3dc00b37	0.09377139
207	0xbf7bb366	-0.98320615
208	0x3ee80ee9	0.45323876
209	0x3e1e676a	0.15469137
210	0xbf49277f	-0.7857589
211	0x3eee7176	0.4657094
212	0x3f6ea297	0.9321684
213	0xbf5d263a	-0.86386454
214	0x3e33ec95	0.17570718
215	0xc0339cf6	-2.8064551
216	0x3f0ca639	0.54941136
217	0x3e3486cb	0.17629544
218	0xc01a1aa7	-2.4078767
219	0xbf47fe4f	-0.7812242
220	0x3e1bd8b2	0.15219381
221	0xbe57ec94	-0.21086341
222	0x3f069bd5	0.5258153
223	0x3ef345d8	0.47514224
224	0xbf7611b6	-0.96120775
225	0x3ea69b7d	0.32540503
226	0xbe7f5942	-0.24936393
227	0xbef550b9	-0.4791315
228	0xbeecc50c	-0.46244085
229	0xbe716bfc	-0.23576349
230	0xc01d8ea2	-2.4618306
231	0xc0468982	-3.1021428
232	0xbf40c7a3	-0.7530462
233	0xbf344dc4	-0.7043116
234	0xbec0aed5	-0.37633386
235	0xbf8626bd	-1.0480572
236	0xc011bd11	-2.2771647
237	0x3d2d400c	0.042297408
238	0xbe034ca1	-0.128222
239	0xbfb8acfd	-1.4427792
240	0x3f40c0a8	0.7529397
241	0xbf279c95	-0.654733
242	0xbf195d04	-0.59907556
243	0x3f0b39d0	0.5438509
244	0x3f51cdab	0.8195445
245	0xbe899454	-0.26870978
246	0xbe982e03	-0.29722604
247	0xc02d4154	-2.7071123
248	0xbf4e2cab	-0.8053691
249	0xbf23da85	-0.6400531
250	0xc0025277	-2.0362833
251	0xbf02a2d2	-0.51029694
252	0xbd34c2b9	-0.044131014
253	0xbdd5e270	-0.1044358
254	0x3f0794fb	0.529617
255	0x3d1a5e32	0.037687488

arith.constant10 f4 [4, 32]
0	0xbf988284	-1.191483
1	0x3de3aed9	0.11117334
2	0xbf819b20	-1.0125465
3	0x3e82740b	0.2547916
4	0x3f82985c	1.0202746
5	0xbbb89098	-0.0056324713
6	0xbfb9aad8	-1.4505262
7	0xbf90db93	-1.1317009
8	0xbe37e057	-0.17956673
9	0xbe182d08	-0.14860928
10	0xbe0bfbba	-0.13670245
11	0x3dbbed01	0.09176064
12	0x3c4224ad	0.0118495645
13	0x3e2ea2e0	0.1705432
14	0x3ff074dd	1.8785664
15	0x3d2cb4b3	0.042164516
16	0x3ff5da74	1.9207292
17	0x3d90e322	0.07074572
18	0x3ed3b457	0.41348526
19	0xbeeff865	-0.46869197
20	0x3d3c3b07	0.04595473
21	0xbe8785d0	-0.26469278
22	0xbda17181	-0.07882977
23	0xbec7c054	-0.39013922
24	0xbe1bd00c	-0.15216082
25	0xbf6d522b	-0.92703503
26	0x3e5a1fbe	0.21301171
27	0x3f5d6e84	0.8649676
28	0xbe40b4a0	-0.18818903
29	0x3d7f2bfb	0.062297802
30	0x3e8a0c54	0.2696253
31	0xbf2463ba	-0.6421467
32	0x3f7449e9	0.9542528
33	0xbdd526db	-0.10407802
34	0x3e1d3c89	0.15355124
35	0xbfa7accb	-1.3099607
36	0xbf3ce10b	-0.7378089
37	0xbbd98efb	-0.006639359
38	0x3fd01536	1.6256473
39	0x3ecaf716	0.39641637
40	0xbe2a256e	-0.16615841
41	0xbe18895b	-0.14896147
42	0xbe0c2200	-0.13684845
43	0x3dc04dc6	0.09389834
44	0x3e748d58	0.23882043
45	0x3e30f8f4	0.17282468
46	0xbfd3b30d	-1.6539017
47	0x3d28509e	0.041092508
48	0x40061bf9	2.0954573
49	0x3d916397	0.070990734
50	0x3f2af52c	0.6678035
51	0xbf4c0bf7	-0.79705757
52	0x3d1a036a	0.037600912
53	0xbe9494a0	-0.29019642
54	0xbd3d2a27	-0.046182778
55	0xbe83023c	-0.25587642
56	0xbe31a050	-0.1734631
57	0xbf7b4030	-0.9814482
58	0x3e4271b6	0.1898869
59	0xbf65a84c	-0.89709926
60	0xbe40b81f	-0.18820237
61	0x3da99654	0.08280626
62	0x3eaed58b	0.34147295
63	0x3f6ed596	0.93294656
64	0xbf67a7de	-0.9049052
65	0x3d8f3f29	0.06994469
66	0x3e012557	0.126119
67	0x3f1a1a2f	0.60196203
68	0xbf75506d	-0.95825845
69	0xbc65b2a3	-0.014019641
70	0x3ff860b7	1.9404515
71	0x3eea6c7c	0.45785892
72	0xbe25c80d	-0.16189595
73	0xbe193e22	-0.14965108
74	0xbe0beba6	-0.13664111
75	0x3dae2507	0.08503156
76	0x3d8de7bf	0.06928968
77	0x3e2e5a91	0.17026736
78	0x3ff18640	1.8869095
79	0x3d26596a	0.040612616
80	0xbfea6f1f	-1.8315161
81	0x3d91ba5b	0.071156226
82	0x3f0a4d48	0.5402417
83	0x3f63011f	0.88673586
84	0x3e4b3454	0.1984418
85	0xbee22daf	-0.4417548
86	0xbe9f2ece	-0.31090397
87	0x3de29b4e	0.11064778
88	0xbe19d9de	-0.15024516
89	0x3f91acb1	1.1380826
90	0x3e1e2aca	0.1544601
91	0xbf89ab23	-1.0755352
92	0xbe414069	-0.18872227
93	0x3ce485c7	0.027895821
94	0xbf87e119	-1.0615569
95	0xbf9b44f5	-1.2130419
96	0x3f10d4d6	0.5657476
97	0x3d71450b	0.058903735
98	0x3e6255e9	0.22103085
99	0x3e94a389	0.29031017
100	0x3eefc26b	0.46828017
101	0xbc9771b8	-0.018486843
102	0xbe65d73b	-0.22445385
103	0x3f300e77	0.6877207
104	0xbd8a78cb	-0.06761321
105	0xbe18728b	-0.14887445
106	0xbe0c056e	-0.13673946
107	0x3dcf57e9	0.101241894
108	0x3e8e3155	0.27772012
109	0x3e2f1126	0.17096385
110	0xbf19da92	-0.60099137
111	0x3d2798a2	0.040917046
112	0xbf4aff65	-0.7929595
113	0x3d91c4f2	0.071176425
114	0xc050cc45	-3.2624676
115	0x3e824604	0.25444043
116	0xbfc2a335	-1.5206057
117	0x40530f32	3.2978024
118	0xbe72374b	-0.23653905
119	0x3e4877fb	0.19577019
120	0xbdeab611	-0.11460508
121	0x3f75fde4	0.9609053
122	0x3e885b9c	0.26632392
123	0x3e568d39	0.2095231
124	0xbe41780a	-0.18893448
125	0x3d7bf95e	0.061517112
126	0x3ea1d1cd	0.31605378
127	0x3ece17da	0.40252572
