Model/cnn1.tflite (tflite, 171256 bytes, 19 tensors)

tfl.pseudo_qconst1 i1 [4, 32]
27 50 -57 -16 22 25 -11 -53
-19 -26 -26 28 58 46 -67 27
-32 127 -116 26 20 -22 19 -2
-31 30 42 -13 -7 -22 6 9
-16 -102 120 -29 32 12 65 64
2 -15 -32 9 -49 -62 -103 -65
-85 127 18 10 19 -24 -32 15
65 15 28 -18 -13 -20 -114 -9
-61 58 127 5 -28 9 -34 -40
26 3 -22 -12 9 -34 -15 36
42 -88 40 11 18 24 -4 16
-29 -28 -78 -4 15 28 14 -26
72 -45 -53 -4 43 30 25 21
-21 13 -27 -2 -64 46 77 -83
37 -93 50 11 -127 7 -1 -108
-4 17 36 -11 10 -9 62 -21
00000000: 1b32 c7f0 1619 f5cb ede6 e61c 3a2e bd1b
00000010: e07f 8c1a 14ea 13fe e11e 2af3 f9ea 0609
00000020: f09a 78e3 200c 4140 02f1 e009 cfc2 99bf
00000030: ab7f 120a 13e8 e00f 410f 1cee f3ec 8ef7
00000040: c33a 7f05 e409 ded8 1a03 eaf4 09de f124
00000050: 2aa8 280b 1218 fc10 e3e4 b2fc 0f1c 0ee6
00000060: 48d3 cbfc 2b1e 1915 eb0d e5fe c02e 4dad
00000070: 25a3 320b 8107 ff94 fc11 24f5 0af7 3eeb

tfl.pseudo_qconst3 i1 [32, 64]
0 0 1 0 0 0 0 -60
0 0 0 0 -87 127 0 0
0 0 0 0 0 0 0 0
0 0 0 0 0 -60 -75 0
0 0 0 0 0 0 0 0
0 0 0 0 0 0 0 0
0 0 0 0 0 0 0 0
0 0 0 0 0 0 0 -36
0 0 0 0 0 0 0 -63
0 0 0 0 127 -74 0 0
0 0 0 0 0 0 0 0
0 0 0 0 0 95 -40 0
0 0 0 0 0 0 0 0
0 0 0 0 0 0 0 0
0 0 0 0 0 0 0 0
0 0 0 0 0 0 0 -3
0 0 0 0 0 0 0 -83
0 0 0 0 -58 127 0 0
0 0 0 0 0 0 0 0
0 0 0 0 0 107 -24 0
0 0 0 0 0 0 0 0
0 0 0 0 0 0 0 0
0 0 0 0 0 0 0 0
0 0 0 0 0 0 0 38
0 0 0 0 0 0 0 0
0 0 0 0 0 0 0 0
0 0 0 0 0 0 0 0
0 0 0 0 0 0 0 0
0 0 0 0 0 0 0 0
0 0 0 0 0 0 0 0
0 0 0 0 0 0 0 0
0 0 0 0 0 0 0 0
00000000: 0000 0100 0000 00c4 0000 0000 a97f 0000
00000010: 0000 0000 0000 0000 0000 0000 00c4 b500
00000020: 0000 0000 0000 0000 0000 0000 0000 0000
00000030: 0000 0000 0000 0000 0000 0000 0000 00dc
00000040: 0000 0000 0000 00c1 0000 0000 7fb6 0000
00000050: 0000 0000 0000 0000 0000 0000 005f d800
00000060: 0000 0000 0000 0000 0000 0000 0000 0000
00000070: 0000 0000 0000 0000 0000 0000 0000 00fd
00000080: 0000 0000 0000 00ad 0000 0000 c67f 0000
00000090: 0000 0000 0000 0000 0000 0000 006b e800
000000a0: 0000 0000 0000 0000 0000 0000 0000 0000
000000b0: 0000 0000 0000 0000 0000 0000 0000 0026
000000c0: 0000 0000 0000 0000 0000 0000 0000 0000
000000d0: 0000 0000 0000 0000 0000 0000 0000 0000
000000e0: 0000 0000 0000 0000 0000 0000 0000 0000
000000f0: 0000 0000 0000 0000 0000 0000 0000 0000

tfl.pseudo_qconst5 i1 [64, 128]
0 0 0 0 0 0 0 0
0 0 0 0 0 0 0 0
0 0 0 0 0 0 0 0
0 0 0 0 0 0 0 0
0 0 0 0 0 0 0 0
0 0 0 0 0 0 0 0
0 0 0 0 0 0 0 0
0 0 0 0 0 0 0 0
0 0 0 0 0 0 0 0
0 0 0 0 0 0 0 0
0 0 0 0 0 0 0 0
0 0 0 0 0 0 0 0
0 0 0 0 0 0 0 0
0 0 0 0 0 0 0 0
0 0 0 0 0 0 0 0
0 0 0 0 0 0 0 0
0 0 0 0 0 0 0 0
0 0 0 0 0 0 0 0
0 0 0 0 0 0 0 0
0 0 0 0 0 0 0 0
0 0 0 0 0 0 0 0
0 0 0 0 0 0 0 0
0 0 0 0 0 0 0 0
0 0 0 0 0 0 0 0
0 0 0 0 0 0 0 0
0 0 0 0 0 0 0 0
0 0 0 0 0 0 0 0
0 0 0 0 0 0 0 0
0 0 0 0 0 0 0 0
0 0 0 0 0 0 0 0
0 0 0 0 0 0 0 0
0 0 0 0 0 0 0 0
00000000: 0000 0000 0000 0000 0000 0000 0000 0000
00000010: 0000 0000 0000 0000 0000 0000 0000 0000
00000020: 0000 0000 0000 0000 0000 0000 0000 0000
00000030: 0000 0000 0000 0000 0000 0000 0000 0000
00000040: 0000 0000 0000 0000 0000 0000 0000 0000
00000050: 0000 0000 0000 0000 0000 0000 0000 0000
00000060: 0000 0000 0000 0000 0000 0000 0000 0000
00000070: 0000 0000 0000 0000 0000 0000 0000 0000
00000080: 0000 0000 0000 0000 0000 0000 0000 0000
00000090: 0000 0000 0000 0000 0000 0000 0000 0000
000000a0: 0000 0000 0000 0000 0000 0000 0000 0000
000000b0: 0000 0000 0000 0000 0000 0000 0000 0000
000000c0: 0000 0000 0000 0000 0000 0000 0000 0000
000000d0: 0000 0000 0000 0000 0000 0000 0000 0000
000000e0: 0000 0000 0000 0000 0000 0000 0000 0000
000000f0: 0000 0000 0000 0000 0000 0000 0000 0000

tfl.pseudo_qconst7 i1 [64, 3, 3, 64]
25 32 10 -12 -27 7 -10 -68
34 -8 -59 7 -5 15 -29 0
-50 -38 31 -16 -6 -18 10 -10
-25 -1 -12 10 9 -53 0 -31
-49 -30 -56 -20 -14 -12 4 5
-7 -9 5 9 7 11 3 -29
13 -11 26 21 46 -29 13 14
37 29 -12 -96 -25 31 2 -6
9 -1 10 -25 -23 -7 1 28
4 11 2 -17 -3 -43 -5 26
-13 -4 -23 -12 -8 10 -1 -8
1 -7 -10 26 23 -33 5 -20
-24 -4 3 10 6 12 -9 10
-8 9 -65 8 -2 15 -54 11
22 -20 -2 9 3 9 1 -2
-20 -12 -28 19 -31 -24 -33 27
53 29 -7 22 3 -24 -41 -16
-7 7 18 40 4 -42 -59 23
7 -40 -16 13 14 -13 9 49
-14 -127 26 -27 -24 -43 -34 -12
-5 -26 6 36 -3 19 16 -28
48 3 -18 -32 -6 54 -15 -4
2 27 -55 -42 -26 4 24 -33
18 -63 -6 68 -32 -8 -66 -11
-48 -10 -34 9 26 -9 32 23
-22 -14 -3 -23 -6 -5 13 -12
13 20 -6 -13 -17 57 25 -17
41 27 -9 -13 -3 -28 -12 -13
-22 -6 -20 -28 41 -3 1 -4
16 -64 5 3 6 -26 5 8
17 -5 -6 4 1 -28 -26 23
-4 8 -25 -20 -16 8 0 -12
00000000: 1920 0af4 e507 f6bc 22f8 c507 fb0f e300
00000010: ceda 1ff0 faee 0af6 e7ff f40a 09cb 00e1
00000020: cfe2 c8ec f2f4 0405 f9f7 0509 070b 03e3
00000030: 0df5 1a15 2ee3 0d0e 251d f4a0 e71f 02fa
00000040: 09ff 0ae7 e9f9 011c 040b 02ef fdd5 fb1a
00000050: f3fc e9f4 f80a fff8 01f9 f61a 17df 05ec
00000060: e8fc 030a 060c f70a f809 bf08 fe0f ca0b
00000070: 16ec fe09 0309 01fe ecf4 e413 e1e8 df1b
00000080: 351d f916 03e8 d7f0 f907 1228 04d6 c517
00000090: 07d8 f00d 0ef3 0931 f281 1ae5 e8d5 def4
000000a0: fbe6 0624 fd13 10e4 3003 eee0 fa36 f1fc
000000b0: 021b c9d6 e604 18df 12c1 fa44 e0f8 bef5
000000c0: d0f6 de09 1af7 2017 eaf2 fde9 fafb 0df4
000000d0: 0d14 faf3 ef39 19ef 291b f7f3 fde4 f4f3
000000e0: eafa ece4 29fd 01fc 10c0 0503 06e6 0508
000000f0: 11fb fa04 01e4 e617 fc08 e7ec f008 00f4

tfl.pseudo_qconst8 i1 [64] scale=0.0071442896 zero_point=106
-0.7287175 -0.30006015 -0.12859721 -0.5072446 -0.542966 -0.12859721 -0.64298606 -0.1357415
-0.107164346 -0.4072245 -0.37150306 -0.057154316 -0.35721448 -0.85017043 -0.271483 0.04286574
-0.1357415 -0.30720446 -0.42151308 -0.30006015 0.04286574 0.028577158 -0.25719443 0.02143287
-0.16431867 -0.04286574 -0.8716033 -0.107164346 -0.43580166 -0.3429259 -0.2643387 -0.4000802
-0.35721448 -0.15003008 -0.2643387 -0.7287175 0.092875764 -0.52153313 0.0071442896 -0.22147298
-0.37864736 -0.10002005 -0.17146295 -0.71442896 0.04286574 -0.53582174 -0.42151308 -0.4000802
-0.7072847 0.15003008 -1.6717638 0.014288579 -0.37864736 -0.37150306 -0.6787075 -0.10002005
-0.39293593 -0.1357415 -1.0359219 -0.46437883 -0.14288579 -0.02143287 -0.28577158 -1.0359219
00000000: 0440 5823 1e58 1057 5b31 3662 38f3 4470
00000010: 573f 2f40 706e 466d 5364 f05b 2d3a 4532
00000020: 3855 4504 7721 6b4b 355c 5206 701f 2f32
00000030: 077f 806c 3536 0b5c 3357 d929 5667 42d9

tfl.pseudo_qconst9 i1 [64] scale=0.0022321374 zero_point=-128
0.2209816 0.35714197 0.30580282 0.24330297 0.31919566 0.35714197 0.30580282 0.32589206
0.3102671 0.30580282 0.28348145 0.3348206 0.3169635 0.18749954 0.24776725 0.30580282
0.3035707 0.31919566 0.28348145 0.3526777 0.30580282 0.47990954 0.30580282 0.3883919
0.37276694 0.25892794 0.20758878 0.4352668 0.27232075 0.22991015 0.3348206 0.23214228
0.26562434 0.27455288 0.37499908 0.23437442 0.4776774 0.27232075 0.37276694 0.24330297
0.21205305 0.3593741 0.2522315 0.19866022 0.56919503 0.27455288 0.31473136 0.30803496
0.25446367 0.37499908 0.20758878 0.4174097 0.29687428 0.34151703 0.2812493 0.3348206
0.37946334 0.2633922 0.18973167 0.35044557 0.24107084 0.32589206 0.2566958 0.20535664
00000000: e320 09ed 0f20 0912 0b09 ff16 0ed4 ef09
00000010: 080f ff1e 0957 092e 27f4 dd43 fae7 16e8
00000020: f7fb 28e9 56fa 27ed df21 f1d9 7ffb 0d0a
00000030: f228 dd3b 0519 fe16 2af6 d51d ec12 f3dc

tfl.pseudo_qconst11 i1 [64, 3, 3, 64]
-34 0 -59 -11 -8 -26 1 7
-29 11 -61 -41 -11 16 -40 -17
-36 -21 -24 -14 -61 26 -18 23
11 -12 36 -43 11 -18 15 17
-26 17 -26 40 -69 9 -45 -18
-4 47 18 -49 36 -10 57 -20
68 -53 -5 -8 26 26 23 -5
13 -20 56 -47 9 -5 -24 -14
13 -22 -10 17 -86 -13 44 35
-45 18 0 -11 -5 -1 6 -40
60 -45 -16 10 10 -16 8 6
-10 -23 40 -16 -16 -9 8 42
33 -39 23 102 40 -10 -2 -1
42 42 -6 -67 -51 -21 2 -4
21 11 22 23 37 28 32 -8
-7 -27 38 -63 67 31 -7 -4
-30 9 45 5 46 1 -43 -6
53 -44 -68 -28 25 34 -28 15
-14 19 -2 11 42 0 -8 39
-7 43 67 -18 -31 23 -26 26
23 -68 -12 -44 47 -64 10 -30
-2 56 32 8 -18 0 -27 24
67 8 29 55 -13 66 0 -29
22 11 -57 49 35 8 -14 11
42 -52 -48 -21 11 -20 17 -9
10 8 -18 16 26 -5 54 41
-26 -37 41 -14 33 -34 42 0
24 -27 80 -11 43 31 -64 -55
36 -9 -12 -24 -88 -2 -33 -62
-18 -20 22 22 6 -8 7 63
2 23 9 -2 -18 -15 -10 35
7 -38 -36 39 -17 1 28 -37
00000000: de00 c5f5 f8e6 0107 e30b c3d7 f510 d8ef
00000010: dceb e8f2 c31a ee17 0bf4 24d5 0bee 0f11
00000020: e611 e628 bb09 d3ee fc2f 12cf 24f6 39ec
00000030: 44cb fbf8 1a1a 17fb 0dec 38d1 09fb e8f2
00000040: 0dea f611 aaf3 2c23 d312 00f5 fbff 06d8
00000050: 3cd3 f00a 0af0 0806 f6e9 28f0 f0f7 082a
00000060: 21d9 1766 28f6 feff 2a2a fabd cdeb 02fc
00000070: 150b 1617 251c 20f8 f9e5 26c1 431f f9fc
00000080: e209 2d05 2e01 d5fa 35d4 bce4 1922 e40f
00000090: f213 fe0b 2a00 f827 f92b 43ee e117 e61a
000000a0: 17bc f4d4 2fc0 0ae2 fe38 2008 ee00 e518
000000b0: 4308 1d37 f342 00e3 160b c731 2308 f20b
000000c0: 2acc d0eb 0bec 11f7 0a08 ee10 1afb 3629
000000d0: e6db 29f2 21de 2a00 18e5 50f5 2b1f c0c9
000000e0: 24f7 f4e8 a8fe dfc2 eeec 1616 06f8 073f
000000f0: 0217 09fe eef1 f623 07da dc27 ef01 1cdb

tfl.pseudo_qconst12 i1 [64] scale=0.00578947 zero_point=127
-0.8278942 -0.9205257 -0.85684156 -1.0652624 -0.5557891 -0.69473636 -0.7352627 -0.83368367
-1.1868414 -0.71789426 -1.0826309 -0.96684146 -0.9263152 -0.23736827 -0.7815784 -1.256315
-0.62526274 -0.27789456 -0.5442102 -0.90894675 -0.68315744 -0.9205257 -0.7352627 -1.0189466
-0.70631534 -0.8105258 -1.1926308 -0.71789426 -0.97842044 -0.87420994 -0.8510521 -0.8452626
-1.256315 -0.89736784 -0.29526296 -1.4763148 -0.7468416 -0.90894675 -0.66578907 -0.42842078
-1.0421046 -1.2215781 -0.78736794 -0.93210465 -1.2042098 -0.8394731 -0.8047363 -0.5557891
-0.5963154 -0.961052 -0.90894675 -0.6889469 -1.059473 -1.0884204 -0.7468416 -0.65999955
-0.8278942 -0.7236837 -0.98999935 -0.81631523 -0.6542101 -1.1231571 -1.1115782 -0.7352627
00000000: f0e0 ebc7 1f07 00ef b203 c4d8 df56 f8a6
00000010: 134f 21e2 09e0 00cf 05f3 b103 d6e8 eced
00000020: a6e4 4c80 fee2 0c35 cbac f7de afee f41f
00000030: 18d9 e208 c8c3 fe0d f002 d4f2 0ebd bf00

tfl.pseudo_qconst13 i1 [64] scale=0.001044174 zero_point=-128
0.23493914 0.25477844 0.23598331 0.23598331 0.23180662 0.24016 0.23493914 0.22762993
0.19003966 0.19526052 0.22971827 0.2088348 0.15453775 0.22762993 0.20570228 0.23702748
0.22762993 0.17959791 0.2610435 0.21196732 0.24746923 0.22345322 0.19526052 0.25373426
0.2610435 0.20570228 0.19421636 0.19839305 0.19003966 0.18899548 0.19943723 0.24224836
0.22971827 0.20465809 0.23702748 0.21927653 0.21092314 0.21718818 0.22449741 0.2610435
0.20674644 0.14514019 0.19839305 0.22240905 0.24955757 0.19839305 0.23702748 0.24120419
0.22971827 0.23285079 0.21823236 0.23807167 0.2088348 0.19734888 0.22762993 0.26626435
0.22345322 0.23180662 0.23807167 0.20361392 0.22240905 0.22136489 0.24120419 0.24224836
00000000: 6174 6262 5e66 615a 363b 5c48 145a 4563
00000010: 5a2c 7a4b 6d56 3b73 7a45 3a3e 3635 3f68
00000020: 5c44 6352 4a50 577a 460b 3e55 6f3e 6367
00000030: 5c5f 5164 483d 5a7f 565e 6443 5554 6768

tfl.pseudo_qconst15 i1 [64, 3, 3, 64]
45 71 35 -39 39 -19 -6 -87
41 -14 3 -24 32 -99 8 20
-45 -44 -80 -100 22 17 -104 57
-40 25 21 62 59 11 -19 71
-41 -4 -23 19 -77 -40 -29 -61
-4 -7 -24 -14 4 34 -33 88
27 34 48 -18 -33 -36 -3 45
20 34 24 -34 -19 44 -8 5
-31 42 -5 13 17 -23 -62 -83
45 -12 35 -17 31 -8 52 -1
-95 28 -69 -107 -57 -5 -31 61
-7 52 17 42 -20 -12 12 -102
6 26 24 35 -21 18 38 1
-17 29 -40 31 -3 17 -17 -1
-47 -112 -6 -28 -73 -4 26 29
-18 57 51 -76 -9 9 0 -29
-9 71 23 -18 69 -16 -54 -126
30 -67 22 -59 -1 -45 -27 23
-47 -49 13 -60 -50 72 -49 22
-38 63 68 25 -56 20 33 18
87 5 -22 16 -75 -5 -24 55
3 30 12 43 -30 14 -68 -31
11 23 56 -12 -54 -16 -75 50
-17 21 24 37 -17 -3 30 -4
13 25 26 34 -48 27 49 46
-71 25 24 48 -27 -4 19 -22
-13 -24 -65 12 1 -46 81 6
-50 -12 13 -18 25 -26 85 23
67 37 -4 -57 4 46 33 43
25 21 14 -12 17 42 2 -61
16 61 9 -2 -90 1 38 -17
-46 -4 21 29 -40 28 14 -29
00000000: 2d47 23d9 27ed faa9 29f2 03e8 209d 0814
00000010: d3d4 b09c 1611 9839 d819 153e 3b0b ed47
00000020: d7fc e913 b3d8 e3c3 fcf9 e8f2 0422 df58
00000030: 1b22 30ee dfdc fd2d 1422 18de ed2c f805
00000040: e12a fb0d 11e9 c2ad 2df4 23ef 1ff8 34ff
00000050: a11c bb95 c7fb e13d f934 112a ecf4 0c9a
00000060: 061a 1823 eb12 2601 ef1d d81f fd11 efff
00000070: d190 fae4 b7fc 1a1d ee39 33b4 f709 00e3
00000080: f747 17ee 45f0 ca82 1ebd 16c5 ffd3 e517
00000090: d1cf 0dc4 ce48 cf16 da3f 4419 c814 2112
000000a0: 5705 ea10 b5fb e837 031e 0c2b e20e bce1
000000b0: 0b17 38f4 caf0 b532 ef15 1825 effd 1efc
000000c0: 0d19 1a22 d01b 312e b919 1830 e5fc 13ea
000000d0: f3e8 bf0c 01d2 5106 cef4 0dee 19e6 5517
000000e0: 4325 fcc7 042e 212b 1915 0ef4 112a 02c3
000000f0: 103d 09fe a601 26ef d2fc 151d d81c 0ee3

tfl.pseudo_qconst16 i1 [64] scale=0.0057701357 zero_point=82
-1.102096 -0.24234569 -0.6289448 -0.35197827 -0.6577955 -0.65202534 -0.70395654 -0.4500706
-0.553933 -0.20195475 -0.71549684 -0.553933 -0.24234569 -0.2769665 -0.7097267 -0.10386244
-0.046161085 -0.721267 -0.38082895 -0.2250353 -0.23080543 -0.32889774 -0.25388598 -0.4500706
-0.11540271 -0.29427692 -0.6635656 -0.4558407 -0.5712434 -0.6635656 -0.58855385 -0.27119637
0.05193122 -0.24234569 -0.62317467 -0.594324 -0.13271312 -0.340438 -0.31735745 0.19041447
-0.5481629 -0.32889774 -0.24234569 -0.2250353 -0.34620816 -0.62317467 -0.27119637 -0.67510587
-0.6924163 -0.0980923 -0.06924163 -0.10386244 -0.08655204 -0.43276018 -0.23080543 -0.2769665
-0.24234569 0.2596561 -0.023080543 -0.68664616 -1.2117285 -0.046161085 -0.680876 0.12694299
00000000: 9328 e515 e0e1 d804 f22f d6f2 2822 d740
00000010: 4ad5 102b 2a19 2604 3e1f df03 efdf ec23
00000020: 5b28 e6eb 3b17 1b73 f319 282b 16e6 23dd
00000030: da41 4640 4307 2a22 287f 4edb 804a dc68

tfl.pseudo_qconst17 i1 [64] scale=0.001714447 zero_point=-128
0.1491569 0.23830815 0.33088827 0.15944357 0.20230475 0.24688038 0.3206016 0.2331648
0.25716707 0.4011806 0.23830815 0.16630137 0.2845982 0.1714447 0.2657393 0.3463183
0.26059595 0.108010165 0.24859482 0.17315915 0.36174834 0.3137438 0.38060725 0.19887586
0.24173704 0.20230475 0.22287811 0.21773477 0.15601468 0.25373816 0.437184 0.1491569
0.41146728 0.3206016 0.27259707 0.23145035 0.31545827 0.2983138 0.372035 0.33603162
0.25373816 0.21773477 0.22459257 0.27774042 0.2365937 0.31031492 0.18344584 0.25202373
0.2588815 0.3274594 0.3823217 0.3788928 0.22973591 0.21944922 0.28116933 0.23487924
0.13715577 0.32574493 0.36860612 0.39260837 0.14058466 0.40632394 0.28288376 0.21773477
00000000: d70b 41dd f610 3b08 166a 0be1 26e4 1b4a
00000010: 18bf 11e5 5337 5ef4 0df6 02ff db14 7fd7
00000020: 703b 1f07 382e 5944 14ff 0322 0a35 eb13
00000030: 173f 5f5d 0600 2409 d03e 5765 d26d 25ff

tfl.pseudo_qconst19 i1 [64, 3, 3, 32]
21 19 -51 10 -1 -29 -17 -31
72 13 74 -45 60 -106 85 71
49 57 -125 4 -90 25 -5 -38
29 75 35 38 -43 69 100 -65
37 -36 30 -37 -108 91 -17 -42
36 -40 44 -22 -18 -34 54 -25
45 -45 -89 -28 -10 15 -18 69
18 44 14 -14 -10 -44 67 -61
-57 -104 1 -42 -100 -10 -5 -29
105 -72 80 -62 -18 -47 93 55
-27 -57 -101 -32 -123 -58 -44 91
-10 11 46 1 48 19 127 -10
-15 10 7 19 -20 -19 59 -63
-6 -19 -8 -8 -22 -40 83 60
102 -26 30 39 52 -1 48 -24
-15 37 -44 -58 -94 -21 -67 51
-4 -3 21 -10 -22 25 60 -1
-72 29 26 -33 28 -17 65 26
-12 -13 -3 53 9 59 36 5
-19 33 -32 16 -16 -15 -38 -3
22 34 36 -4 22 -42 54 14
-6 11 30 69 23 31 27 108
-100 32 45 83 -7 -19 24 4
55 68 -70 44 -60 -69 -42 38
-97 35 13 108 -13 61 60 -26
33 58 -20 36 91 -3 -23 45
87 85 110 61 -12 26 7 35
28 111 66 -12 -8 8 -9 -27
14 47 33 30 22 50 0 -10
14 23 33 28 88 39 -5 22
67 32 67 40 -11 3 21 10
-111 30 40 -53 -1 1 46 -35
00000000: 1513 cd0a ffe3 efe1 480d 4ad3 3c96 5547
00000010: 3139 8304 a619 fbda 1d4b 2326 d545 64bf
00000020: 25dc 1edb 945b efd6 24d8 2cea eede 36e7
00000030: 2dd3 a7e4 f60f ee45 122c 0ef2 f6d4 43c3
00000040: c798 01d6 9cf6 fbe3 69b8 50c2 eed1 5d37
00000050: e5c7 9be0 85c6 d45b f60b 2e01 3013 7ff6
00000060: f10a 0713 eced 3bc1 faed f8f8 ead8 533c
00000070: 66e6 1e27 34ff 30e8 f125 d4c6 a2eb bd33
00000080: fcfd 15f6 ea19 3cff b81d 1adf 1cef 411a
00000090: f4f3 fd35 093b 2405 ed21 e010 f0f1 dafd
000000a0: 1622 24fc 16d6 360e fa0b 1e45 171f 1b6c
000000b0: 9c20 2d53 f9ed 1804 3744 ba2c c4bb d626
000000c0: 9f23 0d6c f33d 3ce6 213a ec24 5bfd e92d
000000d0: 5755 6e3d f41a 0723 1c6f 42f4 f808 f7e5
000000e0: 0e2f 211e 1632 00f6 0e17 211c 5827 fb16
000000f0: 4320 4328 f503 150a 911e 28cb ff01 2edd

tfl.pseudo_qconst20 i1 [32] scale=0.006530565 zero_point=127
-1.0122375 -0.69877046 -1.0644821 -0.45713955 0.0 -0.26775318 -0.150203 -0.22856978
-0.60734254 -0.9991765 -1.1167266 -0.83591235 -1.1755017 -0.94693196 -1.2865213 -0.7771373
-0.72489274 -0.5812203 -1.1950934 -0.7575456 -0.31346714 -0.23510034 -0.49632296 -0.300406
-0.3395894 -0.30693656 -1.1755017 -1.2342768 -1.2995825 -0.30693656 -1.6652942 -0.71836215
00000000: e414 dc39 7f56 685c 22e6 d4ff cbee ba08
00000010: 1026 c80b 4f5b 3351 4b50 cbc2 b850 8011

tfl.pseudo_qconst21 i1 [32] scale=0.0016298412 zero_point=-128
0.3047803 0.21513903 0.22817776 0.21350919 0.122238085 0.4156095 0.18091238 0.11571872
0.2379568 0.1858019 0.37486348 0.19232126 0.23958665 0.28685203 0.28033268 0.20861967
0.29174158 0.1858019 0.18091238 0.277073 0.18743174 0.26729396 0.1385365 0.17602284
0.18091238 0.26077458 0.23632696 0.36345458 0.16624379 0.29500124 0.26729396 0.1825422
00000000: 3b04 0c03 cb7f efc7 12f2 66f6 1330 2c00
00000010: 33f2 ef2a f324 d5ec ef20 115f e635 24f0

tfl.pseudo_qconst23 i1 [32, 3, 3, 32]
-59 -5 9 40 39 2 49 -9
19 39 55 -72 -64 -107 62 27
47 -3 -46 -12 4 22 -51 26
-10 15 -1 12 -10 -6 27 4
-29 -9 -23 -30 92 -24 2 -52
2 -26 30 -38 -40 -57 -11 9
-12 21 -73 -30 8 7 -48 -39
-5 15 -71 23 -43 -38 -12 -12
-49 5 -24 -10 87 -9 22 -27
26 7 21 -1 -14 -33 -14 -13
2 26 -50 -50 40 27 -76 27
2 21 -74 -9 -24 -28 -127 -1
8 -3 42 -30 -29 -50 -36 -6
-106 8 25 76 62 -41 13 -67
-6 61 115 68 20 -70 -36 19
-36 74 8 44 16 67 43 15
21 9 9 72 -13 -43 -25 -37
-104 -24 -31 34 48 -57 51 -94
32 12 36 13 12 -96 -66 42
-20 51 7 22 -58 22 -35 6
-33 -16 -39 16 -56 -64 -53 -10
-30 -23 20 51 66 -25 5 2
-10 30 65 38 19 -25 -60 -40
-9 15 29 26 -37 75 -56 17
2 -9 -25 -13 -63 -11 5 -59
-12 13 -5 -55 -21 -35 33 -13
-39 36 -85 8 23 3 -64 36
-24 51 15 -25 -10 32 -14 -8
-15 -29 -30 42 -2 -65 -16 -39
-15 -13 12 -56 -51 -38 4 49
26 77 -124 -41 1 -3 -67 2
-9 47 -23 -3 -33 -12 -8 68
00000000: c5fb 0928 2702 31f7 1327 37b8 c095 3e1b
00000010: 2ffd d2f4 0416 cd1a f60f ff0c f6fa 1b04
00000020: e3f7 e9e2 5ce8 02cc 02e6 1eda d8c7 f509
00000030: f415 b7e2 0807 d0d9 fb0f b917 d5da f4f4
00000040: cf05 e8f6 57f7 16e5 1a07 15ff f2df f2f3
00000050: 021a cece 281b b41b 0215 b6f7 e8e4 81ff
00000060: 08fd 2ae2 e3ce dcfa 9608 194c 3ed7 0dbd
00000070: fa3d 7344 14ba dc13 dc4a 082c 1043 2b0f
00000080: 1509 0948 f3d5 e7db 98e8 e122 30c7 33a2
00000090: 200c 240d 0ca0 be2a ec33 0716 c616 dd06
000000a0: dff0 d910 c8c0 cbf6 e2e9 1433 42e7 0502
000000b0: f61e 4126 13e7 c4d8 f70f 1d1a db4b c811
000000c0: 02f7 e7f3 c1f5 05c5 f40d fbc9 ebdd 21f3
000000d0: d924 ab08 1703 c024 e833 0fe7 f620 f2f8
000000e0: f1e3 e22a febf f0d9 f1f3 0cc8 cdda 0431
000000f0: 1a4d 84d7 01fd bd02 f72f e9fd dff4 f844

tfl.pseudo_qconst24 i1 [32] scale=0.009666615 zero_point=118
-0.106332764 0.086999536 -0.1836657 -0.1836657 0.01933323 -0.86999536 -1.5659916 -0.6959963
-0.6959963 -1.9816561 -2.1266553 -0.49299738 0.0 0.01933323 -2.3779874 -0.8313289
-0.3093317 0.07733292 -0.4446643 -1.2856598 -1.0439944 -0.7153295 -0.5606637 -1.3436595
-0.086999536 -0.35766476 -0.115999386 -1.5563251 0.048333075 -1.3629928 0.0 0.028999846
00000000: 6b7f 6363 781c d42e 2ea9 9a43 7678 8020
00000010: 567e 48f1 0a2c 3ceb 6d51 6ad5 7be9 7679

tfl.pseudo_qconst25 i1 [32] scale=0.069726735 zero_point=-128
12.550813 14.642614 11.992998 15.270155 4.9505982 2.4404356 6.2754064 6.066226
2.4404356 7.8791213 3.9046972 3.62579 2.1615288 3.20743 15.130702 5.4386854
15.200428 4.044151 2.649616 4.6716914 4.9505982 2.3009822 2.5798893 10.45901
5.787319 4.044151 7.8093944 6.4845862 17.780317 3.1377032 12.759993 11.923272
00000000: 3452 2c5b c7a3 dad7 a3f1 b8b4 9fae 59ce
00000010: 5aba a6c3 c7a1 a516 d3ba f0dd 7fad 372b

tfl.pseudo_qconst27 i1 [32, 3, 3, 1]
-42 33 17 39 -65 3 20 87
-127 -127 105 -17 -7 9 15 6
-39 -50 88 -94 -3 127 -115 -12
68 -2 -63 -8 -52 68 -112 -16
127 -81 -2 77 47 127 92 -47
-100 -83 -72 -53 -114 -21 -34 -78
-6 -29 -3 61 90 127 63 -2
-46 127 5 -25 -54 -5 -32 68
-38 98 18 28 -2 -127 -115 18
-7 -32 -36 123 24 127 -90 -70
-17 62 -44 -29 9 39 -35 -85
-3 127 -53 -30 37 108 41 127
92 7 114 23 -24 127 -40 -6
-69 54 -44 72 -126 16 -126 42
16 6 -127 -71 -119 1 24 -16
8 8 -11 -127 -75 -76 -86 99
-16 31 99 -127 -9 -12 36 -74
-73 127 54 14 34 16 -22 -29
87 37 -127 52 25 -85 -58 -15
64 -10 -127 -23 -8 -91 -75 -23
-67 -35 127 86 101 -90 -5 -58
123 97 19 127 1 35 15 29
72 -2 -27 -5 -59 50 28 -97
127 86 -65 91 67 -40 -27 -70
46 33 127 24 -33 -40 -34 -61
-36 -53 2 -87 127 87 76 84
-21 -69 -124 18 114 127 -35 -82
127 99 77 -108 34 -85 -34 -23
-23 -95 -119 -70 -80 -127 -106 -109
-78 -66 39 -60 89 115 -14 -69
6 -119 127 12 74 66 7 31
19 -47 18 -127 13 0 -1 3
00000000: d621 1127 bf03 1457 8181 69ef f909 0f06
00000010: d9ce 58a2 fd7f 8df4 44fe c1f8 cc44 90f0
00000020: 7faf fe4d 2f7f 5cd1 9cad b8cb 8eeb deb2
00000030: fae3 fd3d 5a7f 3ffe d27f 05e7 cafb e044
00000040: da62 121c fe81 8d12 f9e0 dc7b 187f a6ba
00000050: ef3e d4e3 0927 ddab fd7f cbe2 256c 297f
00000060: 5c07 7217 e87f d8fa bb36 d448 8210 822a
00000070: 1006 81b9 8901 18f0 0808 f581 b5b4 aa63
00000080: f01f 6381 f7f4 24b6 b77f 360e 2210 eae3
00000090: 5725 8134 19ab c6f1 40f6 81e9 f8a5 b5e9
000000a0: bddd 7f56 65a6 fbc6 7b61 137f 0123 0f1d
000000b0: 48fe e5fb c532 1c9f 7f56 bf5b 43d8 e5ba
000000c0: 2e21 7f18 dfd8 dec3 dccb 02a9 7f57 4c54
000000d0: ebbb 8412 727f ddae 7f63 4d94 22ab dee9
000000e0: e9a1 89ba b081 9693 b2be 27c4 5973 f2bb
000000f0: 0689 7f0c 4a42 071f 13d1 1281 0d00 ff03
