Model/final_more_training.tflite (tflite, 211232 bytes, 22 tensors)

tfl.pseudo_qconst1 i1 [4, 32]
000000 04 d7 c8 ed fa 58 13 f8 d2 49 d8 1a 10 ed fc 6f
       4 -41 -56 -19 -6 88 19 -8 -46 73 -40 26 16 -19 -4 111
000010 f8 1e c6 eb 17 fc d8 10 01 81 03 a7 26 64 05 ed
       -8 30 -58 -21 23 -4 -40 16 1 -127 3 -89 38 100 5 -19
000020 fd 2b c8 fc fc dd 0b f6 f1 cd fc 16 10 f3 ff 6b
       -3 43 -56 -4 -4 -35 11 -10 -15 -51 -4 22 16 -13 -1 107
000030 f4 29 4c 07 f7 f3 06 f9 f4 27 02 23 e6 81 0a 0b
       -12 41 76 7 -9 -13 6 -7 -12 39 2 35 -26 -127 10 11
000040 fe 09 4f f4 fd e1 07 05 11 f2 06 16 08 04 07 81
       -2 9 79 -12 -3 -31 7 5 17 -14 6 22 8 4 7 -127
000050 f5 e1 e8 04 f3 08 fd f5 f6 10 02 19 18 37 f8 0a
       -11 -31 -24 4 -13 8 -3 -11 -10 16 2 25 24 55 -8 10
000060 fb f2 e1 08 fd ef db f5 00 e2 7f a8 0c 00 fb 69
       -5 -14 -31 8 -3 -17 -37 -11 0 -30 127 -88 12 0 -5 105
000070 0a d6 df 00 09 0e 03 03 f6 28 08 16 c8 61 fe fe
       10 -42 -33 0 9 14 3 3 -10 40 8 22 -56 97 -2 -2

tfl.pseudo_qconst3 i1 [32, 64]
000000 00 00 00 00 00 00 00 00 00 00 00 00 00 00 00 00
       0 0 0 0 0 0 0 0 0 0 0 0 0 0 0 0
000010 00 00 00 00 00 00 00 00 00 00 00 00 00 00 00 00
       0 0 0 0 0 0 0 0 0 0 0 0 0 0 0 0
000020 00 00 00 00 00 00 00 00 00 00 00 00 00 00 00 00
       0 0 0 0 0 0 0 0 0 0 0 0 0 0 0 0
000030 00 00 00 00 00 00 00 00 00 00 00 00 00 00 00 00
       0 0 0 0 0 0 0 0 0 0 0 0 0 0 0 0
000040 00 00 1f 00 00 00 00 00 00 00 00 14 00 81 00 00
       0 0 31 0 0 0 0 0 0 0 0 20 0 -127 0 0
000050 00 00 81 00 00 00 00 00 00 00 00 00 00 00 d1 00
       0 0 -127 0 0 0 0 0 0 0 0 0 0 0 -47 0
000060 00 00 00 00 00 00 00 00 00 00 00 00 00 00 00 00
       0 0 0 0 0 0 0 0 0 0 0 0 0 0 0 0
000070 40 00 00 00 00 00 00 00 00 00 00 00 00 00 00 00
       64 0 0 0 0 0 0 0 0 0 0 0 0 0 0 0
000080 00 00 5e 00 00 00 00 00 00 00 00 09 00 93 00 00
       0 0 94 0 0 0 0 0 0 0 0 9 0 -109 0 0
000090 00 00 8f 00 00 00 00 00 00 00 00 00 00 00 06 00
       0 0 -113 0 0 0 0 0 0 0 0 0 0 0 6 0
0000a0 00 00 00 00 00 00 00 00 00 00 00 00 00 00 00 00
       0 0 0 0 0 0 0 0 0 0 0 0 0 0 0 0
0000b0 81 00 00 00 00 00 00 00 00 00 00 00 00 00 00 00
       -127 0 0 0 0 0 0 0 0 0 0 0 0 0 0 0
0000c0 00 00 00 00 00 00 00 00 00 00 00 00 00 00 00 00
       0 0 0 0 0 0 0 0 0 0 0 0 0 0 0 0
0000d0 00 00 00 00 00 00 00 00 00 00 00 00 00 00 00 00
       0 0 0 0 0 0 0 0 0 0 0 0 0 0 0 0
0000e0 00 00 00 00 00 00 00 00 00 00 00 00 00 00 00 00
       0 0 0 0 0 0 0 0 0 0 0 0 0 0 0 0
0000f0 00 00 00 00 00 00 00 00 00 00 00 00 00 00 00 00
       0 0 0 0 0 0 0 0 0 0 0 0 0 0 0 0

tfl.pseudo_qconst5 i1 [64, 128]
000000 00 00 00 00 00 00 00 00 00 00 00 00 00 00 00 00
       0 0 0 0 0 0 0 0 0 0 0 0 0 0 0 0
000010 00 00 00 00 00 00 00 00 00 00 00 00 00 00 00 00
       0 0 0 0 0 0 0 0 0 0 0 0 0 0 0 0
000020 00 00 00 00 00 00 00 00 00 00 00 00 00 00 00 00
       0 0 0 0 0 0 0 0 0 0 0 0 0 0 0 0
000030 00 00 00 00 00 00 00 00 00 00 00 00 00 00 00 00
       0 0 0 0 0 0 0 0 0 0 0 0 0 0 0 0
000040 00 00 00 00 00 00 00 00 00 00 00 00 00 00 00 00
       0 0 0 0 0 0 0 0 0 0 0 0 0 0 0 0
000050 00 00 00 00 00 00 00 00 00 00 00 00 00 00 00 00
       0 0 0 0 0 0 0 0 0 0 0 0 0 0 0 0
000060 00 00 00 00 00 00 00 00 00 00 00 00 00 00 00 00
       0 0 0 0 0 0 0 0 0 0 0 0 0 0 0 0
000070 00 00 00 00 00 00 00 00 00 00 00 00 00 00 00 00
       0 0 0 0 0 0 0 0 0 0 0 0 0 0 0 0
000080 00 00 00 00 00 00 00 00 00 00 00 00 00 00 00 00
       0 0 0 0 0 0 0 0 0 0 0 0 0 0 0 0
000090 00 00 00 00 00 00 00 00 00 00 00 00 00 00 00 00
       0 0 0 0 0 0 0 0 0 0 0 0 0 0 0 0
0000a0 00 00 00 00 00 00 00 00 00 00 00 00 00 00 00 00
       0 0 0 0 0 0 0 0 0 0 0 0 0 0 0 0
0000b0 00 00 00 00 00 00 00 00 00 00 00 00 00 00 00 00
       0 0 0 0 0 0 0 0 0 0 0 0 0 0 0 0
0000c0 00 00 00 00 00 00 00 00 00 00 00 00 00 00 00 00
       0 0 0 0 0 0 0 0 0 0 0 0 0 0 0 0
0000d0 00 00 00 00 00 00 00 00 00 00 00 00 00 00 00 00
       0 0 0 0 0 0 0 0 0 0 0 0 0 0 0 0
0000e0 00 00 00 00 00 00 00 00 00 00 00 00 00 00 00 00
       0 0 0 0 0 0 0 0 0 0 0 0 0 0 0 0
0000f0 00 00 00 00 00 00 00 00 00 00 00 00 00 00 00 00
       0 0 0 0 0 0 0 0 0 0 0 0 0 0 0 0

tfl.pseudo_qconst7 i1 [64, 3, 3, 64]
000000 fa 10 08 29 e8 37 bd 23 2d f7 66 4f 30 03 29 32
       -6 16 8 41 -24 55 -67 35 45 -9 102 79 48 3 41 50
000010 0a 15 1d c9 2a b4 02 f5 0d 2f 07 1f 32 0a bf 33
       10 21 29 -55 42 -76 2 -11 13 47 7 31 50 10 -65 51
000020 d4 1a 4f 07 0f 30 0f 05 f8 c0 8a ea cd aa d0 f9
       -44 26 79 7 15 48 15 5 -8 -64 -118 -22 -51 -86 -48 -7
000030 d0 ed c8 00 a9 f3 0f e5 e0 03 ce 18 dc 04 00 f6
       -48 -19 -56 0 -87 -13 15 -27 -32 3 -50 24 -36 4 0 -10
000040 07 0c d8 37 f0 1d f6 23 f7 1b 1b e9 e2 f8 fc e5
       7 12 -40 55 -16 29 -10 35 -9 27 27 -23 -30 -8 -4 -27
000050 0c 14 f0 fb 25 c6 3a f0 16 ed 1e 0f e2 00 c4 10
       12 20 -16 -5 37 -58 58 -16 22 -19 30 15 -30 0 -60 16
000060 06 24 d7 d1 08 47 12 ec 07 30 37 fa ea fb ce 15
       6 36 -41 -47 8 71 18 -20 7 48 55 -6 -22 -5 -50 21
000070 ed 10 ed f0 28 e8 18 e5 0b e7 e6 e4 41 54 04 02
       -19 16 -19 -16 40 -24 24 -27 11 -25 -26 -28 65 84 4 2
000080 03 e3 ff f9 d5 f0 f4 e0 f0 3f 0b ea 0d dd 97 0c
       3 -29 -1 -7 -43 -16 -12 -32 -16 63 11 -22 13 -35 -105 12
000090 f7 de 16 1c a0 01 d1 dd fe 18 a1 23 02 fe db 34
       -9 -34 22 28 -96 1 -47 -35 -2 24 -95 35 2 -2 -37 52
0000a0 30 6a d4 9e 23 fd aa 0d d7 c4 b3 f5 14 11 19 ca
       48 106 -44 -98 35 -3 -86 13 -41 -60 -77 -11 20 17 25 -54
0000b0 37 c7 a4 fb 28 57 be a6 1c e1 28 cf e4 c8 07 f3
       55 -57 -92 -5 40 87 -66 -90 28 -31 40 -49 -28 -56 7 -13
0000c0 02 4b 1b cc fd d2 fa d5 14 e6 14 bf aa f8 06 08
       2 75 27 -52 -3 -46 -6 -43 20 -26 20 -65 -86 -8 6 8
0000d0 f9 1f 2b f8 1b 37 f8 20 f2 fe 0f 09 0f 0f be 13
       -7 31 43 -8 27 55 -8 32 -14 -2 15 9 15 15 -66 19
0000e0 21 bb 13 04 06 fa 15 b1 08 d2 1d 38 f3 e9 8e e2
       33 -69 19 4 6 -6 21 -79 8 -46 29 56 -13 -23 -114 -30
0000f0 01 3f eb 12 f3 ed f9 30 f3 1a 27 03 bb 08 2c 17
       1 63 -21 18 -13 -19 -7 48 -13 26 39 3 -69 8 44 23

tfl.pseudo_qconst8 i1 [64] scale=0.0046766237 zero_point=87
000000 5d 80 20 f3 5f f7 06 06 df 82 2d ab f2 f8 51 93
       0.028059743 -1.0054741 -0.2572143 -0.46766236 0.03741299 -0.4489559 -0.37880653 -0.37880653 -0.56119484 -0.99612087 -0.1964182 -0.8043793 -0.472339 -0.44427925 -0.028059743 -0.9166182
000010 15 03 25 a9 d3 08 9f 43 26 40 44 e7 c5 7f 37 0d
       -0.30865717 -0.3928364 -0.23383118 -0.8137325 -0.61731434 -0.36945328 -0.8604988 -0.09353247 -0.22915456 -0.10756235 -0.08885585 -0.52378184 -0.68278706 0.18706495 -0.14965196 -0.34607017
000020 ea 2d f4 2e 0b bb bf 62 d5 97 f0 14 b9 f2 5d 0d
       -0.509752 -0.1964182 -0.46298575 -0.19174157 -0.3554234 -0.7295533 -0.7108468 0.05144286 -0.60796106 -0.8979118 -0.48169225 -0.31333378 -0.73890656 -0.472339 0.028059743 -0.34607017
000030 fb f1 2f e8 bb dc ec 0a fa c1 00 24 05 ee 1a 18
       -0.4302494 -0.4770156 -0.18706495 -0.51910526 -0.7295533 -0.5752247 -0.50039876 -0.36010003 -0.434926 -0.70149356 -0.40686625 -0.2385078 -0.38348314 -0.4910455 -0.28527406 -0.2946273

tfl.pseudo_qconst9 i1 [64] scale=0.0016560863 zero_point=-128
000000 1f 3a 54 56 40 20 38 38 35 2b 51 53 2f 59 3e 47
       0.26331773 0.30803207 0.35109028 0.35440248 0.31796858 0.26497382 0.30471987 0.30471987 0.2997516 0.28319076 0.34612203 0.3494342 0.2898151 0.35937074 0.3146564 0.32956117
000010 35 63 41 46 3e 3d 5e 37 44 22 4b 58 40 60 37 30
       0.2997516 0.3759316 0.31962466 0.3279051 0.3146564 0.31300032 0.36765116 0.30306378 0.32459292 0.268286 0.33618551 0.35771465 0.31796858 0.37096334 0.30306378 0.29147118
000020 37 57 3d 63 46 3d 36 2e 44 3a 32 43 30 7f 33 3c
       0.30306378 0.35605857 0.31300032 0.3759316 0.3279051 0.31300032 0.3014077 0.288159 0.32459292 0.30803207 0.29478335 0.32293683 0.29147118 0.422302 0.29643944 0.31134424
000030 4e 50 4d 46 33 50 5d 31 40 41 55 47 3b 4d 5c 3b
       0.34115377 0.34446594 0.3394977 0.3279051 0.29643944 0.34446594 0.36599508 0.29312727 0.31796858 0.31962466 0.35274637 0.32956117 0.30968815 0.3394977 0.364339 0.30968815

tfl.pseudo_qconst11 i1 [64, 3, 3, 64]
000000 00 ed ea cd 06 ea cd da 11 40 5e d9 a6 32 b1 db
       0 -19 -22 -51 6 -22 -51 -38 17 64 94 -39 -90 50 -79 -37
000010 87 e6 f8 b1 e7 11 ff bd 2d ff 0b bc 0d de e4 cb
       -121 -26 -8 -79 -25 17 -1 -67 45 -1 11 -68 13 -34 -28 -53
000020 08 fd 1f e7 06 e5 bd ec ec 43 28 fc ce 36 dc 52
       8 -3 31 -25 6 -27 -67 -20 -20 67 40 -4 -50 54 -36 82
000030 74 2d f8 0b 1e 25 81 fc ef 14 de d9 02 ef 06 ef
       116 45 -8 11 30 37 -127 -4 -17 20 -34 -39 2 -17 6 -17
000040 f5 e9 e4 07 2f 08 3c 06 05 0d f6 06 1d 38 00 24
       -11 -23 -28 7 47 8 60 6 5 13 -10 6 29 56 0 36
000050 d7 00 18 cd 30 b3 f8 0b f4 f4 07 f1 25 e0 08 ce
       -41 0 24 -51 48 -77 -8 11 -12 -12 7 -15 37 -32 8 -50
000060 fd d7 0c 0c df 02 eb ff 05 f3 f7 13 07 0b 19 cd
       -3 -41 12 12 -33 2 -21 -1 5 -13 -9 19 7 11 25 -51
000070 1d 17 e0 e1 1a e3 07 f9 00 f2 ee ee ed 1a f5 ff
       29 23 -32 -31 26 -29 7 -7 0 -14 -18 -18 -19 26 -11 -1
000080 fa 1f 22 e7 fd 08 0a 19 40 02 26 e2 22 06 9d 0c
       -6 31 34 -25 -3 8 10 25 64 2 38 -30 34 6 -99 12
000090 b5 cb 16 f3 34 e8 e6 ee d8 11 13 37 e3 0f 10 dc
       -75 -53 22 -13 52 -24 -26 -18 -40 17 19 55 -29 15 16 -36
0000a0 b4 d3 cb 16 fa 08 02 e2 38 ec 0c fd d3 d0 35 fb
       -76 -45 -53 22 -6 8 2 -30 56 -20 12 -3 -45 -48 53 -5
0000b0 ef 21 e2 d5 06 35 14 bd ec 00 ef b6 36 e2 f8 df
       -17 33 -30 -43 6 53 20 -67 -20 0 -17 -74 54 -30 -8 -33
0000c0 0d d6 00 f9 f8 3c f5 13 ff 03 0d df ee 1e 15 d8
       13 -42 0 -7 -8 60 -11 19 -1 3 13 -33 -18 30 21 -40
0000d0 d3 f6 33 1c 4c b4 c3 e3 c8 21 36 1f f3 da cc 1a
       -45 -10 51 28 76 -76 -61 -29 -56 33 54 31 -13 -38 -52 26
0000e0 13 dd 07 eb df f0 00 21 00 f0 f1 e7 fc 0b 43 18
       19 -35 7 -21 -33 -16 0 33 0 -16 -15 -25 -4 11 67 24
0000f0 db 28 e4 2c 02 f2 28 f6 17 f0 f7 17 bc dc 13 be
       -37 40 -28 44 2 -14 40 -10 23 -16 -9 23 -68 -36 19 -66

tfl.pseudo_qconst12 i1 [64] scale=0.004650217 zero_point=100
000000 0f 16 27 47 ed 52 29 d3 13 2d 35 4c b4 28 de 63
       -0.39526844 -0.3627169 -0.28366324 -0.1348563 -0.55337584 -0.083703905 -0.2743628 -0.6742815 -0.3766676 -0.25576192 -0.2185602 -0.11160521 -0.8184382 -0.279013 -0.62312907 -0.004650217
000010 0a 6b be f7 12 02 38 1e 44 14 5a 1b 66 1d 0d 4a
       -0.41851953 0.03255152 -0.771936 -0.50687367 -0.3813178 -0.45572126 -0.20460954 -0.32551518 -0.14880694 -0.37201735 -0.04650217 -0.33946586 0.009300434 -0.33016542 -0.40456888 -0.120905645
000020 95 02 bb 03 fe 23 80 f1 1c e2 33 3b e7 ba 36 4e
       -0.9625949 -0.45572126 -0.7858867 -0.45107105 -0.47432214 -0.3022641 -1.0602494 -0.53477496 -0.33481562 -0.6045282 -0.22786063 -0.1906589 -0.58127713 -0.7905369 -0.21390998 -0.10230477
000030 7f 36 f1 17 1b 58 bf 34 b9 26 e2 0b b7 e7 54 16
       0.12555586 -0.21390998 -0.53477496 -0.3580667 -0.33946586 -0.055802606 -0.7672858 -0.22321042 -0.7951871 -0.28831345 -0.6045282 -0.41386932 -0.8044875 -0.58127713 -0.07440347 -0.3627169

tfl.pseudo_qconst13 i1 [64] scale=0.0011376536 zero_point=-128
000000 3f 3b 07 23 2f 6a 11 7f 03 03 4c 3d eb fc 03 2d
       0.21729183 0.21274123 0.15358323 0.18543753 0.19908938 0.26621094 0.16495977 0.29010168 0.14903262 0.14903262 0.23208134 0.21501653 0.121728934 0.14106904 0.14903262 0.19681408
000010 13 74 ea f9 2a 54 fa 0f 1b f9 2c 08 56 32 f2 50
       0.16723508 0.27758747 0.12059128 0.1376561 0.19340111 0.24118257 0.13879374 0.16268447 0.1763363 0.1376561 0.19567642 0.15472089 0.24345787 0.20250234 0.12969251 0.23663194
000020 dd 0d ef 24 05 06 db f5 39 08 43 fb fe f9 1b 13
       0.10580178 0.16040915 0.12627955 0.18657519 0.15130793 0.15244558 0.10352648 0.13310547 0.21046592 0.15472089 0.22184245 0.1399314 0.14334436 0.1376561 0.1763363 0.16723508
000030 60 fc 13 05 6b 09 12 34 f0 18 f4 25 e7 19 24 f0
       0.2548344 0.14106904 0.16723508 0.15130793 0.2673486 0.15585855 0.16609743 0.20477764 0.1274172 0.17292334 0.13196781 0.18771285 0.11717832 0.174061 0.18657519 0.1274172

tfl.pseudo_qconst15 i1 [64, 3, 3, 64]
000000 f8 e8 ef 31 f2 00 21 04 a7 0f c2 d8 fe d0 01 b3
       -8 -24 -17 49 -14 0 33 4 -89 15 -62 -40 -2 -48 1 -77
000010 07 0f 2f 15 b3 d9 eb 05 1b ae f3 6a af a7 ce 15
       7 15 47 21 -77 -39 -21 5 27 -82 -13 106 -81 -89 -50 21
000020 aa ad 0a ca f2 01 ea 03 0b f3 fb 27 f1 a2 09 04
       -86 -83 10 -54 -14 1 -22 3 11 -13 -5 39 -15 -94 9 4
000030 fe 05 23 09 8a 03 17 f8 14 81 2a 17 1d ba e2 dd
       -2 5 35 9 -118 3 23 -8 20 -127 42 23 29 -70 -30 -35
000040 24 03 cd b5 0e eb 29 f1 d6 ff cb f0 05 f3 ae a6
       36 3 -51 -75 14 -21 41 -15 -42 -1 -53 -16 5 -13 -82 -90
000050 3f cf cd ea d9 9e d9 cf 19 e3 d8 07 e2 a3 e3 0a
       63 -49 -51 -22 -39 -98 -39 -49 25 -29 -40 7 -30 -93 -29 10
000060 d1 9c 03 02 ea 17 f0 2c 10 ed 1e fb f7 b8 cc b6
       -47 -100 3 2 -22 23 -16 44 16 -19 30 -5 -9 -72 -52 -74
000070 17 24 ed be 26 04 4a 05 d7 df 31 08 eb fa 0e 09
       23 36 -19 -66 38 4 74 5 -41 -33 49 8 -21 -6 14 9
000080 00 ef 67 e3 a3 a1 f1 16 ee de 2e f5 eb b0 9c bf
       0 -17 103 -29 -93 -95 -15 22 -18 -34 46 -11 -21 -80 -100 -65
000090 ea ed f9 1c f3 f8 cb 10 58 19 21 f2 aa e5 aa de
       -22 -19 -7 28 -13 -8 -53 16 88 25 33 -14 -86 -27 -86 -34
0000a0 ab b7 ea 15 fb e3 43 30 02 ef 0b f6 d8 ae b4 b5
       -85 -73 -22 21 -5 -29 67 48 2 -17 11 -10 -40 -82 -76 -75
0000b0 02 14 f2 e8 e6 08 d9 f6 da 27 d1 17 0e 2c 1c 20
       2 20 -14 -24 -26 8 -39 -10 -38 39 -47 23 14 44 28 32
0000c0 fa f5 f6 e8 04 de ed 1c f1 07 e5 b3 f8 33 12 cf
       -6 -11 -10 -24 4 -34 -19 28 -15 7 -27 -77 -8 51 18 -49
0000d0 10 38 d4 e2 1f b1 df 18 09 2e 2c 42 eb 32 25 02
       16 56 -44 -30 31 -79 -33 24 9 46 44 66 -21 50 37 2
0000e0 22 da c8 f1 eb 2b bd 0e 17 2b 2b d9 13 fe d9 17
       34 -38 -56 -15 -21 43 -67 14 23 43 43 -39 19 -2 -39 23
0000f0 fd c9 f7 09 e9 3f 49 08 f9 e6 db 22 0d 07 f1 04
       -3 -55 -9 9 -23 63 73 8 -7 -26 -37 34 13 7 -15 4

tfl.pseudo_qconst16 i1 [64] scale=0.006080982 zero_point=127
000000 c1 ea 80 15 11 e4 c8 04 ba e0 24 fa 1e e5 cd c1
       -1.1553866 -0.9060663 -1.5506504 -0.64458406 -0.668908 -0.9425522 -1.1128197 -0.74796075 -1.1979535 -0.9668761 -0.55336934 -0.8087706 -0.58985525 -0.9364712 -1.0824147 -1.1553866
000010 e1 e2 e0 cd e9 d8 9c 11 84 20 a6 e4 12 d8 d4 c5
       -0.9607951 -0.9547141 -0.9668761 -1.0824147 -0.9121473 -1.0155239 -1.3803829 -0.668908 -1.5263264 -0.5776933 -1.319573 -0.9425522 -0.662827 -1.0155239 -1.0398479 -1.1310626
000020 ba cd e4 f3 4a c2 90 fc be b4 cd d6 74 d0 ec dd
       -1.1979535 -1.0824147 -0.9425522 -0.85133743 -0.32229203 -1.1493056 -1.4533546 -0.7966086 -1.1736295 -1.2344393 -1.0824147 -1.0276859 -0.0668908 -1.0641718 -0.8939043 -0.98511904
000030 d1 3a d0 f9 cd c3 de b6 f1 ee 01 c9 e9 9b f0 db
       -1.0580908 -0.41958773 -1.0641718 -0.8148516 -1.0824147 -1.1432246 -0.97903806 -1.2222774 -0.8634994 -0.88174236 -0.7662037 -1.1067387 -0.9121473 -1.3864639 -0.8695804 -0.997281

tfl.pseudo_qconst17 i1 [64] scale=0.0006539396 zero_point=-128
000000 45 36 3a 66 5a 4b 50 64 3d 47 62 49 38 4f 37 30
       0.1288261 0.11901701 0.12163277 0.1504061 0.14255884 0.13274974 0.13601944 0.14909823 0.12359459 0.13013399 0.14779036 0.13144186 0.12032489 0.1353655 0.11967095 0.11509337
000010 5e 40 57 37 3c 3a 37 40 39 55 50 62 47 7f 50 25
       0.1451746 0.12555641 0.14059702 0.11967095 0.122940645 0.12163277 0.11967095 0.12555641 0.120978825 0.13928914 0.13601944 0.14779036 0.13013399 0.1667546 0.13601944 0.10790004
000020 4f 49 43 4e 41 35 55 47 2c 3d 4c 4e 4b 5c 4e 51
       0.1353655 0.13144186 0.12751822 0.13471156 0.12621035 0.11836307 0.13928914 0.13013399 0.112477615 0.12359459 0.13340367 0.13471156 0.13274974 0.14386672 0.13471156 0.13667338
000030 43 75 59 41 42 42 4b 36 49 6a 50 5a 72 32 61 39
       0.12751822 0.1602152 0.14190489 0.12621035 0.12686428 0.12686428 0.13274974 0.11901701 0.13144186 0.15302187 0.13601944 0.14255884 0.15825339 0.11640125 0.14713642 0.120978825

tfl.pseudo_qconst19 i1 [64, 3, 3, 64]
000000 e9 f0 f4 e8 01 cb d6 f2 f7 1a 02 d7 06 0f 22 0a
       -23 -16 -12 -24 1 -53 -42 -14 -9 26 2 -41 6 15 34 10
000010 29 1c 3a 5b ea 0c 81 17 fa 23 00 cc 05 0f 2d 14
       41 28 58 91 -22 12 -127 23 -6 35 0 -52 5 15 45 20
000020 02 f4 c3 cb e8 27 f3 17 ed 5b 1e 00 1c e9 e6 1c
       2 -12 -61 -53 -24 39 -13 23 -19 91 30 0 28 -23 -26 28
000030 1d ef bd 23 1d f4 cd f0 d7 d7 be 61 19 cc e9 3b
       29 -17 -67 35 29 -12 -51 -16 -41 -41 -66 97 25 -52 -23 59
000040 cc fd e3 25 03 fe 10 f8 e7 29 fa ff 03 cd ff 2a
       -52 -3 -29 37 3 -2 16 -8 -25 41 -6 -1 3 -51 -1 42
000050 2c f1 1f 2d 04 e2 d8 b3 0b fc 30 d0 07 f3 fb 14
       44 -15 31 45 4 -30 -40 -77 11 -4 48 -48 7 -13 -5 20
000060 38 14 eb 17 fa ed a9 f0 ce 17 37 17 24 df 11 1a
       56 20 -21 23 -6 -19 -87 -16 -50 23 55 23 36 -33 17 26
000070 da f0 bf 25 f4 ea f7 f1 04 fe c0 2f bb 02 25 0a
       -38 -16 -65 37 -12 -22 -9 -15 4 -2 -64 47 -69 2 37 10
000080 ee e9 fa f5 f5 19 17 cd e0 0f 2f 22 38 03 0b 41
       -18 -23 -6 -11 -11 25 23 -51 -32 15 47 34 56 3 11 65
000090 d1 2a 0e 3b aa 0f 19 96 12 12 1f 02 3e 33 0e 01
       -47 42 14 59 -86 15 25 -106 18 18 31 2 62 51 14 1
0000a0 12 cc 33 11 ae 04 f9 16 19 09 28 42 34 db 12 02
       18 -52 51 17 -82 4 -7 22 25 9 40 66 52 -37 18 2
0000b0 eb d5 f6 02 06 dd e5 1f 3a de ee be 2e fe 43 02
       -21 -43 -10 2 6 -35 -27 31 58 -34 -18 -66 46 -2 67 2
0000c0 e6 eb 45 34 e8 c9 0d e2 db 2d 06 dc 02 11 1a d3
       -26 -21 69 52 -24 -55 13 -30 -37 45 6 -36 2 17 26 -45
0000d0 de ed 27 05 31 1f b8 f4 f0 ed bd 35 01 15 e2 e6
       -34 -19 39 5 49 31 -72 -12 -16 -19 -67 53 1 21 -30 -26
0000e0 31 2a 33 cd f6 ec 31 c9 ed 15 fb 19 ff ce 3e 0f
       49 42 51 -51 -10 -20 49 -55 -19 21 -5 25 -1 -50 62 15
0000f0 e5 f0 02 35 ef e4 0e 27 27 08 14 e6 32 24 0b f1
       -27 -16 2 53 -17 -28 14 39 39 8 20 -26 50 36 11 -15

tfl.pseudo_qconst20 i1 [64] scale=0.005944253 zero_point=98
000000 0c 51 bb 2c b9 36 4d e8 30 16 e3 f1 fb ea 13 08
       -0.51120573 -0.1010523 -0.99269027 -0.32098967 -1.0045787 -0.26154712 -0.124829315 -0.72519886 -0.29721266 -0.4517632 -0.7549201 -0.6717006 -0.6122581 -0.71331036 -0.46959597 -0.53498274
000010 03 04 ab 03 b8 ff 51 5e b4 19 f3 44 38 f8 fe 6e
       -0.564704 -0.55875975 -1.0877982 -0.564704 -1.010523 -0.58848107 -0.1010523 -0.023777012 -1.0343 -0.43393046 -0.6598121 -0.17832759 -0.24965863 -0.63009083 -0.5944253 0.07133104
000020 03 18 bd f1 01 54 5a 28 5e 24 7f d1 e2 45 28 9e
       -0.564704 -0.4398747 -0.98080176 -0.6717006 -0.57659256 -0.08321954 -0.047554024 -0.34476668 -0.023777012 -0.36854368 0.17238334 -0.86191666 -0.7608644 -0.17238334 -0.34476668 -1.1650736
000030 f9 a2 3a 1e 14 1f 80 24 de ec 1f 0c 41 5d 0d ca
       -0.6241466 -1.1412966 -0.23777011 -0.4042092 -0.46365172 -0.39826494 -1.3434012 -0.36854368 -0.7846414 -0.70142186 -0.39826494 -0.51120573 -0.19616035 -0.029721264 -0.5052615 -0.9035264

tfl.pseudo_qconst21 i1 [64] scale=0.0014052995 zero_point=-128
000000 e7 04 04 ec dc 7f 6f ee 3d 44 f2 31 f2 de ed 09
       0.14474586 0.18549953 0.18549953 0.15177235 0.12928756 0.35835138 0.3358666 0.15458295 0.2656016 0.2754387 0.16020414 0.24873802 0.16020414 0.13209815 0.15317765 0.19252603
000010 0b f6 ce 0e e8 fd 64 3b d5 e1 f5 4a f7 d2 fe f7
       0.19533664 0.16582534 0.10961337 0.19955254 0.14615116 0.17566244 0.32040828 0.262791 0.11945046 0.13631405 0.16442004 0.28387052 0.16723065 0.11523456 0.17706774 0.16723065
000020 e9 18 d4 fb e4 21 0a 1d 39 07 1e d2 df dd 1d e1
       0.14755645 0.21360552 0.11804516 0.17285185 0.14052995 0.22625323 0.19393134 0.22063203 0.2599804 0.18971543 0.22203733 0.11523456 0.13350345 0.13069285 0.22063203 0.13631405
000030 eb d2 2f ef eb d8 bf ce 16 fe 24 3d f1 4f f4 07
       0.15036705 0.11523456 0.24592742 0.15598825 0.15036705 0.12366636 0.08853387 0.10961337 0.21079493 0.17706774 0.23046912 0.2656016 0.15879884 0.290897 0.16301474 0.18971543

tfl.pseudo_qconst23 i1 [64, 3, 3, 32]
000000 24 14 14 f8 51 e8 4b f7 1c 0f f6 ef 17 cd 15 06
       36 20 20 -8 81 -24 75 -9 28 15 -10 -17 23 -51 21 6
000010 e8 fd dd 2e 08 48 10 13 1e 0d 1b 04 e1 1a db f8
       -24 -3 -35 46 8 72 16 19 30 13 27 4 -31 26 -37 -8
000020 ff 0d 09 13 13 10 df e6 2d 0b 07 e8 07 fb 22 e3
       -1 13 9 19 19 16 -33 -26 45 11 7 -24 7 -5 34 -29
000030 f3 f6 02 09 e8 fc 04 f7 17 f4 19 0a d6 09 e2 29
       -13 -10 2 9 -24 -4 4 -9 23 -12 25 10 -42 9 -30 41
000040 0a 42 d9 e3 36 14 26 03 24 24 ed ef 0b f5 f2 17
       10 66 -39 -29 54 20 38 3 36 36 -19 -17 11 -11 -14 23
000050 07 21 0c 17 c1 0a d0 ea fd 15 53 b1 30 f1 f2 02
       7 33 12 23 -63 10 -48 -22 -3 21 83 -79 48 -15 -14 2
000060 20 e2 e4 3e e4 ba 02 dc fb d4 11 3b 06 ce 04 42
       32 -30 -28 62 -28 -70 2 -36 -5 -44 17 59 6 -50 4 66
000070 df ff 3c 09 86 db 08 02 1e 22 56 4c 13 37 f1 01
       -33 -1 60 9 -122 -37 8 2 30 34 86 76 19 55 -15 1
000080 0a e1 fc 0c 2f 09 db 1b 06 df 07 02 e3 df 09 e1
       10 -31 -4 12 47 9 -37 27 6 -33 7 2 -29 -33 9 -31
000090 e1 f8 4a 10 c6 33 0a e5 2b 0e 1b 2d e9 f6 ef b7
       -31 -8 74 16 -58 51 10 -27 43 14 27 45 -23 -10 -17 -73
0000a0 e6 e4 db fe 04 d6 f1 f9 02 d2 1c 31 fe be f9 23
       -26 -28 -37 -2 4 -42 -15 -7 2 -46 28 49 -2 -66 -7 35
0000b0 12 e9 1e d4 df c6 26 07 da 77 f3 79 eb 3a 06 b1
       18 -23 30 -44 -33 -58 38 7 -38 119 -13 121 -21 58 6 -79
0000c0 df b6 b4 d6 07 20 49 3c 3f 1b e2 cc 13 31 d4 2e
       -33 -74 -76 -42 7 32 73 60 63 27 -30 -52 19 49 -44 46
0000d0 f3 e4 0d 2a a3 c3 74 3a fb a1 1a e6 02 3f 03 e1
       -13 -28 13 42 -93 -61 116 58 -5 -95 26 -26 2 63 3 -31
0000e0 ee 1c eb 0f f4 06 1f 23 10 f2 0c d0 ef ee fe 07
       -18 28 -21 15 -12 6 31 35 16 -14 12 -48 -17 -18 -2 7
0000f0 54 cc eb 15 e2 dd 3a 20 0a 09 27 17 09 0b dd 13
       84 -52 -21 21 -30 -35 58 32 10 9 39 23 9 11 -35 19

tfl.pseudo_qconst24 i1 [32] scale=0.0078024482 zero_point=127
000000 37 e7 b2 06 d2 f4 e3 e1 34 9e 71 44 fa b2 80 23
       -0.5617763 -1.1859721 -1.5995018 -0.9440962 -1.3498236 -1.0845402 -1.2171819 -1.2327868 -0.5851836 -1.7555509 -0.10923427 -0.46034443 -1.0377256 -1.5995018 -1.9896243 -0.71782523
000010 54 05 c6 61 2b c6 56 61 02 c4 70 fb 49 bb 73 eb
       -0.33550528 -0.9518987 -1.443453 -0.23407345 -0.65540564 -1.443453 -0.31990036 -0.23407345 -0.97530603 -1.4590578 -0.11703672 -1.0299232 -0.4213322 -1.5292798 -0.093629375 -1.1547624

tfl.pseudo_qconst25 i1 [32] scale=0.0007452502 zero_point=-128
000000 4e 4a 58 4d 40 17 51 28 12 41 78 7f 3a 65 54 3d
       0.15352154 0.15054055 0.16097404 0.15277629 0.14308804 0.11253278 0.1557573 0.12520203 0.10880653 0.1438333 0.18482205 0.1900388 0.13861653 0.1706623 0.15799305 0.14085229
000010 33 40 24 74 2e 31 04 27 33 63 62 4b 57 48 19 74
       0.13339978 0.14308804 0.12222103 0.18184105 0.12967354 0.13190928 0.098373026 0.124456786 0.13339978 0.1691718 0.16842654 0.1512858 0.16022879 0.14905004 0.11402328 0.18184105

tfl.pseudo_qconst27 i1 [32, 3, 3, 32]
000000 04 18 08 25 f2 08 13 01 f9 e1 ec 26 e1 14 e4 f6
       4 24 8 37 -14 8 19 1 -7 -31 -20 38 -31 20 -28 -10
000010 0b 0f 16 04 04 e3 00 17 26 ff 12 2a 03 e1 e8 e8
       11 15 22 4 4 -29 0 23 38 -1 18 42 3 -31 -24 -24
000020 0e 04 ee 1f 0a 18 45 01 25 e5 9f fb b7 0f e7 ed
       14 4 -18 31 10 24 69 1 37 -27 -97 -5 -73 15 -25 -19
000030 f4 0e 1e f4 17 ca f5 0a e3 ea 47 05 1e ed 0b 12
       -12 14 30 -12 23 -54 -11 10 -29 -22 71 5 30 -19 11 18
000040 13 d6 fd 1c ad f0 26 ec 14 11 c6 cd 27 ed fd 06
       19 -42 -3 28 -83 -16 38 -20 20 17 -58 -51 39 -19 -3 6
000050 e7 18 f1 dd e8 20 ff f8 0d e8 e1 e1 cc f0 fb e2
       -25 24 -15 -35 -24 32 -1 -8 13 -24 -31 -31 -52 -16 -5 -30
000060 29 fc c5 eb e3 81 03 ea 0e 15 f9 e9 ea e8 ca f6
       41 -4 -59 -21 -29 -127 3 -22 14 21 -7 -23 -22 -24 -54 -10
000070 f0 02 07 ee d0 cd c4 17 ff df 0a eb eb dd 24 eb
       -16 2 7 -18 -48 -51 -60 23 -1 -33 10 -21 -21 -35 36 -21
000080 35 1c e4 f8 ac a2 d1 06 09 11 03 0a f1 f8 e4 da
       53 28 -28 -8 -84 -94 -47 6 9 17 3 10 -15 -8 -28 -38
000090 11 20 21 f8 f2 b7 ed 2b 27 26 2d 0c 07 ed a1 0b
       17 32 33 -8 -14 -73 -19 43 39 38 45 12 7 -19 -95 11
0000a0 5b 1c 16 ba 4e d6 23 1e 1b 01 1d ff 15 ff 18 ec
       91 28 22 -70 78 -42 35 30 27 1 29 -1 21 -1 24 -20
0000b0 ee 1e 1e 10 e7 02 e0 0d 10 f7 29 24 c1 0f 2c 00
       -18 30 30 16 -25 2 -32 13 16 -9 41 36 -63 15 44 0
0000c0 fc 01 12 e3 f2 ff 11 de 0b dd 60 df e4 d9 16 ee
       -4 1 18 -29 -14 -1 17 -34 11 -35 96 -33 -28 -39 22 -18
0000d0 0e 10 f0 e8 fc 13 20 d0 24 12 de d6 d3 04 04 e5
       14 16 -16 -24 -4 19 32 -48 36 18 -34 -42 -45 4 4 -27
0000e0 02 d4 19 0b fa 02 f7 13 f1 fb ff 11 0f 00 22 fc
       2 -44 25 11 -6 2 -9 19 -15 -5 -1 17 15 0 34 -4
0000f0 21 2d f0 ec e8 26 fa 0a 47 15 ba df d1 2d e4 f2
       33 45 -16 -20 -24 38 -6 10 71 21 -70 -33 -47 45 -28 -14

tfl.pseudo_qconst28 i1 [32] scale=0.014953014 zero_point=116
000000 21 4c f9 74 7f 3b 5f 3e 68 0b 71 6c 6b 54 47 20
       -1.2411002 -0.59812057 -1.8392208 0.0 0.16448316 -0.8523218 -0.3140133 -0.80746275 -0.17943618 -1.5700666 -0.044859044 -0.119624116 -0.13457713 -0.47849646 -0.67288566 -1.2560532
000010 7b e8 74 60 5e 80 04 30 49 6f 75 3d 73 0d 79 6d
       0.1046711 -2.093422 0.0 -0.29906029 -0.32896632 -3.6485355 -1.6747376 -1.0168049 -0.6429796 -0.07476507 0.014953014 -0.82241577 -0.014953014 -1.5401605 0.07476507 -0.1046711

tfl.pseudo_qconst29 i1 [32] scale=0.04153386 zero_point=-128
000000 a9 b0 a5 21 77 a2 f5 aa fc a2 a0 96 fb 92 c0 c0
       1.7028884 1.9936254 1.5367528 6.6869516 10.258863 1.4121513 4.859462 1.7444222 5.150199 1.4121513 1.3290836 0.9137449 5.108665 0.7476095 2.6581671 2.6581671
000010 f7 a5 9f 8c 97 1b bc 9e d1 27 e2 96 58 bc 7f a2
       4.9425297 1.5367528 1.2875497 0.49840635 0.9552788 6.4377484 2.4920316 1.2460158 3.3642428 6.936155 4.070318 0.9137449 8.971314 2.4920316 10.591135 1.4121513

tfl.pseudo_qconst31 i1 [32, 3, 3, 1]
000000 0b ed 1a fe 33 7f 09 1b 36 c2 f3 f5 0c f3 da 6d
       11 -19 26 -2 51 127 9 27 54 -62 -13 -11 12 -13 -38 109
000010 62 81 b1 42 ca 1f 21 7f 06 cc af 81 15 5e e0 19
       98 -127 -79 66 -54 31 33 127 6 -52 -81 -127 21 94 -32 25
000020 fe 19 fd e6 3e b5 fe 5f 87 05 7f 84 17 cc c4 16
       -2 25 -3 -26 62 -75 -2 95 -121 5 127 -124 23 -52 -60 22
000030 7f 34 1e b4 dd f8 c5 ea 53 a7 dc 7f c7 e1 5c 24
       127 52 30 -76 -35 -8 -59 -22 83 -89 -36 127 -57 -31 92 36
000040 7d 5a f0 f0 a5 06 c5 81 7e 81 00 73 8c 02 ed 13
       125 90 -16 -16 -91 6 -59 -127 126 -127 0 115 -116 2 -19 19
000050 07 7f 09 1e d8 da cb 4c 49 2f 48 26 bc ee db 81
       7 127 9 30 -40 -38 -53 76 73 47 72 38 -68 -18 -37 -127
000060 39 09 c0 eb db c0 81 0e a1 db f7 6b 74 75 8a bb
       57 9 -64 -21 -37 -64 -127 14 -95 -37 -9 107 116 117 -118 -69
000070 e6 2b 81 ab 15 e4 ee 9e 9f b1 81 58 58 74 39 18
       -26 43 -127 -85 21 -28 -18 -98 -97 -79 -127 88 88 116 57 24
000080 ac e9 a4 7f f9 c1 f1 35 e9 05 bd c9 4e 7f a0 6b
       -84 -23 -92 127 -7 -63 -15 53 -23 5 -67 -55 78 127 -96 107
000090 f2 cf 97 81 d3 39 06 e2 82 50 22 ff 7f 61 4d fc
       -14 -49 -105 -127 -45 57 6 -30 -126 80 34 -1 127 97 77 -4
0000a0 07 05 85 a7 ed 49 09 cb 81 a9 95 88 a8 81 0b 1a
       7 5 -123 -89 -19 73 9 -53 -127 -87 -107 -120 -88 -127 11 26
0000b0 00 ba a6 b0 32 81 99 fd 29 66 fd 22 e3 2c 55 81
       0 -70 -90 -80 50 -127 -103 -3 41 102 -3 34 -29 44 85 -127
0000c0 c7 c6 6f 19 34 b8 3e f7 1d 1f 12 35 08 b1 81 c4
       -57 -58 111 25 52 -72 62 -9 29 31 18 53 8 -79 -127 -60
0000d0 fe 9b f1 28 d0 2e 5b 7f 41 05 d2 7f f7 9f 19 d3
       -2 -101 -15 40 -48 46 91 127 65 5 -46 127 -9 -97 25 -45
0000e0 19 28 4d 81 f9 ca 37 fe 76 86 04 b2 39 12 4b 81
       25 40 77 -127 -7 -54 55 -2 118 -122 4 -78 57 18 75 -127
0000f0 e5 22 8a f8 c7 d8 d0 bb 81 bb d5 cb 5a 81 03 88
       -27 34 -118 -8 -57 -40 -48 -69 -127 -69 -43 -53 90 -127 3 -120
