Model/final.tflite (tflite, 211232 bytes, 22 tensors)

tfl.pseudo_qconst1 i1 [4, 32]
-126 17 16 -21 -8 61 -3 1
14 -11 -5 -111 3 -13 -18 38
-33 18 -68 27 8 127 -8 26
-35 50 54 -62 72 -16 14 24
127 -3 19 -42 -16 96 14 -2
17 -25 2 0 -66 -49 -19 50
-39 21 -114 28 9 80 -68 27
-32 -77 -91 91 -86 35 41 -44
22 12 12 5 -9 -73 -45 12
11 127 -18 0 66 -29 27 21
-25 14 76 27 6 98 -57 -10
22 24 6 -44 -51 -5 25 -5
-46 22 11 -15 2 -17 28 21
10 109 62 -23 -21 62 -18 10
-23 13 -68 0 6 -127 67 4
-30 -23 40 -22 -43 13 -54 -27
00000000: 8211 10eb f83d fd01 0ef5 fb91 03f3 ee26
00000010: df12 bc1b 087f f81a dd32 36c2 48f0 0e18
00000020: 7ffd 13d6 f060 0efe 11e7 0200 becf ed32
00000030: d915 8e1c 0950 bc1b e0b3 a55b aa23 29d4
00000040: 160c 0c05 f7b7 d30c 0b7f ee00 42e3 1b15
00000050: e70e 4c1b 0662 c7f6 1618 06d4 cdfb 19fb
00000060: d216 0bf1 02ef 1c15 0a6d 3ee9 eb3e ee0a
00000070: e90d bc00 0681 4304 e2e9 28ea d50d cae5

tfl.pseudo_qconst3 i1 [32, 64]
0 0 25 30 0 0 0 0
0 0 0 0 0 0 0 0
0 0 0 0 0 113 0 0
87 0 0 0 0 0 0 0
-3 0 0 0 0 0 0 0
0 0 0 0 0 0 0 0
-38 0 0 0 0 -127 0 0
0 0 0 0 0 0 0 0
0 0 0 0 0 0 0 0
0 0 0 0 0 0 0 0
0 0 0 0 0 0 0 0
0 0 0 0 0 0 0 0
0 0 0 0 0 0 0 0
0 0 0 0 0 0 0 0
0 0 0 0 0 0 0 0
0 0 0 0 0 0 0 0
0 0 0 0 0 0 0 0
0 0 0 0 0 0 0 0
0 0 0 0 0 0 0 0
0 0 0 0 0 0 0 0
0 0 0 0 0 0 0 0
0 0 0 0 0 0 0 0
0 0 0 0 0 0 0 0
0 0 0 0 0 0 0 0
0 0 0 0 0 0 0 0
0 0 0 0 0 0 0 0
0 0 0 0 0 0 0 0
0 0 0 0 0 0 0 0
0 0 0 0 0 0 0 0
0 0 0 0 0 0 0 0
0 0 0 0 0 0 0 0
0 0 0 0 0 0 0 0
00000000: 0000 191e 0000 0000 0000 0000 0000 0000
00000010: 0000 0000 0071 0000 5700 0000 0000 0000
00000020: fd00 0000 0000 0000 0000 0000 0000 0000
00000030: da00 0000 0081 0000 0000 0000 0000 0000
00000040: 0000 0000 0000 0000 0000 0000 0000 0000
00000050: 0000 0000 0000 0000 0000 0000 0000 0000
00000060: 0000 0000 0000 0000 0000 0000 0000 0000
00000070: 0000 0000 0000 0000 0000 0000 0000 0000
00000080: 0000 0000 0000 0000 0000 0000 0000 0000
00000090: 0000 0000 0000 0000 0000 0000 0000 0000
000000a0: 0000 0000 0000 0000 0000 0000 0000 0000
000000b0: 0000 0000 0000 0000 0000 0000 0000 0000
000000c0: 0000 0000 0000 0000 0000 0000 0000 0000
000000d0: 0000 0000 0000 0000 0000 0000 0000 0000
000000e0: 0000 0000 0000 0000 0000 0000 0000 0000
000000f0: 0000 0000 0000 0000 0000 0000 0000 0000

tfl.pseudo_qconst5 i1 [64, 128]
0 0 0 0 0 0 0 0
0 0 0 0 0 0 0 0
0 0 0 0 0 0 0 0
0 0 0 0 0 0 0 0
0 0 0 0 0 0 0 0
0 0 0 0 0 0 0 0
0 0 0 0 0 0 0 0
0 0 0 0 0 0 0 0
0 0 0 0 0 0 0 0
0 0 0 0 0 0 0 0
0 0 0 0 0 0 0 0
0 0 0 0 0 0 0 0
0 0 0 0 0 0 0 0
0 0 0 0 0 0 0 0
0 0 0 0 0 0 0 0
0 0 0 0 0 0 0 0
0 0 0 0 0 0 0 0
0 0 0 0 0 0 0 0
0 0 0 0 0 0 0 0
0 0 0 0 0 0 0 0
0 0 0 0 0 0 0 0
0 0 0 0 0 0 0 0
0 0 0 0 0 0 0 0
0 0 0 0 0 0 0 0
0 0 0 0 0 0 0 0
0 0 0 0 0 0 0 0
0 0 0 0 0 0 0 0
0 0 0 0 0 0 0 0
0 0 0 0 0 0 0 0
0 0 0 0 0 0 0 0
0 0 0 0 0 0 0 0
0 0 0 0 0 0 0 0
00000000: 0000 0000 0000 0000 0000 0000 0000 0000
00000010: 0000 0000 0000 0000 0000 0000 0000 0000
00000020: 0000 0000 0000 0000 0000 0000 0000 0000
00000030: 0000 0000 0000 0000 0000 0000 0000 0000
00000040: 0000 0000 0000 0000 0000 0000 0000 0000
00000050: 0000 0000 0000 0000 0000 0000 0000 0000
00000060: 0000 0000 0000 0000 0000 0000 0000 0000
00000070: 0000 0000 0000 0000 0000 0000 0000 0000
00000080: 0000 0000 0000 0000 0000 0000 0000 0000
00000090: 0000 0000 0000 0000 0000 0000 0000 0000
000000a0: 0000 0000 0000 0000 0000 0000 0000 0000
000000b0: 0000 0000 0000 0000 0000 0000 0000 0000
000000c0: 0000 0000 0000 0000 0000 0000 0000 0000
000000d0: 0000 0000 0000 0000 0000 0000 0000 0000
000000e0: 0000 0000 0000 0000 0000 0000 0000 0000
000000f0: 0000 0000 0000 0000 0000 0000 0000 0000

tfl.pseudo_qconst7 i1 [64, 3, 3, 64]
-20 33 -49 9 -26 -3 -63 -76
42 17 -84 7 29 -8 16 2
7 65 -11 -40 78 1 8 -55
39 -2 -42 -47 36 12 0 0
69 -57 33 -11 18 -19 11 -52
-4 -39 55 7 -16 36 -52 -65
2 -45 -44 -54 56 -3 7 -21
-43 -14 15 -10 16 -46 33 -52
-46 21 58 36 -29 13 -54 7
17 -20 20 -6 14 -24 10 -20
-16 25 -13 22 7 22 -33 35
-11 12 27 -25 10 29 60 24
22 5 -31 16 -1 -12 -17 -45
15 -18 24 -12 -52 25 -7 -16
-40 -32 -26 15 -35 -17 54 1
-46 10 -14 -22 47 1 5 -46
11 23 -33 -27 -39 20 -2 -38
41 6 -10 -14 -9 8 -27 -4
-33 9 13 -79 -31 -5 78 -5
-13 26 -13 55 7 -12 32 18
-39 85 -6 -71 -14 27 -9 30
-29 -81 12 0 40 -85 -104 97
33 10 11 29 -69 64 -32 1
-45 -28 -12 11 -66 -39 15 -4
30 -19 22 8 -2 30 -37 -26
-42 -31 -21 13 -21 -99 44 27
-18 6 22 21 -12 -11 18 -39
11 36 23 -17 26 -1 -4 -5
8 16 -11 -28 -47 -10 -11 25
22 -17 39 -27 36 -13 27 -33
-1 -1 -10 51 12 -10 10 -12
-4 -20 -22 -13 34 -65 -38 -45
00000000: ec21 cf09 e6fd c1b4 2a11 ac07 1df8 1002
00000010: 0741 f5d8 4e01 08c9 27fe d6d1 240c 0000
00000020: 45c7 21f5 12ed 0bcc fcd9 3707 f024 ccbf
00000030: 02d3 d4ca 38fd 07eb d5f2 0ff6 10d2 21cc
00000040: d215 3a24 e30d ca07 11ec 14fa 0ee8 0aec
00000050: f019 f316 0716 df23 f50c 1be7 0a1d 3c18
00000060: 1605 e110 fff4 efd3 0fee 18f4 cc19 f9f0
00000070: d8e0 e60f ddef 3601 d20a f2ea 2f01 05d2
00000080: 0b17 dfe5 d914 feda 2906 f6f2 f708 e5fc
00000090: df09 0db1 e1fb 4efb f31a f337 07f4 2012
000000a0: d955 fab9 f21b f71e e3af 0c00 28ab 9861
000000b0: 210a 0b1d bb40 e001 d3e4 f40b bed9 0ffc
000000c0: 1eed 1608 fe1e dbe6 d6e1 eb0d eb9d 2c1b
000000d0: ee06 1615 f4f5 12d9 0b24 17ef 1aff fcfb
000000e0: 0810 f5e4 d1f6 f519 16ef 27e5 24f3 1bdf
000000f0: ffff f633 0cf6 0af4 fcec eaf3 22bf dad3

tfl.pseudo_qconst8 i1 [64] scale=0.0032416843 zero_point=87
-0.43762738 -0.35658526 -0.50570273 -0.3501019 0.110217266 0.019450106 -0.16208422 -0.58998656
-0.5737781 -0.42790234 -0.33713517 -0.29823494 -0.36631033 -0.012966737 -0.42790234 0.0
-0.5997116 -0.6613036 -0.2917516 -0.012966737 0.110217266 -0.42141896 -0.48949432 -0.47004423
-0.4765276 -0.068075374 -0.035658527 -0.09725053 -0.25609306 -0.606195 -0.28202653 -0.36631033
-0.27554315 -0.6969621 -0.47004423 -0.44411075 -0.13615075 -0.44086906 -0.5964699 -0.42141896
-0.1037339 -0.4538358 -0.18477601 -0.22043453 -0.068075374 -0.4797693 -0.2690598 -0.110217266
-0.5608114 -0.18153432 -0.15884253 -0.34686023 0.12966737 -0.24312632 -0.23664296 -0.32416844
-0.08104211 -0.19125937 -0.52515286 -0.2917516 -0.23988464 -0.5186695 -0.48301095 -0.41817728
00000000: d0e9 bbeb 795d 25a1 a6d3 effb e653 d357
00000010: 9e8b fd53 79d5 c0c6 c442 4c39 089c 00e6
00000020: 0280 c6ce 2dcf 9fd5 37cb 1e13 42c3 0435
00000030: aa1f 26ec 7f0c 0ef3 3e1c b5fd 0db7 c2d6

tfl.pseudo_qconst9 i1 [64] scale=0.0013979332 zero_point=-128
0.28238252 0.272597 0.31453496 0.272597 0.28238252 0.24184245 0.24324039 0.22926106
0.26281145 0.272597 0.2991577 0.26700523 0.30195358 0.2851784 0.28937218 0.272597
0.31733084 0.2851784 0.25442386 0.31872877 0.293566 0.23625071 0.28098458 0.22506724
0.28098458 0.30894324 0.27679077 0.25861764 0.22506724 0.3243205 0.3201267 0.26281145
0.35647297 0.28378046 0.31173912 0.28098458 0.2698011 0.28797424 0.26700523 0.28937218
0.3229226 0.28937218 0.30335152 0.23485278 0.2781887 0.26700523 0.2907701 0.3075453
0.25162798 0.27539286 0.26281145 0.29216805 0.32991225 0.3229226 0.2558218 0.26001558
0.29775977 0.30195358 0.28098458 0.30335152 0.29216805 0.25162798 0.2614135 0.3229226
00000000: 4a43 6143 4a2d 2e24 3c43 563f 584c 4f43
00000010: 634c 3664 5229 4921 495d 4639 2168 653c
00000020: 7f4b 5f49 414e 3f4f 674f 5928 473f 505c
00000030: 3445 3c51 6c67 373a 5558 4959 5134 3b67

tfl.pseudo_qconst11 i1 [64, 3, 3, 64]
14 -46 24 7 30 22 -31 31
9 -7 20 -35 -34 37 -26 53
16 -1 8 -63 -86 -17 7 90
1 36 -35 18 15 12 19 -25
26 -1 -1 -42 -127 55 -2 43
-10 72 -37 9 -4 -6 11 -37
56 -57 -41 -39 36 -2 -88 52
-13 50 24 18 -34 -18 -29 -38
-42 20 18 -6 5 -1 -20 23
42 -13 -59 9 33 38 -65 65
-16 -45 -10 38 1 25 -12 -11
-9 -16 7 36 -22 23 -22 2
-4 -20 8 24 20 -18 14 17
13 38 -16 27 8 -42 31 63
-19 11 -4 31 9 -2 -13 -25
-36 67 41 0 -10 -8 -51 -1
-20 -64 -39 -25 1 -41 77 36
-45 16 -40 5 18 22 35 -25
-6 -2 22 14 -20 -10 -48 0
-90 -13 29 13 -63 1 -6 23
-2 -100 -75 -9 -110 -44 -14 -32
45 53 18 7 32 3 6 -54
6 0 -73 -15 -24 -42 -70 32
16 -46 59 -85 37 46 -82 -15
-18 1 26 -32 28 -35 -4 -31
16 21 -13 5 -2 16 15 64
-6 -3 28 38 82 34 -1 70
24 -13 -49 -27 -32 14 -70 9
0 44 32 -32 39 -33 -1 52
-13 -20 49 -51 9 31 -15 -14
62 52 38 -27 1 67 -31 5
49 -13 -38 34 22 4 -74 -20
00000000: 0ed2 1807 1e16 e11f 09f9 14dd de25 e635
00000010: 10ff 08c1 aaef 075a 0124 dd12 0f0c 13e7
00000020: 1aff ffd6 8137 fe2b f648 db09 fcfa 0bdb
00000030: 38c7 d7d9 24fe a834 f332 1812 deee e3da
00000040: d614 12fa 05ff ec17 2af3 c509 2126 bf41
00000050: f0d3 f626 0119 f4f5 f7f0 0724 ea17 ea02
00000060: fcec 0818 14ee 0e11 0d26 f01b 08d6 1f3f
00000070: ed0b fc1f 09fe f3e7 dc43 2900 f6f8 cdff
00000080: ecc0 d9e7 01d7 4d24 d310 d805 1216 23e7
00000090: fafe 160e ecf6 d000 a6f3 1d0d c101 fa17
000000a0: fe9c b5f7 92d4 f2e0 2d35 1207 2003 06ca
000000b0: 0600 b7f1 e8d6 ba20 10d2 3bab 252e aef1
000000c0: ee01 1ae0 1cdd fce1 1015 f305 fe10 0f40
000000d0: fafd 1c26 5222 ff46 18f3 cfe5 e00e ba09
000000e0: 002c 20e0 27df ff34 f3ec 31cd 091f f1f2
000000f0: 3e34 26e5 0143 e105 31f3 da22 1604 b6ec

tfl.pseudo_qconst12 i1 [64] scale=0.0048098452 zero_point=108
-0.5098436 -0.45212546 -0.23568241 -0.32225963 -0.21644303 -0.31744978 -0.34630886 -0.105816595
-0.29340056 -0.45212546 -0.3511187 -0.36554825 0.076957524 -0.8272934 -0.38478762 -0.808054
-1.0437365 -0.79362446 -0.6541389 -0.26935133 0.062527984 -0.32225963 -0.6012307 -0.7743851
-0.5098436 -0.25011194 -1.0725955 -0.4473156 -0.2741612 -0.37516794 -0.7022374 -0.5483224
-0.35592854 -0.42326638 -0.24530211 -0.43769592 0.09138706 -0.07214768 -0.23568241 -0.16834459
-0.024049226 -0.6300897 -0.38478762 -0.24049225 -0.31744978 -0.3607384 -0.21644303 -0.49541405
-0.2549218 -0.4473156 -0.43769592 -0.76957524 -0.682998 -0.26935133 -0.37035808 -0.29340056
-0.5483224 -0.25011194 -1.1351235 -0.19239381 -0.56756175 -1.0581659 -0.16353473 -0.8802017
00000000: 020e 3b29 3f2a 2456 2f0e 2320 7cc0 1cc4
00000010: 93c7 e434 7929 efcb 0238 8d0f 331e dafa
00000020: 2214 3911 7f5d 3b49 67e9 1c3a 2a21 3f05
00000030: 370f 11cc de34 1f2f fa38 8044 f690 4ab5

tfl.pseudo_qconst13 i1 [64] scale=0.00122551 zero_point=-128
0.15441427 0.2071112 0.21078773 0.13235508 0.1580908 0.1458357 0.14215916 0.17647344
0.15441427 0.13970815 0.18995406 0.1335806 0.19117956 0.11397243 0.12500203 0.16176732
0.14093365 0.122551 0.1715714 0.24632752 0.21078773 0.14338468 0.14828672 0.14215916
0.16544385 0.20466018 0.12132549 0.16544385 0.13970815 0.14828672 0.1458357 0.20343466
0.19853263 0.14338468 0.16421835 0.23529792 0.20588568 0.17402242 0.16176732 0.26348466
0.2316214 0.16912039 0.19240507 0.29779893 0.185052 0.19363059 0.1593163 0.118874475
0.1348061 0.18995406 0.18137549 0.13112958 0.1580908 0.16544385 0.13725713 0.31250507
0.18260099 0.20466018 0.12622753 0.17034589 0.11764896 0.120099984 0.20588568 0.1348061
00000000: fe29 2cec 01f7 f410 fef2 1bed 1cdd e604
00000010: f3e4 0c49 2cf5 f9f4 0727 e307 f2f9 f726
00000020: 22f5 0640 280e 0457 3d0a 1d73 171e 02e1
00000030: ee1b 14eb 0107 f07f 1527 e70b e0e2 28ee

tfl.pseudo_qconst15 i1 [64, 3, 3, 64]
-12 13 3 34 -80 -71 15 -14
2 2 -5 -66 2 -14 -64 -15
0 14 89 -16 -9 1 56 -74
57 -28 18 24 -99 -45 -25 -22
-10 61 -63 -7 55 44 -21 -66
-8 29 -4 -8 47 -25 -29 -35
-28 61 -5 -93 30 19 19 21
-16 7 32 -42 -40 86 -18 44
14 47 -23 46 -71 -28 24 -39
27 40 -11 -58 1 -54 5 11
23 -5 -44 -3 -3 -29 -48 -46
18 26 1 29 48 -37 25 -11
10 -64 -3 -48 -7 -30 11 -24
13 -9 -80 6 54 18 -60 24
10 21 -24 16 32 -8 28 -14
-49 -17 11 -24 -79 53 27 -60
49 45 -32 37 3 5 30 -26
-28 41 3 -63 6 -6 55 2
-39 -29 32 -4 10 43 -62 15
-40 45 57 32 51 -16 2 -39
46 17 50 -79 3 54 62 26
18 -6 32 -19 26 -20 20 25
21 12 -18 69 -34 -127 -67 25
-88 -9 15 -29 -19 -37 7 -29
32 3 55 37 -2 34 58 20
7 -41 3 -8 2 25 27 0
29 8 52 -15 8 49 -10 22
-22 1 -34 -11 15 34 -36 -47
29 -25 17 -1 6 -27 1 -35
30 -4 -18 -37 -8 67 4 17
-57 1 -32 21 25 -15 35 -5
-17 -71 12 33 -68 27 27 -6
00000000: f40d 0322 b0b9 0ff2 0202 fbbe 02f2 c0f1
00000010: 000e 59f0 f701 38b6 39e4 1218 9dd3 e7ea
00000020: f63d c1f9 372c ebbe f81d fcf8 2fe7 e3dd
00000030: e43d fba3 1e13 1315 f007 20d6 d856 ee2c
00000040: 0e2f e92e b9e4 18d9 1b28 f5c6 01ca 050b
00000050: 17fb d4fd fde3 d0d2 121a 011d 30db 19f5
00000060: 0ac0 fdd0 f9e2 0be8 0df7 b006 3612 c418
00000070: 0a15 e810 20f8 1cf2 cfef 0be8 b135 1bc4
00000080: 312d e025 0305 1ee6 e429 03c1 06fa 3702
00000090: d9e3 20fc 0a2b c20f d82d 3920 33f0 02d9
000000a0: 2e11 32b1 0336 3e1a 12fa 20ed 1aec 1419
000000b0: 150c ee45 de81 bd19 a8f7 0fe3 eddb 07e3
000000c0: 2003 3725 fe22 3a14 07d7 03f8 0219 1b00
000000d0: 1d08 34f1 0831 f616 ea01 def5 0f22 dcd1
000000e0: 1de7 11ff 06e5 01dd 1efc eedb f843 0411
000000f0: c701 e015 19f1 23fb efb9 0c21 bc1b 1bfa

tfl.pseudo_qconst16 i1 [64] scale=0.0067323935 zero_point=127
-1.2993519 -1.0973802 -0.96946466 -0.9963942 -0.9358027 -1.077183 -1.1243097 -0.80115485
-0.8146196 -0.97619706 -0.7674929 -0.7203661 -0.73383087 -0.90887314 -1.2858871 -0.7472957
-0.8146196 -1.1579717 -1.1310421 -0.91560555 -0.9425351 -0.8415492 -1.1377745 -1.2387604
-1.0502534 -0.7405633 -1.0031266 -1.1647041 -0.8280844 -1.1579717 -1.2252957 -0.55878866
-1.1377745 -0.9290703 -1.0502534 -0.821352 -1.0906477 -0.8752112 -0.85501397 -0.7136337
-1.1579717 -1.1243097 -0.79442245 -1.0502534 -0.5385915 -1.0165914 -0.9896619 -0.78095764
-0.98292947 -1.2050984 -0.632845 -0.599183 -1.1175773 -1.110845 -1.2185632 -0.8752112
-1.043521 -1.0637182 -0.5857182 -1.7167604 -0.97619706 -0.7405633 -0.8819435 -0.8617464
00000000: bedc efeb f4df d808 06ee 0d14 12f8 c010
00000010: 06d3 d7f7 f302 d6c7 e311 ead2 04d3 c92c
00000020: d6f5 e305 ddfd 0015 d3d8 09e3 2fe8 ec0b
00000030: edcc 2126 d9da cafd e4e1 2880 ee11 fcff

tfl.pseudo_qconst17 i1 [64] scale=0.0006655952 zero_point=-128
0.12779427 0.1244663 0.117810346 0.10915761 0.16972677 0.14643094 0.12579748 0.118475944
0.12979107 0.14110617 0.14776213 0.1104888 0.11714475 0.1650676 0.12779427 0.16040844
0.12513189 0.113816775 0.13112225 0.139775 0.13045666 0.12979107 0.13311903 0.13045666
0.1384438 0.12779427 0.14975892 0.14044058 0.15441808 0.12513189 0.1524213 0.13112225
0.12579748 0.139775 0.15774606 0.12180392 0.15308689 0.1510901 0.14177178 0.11581356
0.13378464 0.12579748 0.1371126 0.15375249 0.12779427 0.1238007 0.12779427 0.16772999
0.13511582 0.13045666 0.16706438 0.13644701 0.101170465 0.14709653 0.13112225 0.14709653
0.14110617 0.14044058 0.12779427 0.119141534 0.12845987 0.12979107 0.13578142 0.1371126
00000000: 403b 3124 7f5c 3d32 4354 5e26 3078 4071
00000010: 3c2b 4552 4443 4844 5040 6153 683c 6545
00000020: 3d52 6d37 6663 552e 493d 4e67 403a 407c
00000030: 4b44 7b4d 185d 455d 5453 4033 4143 4c4e

tfl.pseudo_qconst19 i1 [64, 3, 3, 64]
36 14 -21 -1 -33 -49 -22 105
51 20 12 -1 28 40 -37 37
10 -10 29 -30 25 -29 31 21
-6 -7 74 25 39 19 38 39
-42 39 -71 -51 -103 11 -127 38
-41 39 -18 -18 32 2 -21 -7
-4 -9 27 -58 0 -26 17 -19
7 -4 -119 -46 -48 38 -11 30
55 7 41 -77 -27 -14 12 68
-17 45 -11 -50 -13 -28 -17 3
-51 -62 41 -8 38 2 -13 29
-30 39 32 -1 13 48 27 24
12 -20 34 -39 -5 16 -46 31
-32 35 52 8 11 -56 9 37
-26 -7 -27 5 -42 -25 -17 -22
9 -7 -107 -31 -6 2 33 51
59 -10 42 -40 42 0 -83 63
-28 78 -39 -46 8 -22 -6 -2
29 -17 8 -55 29 44 -23 53
-78 34 50 22 2 51 12 42
-4 -8 -21 -24 29 17 -59 3
61 1 49 -3 28 -52 -20 2
-90 -62 -64 -3 6 24 -9 -41
-23 -27 1 3 -16 -47 2 104
-5 -49 21 -57 -26 32 10 25
-5 -48 24 107 2 -44 -33 37
-40 11 -12 10 32 40 13 -28
53 -52 -16 8 -23 -17 -45 22
0 -7 0 -20 -48 14 30 -20
14 -12 -37 37 26 -8 -2 -88
-33 21 -17 31 -52 -72 -1 -61
-18 -90 -15 -33 45 60 41 -5
00000000: 240e ebff dfcf ea69 3314 0cff 1c28 db25
00000010: 0af6 1de2 19e3 1f15 faf9 4a19 2713 2627
00000020: d627 b9cd 990b 8126 d727 eeee 2002 ebf9
00000030: fcf7 1bc6 00e6 11ed 07fc 89d2 d026 f51e
00000040: 3707 29b3 e5f2 0c44 ef2d f5ce f3e4 ef03
00000050: cdc2 29f8 2602 f31d e227 20ff 0d30 1b18
00000060: 0cec 22d9 fb10 d21f e023 3408 0bc8 0925
00000070: e6f9 e505 d6e7 efea 09f9 95e1 fa02 2133
00000080: 3bf6 2ad8 2a00 ad3f e44e d9d2 08ea fafe
00000090: 1def 08c9 1d2c e935 b222 3216 0233 0c2a
000000a0: fcf8 ebe8 1d11 c503 3d01 31fd 1ccc ec02
000000b0: a6c2 c0fd 0618 f7d7 e9e5 0103 f0d1 0268
000000c0: fbcf 15c7 e620 0a19 fbd0 186b 02d4 df25
000000d0: d80b f40a 2028 0de4 35cc f008 e9ef d316
000000e0: 00f9 00ec d00e 1eec 0ef4 db25 1af8 fea8
000000f0: df15 ef1f ccb8 ffc3 eea6 f1df 2d3c 29fb

tfl.pseudo_qconst20 i1 [64] scale=0.005314221 zero_point=114
-0.43576613 -0.27102527 -0.4782799 -0.41982347 -0.6536492 -1.0787868 -0.18068352 -0.33479592
-0.39856657 -0.5207937 -0.3029106 -0.8183901 -0.5207937 -0.5473648 -0.6270781 -0.36136705
-0.7280483 -0.015942663 -0.32948172 -0.35605282 -0.8183901 -0.4304519 -0.24976839 -0.74399096
-0.8024474 0.069084875 -1.2860415 -0.69084877 -0.55799323 -0.21256885 -0.058456432 -0.7333625
-0.4251377 -0.6536492 0.021256885 -0.29228216 -0.39856657 -0.04251377 -0.552679 -0.31353906
-0.37199548 -0.69084877 -0.069084875 -0.79713315 -0.5951928 -0.3773097 -0.22319728 -0.44108036
-0.69084877 -0.2975964 -0.7067914 -0.31885326 0.010628442 -0.24976839 -0.20725462 -0.9512456
-0.8927891 -0.2975964 -0.55799323 -0.5792501 -0.7386767 -0.28165373 -0.6802203 -0.53142214
00000000: 203f 1823 f7a7 5033 2710 39d8 100b fc2e
00000010: e96f 342f d821 43e6 db7f 80f0 094a 67e8
00000020: 22f7 763b 276a 0a37 2cf0 65dc 022b 481f
00000030: f03a ed36 7443 4bbf ca3a 0905 e73d f20e

tfl.pseudo_qconst21 i1 [64] scale=0.0016074762 zero_point=-128
0.09162614 0.11252333 0.1077009 0.16557005 0.29416814 0.10287847 0.2764859 0.14628033
0.1752149 0.14628033 0.28452328 0.18968219 0.21057938 0.14306538 0.07876633 0.18485975
0.17199995 0.34560737 0.22986908 0.13985042 0.09001867 0.13502799 0.40990642 0.13985042
0.1077009 0.2491588 0.16074762 0.21057938 0.19450462 0.2636261 0.2636261 0.13824295
0.14788781 0.16396257 0.35525224 0.1543177 0.2893457 0.28773823 0.2555887 0.18485975
0.12056071 0.15271023 0.17842986 0.18485975 0.1623551 0.25237375 0.22665414 0.15110275
0.1543177 0.17199995 0.19450462 0.16717751 0.27809337 0.22022423 0.2154018 0.1285981
0.15271023 0.13181305 0.17039247 0.24755132 0.16396257 0.18807471 0.18807471 0.19128966
00000000: b9c6 c3e7 37c0 2cdb eddb 31f6 03d9 b1f3
00000010: eb57 0fd7 b8d4 7fd7 c31b e403 f924 24d6
00000020: dce6 5de0 3433 1ff3 cbdf eff3 e51d 0dde
00000030: e0eb f9e8 2d09 06d0 dfd2 ea1a e6f5 f5f7

tfl.pseudo_qconst23 i1 [64, 3, 3, 32]
-44 -94 61 -2 5 24 28 35
-61 12 -39 -12 -3 52 -55 26
48 -24 -40 -85 -20 -5 26 -5
19 22 -75 -2 30 32 34 -2
-49 2 14 18 -15 -68 9 12
-30 40 -28 53 31 36 -19 34
4 -17 23 -59 -78 -28 -8 -52
4 49 44 -8 22 17 23 -25
-32 4 12 15 36 -24 34 22
2 9 -30 73 -6 44 30 42
26 -74 3 -37 -36 -58 13 -57
44 20 -57 -18 -29 26 -34 12
68 14 -41 63 -58 -27 -14 6
23 11 -50 -36 -8 6 -25 101
-19 6 -105 -59 44 73 0 79
30 15 -79 -25 8 -54 -21 -33
32 20 -19 -8 -5 -54 34 14
-8 10 16 -8 25 2 -57 5
-1 4 25 -47 -7 40 -2 15
17 27 45 -40 -20 -22 -20 32
54 9 -20 -2 -11 -87 58 23
27 3 -20 -75 41 13 -16 -8
-7 15 8 -21 21 23 -34 47
-8 8 75 -13 6 -26 17 24
4 86 -10 24 -36 -40 6 -24
-23 -20 -33 13 14 39 45 51
127 82 -121 -105 123 58 22 30
-13 53 47 19 11 -49 7 -61
-51 81 -36 36 10 -26 18 -49
-52 -10 -22 -5 49 3 0 -23
46 31 22 -36 -34 33 -14 9
10 47 72 -2 10 -5 -27 18
00000000: d4a2 3dfe 0518 1c23 c30c d9f4 fd34 c91a
00000010: 30e8 d8ab ecfb 1afb 1316 b5fe 1e20 22fe
00000020: cf02 0e12 f1bc 090c e228 e435 1f24 ed22
00000030: 04ef 17c5 b2e4 f8cc 0431 2cf8 1611 17e7
00000040: e004 0c0f 24e8 2216 0209 e249 fa2c 1e2a
00000050: 1ab6 03db dcc6 0dc7 2c14 c7ee e31a de0c
00000060: 440e d73f c6e5 f206 170b cedc f806 e765
00000070: ed06 97c5 2c49 004f 1e0f b1e7 08ca ebdf
00000080: 2014 edf8 fbca 220e f80a 10f8 1902 c705
00000090: ff04 19d1 f928 fe0f 111b 2dd8 ecea ec20
000000a0: 3609 ecfe f5a9 3a17 1b03 ecb5 290d f0f8
000000b0: f90f 08eb 1517 de2f f808 4bf3 06e6 1118
000000c0: 0456 f618 dcd8 06e8 e9ec df0d 0e27 2d33
000000d0: 7f52 8797 7b3a 161e f335 2f13 0bcf 07c3
000000e0: cd51 dc24 0ae6 12cf ccf6 eafb 3103 00e9
000000f0: 2e1f 16dc de21 f209 0a2f 48fe 0afb e512

tfl.pseudo_qconst24 i1 [32] scale=0.0075506913 zero_point=127
-0.15856452 -0.66446084 -0.98158985 -0.22652073 -1.2156613 -0.4983456 -1.1552558 -1.223212
-1.0495461 -0.64935946 -1.4648341 -0.35488248 -0.15101382 -1.0646474 -0.8758802 -0.36998388
-1.2156613 -1.2534148 -1.4723848 -0.7626198 -0.31712905 -0.89098155 -1.2534148 -0.83057606
-1.9254262 -1.5025876 -0.9740392 -1.8197166 -1.0344447 -0.32467973 -0.8532281 -1.1854585
00000000: 6a27 fd61 de3d e6dd f429 bd50 6bf2 0b4e
00000010: ded9 bc1a 5509 d911 80b8 fe8e f654 0ee2

tfl.pseudo_qconst25 i1 [32] scale=0.00076998095 zero_point=-128
0.07699809 0.11241722 0.1578461 0.13474667 0.18633538 0.13782659 0.18941532 0.14706635
0.12704685 0.14629638 0.12473691 0.11087726 0.19634514 0.13474667 0.10625737 0.18094553
0.1255069 0.14783634 0.14706635 0.11549714 0.15322621 0.11164724 0.13628663 0.09855756
0.12242697 0.161696 0.18248549 0.1578461 0.13397668 0.10779733 0.10394743 0.11087726
00000000: e412 4d2f 7233 763f 253e 2210 7f2f 0a6b
00000010: 2340 3f16 4711 3100 1f52 6d4d 2e0c 0710

tfl.pseudo_qconst27 i1 [32, 3, 3, 32]
56 31 55 9 60 -14 93 5
3 -12 14 -22 53 9 -43 86
-16 -11 -41 16 -12 36 14 77
-62 29 -10 23 52 68 0 3
68 39 66 40 45 -56 111 4
-43 45 43 -28 30 8 51 84
16 35 -77 -53 -7 18 -24 26
-51 9 9 9 53 35 -7 40
19 24 73 23 39 -44 108 -8
3 -6 51 -10 11 -21 -48 65
3 17 -40 18 -18 6 21 95
29 40 30 -10 -24 75 5 -5
52 28 79 35 22 -6 46 122
78 -21 -8 15 -26 -32 13 -20
4 -44 19 45 37 -40 53 32
-52 80 12 -6 -24 22 8 17
45 -10 127 35 -26 28 57 125
50 -2 -3 -6 -17 33 34 -49
4 -11 9 -38 24 -70 13 32
26 37 68 -42 55 13 20 69
-6 -31 114 59 1 73 63 98
66 -1 -20 -10 -27 -38 49 -70
88 12 -41 -37 10 -76 6 76
-14 69 16 -61 23 35 9 70
53 8 10 53 -3 16 20 -30
-17 6 -31 -2 24 -42 51 3
89 58 61 13 17 -54 24 27
56 28 13 -2 -12 48 53 -55
43 -31 -5 21 6 -10 31 -38
-20 -15 -24 5 30 -21 -19 -33
-47 22 -10 26 -1 -36 -13 57
-50 13 -63 -14 -26 33 7 -94
00000000: 381f 3709 3cf2 5d05 03f4 0eea 3509 d556
00000010: f0f5 d710 f424 0e4d c21d f617 3444 0003
00000020: 4427 4228 2dc8 6f04 d52d 2be4 1e08 3354
00000030: 1023 b3cb f912 e81a cd09 0909 3523 f928
00000040: 1318 4917 27d4 6cf8 03fa 33f6 0beb d041
00000050: 0311 d812 ee06 155f 1d28 1ef6 e84b 05fb
00000060: 341c 4f23 16fa 2e7a 4eeb f80f e6e0 0dec
00000070: 04d4 132d 25d8 3520 cc50 0cfa e816 0811
00000080: 2df6 7f23 e61c 397d 32fe fdfa ef21 22cf
00000090: 04f5 09da 18ba 0d20 1a25 44d6 370d 1445
000000a0: fae1 723b 0149 3f62 42ff ecf6 e5da 31ba
000000b0: 580c d7db 0ab4 064c f245 10c3 1723 0946
000000c0: 3508 0a35 fd10 14e2 ef06 e1fe 18d6 3303
000000d0: 593a 3d0d 11ca 181b 381c 0dfe f430 35c9
000000e0: 2be1 fb15 06f6 1fda ecf1 e805 1eeb eddf
000000f0: d116 f61a ffdc f339 ce0d c1f2 e621 07a2

tfl.pseudo_qconst28 i1 [32] scale=0.014174049 zero_point=115
-0.7653986 -2.4237623 -0.7937467 -0.8362689 -1.3040125 -0.07087024 -1.5449713 -0.41104743
-1.771756 -0.34017718 0.17008859 0.056696195 -0.28348097 -3.0190723 -0.028348098 -0.65200627
0.12756644 -0.085044295 -0.29765502 -3.4442937 -0.8929651 -0.6094841 -1.5307972 -0.41104743
-0.36852527 -1.148098 -1.0772277 -0.3826993 -0.43939552 -0.48191765 -1.771756 -1.4315789
00000000: 3dc8 3b38 176e 0656 f65b 7f77 5f9e 7145
00000010: 7c6d 5e80 3448 0756 5922 2758 5451 f60e

tfl.pseudo_qconst29 i1 [32] scale=0.041766528 zero_point=-128
5.304349 1.4618285 1.503595 1.3365289 1.587128 10.650465 1.7541941 2.1718595
2.464225 2.464225 3.7589874 1.8794937 1.0023967 7.1420765 9.188636 0.5847314
8.144473 7.9356403 6.724411 6.4738116 1.2112293 1.2112293 1.2947624 2.464225
5.2625823 1.3365289 2.0883265 1.8794937 4.9702168 3.2995558 2.0883265 4.1348863
00000000: ffa3 a4a0 a67f aab4 bbbb daad 982b 5c8e
00000010: 433e 211b 9d9d 9fbb fea0 b2ad f7cf b2e3

tfl.pseudo_qconst31 i1 [32, 3, 3, 1]
-6 -76 -58 -68 63 -127 -49 34
-46 -5 -47 -54 -1 -10 -10 127
69 96 13 -4 79 14 127 98
-91 -38 -15 -4 78 127 20 -26
32 -35 -31 -59 -47 4 118 23
-57 -38 -36 51 127 59 59 -127
51 8 -71 -28 -24 49 44 21
68 53 33 127 -14 16 85 16
59 60 62 75 123 -107 -39 -127
126 60 15 -10 55 24 -58 -127
-110 126 41 -71 -5 -127 76 53
54 -75 52 8 55 0 -27 71
-127 -92 -82 -66 31 -96 34 -69
22 -114 -63 -127 -4 23 3 18
9 10 -96 -44 -127 -42 -64 102
59 67 -127 -35 -66 112 50 -127
58 72 -108 41 -32 30 26 -13
7 21 8 -20 -14 73 127 47
-127 22 114 27 -81 42 -50 19
44 -8 96 -94 23 -95 40 -35
127 -106 -127 29 37 72 -37 -72
-68 25 -39 -115 127 -18 60 50
-110 -53 65 -23 -61 -80 11 127
85 -10 -54 -34 15 32 -5 77
-123 -122 -127 91 125 66 127 102
-1 -33 -4 -24 -6 43 22 40
127 -34 7 65 -89 -55 -120 -96
72 -36 -41 111 -8 -112 94 27
-127 -72 33 -35 -6 48 127 37
49 62 74 -6 -49 127 -65 88
22 77 -91 12 -16 13 -13 -59
-50 -127 -62 -92 -90 -39 127 -93
00000000: fab4 c6bc 3f81 cf22 d2fb d1ca fff6 f67f
00000010: 4560 0dfc 4f0e 7f62 a5da f1fc 4e7f 14e6
00000020: 20dd e1c5 d104 7617 c7da dc33 7f3b 3b81
00000030: 3308 b9e4 e831 2c15 4435 217f f210 5510
00000040: 3b3c 3e4b 7b95 d981 7e3c 0ff6 3718 c681
00000050: 927e 29b9 fb81 4c35 36b5 3408 3700 e547
00000060: 81a4 aebe 1fa0 22bb 168e c181 fc17 0312
00000070: 090a a0d4 81d6 c066 3b43 81dd be70 3281
00000080: 3a48 9429 e01e 1af3 0715 08ec f249 7f2f
00000090: 8116 721b af2a ce13 2cf8 60a2 17a1 28dd
000000a0: 7f96 811d 2548 dbb8 bc19 d98d 7fee 3c32
000000b0: 92cb 41e9 c3b0 0b7f 55f6 cade 0f20 fb4d
000000c0: 8586 815b 7d42 7f66 ffdf fce8 fa2b 1628
000000d0: 7fde 0741 a7c9 88a0 48dc d76f f890 5e1b
000000e0: 81b8 21dd fa30 7f25 313e 4afa cf7f bf58
000000f0: 164d a50c f00d f3c5 ce81 c2a4 a6d9 7fa3
