Model/final_more_training.tflite (tflite, 204400 bytes, 22 tensors)

tfl.pseudo_qconst1 i1 [4, 16]
0	0x81	-127
1	0xd5	-43
2	0x32	50
3	0xd3	-45
4	0x93	-109
5	0x94	-108
6	0x2e	46
7	0xd7	-41
8	0x2e	46
9	0xd8	-40
10	0x2a	42
11	0x4e	78
12	0x92	-110
13	0x56	86
14	0x16	22
15	0x6c	108
16	0x15	21
17	0x11	17
18	0xee	-18
19	0xdd	-35
20	0x2a	42
21	0x23	35
22	0xe7	-25
23	0xe1	-31
24	0xf0	-16
25	0x7f	127
26	0x22	34
27	0x08	8
28	0x2f	47
29	0xbc	-68
30	0x11	17
31	0xce	-50
32	0x15	21
33	0xdd	-35
34	0x25	37
35	0x20	32
36	0x2c	44
37	0x24	36
38	0x25	37
39	0x1e	30
40	0x26	38
41	0x7f	127
42	0xd7	-41
43	0x46	70
44	0x30	48
45	0xbd	-67
46	0xc3	-61
47	0xcc	-52
48	0x85	-123
49	0x1f	31
50	0xe7	-25
51	0x2b	43
52	0xb3	-77
53	0xae	-82
54	0xab	-85
55	0x2a	42
56	0xdb	-37
57	0x81	-127
58	0xbf	-65
59	0xc6	-58
60	0xb0	-80
61	0x40	64
62	0xb3	-77
63	0x4d	77

tfl.pseudo_qconst3 i1 [16, 32]
0	0xfa	-6
1	0xa0	-96
2	0x18	24
3	0x9d	-99
4	0x03	3
5	0x97	-105
6	0x04	4
7	0xff	-1
8	0xfd	-3
9	0x0f	15
10	0xf6	-10
11	0xfd	-3
12	0xa8	-88
13	0x81	-127
14	0xfd	-3
15	0x21	33
16	0xfa	-6
17	0xfb	-5
18	0x16	22
19	0x07	7
20	0x2d	45
21	0x03	3
22	0xf9	-7
23	0xf9	-7
24	0x89	-119
25	0x9c	-100
26	0xb6	-74
27	0xda	-38
28	0x95	-107
29	0xf5	-11
30	0xbd	-67
31	0xfc	-4
32	0x00	0
33	0xf6	-10
34	0xed	-19
35	0xfb	-5
36	0x8d	-115
37	0x02	2
38	0x02	2
39	0x03	3
40	0x06	6
41	0x57	87
42	0xc3	-61
43	0x07	7
44	0xf5	-11
45	0xf4	-12
46	0xf7	-9
47	0x91	-111
48	0x96	-106
49	0x4d	77
50	0xee	-18
51	0x02	2
52	0xe5	-27
53	0x77	119
54	0xff	-1
55	0x15	21
56	0xfb	-5
57	0xfc	-4
58	0xf1	-15
59	0x81	-127
60	0xfb	-5
61	0x91	-111
62	0xfb	-5
63	0x31	49
64	0xff	-1
65	0x22	34
66	0x02	2
67	0x0d	13
68	0x5d	93
69	0xf7	-9
70	0xeb	-21
71	0xfb	-5
72	0xf5	-11
73	0x9e	-98
74	0x5a	90
75	0xf3	-13
76	0x20	32
77	0x11	17
78	0xf9	-7
79	0x54	84
80	0x7b	123
81	0x81	-127
82	0x27	39
83	0xec	-20
84	0x07	7
85	0x88	-120
86	0xf7	-9
87	0xf8	-8
88	0x15	21
89	0x16	22
90	0x1c	28
91	0x5c	92
92	0xfd	-3
93	0x79	121
94	0x1a	26
95	0xa2	-94
96	0x5c	92
97	0x02	2
98	0xdb	-37
99	0x09	9
100	0xf0	-16
101	0x01	1
102	0x81	-127
103	0x4e	78
104	0x45	69
105	0x06	6
106	0x06	6
107	0xc1	-63
108	0xf5	-11
109	0xff	-1
110	0x43	67
111	0xea	-22
112	0xf7	-9
113	0xe9	-23
114	0xee	-18
115	0x9e	-98
116	0xea	-22
117	0x0a	10
118	0xa9	-87
119	0xa9	-87
120	0x05	5
121	0xf7	-9
122	0xfd	-3
123	0xee	-18
124	0x01	1
125	0xec	-20
126	0xf2	-14
127	0xad	-83
128	0x05	5
129	0xba	-70
130	0x69	105
131	0xb1	-79
132	0xfa	-6
133	0xbc	-68
134	0xf6	-10
135	0x06	6
136	0xf3	-13
137	0x03	3
138	0xf0	-16
139	0x00	0
140	0xae	-82
141	0xa8	-88
142	0x03	3
143	0xf1	-15
144	0x20	32
145	0xfc	-4
146	0x7f	127
147	0xf8	-8
148	0x76	118
149	0x0a	10
150	0x0e	14
151	0xf7	-9
152	0xac	-84
153	0xc1	-63
154	0xbe	-66
155	0x01	1
156	0xbc	-68
157	0x0b	11
158	0xb8	-72
159	0x21	33
160	0xfe	-2
161	0xbf	-65
162	0x57	87
163	0xbc	-68
164	0x01	1
165	0xcb	-53
166	0x0f	15
167	0xfb	-5
168	0xfc	-4
169	0xfa	-6
170	0xfc	-4
171	0xfb	-5
172	0xb2	-78
173	0xa2	-94
174	0xfc	-4
175	0x02	2
176	0x03	3
177	0xfd	-3
178	0x7f	127
179	0x03	3
180	0x57	87
181	0xf9	-7
182	0x06	6
183	0x03	3
184	0xca	-54
185	0xbd	-67
186	0xba	-70
187	0x15	21
188	0xca	-54
189	0xfd	-3
190	0xda	-38
191	0x0d	13
192	0xf9	-7
193	0xf1	-15
194	0x07	7
195	0xf5	-11
196	0x4f	79
197	0xfc	-4
198	0x15	21
199	0x09	9
200	0x01	1
201	0xba	-70
202	0x5a	90
203	0x10	16
204	0xfb	-5
205	0x04	4
206	0x01	1
207	0x7f	127
208	0x57	87
209	0xd0	-48
210	0xcd	-51
211	0x0b	11
212	0x1a	26
213	0xc0	-64
214	0xf7	-9
215	0xfb	-5
216	0xd5	-43
217	0x01	1
218	0x0d	13
219	0x58	88
220	0xf9	-7
221	0x46	70
222	0x11	17
223	0xda	-38
224	0x4a	74
225	0xff	-1
226	0xfb	-5
227	0xf2	-14
228	0xfc	-4
229	0xfb	-5
230	0x81	-127
231	0x44	68
232	0x53	83
233	0xf8	-8
234	0xfe	-2
235	0xc0	-64
236	0x04	4
237	0xf2	-14
238	0x40	64
239	0xef	-17
240	0xf1	-15
241	0x17	23
242	0xf6	-10
243	0xa0	-96
244	0xe0	-32
245	0x01	1
246	0xaa	-86
247	0xb1	-79
248	0x01	1
249	0xf0	-16
250	0x00	0
251	0xe4	-28
252	0xf9	-7
253	0xf1	-15
254	0xfa	-6
255	0xb6	-74

tfl.pseudo_qconst5 i1 [32, 128]
0	0xb7	-73
1	0xc2	-62
2	0xf2	-14
3	0x08	8
4	0xf9	-7
5	0xa9	-87
6	0xd7	-41
7	0x09	9
8	0x20	32
9	0xfe	-2
10	0xc5	-59
11	0x21	33
12	0x10	16
13	0x10	16
14	0xe4	-28
15	0xef	-17
16	0xf3	-13
17	0x19	25
18	0xdc	-36
19	0x10	16
20	0x16	22
21	0x0e	14
22	0xe8	-24
23	0x14	20
24	0xef	-17
25	0xf4	-12
26	0x1d	29
27	0x00	0
28	0xdf	-33
29	0x09	9
30	0xf0	-16
31	0xd6	-42
32	0xfa	-6
33	0x0d	13
34	0x24	36
35	0xdc	-36
36	0x06	6
37	0xdd	-35
38	0xfe	-2
39	0x3f	63
40	0xf3	-13
41	0xf8	-8
42	0xd3	-45
43	0xf9	-7
44	0xd3	-45
45	0xd3	-45
46	0x22	34
47	0x07	7
48	0x0c	12
49	0xb8	-72
50	0x15	21
51	0xe9	-23
52	0x00	0
53	0x07	7
54	0x9a	-102
55	0x10	16
56	0x32	50
57	0xc6	-58
58	0x29	41
59	0xc2	-62
60	0xf5	-11
61	0xbe	-66
62	0x20	32
63	0xfc	-4
64	0x15	21
65	0x29	41
66	0x1a	26
67	0x81	-127
68	0x96	-106
69	0xdf	-33
70	0x04	4
71	0xa3	-93
72	0x0f	15
73	0x1c	28
74	0xfd	-3
75	0xa6	-90
76	0xf5	-11
77	0x22	34
78	0xe9	-23
79	0x05	5
80	0x18	24
81	0x9c	-100
82	0x29	41
83	0x9d	-99
84	0x0a	10
85	0xe7	-25
86	0xee	-18
87	0xf9	-7
88	0xe7	-25
89	0x29	41
90	0x84	-124
91	0x00	0
92	0xc0	-64
93	0x01	1
94	0x27	39
95	0xd6	-42
96	0xef	-17
97	0xcf	-49
98	0xc8	-56
99	0x3b	59
100	0xb0	-80
101	0x07	7
102	0xeb	-21
103	0xbf	-65
104	0x52	82
105	0xe5	-27
106	0xd5	-43
107	0x8e	-114
108	0x16	22
109	0x20	32
110	0xba	-70
111	0xfd	-3
112	0x51	81
113	0x2d	45
114	0x85	-123
115	0x04	4
116	0x00	0
117	0xb6	-74
118	0x25	37
119	0xca	-54
120	0x0b	11
121	0xcd	-51
122	0xd1	-47
123	0x02	2
124	0x0a	10
125	0x53	83
126	0x97	-105
127	0xe1	-31
128	0xa5	-91
129	0x15	21
130	0xee	-18
131	0xf7	-9
132	0x67	103
133	0x21	33
134	0xb9	-71
135	0xfc	-4
136	0x45	69
137	0xa7	-89
138	0xa6	-90
139	0x53	83
140	0x4b	75
141	0xa1	-95
142	0x69	105
143	0x1b	27
144	0x2e	46
145	0xde	-34
146	0x9c	-100
147	0x27	39
148	0x27	39
149	0x63	99
150	0x81	-127
151	0x4d	77
152	0x42	66
153	0x63	99
154	0x2e	46
155	0x00	0
156	0xc8	-56
157	0x20	32
158	0x08	8
159	0x07	7
160	0x8b	-117
161	0x29	41
162	0x2b	43
163	0x1b	27
164	0x0f	15
165	0x37	55
166	0xfd	-3
167	0xed	-19
168	0xbc	-68
169	0xde	-34
170	0xbf	-65
171	0xb3	-77
172	0x20	32
173	0x2a	42
174	0xf9	-7
175	0x46	70
176	0xf0	-16
177	0x47	71
178	0x68	104
179	0xfb	-5
180	0x00	0
181	0x05	5
182	0xfc	-4
183	0xcf	-49
184	0x38	56
185	0x39	57
186	0x34	52
187	0x13	19
188	0xad	-83
189	0x17	23
190	0x12	18
191	0x3c	60
192	0x10	16
193	0xcf	-49
194	0xf6	-10
195	0x16	22
196	0x0d	13
197	0xfa	-6
198	0x04	4
199	0xe0	-32
200	0xee	-18
201	0xff	-1
202	0xfe	-2
203	0xf6	-10
204	0xe4	-28
205	0x2f	47
206	0xec	-20
207	0x23	35
208	0x17	23
209	0x04	4
210	0x0a	10
211	0xff	-1
212	0xf4	-12
213	0x00	0
214	0xb6	-74
215	0x06	6
216	0x9d	-99
217	0x06	6
218	0xec	-20
219	0x00	0
220	0xc4	-60
221	0x16	22
222	0x0f	15
223	0xe9	-23
224	0xcd	-51
225	0x0d	13
226	0x0f	15
227	0xdd	-35
228	0x12	18
229	0xe8	-24
230	0x02	2
231	0xf6	-10
232	0x17	23
233	0x03	3
234	0xe6	-26
235	0x13	19
236	0xf9	-7
237	0xe4	-28
238	0x0a	10
239	0x0a	10
240	0x08	8
241	0x1f	31
242	0x10	16
243	0xf0	-16
244	0x00	0
245	0xec	-20
246	0x1d	29
247	0x02	2
248	0x10	16
249	0xdc	-36
250	0x16	22
251	0xf7	-9
252	0x07	7
253	0xef	-17
254	0xec	-20
255	0xcc	-52

tfl.pseudo_qconst7 i1 [64, 3, 3, 64]
0	0xfd	-3
1	0xf5	-11
2	0xfa	-6
3	0x00	0
4	0xf8	-8
5	0x00	0
6	0xfc	-4
7	0xfe	-2
8	0xf4	-12
9	0x3a	58
10	0x00	0
11	0x03	3
12	0xf6	-10
13	0x06	6
14	0xf5	-11
15	0x02	2
16	0x00	0
17	0x03	3
18	0xf0	-16
19	0xf5	-11
20	0x07	7
21	0x00	0
22	0xfd	-3
23	0xff	-1
24	0xf7	-9
25	0x01	1
26	0x00	0
27	0xff	-1
28	0xf8	-8
29	0x01	1
30	0x01	1
31	0x00	0
32	0xfd	-3
33	0x00	0
34	0x00	0
35	0xff	-1
36	0x02	2
37	0xf6	-10
38	0x00	0
39	0x00	0
40	0x02	2
41	0xec	-20
42	0x00	0
43	0x21	33
44	0xfb	-5
45	0xfb	-5
46	0x00	0
47	0x00	0
48	0x00	0
49	0xf1	-15
50	0x0c	12
51	0xf8	-8
52	0x00	0
53	0xff	-1
54	0xfd	-3
55	0xfe	-2
56	0x00	0
57	0xfa	-6
58	0xfd	-3
59	0xfd	-3
60	0x04	4
61	0x0b	11
62	0x00	0
63	0x00	0
64	0xfd	-3
65	0x01	1
66	0xf5	-11
67	0x00	0
68	0xfd	-3
69	0x00	0
70	0x00	0
71	0xfc	-4
72	0xfe	-2
73	0x13	19
74	0x00	0
75	0x00	0
76	0xfe	-2
77	0xfd	-3
78	0x03	3
79	0x01	1
80	0xfb	-5
81	0xf7	-9
82	0xf1	-15
83	0xfb	-5
84	0xfe	-2
85	0x00	0
86	0x00	0
87	0xff	-1
88	0xfb	-5
89	0x01	1
90	0x00	0
91	0xfc	-4
92	0xfe	-2
93	0x01	1
94	0xff	-1
95	0x00	0
96	0xfc	-4
97	0x00	0
98	0x00	0
99	0xff	-1
100	0x02	2
101	0xf7	-9
102	0xfd	-3
103	0x00	0
104	0x02	2
105	0xfc	-4
106	0x00	0
107	0x37	55
108	0x20	32
109	0xf9	-7
110	0xff	-1
111	0x00	0
112	0x00	0
113	0x07	7
114	0x3f	63
115	0xfd	-3
116	0x00	0
117	0x00	0
118	0xe6	-26
119	0x00	0
120	0x00	0
121	0x08	8
122	0xed	-19
123	0xf1	-15
124	0x02	2
125	0x0b	11
126	0x00	0
127	0xf4	-12
128	0x03	3
129	0x00	0
130	0xf3	-13
131	0x00	0
132	0x04	4
133	0x00	0
134	0xf2	-14
135	0x00	0
136	0x02	2
137	0x00	0
138	0x00	0
139	0xfa	-6
140	0x01	1
141	0xf7	-9
142	0x09	9
143	0x01	1
144	0xfd	-3
145	0x01	1
146	0x00	0
147	0xf6	-10
148	0x00	0
149	0x00	0
150	0xf4	-12
151	0xff	-1
152	0x00	0
153	0x00	0
154	0x00	0
155	0x01	1
156	0x01	1
157	0x00	0
158	0x01	1
159	0x00	0
160	0x1d	29
161	0x00	0
162	0x00	0
163	0x00	0
164	0x00	0
165	0x02	2
166	0x05	5
167	0x00	0
168	0x01	1
169	0x0f	15
170	0x00	0
171	0x16	22
172	0xfc	-4
173	0x01	1
174	0x00	0
175	0x00	0
176	0x00	0
177	0x14	20
178	0x07	7
179	0x01	1
180	0x00	0
181	0x00	0
182	0xeb	-21
183	0x00	0
184	0x00	0
185	0xf5	-11
186	0xf9	-7
187	0xf8	-8
188	0xff	-1
189	0x01	1
190	0x00	0
191	0xf7	-9
192	0xf1	-15
193	0xe8	-24
194	0xed	-19
195	0x00	0
196	0xf3	-13
197	0x00	0
198	0xdc	-36
199	0xf5	-11
200	0xd6	-42
201	0xf2	-14
202	0x00	0
203	0x13	19
204	0xf0	-16
205	0x00	0
206	0xf6	-10
207	0x02	2
208	0x01	1
209	0x1d	29
210	0x2c	44
211	0xf6	-10
212	0x03	3
213	0x00	0
214	0xf4	-12
215	0xfe	-2
216	0x23	35
217	0xff	-1
218	0x00	0
219	0xfd	-3
220	0x01	1
221	0x00	0
222	0x02	2
223	0x00	0
224	0xfd	-3
225	0x00	0
226	0xfc	-4
227	0xfe	-2
228	0x03	3
229	0xf6	-10
230	0xef	-17
231	0x00	0
232	0x04	4
233	0xf7	-9
234	0x00	0
235	0xe4	-28
236	0x14	20
237	0xff	-1
238	0x03	3
239	0x00	0
240	0x00	0
241	0x02	2
242	0xec	-20
243	0x03	3
244	0x00	0
245	0xff	-1
246	0xf9	-7
247	0xfe	-2
248	0x00	0
249	0xf6	-10
250	0x05	5
251	0xf9	-7
252	0x05	5
253	0xf4	-12
254	0x00	0
255	0x02	2

tfl.pseudo_qconst8 i1 [64] scale=0.0017417688 zero_point=121
0	0x71	-0.01393415
1	0x74	-0.008708844
2	0x65	-0.034835376
3	0x79	0.0
4	0x6c	-0.022642994
5	0x78	-0.0017417688
6	0x42	-0.095797285
7	0x75	-0.006967075
8	0x6d	-0.020901226
9	0x66	-0.03309361
10	0x79	0.0
11	0x3a	-0.109731436
12	0x73	-0.010450613
13	0x44	-0.092313744
14	0x64	-0.036577143
15	0x7a	0.0017417688
16	0x77	-0.0034835376
17	0x65	-0.034835376
18	0x7d	0.006967075
19	0x0a	-0.19333634
20	0x7f	0.010450613
21	0x79	0.0
22	0x59	-0.0557366
23	0x78	-0.0017417688
24	0x6b	-0.024384763
25	0x7a	0.0017417688
26	0x79	0.0
27	0x37	-0.11495674
28	0x72	-0.012192382
29	0x7a	0.0017417688
30	0x7a	0.0017417688
31	0x79	0.0
32	0x7a	0.0017417688
33	0x79	0.0
34	0x7b	0.0034835376
35	0x79	0.0
36	0x7b	0.0034835376
37	0x6c	-0.022642994
38	0x71	-0.01393415
39	0x79	0.0
40	0x7b	0.0034835376
41	0xf5	-0.22991347
42	0x79	0.0
43	0x11	-0.18114395
44	0x0c	-0.1898528
45	0x74	-0.008708844
46	0x78	-0.0017417688
47	0x79	0.0
48	0x79	0.0
49	0x41	-0.09753905
50	0x80	-0.43370044
51	0x54	-0.06444544
52	0x79	0.0
53	0x79	0.0
54	0x72	-0.012192382
55	0x79	0.0
56	0x79	0.0
57	0x65	-0.034835376
58	0x79	0.0
59	0x73	-0.010450613
60	0x72	-0.012192382
61	0x6c	-0.022642994
62	0x79	0.0
63	0x6d	-0.020901226

tfl.pseudo_qconst9 i1 [64] scale=0.020281695 zero_point=-71
0	0xd5	0.5678874
1	0xe9	0.97352135
2	0xe8	0.9532397
3	0xbd	0.08112678
4	0xda	0.6692959
5	0xba	0.020281695
6	0xe3	0.8518312
7	0xe8	0.9532397
8	0xd9	0.64901423
9	0xe3	0.8518312
10	0xba	0.020281695
11	0xdd	0.73014104
12	0xe0	0.7909861
13	0xe3	0.8518312
14	0xe8	0.9532397
15	0xb7	-0.04056339
16	0xe7	0.93295795
17	0xde	0.7504227
18	0x0d	1.7036624
19	0xd5	0.5678874
20	0x7f	4.0157757
21	0xb9	0.0
22	0xc8	0.30422541
23	0x9c	-0.58816916
24	0xce	0.4259156
25	0xb0	-0.18253526
26	0xb9	0.0
27	0xd1	0.48676068
28	0xfa	1.3183101
29	0xbb	0.04056339
30	0xa8	-0.34478882
31	0xbb	0.04056339
32	0xeb	1.0140847
33	0xb9	0.0
34	0x80	-1.1560566
35	0xba	0.020281695
36	0xb9	0.0
37	0xda	0.6692959
38	0xf5	1.2169017
39	0xbe	0.101408474
40	0xb9	0.0
41	0xcb	0.36507052
42	0xb9	0.0
43	0xee	1.0749298
44	0xd6	0.58816916
45	0xce	0.4259156
46	0xad	-0.24338034
47	0xb9	0.0
48	0xb4	-0.101408474
49	0xdd	0.73014104
50	0xcc	0.3853522
51	0xd7	0.60845083
52	0xb9	0.0
53	0xb8	-0.020281695
54	0xd9	0.64901423
55	0x9b	-0.60845083
56	0xb8	-0.020281695
57	0xdc	0.7098593
58	0xe1	0.8112678
59	0xcd	0.4056339
60	0x70	3.7115502
61	0xd3	0.5273241
62	0xb9	0.0
63	0xeb	1.0140847

tfl.pseudo_qconst11 i1 [64, 3, 3, 64]
0	0x06	6
1	0xda	-38
2	0x17	23
3	0xed	-19
4	0x0f	15
5	0x24	36
6	0xf8	-8
7	0xdd	-35
8	0xd5	-43
9	0x06	6
10	0x09	9
11	0x1b	27
12	0x04	4
13	0x31	49
14	0x0c	12
15	0x21	33
16	0xf9	-7
17	0xf6	-10
18	0x19	25
19	0xf6	-10
20	0x14	20
21	0xd9	-39
22	0x10	16
23	0xf7	-9
24	0x01	1
25	0x19	25
26	0x0a	10
27	0xfc	-4
28	0xe7	-25
29	0x1e	30
30	0x04	4
31	0xfd	-3
32	0x2b	43
33	0x06	6
34	0x1c	28
35	0x0f	15
36	0xec	-20
37	0x0f	15
38	0x1f	31
39	0x25	37
40	0x05	5
41	0xf3	-13
42	0x0f	15
43	0xf6	-10
44	0x09	9
45	0x01	1
46	0x0b	11
47	0xff	-1
48	0x04	4
49	0x0c	12
50	0x0a	10
51	0x0c	12
52	0x04	4
53	0x12	18
54	0x00	0
55	0xdb	-37
56	0xf8	-8
57	0x0f	15
58	0x02	2
59	0x14	20
60	0x03	3
61	0xde	-34
62	0xf7	-9
63	0xe9	-23
64	0x05	5
65	0xe3	-29
66	0x00	0
67	0xfe	-2
68	0x02	2
69	0xfb	-5
70	0x1a	26
71	0x03	3
72	0xc9	-55
73	0x01	1
74	0x0a	10
75	0x02	2
76	0xfe	-2
77	0xfe	-2
78	0x02	2
79	0xdf	-33
80	0xfe	-2
81	0xfa	-6
82	0x05	5
83	0xfa	-6
84	0xfd	-3
85	0xfc	-4
86	0x05	5
87	0x10	16
88	0xf6	-10
89	0x00	0
90	0xfb	-5
91	0xef	-17
92	0xff	-1
93	0x06	6
94	0x02	2
95	0xe8	-24
96	0x1b	27
97	0xfe	-2
98	0x04	4
99	0x03	3
100	0xfb	-5
101	0x2f	47
102	0x02	2
103	0xe2	-30
104	0xf8	-8
105	0x05	5
106	0x01	1
107	0x0b	11
108	0x0f	15
109	0xf2	-14
110	0xfe	-2
111	0x09	9
112	0xfd	-3
113	0x18	24
114	0x08	8
115	0xea	-22
116	0xfd	-3
117	0x02	2
118	0x08	8
119	0xef	-17
120	0xfe	-2
121	0x0e	14
122	0xf7	-9
123	0x06	6
124	0x01	1
125	0xf4	-12
126	0xfd	-3
127	0x12	18
128	0x03	3
129	0x29	41
130	0x0d	13
131	0x02	2
132	0xfb	-5
133	0x12	18
134	0x19	25
135	0x0c	12
136	0xf7	-9
137	0xfc	-4
138	0xf2	-14
139	0xf6	-10
140	0x05	5
141	0x01	1
142	0x00	0
143	0xee	-18
144	0x16	22
145	0x0d	13
146	0xf5	-11
147	0xfe	-2
148	0xf4	-12
149	0x05	5
150	0x14	20
151	0x2b	43
152	0x10	16
153	0x17	23
154	0xfb	-5
155	0x0f	15
156	0x08	8
157	0xf9	-7
158	0xdd	-35
159	0x0b	11
160	0xfd	-3
161	0xf7	-9
162	0xfb	-5
163	0x11	17
164	0x03	3
165	0x35	53
166	0x05	5
167	0x02	2
168	0xfd	-3
169	0x0a	10
170	0x07	7
171	0x17	23
172	0xed	-19
173	0x10	16
174	0xfe	-2
175	0x09	9
176	0x00	0
177	0xf1	-15
178	0x00	0
179	0x2c	44
180	0xf4	-12
181	0x05	5
182	0x03	3
183	0xf4	-12
184	0x0f	15
185	0x01	1
186	0x05	5
187	0xfd	-3
188	0x04	4
189	0x0a	10
190	0x00	0
191	0x18	24
192	0x05	5
193	0xf4	-12
194	0xfa	-6
195	0xea	-22
196	0x23	35
197	0x26	38
198	0x1c	28
199	0xe2	-30
200	0x1c	28
201	0x26	38
202	0x0b	11
203	0x1e	30
204	0x17	23
205	0x0a	10
206	0x0d	13
207	0x18	24
208	0xe9	-23
209	0xfa	-6
210	0x14	20
211	0xfc	-4
212	0x14	20
213	0xde	-34
214	0xf6	-10
215	0x0d	13
216	0x1a	26
217	0x10	16
218	0x10	16
219	0x0a	10
220	0xe6	-26
221	0x1e	30
222	0x18	24
223	0x23	35
224	0x04	4
225	0x10	16
226	0x21	33
227	0xf5	-11
228	0xe1	-31
229	0x0f	15
230	0x05	5
231	0xfb	-5
232	0x02	2
233	0x11	17
234	0x09	9
235	0xde	-34
236	0x37	55
237	0x08	8
238	0x06	6
239	0x0f	15
240	0x13	19
241	0x1e	30
242	0x15	21
243	0xf1	-15
244	0x04	4
245	0x18	24
246	0xf1	-15
247	0x1b	27
248	0x00	0
249	0x0b	11
250	0x4a	74
251	0x1d	29
252	0xf7	-9
253	0xdc	-36
254	0xe9	-23
255	0x10	16

tfl.pseudo_qconst12 i1 [64] scale=0.0065460457 zero_point=7
0	0x06	-0.0065460457
1	0x8d	-0.79861754
2	0x09	0.013092091
3	0x17	0.10473673
4	0x07	0.0
5	0xd5	-0.32730228
6	0xee	-0.16365114
7	0x6c	0.66115063
8	0xe3	-0.23565765
9	0x07	0.0
10	0x07	0.0
11	0x88	-0.8313478
12	0x07	0.0
13	0xbb	-0.49749947
14	0x07	0.0
15	0xa0	-0.6742427
16	0x1a	0.12437487
17	0x31	0.2749339
18	0xc1	-0.4582232
19	0x09	0.013092091
20	0xff	-0.052368365
21	0x4e	0.46476924
22	0x07	0.0
23	0xdf	-0.26184183
24	0x99	-0.720065
25	0xd1	-0.35348648
26	0x02	-0.03273023
27	0xf7	-0.10473673
28	0x20	0.16365114
29	0xea	-0.18983532
30	0xb3	-0.5498678
31	0xc8	-0.41240087
32	0xc2	-0.45167714
33	0x06	-0.0065460457
34	0xb8	-0.5171376
35	0x06	-0.0065460457
36	0x16	0.09819069
37	0xdb	-0.288026
38	0x07	0.0
39	0xd7	-0.31421018
40	0x07	0.0
41	0x07	0.0
42	0x07	0.0
43	0x14	0.085098594
44	0xf0	-0.15055905
45	0x80	-0.88371617
46	0x07	0.0
47	0x06	-0.0065460457
48	0x07	0.0
49	0x0b	0.026184183
50	0x07	0.0
51	0xb0	-0.569506
52	0x07	0.0
53	0x07	0.0
54	0x07	0.0
55	0xf4	-0.12437487
56	0x08	0.0065460457
57	0x07	0.0
58	0xac	-0.59569013
59	0x08	0.0065460457
60	0x06	-0.0065460457
61	0x7f	0.7855255
62	0x19	0.11782882
63	0x08	0.0065460457

tfl.pseudo_qconst13 i1 [64] scale=0.05044646 zero_point=-123
0	0xcf	3.733038
1	0xab	1.9169654
2	0x12	7.112951
3	0xfe	6.1040215
4	0xce	3.6825914
5	0xac	1.9674119
6	0xaf	2.1187513
7	0x87	0.10089292
8	0xa6	1.6647332
9	0xbe	2.8754482
10	0x96	0.8575898
11	0x48	9.837059
12	0x9c	1.1602685
13	0x9d	1.210715
14	0x67	11.4009
15	0xab	1.9169654
16	0x18	7.4156294
17	0xeb	5.145539
18	0x1d	7.6678615
19	0xbe	2.8754482
20	0x69	11.501793
21	0xb9	2.623216
22	0x14	7.2138433
23	0xac	1.9674119
24	0xa9	1.8160725
25	0xaf	2.1187513
26	0xc3	3.1276803
27	0xa6	1.6647332
28	0xfd	6.053575
29	0x8c	0.3531252
30	0xae	2.0683048
31	0xb0	2.1691978
32	0x9c	1.1602685
33	0x86	0.05044646
34	0x84	-0.05044646
35	0xe5	4.84286
36	0x3d	9.282148
37	0xac	1.9674119
38	0xa3	1.5133938
39	0xc6	3.2790198
40	0x80	-0.25223228
41	0x83	-0.10089292
42	0x8b	0.30267876
43	0xa1	1.4125009
44	0xb4	2.3709836
45	0xaa	1.866519
46	0xf5	5.6500034
47	0xd7	4.1366096
48	0xaa	1.866519
49	0xa8	1.7656261
50	0xb0	2.1691978
51	0xb0	2.1691978
52	0x7f	12.611614
53	0x94	0.7566969
54	0xc4	3.1781268
55	0xa0	1.3620543
56	0x90	0.554911
57	0xa9	1.8160725
58	0xa0	1.3620543
59	0x95	0.80714333
60	0xd5	4.0357165
61	0x87	0.10089292
62	0xc6	3.2790198
63	0xbe	2.8754482

tfl.pseudo_qconst15 i1 [64, 3, 3, 64]
0	0x00	0
1	0x00	0
2	0x00	0
3	0x00	0
4	0x00	0
5	0x00	0
6	0x00	0
7	0x00	0
8	0x00	0
9	0x00	0
10	0x00	0
11	0x00	0
12	0x00	0
13	0x00	0
14	0x00	0
15	0x00	0
16	0x00	0
17	0x00	0
18	0x00	0
19	0x00	0
20	0x00	0
21	0x00	0
22	0x00	0
23	0x00	0
24	0x00	0
25	0x00	0
26	0x00	0
27	0x00	0
28	0x00	0
29	0x00	0
30	0x00	0
31	0x00	0
32	0x00	0
33	0x00	0
34	0x00	0
35	0x00	0
36	0x00	0
37	0x00	0
38	0x00	0
39	0x00	0
40	0x00	0
41	0x00	0
42	0x00	0
43	0x00	0
44	0x00	0
45	0x00	0
46	0x00	0
47	0x00	0
48	0x00	0
49	0x00	0
50	0x00	0
51	0x00	0
52	0x00	0
53	0x00	0
54	0x00	0
55	0x00	0
56	0x00	0
57	0x00	0
58	0x00	0
59	0x00	0
60	0x00	0
61	0x00	0
62	0x00	0
63	0x00	0
64	0x00	0
65	0x00	0
66	0x00	0
67	0x00	0
68	0x00	0
69	0x00	0
70	0x00	0
71	0x00	0
72	0x00	0
73	0x00	0
74	0x00	0
75	0x00	0
76	0x00	0
77	0x00	0
78	0x00	0
79	0x00	0
80	0x00	0
81	0x00	0
82	0x00	0
83	0x00	0
84	0x00	0
85	0x00	0
86	0x00	0
87	0x00	0
88	0x00	0
89	0x00	0
90	0x00	0
91	0x00	0
92	0x00	0
93	0x00	0
94	0x00	0
95	0x00	0
96	0x00	0
97	0x00	0
98	0x00	0
99	0x00	0
100	0x00	0
101	0x00	0
102	0x00	0
103	0x00	0
104	0x00	0
105	0x00	0
106	0x00	0
107	0x00	0
108	0x00	0
109	0x00	0
110	0x00	0
111	0x00	0
112	0x00	0
113	0x00	0
114	0x00	0
115	0x00	0
116	0x00	0
117	0x00	0
118	0x00	0
119	0x00	0
120	0x00	0
121	0x00	0
122	0x00	0
123	0x00	0
124	0x00	0
125	0x00	0
126	0x00	0
127	0x00	0
128	0x00	0
129	0x00	0
130	0x00	0
131	0x00	0
132	0x00	0
133	0x00	0
134	0x00	0
135	0x00	0
136	0x00	0
137	0x00	0
138	0x00	0
139	0x00	0
140	0x00	0
141	0x00	0
142	0x00	0
143	0x00	0
144	0x00	0
145	0x00	0
146	0x00	0
147	0x00	0
148	0x00	0
149	0x00	0
150	0x00	0
151	0x00	0
152	0x00	0
153	0x00	0
154	0x00	0
155	0x00	0
156	0x00	0
157	0x00	0
158	0x00	0
159	0x00	0
160	0x00	0
161	0x00	0
162	0x00	0
163	0x00	0
164	0x00	0
165	0x00	0
166	0x00	0
167	0x00	0
168	0x00	0
169	0x00	0
170	0x00	0
171	0x00	0
172	0x00	0
173	0x00	0
174	0x00	0
175	0x00	0
176	0x00	0
177	0x00	0
178	0x00	0
179	0x00	0
180	0x00	0
181	0x00	0
182	0x00	0
183	0x00	0
184	0x00	0
185	0x00	0
186	0x00	0
187	0x00	0
188	0x00	0
189	0x00	0
190	0x00	0
191	0x00	0
192	0x00	0
193	0x00	0
194	0x00	0
195	0x00	0
196	0x00	0
197	0x00	0
198	0x00	0
199	0x00	0
200	0x00	0
201	0x00	0
202	0x00	0
203	0x00	0
204	0x00	0
205	0x00	0
206	0x00	0
207	0x00	0
208	0x00	0
209	0x00	0
210	0x00	0
211	0x00	0
212	0x00	0
213	0x00	0
214	0x00	0
215	0x00	0
216	0x00	0
217	0x00	0
218	0x00	0
219	0x00	0
220	0x00	0
221	0x00	0
222	0x00	0
223	0x00	0
224	0x00	0
225	0x00	0
226	0x00	0
227	0x00	0
228	0x00	0
229	0x00	0
230	0x00	0
231	0x00	0
232	0x00	0
233	0x00	0
234	0x00	0
235	0x00	0
236	0x00	0
237	0x00	0
238	0x00	0
239	0x00	0
240	0x00	0
241	0x00	0
242	0x00	0
243	0x00	0
244	0x00	0
245	0x00	0
246	0x00	0
247	0x00	0
248	0x00	0
249	0x00	0
250	0x00	0
251	0x00	0
252	0x00	0
253	0x00	0
254	0x00	0
255	0x00	0

tfl.pseudo_qconst16 i1 [64] scale=0.0054030344 zero_point=127
0	0x5b	-0.19450924
1	0xd3	-0.9293219
2	0x49	-0.29176384
3	0xc9	-0.98335224
4	0x68	-0.12426979
5	0xd8	-0.90230674
6	0x17	-0.5619156
7	0xe6	-0.82666427
8	0x04	-0.66457325
9	0xfa	-0.71860355
10	0xf4	-0.7510218
11	0xcc	-0.9671432
12	0x40	-0.34039116
13	0x42	-0.3295851
14	0xc4	-1.0103674
15	0xc8	-0.9887553
16	0x16	-0.5673186
17	0x52	-0.24313655
18	0xc4	-1.0103674
19	0xd9	-0.8969037
20	0x37	-0.38901848
21	0x75	-0.054030344
22	0x1d	-0.5294974
23	0x91	-1.2859222
24	0xce	-0.9563371
25	0xc1	-1.0265765
26	0x32	-0.41603366
27	0xb3	-1.102219
28	0x89	-1.3291465
29	0x7e	-0.0054030344
30	0x67	-0.12967283
31	0x31	-0.42143667
32	0x48	-0.29716688
33	0x6b	-0.10806069
34	0x62	-0.156688
35	0x7e	-0.0054030344
36	0x57	-0.21612138
37	0xf5	-0.74561876
38	0xc9	-0.98335224
39	0xbc	-1.0535917
40	0x1e	-0.52409434
41	0x26	-0.48087007
42	0x55	-0.22692744
43	0xee	-0.78344
44	0x55	-0.22692744
45	0x62	-0.156688
46	0x70	-0.081045516
47	0x38	-0.38361543
48	0x0e	-0.6105429
49	0x3e	-0.35119724
50	0x60	-0.16749406
51	0xa0	-1.2048767
52	0x80	-1.3777738
53	0xbb	-1.0589948
54	0x6f	-0.08644855
55	0x51	-0.24853958
56	0xf2	-0.7618278
57	0x5b	-0.19450924
58	0xd2	-0.9347249
59	0x14	-0.5781247
60	0x9d	-1.2210858
61	0x0b	-0.626752
62	0x27	-0.47546703
63	0x2e	-0.4376458

tfl.pseudo_qconst17 i1 [64] scale=0.0035769835 zero_point=-121
0	0xc7	0.22892694
1	0xdc	0.3040436
2	0xeb	0.35769835
3	0xf0	0.37558326
4	0x3d	0.651011
5	0xe9	0.3505444
6	0xd2	0.26827377
7	0xfb	0.41493008
8	0xc3	0.21461901
9	0xf1	0.37916026
10	0xec	0.36127532
11	0xc9	0.23608091
12	0xea	0.35412136
13	0x35	0.6223951
14	0xf1	0.37916026
15	0x0c	0.4757388
16	0xf3	0.3863142
17	0xc9	0.23608091
18	0xcc	0.24681185
19	0xe8	0.3469674
20	0xdd	0.30762058
21	0x1d	0.53654754
22	0xff	0.42923802
23	0xcd	0.25038883
24	0xdb	0.3004666
25	0xd8	0.28973567
26	0xff	0.42923802
27	0xc9	0.23608091
28	0xcd	0.25038883
29	0x7f	0.8870919
30	0x34	0.61881816
31	0xf7	0.40062216
32	0xef	0.37200627
33	0xdd	0.30762058
34	0x4d	0.7082427
35	0x80	-0.025038885
36	0xd2	0.26827377
37	0xfe	0.42566103
38	0xdd	0.30762058
39	0xe1	0.3219285
40	0xe8	0.3469674
41	0xe9	0.3505444
42	0x0e	0.48289278
43	0xf8	0.40419912
44	0x00	0.432815
45	0x4a	0.6975118
46	0xdf	0.31477454
47	0xd8	0.28973567
48	0xf3	0.3863142
49	0x0d	0.4793158
50	0xee	0.3684293
51	0xc8	0.23250392
52	0xce	0.25396582
53	0xe4	0.33265945
54	0x2d	0.59377927
55	0x41	0.6653189
56	0xd2	0.26827377
57	0xf9	0.40777612
58	0xe3	0.3290825
59	0xee	0.3684293
60	0xc5	0.22177297
61	0xe1	0.3219285
62	0xf8	0.40419912
63	0xda	0.29688963

tfl.pseudo_qconst19 i1 [64, 3, 3, 64]
0	0x18	24
1	0x31	49
2	0x07	7
3	0x2b	43
4	0x08	8
5	0x0d	13
6	0xc8	-56
7	0x0a	10
8	0xe0	-32
9	0xd9	-39
10	0x03	3
11	0x1e	30
12	0x19	25
13	0x0b	11
14	0x11	17
15	0xf1	-15
16	0x3c	60
17	0xe9	-23
18	0xf3	-13
19	0x18	24
20	0xfb	-5
21	0x1c	28
22	0x16	22
23	0x05	5
24	0xcf	-49
25	0x05	5
26	0x13	19
27	0x22	34
28	0xdc	-36
29	0x22	34
30	0xe9	-23
31	0xe0	-32
32	0x2e	46
33	0xf0	-16
34	0x0d	13
35	0x20	32
36	0xfd	-3
37	0x12	18
38	0xec	-20
39	0xd6	-42
40	0x08	8
41	0xf7	-9
42	0xfd	-3
43	0x2c	44
44	0x16	22
45	0x16	22
46	0xd7	-41
47	0xa8	-88
48	0x02	2
49	0x0f	15
50	0xfd	-3
51	0xed	-19
52	0x3a	58
53	0xf5	-11
54	0xe5	-27
55	0xf9	-7
56	0x14	20
57	0x12	18
58	0xd8	-40
59	0xc5	-59
60	0x2e	46
61	0xa8	-88
62	0xd5	-43
63	0x05	5
64	0x34	52
65	0x2a	42
66	0xde	-34
67	0x26	38
68	0x12	18
69	0x1d	29
70	0xb2	-78
71	0xf7	-9
72	0xf4	-12
73	0xf8	-8
74	0xf4	-12
75	0x21	33
76	0x3b	59
77	0x00	0
78	0x09	9
79	0xf8	-8
80	0x26	38
81	0xf0	-16
82	0xf7	-9
83	0x18	24
84	0xfd	-3
85	0x13	19
86	0x1b	27
87	0xed	-19
88	0xf3	-13
89	0x0e	14
90	0xf1	-15
91	0x2d	45
92	0xe9	-23
93	0x11	17
94	0xe6	-26
95	0xc4	-60
96	0x36	54
97	0xe0	-32
98	0xeb	-21
99	0x1b	27
100	0xf5	-11
101	0x13	19
102	0xf0	-16
103	0xf8	-8
104	0x17	23
105	0x02	2
106	0xe4	-28
107	0x1a	26
108	0x24	36
109	0x26	38
110	0x02	2
111	0xcf	-49
112	0x10	16
113	0x35	53
114	0x05	5
115	0xe7	-25
116	0x4e	78
117	0x10	16
118	0xfe	-2
119	0xe7	-25
120	0xfb	-5
121	0x11	17
122	0xdb	-37
123	0xe2	-30
124	0x2d	45
125	0xb1	-79
126	0x26	38
127	0xe7	-25
128	0x31	49
129	0x09	9
130	0xd1	-47
131	0x3a	58
132	0xd8	-40
133	0x15	21
134	0xc1	-63
135	0xf5	-11
136	0xf8	-8
137	0xf5	-11
138	0xee	-18
139	0x0f	15
140	0x22	34
141	0xf1	-15
142	0x14	20
143	0x00	0
144	0x31	49
145	0xf0	-16
146	0x0d	13
147	0x26	38
148	0xe5	-27
149	0x04	4
150	0x1d	29
151	0xeb	-21
152	0xde	-34
153	0x20	32
154	0xdb	-37
155	0x29	41
156	0xf6	-10
157	0xfb	-5
158	0xec	-20
159	0xcf	-49
160	0x1b	27
161	0xd8	-40
162	0xdb	-37
163	0x16	22
164	0x19	25
165	0x0b	11
166	0xf4	-12
167	0xdd	-35
168	0x0a	10
169	0xf6	-10
170	0xea	-22
171	0x13	19
172	0x1d	29
173	0x43	67
174	0x08	8
175	0xe6	-26
176	0x18	24
177	0x4d	77
178	0x13	19
179	0xf9	-7
180	0x47	71
181	0x11	17
182	0x17	23
183	0xf1	-15
184	0xff	-1
185	0xfa	-6
186	0xd6	-42
187	0xfd	-3
188	0x2f	47
189	0x81	-127
190	0x24	36
191	0xfe	-2
192	0x0e	14
193	0x15	21
194	0xf8	-8
195	0x10	16
196	0x1d	29
197	0x0c	12
198	0xee	-18
199	0xee	-18
200	0x02	2
201	0x37	55
202	0xf9	-7
203	0x1a	26
204	0xe8	-24
205	0xd4	-44
206	0x0c	12
207	0xee	-18
208	0x07	7
209	0xe2	-30
210	0x07	7
211	0xe7	-25
212	0x09	9
213	0x13	19
214	0x05	5
215	0x03	3
216	0x18	24
217	0x05	5
218	0xf4	-12
219	0x20	32
220	0xb2	-78
221	0x1c	28
222	0xe0	-32
223	0xe3	-29
224	0x20	32
225	0xd9	-39
226	0xeb	-21
227	0x1c	28
228	0xfb	-5
229	0x03	3
230	0xe7	-25
231	0xed	-19
232	0x01	1
233	0x10	16
234	0xf9	-7
235	0xc6	-58
236	0x01	1
237	0xce	-50
238	0x04	4
239	0xec	-20
240	0x02	2
241	0xe1	-31
242	0xec	-20
243	0xc1	-63
244	0x14	20
245	0x2f	47
246	0xfe	-2
247	0xf1	-15
248	0xbc	-68
249	0x10	16
250	0xf0	-16
251	0x0d	13
252	0xc7	-57
253	0xf4	-12
254	0x24	36
255	0xf3	-13

tfl.pseudo_qconst20 i1 [64] scale=0.0059002787 zero_point=54
0	0x37	0.0059002787
1	0x0b	-0.253712
2	0x6f	0.33631587
3	0x13	-0.20650975
4	0x36	0.0
5	0x38	0.011800557
6	0xe3	-0.48972315
7	0x36	0.0
8	0x80	-1.0738508
9	0xfd	-0.33631587
10	0x36	0.0
11	0x36	0.0
12	0x97	-0.9381443
13	0x15	-0.1947092
14	0x34	-0.011800557
15	0x0d	-0.24191143
16	0x04	-0.29501393
17	0x13	-0.20650975
18	0x5a	0.21241003
19	0x06	-0.28321338
20	0x37	0.0059002787
21	0x09	-0.26551253
22	0x15	-0.1947092
23	0x2d	-0.05310251
24	0xee	-0.42482007
25	0x47	0.10030474
26	0xbe	-0.70803344
27	0xce	-0.613629
28	0xbd	-0.7139337
29	0x15	-0.1947092
30	0x36	0.0
31	0x3f	0.05310251
32	0xcd	-0.61952925
33	0x7f	0.43072033
34	0x40	0.059002787
35	0x9a	-0.9204435
36	0x35	-0.0059002787
37	0x37	0.0059002787
38	0xd8	-0.5546262
39	0xca	-0.6372301
40	0xc1	-0.6903326
41	0xeb	-0.44252092
42	0x60	0.2478117
43	0x9b	-0.9145432
44	0x14	-0.20060948
45	0xcd	-0.61952925
46	0xd9	-0.5487259
47	0x4c	0.12980613
48	0x88	-1.0266485
49	0xdf	-0.51332426
50	0x36	0.0
51	0x0a	-0.25961226
52	0x2c	-0.059002787
53	0xd2	-0.59002787
54	0x3d	0.04130195
55	0x1b	-0.15930752
56	0x21	-0.12390585
57	0x36	0.0
58	0x52	0.1652078
59	0x9d	-0.9027426
60	0xc4	-0.67263174
61	0x4c	0.12980613
62	0xe1	-0.5015237
63	0xdd	-0.5251248

tfl.pseudo_qconst21 i1 [64] scale=0.018253257 zero_point=-126
0	0x84	0.036506515
1	0xe4	1.7888192
2	0xb7	0.96742266
3	0xd8	1.5697801
4	0x13	2.6467223
5	0xa4	0.6206108
6	0x11	2.610216
7	0x80	-0.036506515
8	0xf2	2.044365
9	0xf4	2.0808713
10	0x8a	0.14602606
11	0x9e	0.51109123
12	0xf9	2.1721377
13	0x17	2.7197354
14	0x8f	0.23729235
15	0xf4	2.0808713
16	0xea	1.8983388
17	0x4c	3.687158
18	0xdf	1.6975529
19	0xd5	1.5150204
20	0x80	-0.036506515
21	0xf4	2.0808713
22	0xe3	1.770566
23	0xa9	0.71187705
24	0x08	2.4459364
25	0xec	1.9348453
26	0xe4	1.7888192
27	0x82	0.0
28	0xf9	2.1721377
29	0xe6	1.8253257
30	0x7f	4.618074
31	0xd5	1.5150204
32	0xdd	1.6610464
33	0xfc	2.2268975
34	0xa8	0.6936238
35	0xae	0.8031433
36	0xa8	0.6936238
37	0x84	0.036506515
38	0xfc	2.2268975
39	0xe3	1.770566
40	0x1c	2.8110015
41	0xb9	1.0039291
42	0xf6	2.1173778
43	0xc1	1.1499553
44	0x2c	3.1030538
45	0x01	2.3181636
46	0xe5	1.8070725
47	0xf4	2.0808713
48	0xdd	1.6610464
49	0xea	1.8983388
50	0x95	0.3468119
51	0x09	2.4641898
52	0xc5	1.2229682
53	0xd7	1.5515269
54	0xd5	1.5150204
55	0xca	1.3142345
56	0x02	2.336417
57	0x9d	0.49283797
58	0x89	0.12777281
59	0xed	1.9530985
60	0xed	1.9530985
61	0x2b	3.0848005
62	0xf2	2.044365
63	0xf5	2.0991247

tfl.pseudo_qconst23 i1 [64, 3, 3, 32]
0	0x00	0
1	0x00	0
2	0x00	0
3	0x00	0
4	0x00	0
5	0x00	0
6	0x00	0
7	0x00	0
8	0x00	0
9	0x00	0
10	0x00	0
11	0x00	0
12	0x00	0
13	0x00	0
14	0x00	0
15	0x00	0
16	0x00	0
17	0x00	0
18	0x00	0
19	0x00	0
20	0x00	0
21	0x00	0
22	0x00	0
23	0x00	0
24	0x00	0
25	0x00	0
26	0x00	0
27	0x00	0
28	0x00	0
29	0x00	0
30	0x00	0
31	0x00	0
32	0x00	0
33	0x00	0
34	0x00	0
35	0x00	0
36	0x00	0
37	0x00	0
38	0x00	0
39	0x00	0
40	0x00	0
41	0x00	0
42	0x00	0
43	0x00	0
44	0x00	0
45	0x00	0
46	0x00	0
47	0x00	0
48	0x00	0
49	0x00	0
50	0x00	0
51	0x00	0
52	0x00	0
53	0x00	0
54	0x00	0
55	0x00	0
56	0x00	0
57	0x00	0
58	0x00	0
59	0x00	0
60	0x00	0
61	0x00	0
62	0x00	0
63	0x00	0
64	0x00	0
65	0x00	0
66	0x00	0
67	0x00	0
68	0x00	0
69	0x00	0
70	0x00	0
71	0x00	0
72	0x00	0
73	0x00	0
74	0x00	0
75	0x00	0
76	0x00	0
77	0x00	0
78	0x00	0
79	0x00	0
80	0x00	0
81	0x00	0
82	0x00	0
83	0x00	0
84	0x00	0
85	0x00	0
86	0x00	0
87	0x00	0
88	0x00	0
89	0x00	0
90	0x00	0
91	0x00	0
92	0x00	0
93	0x00	0
94	0x00	0
95	0x00	0
96	0x00	0
97	0x00	0
98	0x00	0
99	0x00	0
100	0x00	0
101	0x00	0
102	0x00	0
103	0x00	0
104	0x00	0
105	0x00	0
106	0x00	0
107	0x00	0
108	0x00	0
109	0x00	0
110	0x00	0
111	0x00	0
112	0x00	0
113	0x00	0
114	0x00	0
115	0x00	0
116	0x00	0
117	0x00	0
118	0x00	0
119	0x00	0
120	0x00	0
121	0x00	0
122	0x00	0
123	0x00	0
124	0x00	0
125	0x00	0
126	0x00	0
127	0x00	0
128	0x00	0
129	0x00	0
130	0x00	0
131	0x00	0
132	0x00	0
133	0x00	0
134	0x00	0
135	0x00	0
136	0x00	0
137	0x00	0
138	0x00	0
139	0x00	0
140	0x00	0
141	0x00	0
142	0x00	0
143	0x00	0
144	0x00	0
145	0x00	0
146	0x00	0
147	0x00	0
148	0x00	0
149	0x00	0
150	0x00	0
151	0x00	0
152	0x00	0
153	0x00	0
154	0x00	0
155	0x00	0
156	0x00	0
157	0x00	0
158	0x00	0
159	0x00	0
160	0x00	0
161	0x00	0
162	0x00	0
163	0x00	0
164	0x00	0
165	0x00	0
166	0x00	0
167	0x00	0
168	0x00	0
169	0x00	0
170	0x00	0
171	0x00	0
172	0x00	0
173	0x00	0
174	0x00	0
175	0x00	0
176	0x00	0
177	0x00	0
178	0x00	0
179	0x00	0
180	0x00	0
181	0x00	0
182	0x00	0
183	0x00	0
184	0x00	0
185	0x00	0
186	0x00	0
187	0x00	0
188	0x00	0
189	0x00	0
190	0x00	0
191	0x00	0
192	0x00	0
193	0x00	0
194	0x00	0
195	0x00	0
196	0x00	0
197	0x00	0
198	0x00	0
199	0x00	0
200	0x00	0
201	0x00	0
202	0x00	0
203	0x00	0
204	0x00	0
205	0x00	0
206	0x00	0
207	0x00	0
208	0x00	0
209	0x00	0
210	0x00	0
211	0x00	0
212	0x00	0
213	0x00	0
214	0x00	0
215	0x00	0
216	0x00	0
217	0x00	0
218	0x00	0
219	0x00	0
220	0x00	0
221	0x00	0
222	0x00	0
223	0x00	0
224	0x00	0
225	0x00	0
226	0x00	0
227	0x00	0
228	0x00	0
229	0x00	0
230	0x00	0
231	0x00	0
232	0x00	0
233	0x00	0
234	0x00	0
235	0x00	0
236	0x00	0
237	0x00	0
238	0x00	0
239	0x00	0
240	0x00	0
241	0x00	0
242	0x00	0
243	0x00	0
244	0x00	0
245	0x00	0
246	0x00	0
247	0x00	0
248	0x00	0
249	0x00	0
250	0x00	0
251	0x00	0
252	0x00	0
253	0x00	0
254	0x00	0
255	0x00	0

tfl.pseudo_qconst24 i1 [32] scale=0.006586266 zero_point=127
0	0x72	-0.08562146
1	0xd1	-1.1460103
2	0x03	-0.816697
3	0x46	-0.37541717
4	0xd1	-1.1460103
5	0x09	-0.7771794
6	0xb0	-1.3633571
7	0x21	-0.61910903
8	0xf5	-0.90890473
9	0x3d	-0.43469357
10	0xab	-1.3962884
11	0x02	-0.82328326
12	0x9e	-1.4819099
13	0xc3	-1.2382181
14	0xf1	-0.9352498
15	0x09	-0.7771794
16	0x31	-0.51372874
17	0xcc	-1.1789416
18	0xfb	-0.86938715
19	0x0d	-0.75083435
20	0xc4	-1.2316318
21	0x14	-0.7047305
22	0x00	-0.8364558
23	0x7f	0.0
24	0xd7	-1.1064928
25	0x18	-0.67838544
26	0x7f	0.0
27	0xfa	-0.8759734
28	0x7f	0.0
29	0x55	-0.2766232
30	0x80	-1.6794978
31	0x44	-0.3885897

tfl.pseudo_qconst25 i1 [32] scale=0.0025890898 zero_point=-113
0	0xe7	0.2278399
1	0x3b	0.44532344
2	0x0b	0.32104713
3	0x7f	0.6213815
4	0x15	0.34693804
5	0x39	0.44014525
6	0xeb	0.23819625
7	0xcb	0.15534538
8	0xcc	0.15793447
9	0x22	0.3805962
10	0x11	0.33658168
11	0x5d	0.5333525
12	0x24	0.38577437
13	0x24	0.38577437
14	0xf3	0.258909
15	0x15	0.34693804
16	0x7f	0.6213815
17	0x2f	0.41425437
18	0xbd	0.11909813
19	0x0f	0.3314035
20	0xfe	0.28738898
21	0xe0	0.20971628
22	0x15	0.34693804
23	0x80	-0.038836345
24	0x2a	0.40130892
25	0x0d	0.3262253
26	0x8b	-0.010356359
27	0x44	0.46862525
28	0x8d	-0.0051781796
29	0xc9	0.15016721
30	0x15	0.34693804
31	0x41	0.460858

tfl.pseudo_qconst27 i1 [32, 3, 3, 32]
0	0x28	40
1	0x18	24
2	0xfd	-3
3	0x2e	46
4	0x40	64
5	0xeb	-21
6	0xf7	-9
7	0x38	56
8	0x09	9
9	0x10	16
10	0xfa	-6
11	0x0a	10
12	0x1f	31
13	0x3b	59
14	0x04	4
15	0x16	22
16	0x2f	47
17	0x1c	28
18	0x15	21
19	0xe9	-23
20	0xef	-17
21	0x13	19
22	0xb3	-77
23	0xf8	-8
24	0x3a	58
25	0x02	2
26	0xed	-19
27	0x38	56
28	0x0c	12
29	0x21	33
30	0x25	37
31	0x15	21
32	0x0f	15
33	0xde	-34
34	0x06	6
35	0x30	48
36	0x24	36
37	0xff	-1
38	0x11	17
39	0x2f	47
40	0xf2	-14
41	0x10	16
42	0x00	0
43	0x05	5
44	0x33	51
45	0x56	86
46	0xb4	-76
47	0x09	9
48	0xd1	-47
49	0x09	9
50	0x23	35
51	0xe5	-27
52	0xe8	-24
53	0x1c	28
54	0xeb	-21
55	0xf7	-9
56	0x0f	15
57	0xed	-19
58	0xfc	-4
59	0xce	-50
60	0xfc	-4
61	0x0b	11
62	0x02	2
63	0x0c	12
64	0xfe	-2
65	0x2c	44
66	0xfd	-3
67	0x20	32
68	0x4c	76
69	0x0e	14
70	0x1c	28
71	0x1d	29
72	0x00	0
73	0x25	37
74	0x0a	10
75	0x1f	31
76	0x2b	43
77	0x37	55
78	0x7f	127
79	0x0d	13
80	0x12	18
81	0x23	35
82	0x1e	30
83	0xe5	-27
84	0xd9	-39
85	0x0c	12
86	0x20	32
87	0x02	2
88	0x34	52
89	0xff	-1
90	0x0d	13
91	0x06	6
92	0x00	0
93	0xf7	-9
94	0xe8	-24
95	0xfe	-2
96	0xf8	-8
97	0xf3	-13
98	0x06	6
99	0x0f	15
100	0x40	64
101	0xee	-18
102	0x02	2
103	0xec	-20
104	0xf0	-16
105	0x16	22
106	0x07	7
107	0xf2	-14
108	0x24	36
109	0x3b	59
110	0x21	33
111	0x11	17
112	0xe9	-23
113	0x14	20
114	0x20	32
115	0xdb	-37
116	0xe7	-25
117	0xe5	-27
118	0xe4	-28
119	0xee	-18
120	0x34	52
121	0xfa	-6
122	0x10	16
123	0xd9	-39
124	0x35	53
125	0x05	5
126	0xe2	-30
127	0xf7	-9
128	0x07	7
129	0x26	38
130	0x04	4
131	0x15	21
132	0x35	53
133	0xeb	-21
134	0xef	-17
135	0xde	-34
136	0xef	-17
137	0x15	21
138	0x11	17
139	0xdf	-33
140	0x22	34
141	0x00	0
142	0x3c	60
143	0xf3	-13
144	0x36	54
145	0x1c	28
146	0x1b	27
147	0xd7	-41
148	0xad	-83
149	0xeb	-21
150	0x04	4
151	0xf5	-11
152	0x28	40
153	0x06	6
154	0xff	-1
155	0x21	33
156	0x12	18
157	0xe0	-32
158	0xea	-22
159	0xf5	-11
160	0x0f	15
161	0xf7	-9
162	0xfc	-4
163	0x34	52
164	0x34	52
165	0xe5	-27
166	0x19	25
167	0xf8	-8
168	0x01	1
169	0x14	20
170	0x15	21
171	0xfc	-4
172	0x33	51
173	0x01	1
174	0x90	-112
175	0x13	19
176	0xac	-84
177	0x14	20
178	0x1b	27
179	0xe3	-29
180	0xb6	-74
181	0xe8	-24
182	0x2f	47
183	0x09	9
184	0x24	36
185	0xfc	-4
186	0xeb	-21
187	0xfb	-5
188	0x05	5
189	0x00	0
190	0x11	17
191	0x04	4
192	0xfb	-5
193	0x1c	28
194	0xed	-19
195	0xf7	-9
196	0x0c	12
197	0xd2	-46
198	0x20	32
199	0x0f	15
200	0xe2	-30
201	0x1b	27
202	0xf6	-10
203	0xf9	-7
204	0x07	7
205	0x68	104
206	0xe8	-24
207	0xfe	-2
208	0x1b	27
209	0xed	-19
210	0xfd	-3
211	0xe6	-26
212	0xe5	-27
213	0x15	21
214	0xd2	-46
215	0xcc	-52
216	0xfa	-6
217	0xd8	-40
218	0xdb	-37
219	0x03	3
220	0x14	20
221	0x0a	10
222	0xed	-19
223	0x06	6
224	0xf8	-8
225	0x14	20
226	0xe4	-28
227	0xfc	-4
228	0xc8	-56
229	0xc8	-56
230	0x2b	43
231	0xe2	-30
232	0xbe	-66
233	0x02	2
234	0xe5	-27
235	0x00	0
236	0x0e	14
237	0x13	19
238	0x12	18
239	0x04	4
240	0xcd	-51
241	0xf3	-13
242	0xe5	-27
243	0xef	-17
244	0xd5	-43
245	0x08	8
246	0x15	21
247	0xd7	-41
248	0xfd	-3
249	0xb7	-73
250	0xe5	-27
251	0xd6	-42
252	0x17	23
253	0x04	4
254	0xe0	-32
255	0xe4	-28

tfl.pseudo_qconst28 i1 [32] scale=0.020786544 zero_point=116
0	0x57	-0.6028098
1	0x20	-1.7460697
2	0x75	0.020786544
3	0x5b	-0.51966363
4	0x68	-0.24943852
5	0x72	-0.04157309
6	0x5c	-0.49887705
7	0x4a	-0.87303483
8	0x7f	0.22865199
9	0x5b	-0.51966363
10	0x75	0.020786544
11	0x76	0.04157309
12	0x6c	-0.16629235
13	0x66	-0.29101163
14	0xdc	-3.1595547
15	0x4f	-0.76910216
16	0x80	-5.0719166
17	0x67	-0.27022508
18	0x1d	-1.8084294
19	0x31	-1.3926985
20	0x7e	0.20786545
21	0x66	-0.29101163
22	0x59	-0.5612367
23	0x79	0.10393272
24	0x6c	-0.16629235
25	0x7e	0.20786545
26	0x68	-0.24943852
27	0x58	-0.58202326
28	0x39	-1.2264061
29	0x6d	-0.14550582
30	0xe2	-3.0348356
31	0x66	-0.29101163

tfl.pseudo_qconst29 i1 [32] scale=0.049285557 zero_point=-128
0	0x95	1.0349967
1	0xf2	5.6185536
2	0x9e	1.4785668
3	0xbc	2.9571335
4	0x59	10.694966
5	0xa3	1.7249945
6	0xa8	1.9714223
7	0xb6	2.66142
8	0x8a	0.49285558
9	0x8e	0.6899978
10	0x8f	0.7392834
11	0xc4	3.3514178
12	0x9a	1.2814245
13	0x7f	12.567817
14	0x33	8.822115
15	0xa2	1.6757089
16	0x46	9.75854
17	0x9b	1.33071
18	0xb5	2.6121345
19	0xb1	2.4149923
20	0x25	8.132117
21	0xa0	1.5771378
22	0xfd	6.1606946
23	0x97	1.1335678
24	0x57	10.596395
25	0x8c	0.5914267
26	0xd8	4.337129
27	0xd5	4.1892724
28	0xba	2.8585622
29	0x0e	6.998549
30	0x13	7.244977
31	0x9f	1.5278523

tfl.pseudo_qconst31 i1 [32, 3, 3, 1]
0	0x97	-105
1	0x0d	13
2	0x0b	11
3	0x52	82
4	0x21	33
5	0xe8	-24
6	0x10	16
7	0x3f	63
8	0x7f	127
9	0xc2	-62
10	0xeb	-21
11	0x51	81
12	0x39	57
13	0xfd	-3
14	0xb6	-74
15	0xb1	-79
16	0xf9	-7
17	0x7f	127
18	0xfc	-4
19	0xe9	-23
20	0x01	1
21	0xe7	-25
22	0xf6	-10
23	0xcb	-53
24	0xae	-82
25	0x81	-127
26	0x99	-103
27	0x12	18
28	0x0f	15
29	0x32	50
30	0x56	86
31	0x40	64
32	0x34	52
33	0x81	-127
34	0xb4	-76
35	0xe8	-24
36	0xaf	-81
37	0xf4	-12
38	0x7f	127
39	0xa9	-87
40	0x31	49
41	0x36	54
42	0x99	-103
43	0xfc	-4
44	0x7f	127
45	0x54	84
46	0x76	118
47	0x68	104
48	0x9b	-101
49	0xb7	-73
50	0x81	-127
51	0xe7	-25
52	0x15	21
53	0x09	9
54	0xfd	-3
55	0x3d	61
56	0x17	23
57	0xc3	-61
58	0x05	5
59	0xcb	-53
60	0x08	8
61	0x7f	127
62	0x08	8
63	0x19	25
64	0xfe	-2
65	0x52	82
66	0xff	-1
67	0x3e	62
68	0x2f	47
69	0x81	-127
70	0xdb	-37
71	0xc6	-58
72	0x8a	-118
73	0x81	-127
74	0x9b	-101
75	0x04	4
76	0x22	34
77	0x24	36
78	0xed	-19
79	0xd8	-40
80	0xb1	-79
81	0x7f	127
82	0x0e	14
83	0x1d	29
84	0xe1	-31
85	0xcc	-52
86	0xe8	-24
87	0x13	19
88	0x68	104
89	0x64	100
90	0xf3	-13
91	0x81	-127
92	0xa4	-92
93	0xda	-38
94	0x00	0
95	0x00	0
96	0xf6	-10
97	0x10	16
98	0xdc	-36
99	0x1d	29
100	0x0b	11
101	0x81	-127
102	0xa4	-92
103	0xe8	-24
104	0x12	18
105	0x64	100
106	0x69	105
107	0x7f	127
108	0xd2	-46
109	0xf7	-9
110	0xb4	-76
111	0xcc	-52
112	0x81	-127
113	0xc6	-58
114	0xed	-19
115	0xee	-18
116	0xe0	-32
117	0xff	-1
118	0xf7	-9
119	0xfc	-4
120	0x3f	63
121	0xdc	-36
122	0xea	-22
123	0x33	51
124	0x53	83
125	0x81	-127
126	0x5e	94
127	0x95	-107
128	0x11	17
129	0xce	-50
130	0x4b	75
131	0xf0	-16
132	0x3e	62
133	0x81	-127
134	0x4d	77
135	0xf8	-8
136	0xc3	-61
137	0xbd	-67
138	0x54	84
139	0x3c	60
140	0x7f	127
141	0xc3	-61
142	0xf4	-12
143	0x00	0
144	0xe6	-26
145	0x9e	-98
146	0x7f	127
147	0xf7	-9
148	0x35	53
149	0xcd	-51
150	0x39	57
151	0xf8	-8
152	0xd2	-46
153	0xd2	-46
154	0xc1	-63
155	0xb2	-78
156	0xb2	-78
157	0xda	-38
158	0xb5	-75
159	0x67	103
160	0x5c	92
161	0x7f	127
162	0x09	9
163	0x6d	109
164	0x7f	127
165	0x19	25
166	0xf8	-8
167	0x10	16
168	0x40	64
169	0x67	103
170	0x2f	47
171	0xec	-20
172	0xf0	-16
173	0xe3	-29
174	0xe1	-31
175	0xf0	-16
176	0xfd	-3
177	0x46	70
178	0x7f	127
179	0x7e	126
180	0x00	0
181	0x48	72
182	0x35	53
183	0xfc	-4
184	0x22	34
185	0xfc	-4
186	0xe4	-28
187	0xd1	-47
188	0x81	-127
189	0xfc	-4
190	0x0b	11
191	0x09	9
192	0x02	2
193	0xfe	-2
194	0xfa	-6
195	0xd0	-48
196	0x81	-127
197	0xb1	-79
198	0x81	-127
199	0x36	54
200	0x4b	75
201	0x0b	11
202	0xe2	-30
203	0x09	9
204	0xe7	-25
205	0xc7	-57
206	0x61	97
207	0xd0	-48
208	0x81	-127
209	0xd1	-47
210	0x39	57
211	0x66	102
212	0x47	71
213	0xe3	-29
214	0xbc	-68
215	0xda	-38
216	0x00	0
217	0x93	-109
218	0xd8	-40
219	0x31	49
220	0xc7	-57
221	0x81	-127
222	0x92	-110
223	0x93	-109
224	0xf2	-14
225	0xbf	-65
226	0x81	-127
227	0xc7	-57
228	0xec	-20
229	0x26	38
230	0x00	0
231	0xfe	-2
232	0xe0	-32
233	0xd0	-48
234	0x32	50
235	0xfe	-2
236	0xa7	-89
237	0x8f	-113
238	0x50	80
239	0x7f	127
240	0x50	80
241	0xe9	-23
242	0xa6	-90
243	0xc1	-63
244	0xd5	-43
245	0x4b	75
246	0x6d	109
247	0x39	57
248	0x81	-127
249	0xa3	-93
250	0x15	21
251	0x2f	47
252	0x7f	127
253	0xd5	-43
254	0xc3	-61
255	0xee	-18
