Model/fina4.tflite (tflite, 29800 bytes, 21 tensors)

tfl.pseudo_qconst1 i1 [4, 8]
0	0xa2	-94
1	0x81	-127
2	0x7b	123
3	0xa0	-96
4	0x0c	12
5	0xcb	-53
6	0x07	7
7	0x1e	30
8	0x39	57
9	0x46	70
10	0xf4	-12
11	0xc1	-63
12	0x36	54
13	0x0d	13
14	0x7f	127
15	0xd9	-39
16	0x7f	127
17	0x4e	78
18	0xc9	-55
19	0x84	-124
20	0x73	115
21	0x19	25
22	0x23	35
23	0x74	116
24	0x0c	12
25	0xc5	-59
26	0x6b	107
27	0x42	66
28	0x81	-127
29	0x43	67
30	0x84	-124
31	0x4f	79

tfl.pseudo_qconst3 i1 [8, 16]
0	0x33	51
1	0x0e	14
2	0x81	-127
3	0x0e	14
4	0xea	-22
5	0xdc	-36
6	0xd8	-40
7	0x14	20
8	0xec	-20
9	0xd3	-45
10	0xe7	-25
11	0x2d	45
12	0xff	-1
13	0x03	3
14	0xfb	-5
15	0x12	18
16	0x04	4
17	0x07	7
18	0x7f	127
19	0x10	16
20	0xf1	-15
21	0xfa	-6
22	0xf8	-8
23	0x0f	15
24	0xf4	-12
25	0xf7	-9
26	0x11	17
27	0xfa	-6
28	0xf2	-14
29	0x11	17
30	0xfb	-5
31	0xe7	-25
32	0x08	8
33	0x61	97
34	0x63	99
35	0x81	-127
36	0x7c	124
37	0x34	52
38	0xff	-1
39	0x81	-127
40	0x7a	122
41	0x42	66
42	0x06	6
43	0xd7	-41
44	0x7b	123
45	0x23	35
46	0xd3	-45
47	0x83	-125
48	0x02	2
49	0x17	23
50	0x81	-127
51	0xff	-1
52	0x03	3
53	0xf4	-12
54	0xf2	-14
55	0xfb	-5
56	0x00	0
57	0xf1	-15
58	0x17	23
59	0x02	2
60	0x0c	12
61	0xfd	-3
62	0xe9	-23
63	0xf4	-12
64	0xf0	-16
65	0xb2	-78
66	0x7f	127
67	0x44	68
68	0xc3	-61
69	0x0b	11
70	0x03	3
71	0x32	50
72	0xb5	-75
73	0x16	22
74	0xac	-84
75	0xf7	-9
76	0xc8	-56
77	0xde	-34
78	0x51	81
79	0xd7	-41
80	0x0c	12
81	0x0a	10
82	0x81	-127
83	0xf0	-16
84	0x08	8
85	0xec	-20
86	0xea	-22
87	0xfc	-4
88	0x0a	10
89	0xf1	-15
90	0x10	16
91	0x11	17
92	0xef	-17
93	0xf3	-13
94	0xef	-17
95	0x1e	30
96	0xda	-38
97	0x1c	28
98	0x7f	127
99	0x01	1
100	0xfc	-4
101	0x07	7
102	0x01	1
103	0x06	6
104	0xfb	-5
105	0x04	4
106	0x15	21
107	0xdd	-35
108	0xf9	-7
109	0xe3	-29
110	0xec	-20
111	0xe2	-30
112	0x1a	26
113	0xdf	-33
114	0x38	56
115	0xf5	-11
116	0x12	18
117	0x11	17
118	0x11	17
119	0xed	-19
120	0x0d	13
121	0x02	2
122	0x17	23
123	0x18	24
124	0x09	9
125	0x70	112
126	0x16	22
127	0x7f	127

tfl.pseudo_qconst5 i1 [16, 64]
0	0xb9	-71
1	0x59	89
2	0xcd	-51
3	0x35	53
4	0xf9	-7
5	0xb4	-76
6	0xc9	-55
7	0xda	-38
8	0xb8	-72
9	0x22	34
10	0x5e	94
11	0x1b	27
12	0x01	1
13	0x2f	47
14	0xb8	-72
15	0x81	-127
16	0x38	56
17	0x1d	29
18	0x30	48
19	0x09	9
20	0xa6	-90
21	0x32	50
22	0x63	99
23	0xd2	-46
24	0x0a	10
25	0x9c	-100
26	0xd1	-47
27	0xf3	-13
28	0x27	39
29	0x36	54
30	0xd9	-39
31	0x39	57
32	0x19	25
33	0x62	98
34	0xd7	-41
35	0xdb	-37
36	0x0b	11
37	0xfa	-6
38	0xf9	-7
39	0x36	54
40	0x1d	29
41	0x08	8
42	0x01	1
43	0x08	8
44	0x27	39
45	0xd7	-41
46	0x0b	11
47	0x10	16
48	0xf8	-8
49	0x1e	30
50	0xe3	-29
51	0xe0	-32
52	0xdd	-35
53	0x08	8
54	0x02	2
55	0x4a	74
56	0xf9	-7
57	0x38	56
58	0xeb	-21
59	0x15	21
60	0xfb	-5
61	0x1a	26
62	0x33	51
63	0xeb	-21
64	0x11	17
65	0xd4	-44
66	0x19	25
67	0xd5	-43
68	0x4c	76
69	0x3a	58
70	0x32	50
71	0xfe	-2
72	0x34	52
73	0x7f	127
74	0x23	35
75	0xaa	-86
76	0xdd	-35
77	0xf9	-7
78	0xd2	-46
79	0x42	66
80	0xd9	-39
81	0x6b	107
82	0xc7	-57
83	0xb1	-79
84	0xec	-20
85	0x78	120
86	0xfa	-6
87	0xf0	-16
88	0x65	101
89	0x18	24
90	0xe4	-28
91	0xda	-38
92	0x11	17
93	0x9d	-99
94	0xc8	-56
95	0xfa	-6
96	0xcc	-52
97	0xf1	-15
98	0x3f	63
99	0x1d	29
100	0x07	7
101	0xe0	-32
102	0xc1	-63
103	0x0c	12
104	0x05	5
105	0xca	-54
106	0x1b	27
107	0xeb	-21
108	0x41	65
109	0x16	22
110	0x04	4
111	0xed	-19
112	0xdc	-36
113	0x17	23
114	0x03	3
115	0xe2	-30
116	0xf3	-13
117	0xeb	-21
118	0x04	4
119	0x16	22
120	0x33	51
121	0xe5	-27
122	0x03	3
123	0x11	17
124	0x3f	63
125	0x14	20
126	0x12	18
127	0x1a	26
128	0x00	0
129	0x00	0
130	0x00	0
131	0x00	0
132	0x00	0
133	0x00	0
134	0x00	0
135	0x00	0
136	0x00	0
137	0x00	0
138	0x00	0
139	0x00	0
140	0x00	0
141	0x00	0
142	0x00	0
143	0x00	0
144	0x00	0
145	0x00	0
146	0x00	0
147	0x00	0
148	0x00	0
149	0x00	0
150	0x00	0
151	0x00	0
152	0x00	0
153	0x00	0
154	0x00	0
155	0x00	0
156	0x00	0
157	0x00	0
158	0x00	0
159	0x00	0
160	0x00	0
161	0x00	0
162	0x00	0
163	0x00	0
164	0x00	0
165	0x00	0
166	0x00	0
167	0x00	0
168	0x00	0
169	0x00	0
170	0x00	0
171	0x00	0
172	0x00	0
173	0x00	0
174	0x00	0
175	0x00	0
176	0x00	0
177	0x00	0
178	0x00	0
179	0x00	0
180	0x00	0
181	0x00	0
182	0x00	0
183	0x00	0
184	0x00	0
185	0x00	0
186	0x00	0
187	0x00	0
188	0x00	0
189	0x00	0
190	0x00	0
191	0x00	0
192	0xd4	-44
193	0xf6	-10
194	0x2f	47
195	0x54	84
196	0x9a	-102
197	0xc7	-57
198	0x08	8
199	0xbb	-69
200	0x0b	11
201	0xe8	-24
202	0x58	88
203	0x75	117
204	0x56	86
205	0xb2	-78
206	0x7b	123
207	0x11	17
208	0x7f	127
209	0x2e	46
210	0x05	5
211	0xf8	-8
212	0x24	36
213	0xb3	-77
214	0x34	52
215	0xa6	-90
216	0xc1	-63
217	0xd7	-41
218	0xfa	-6
219	0x7b	123
220	0xf3	-13
221	0x63	99
222	0xb9	-71
223	0xc6	-58
224	0x0f	15
225	0x08	8
226	0x26	38
227	0x04	4
228	0xeb	-21
229	0xfc	-4
230	0x1d	29
231	0x18	24
232	0x5a	90
233	0x20	32
234	0x0a	10
235	0xf6	-10
236	0x26	38
237	0xf2	-14
238	0xe1	-31
239	0x40	64
240	0x67	103
241	0xfa	-6
242	0x3c	60
243	0xcc	-52
244	0xed	-19
245	0xe6	-26
246	0xd2	-46
247	0x18	24
248	0x3a	58
249	0x1a	26
250	0xb4	-76
251	0x3c	60
252	0xe6	-26
253	0xf2	-14
254	0x41	65
255	0xd9	-39

tfl.pseudo_qconst6 i1 [32] scale=0.004082423 zero_point=127
0	0xce	-0.7225889
1	0xf9	-0.5470447
2	0xcd	-0.72667134
3	0xeb	-0.60419863
4	0xe7	-0.62052834
5	0xfb	-0.5388799
6	0xb0	-0.8450616
7	0x15	-0.43273684
8	0x3b	-0.2776048
9	0x0a	-0.47764352
10	0x13	-0.4409017
11	0xf9	-0.5470447
12	0x4c	-0.20820358
13	0x33	-0.31026417
14	0xfc	-0.53479743
15	0x93	-0.96345186
16	0xe6	-0.6246107
17	0x1c	-0.4041599
18	0x09	-0.48172593
19	0x00	-0.5184677
20	0xe9	-0.61236346
21	0xec	-0.6001162
22	0xf8	-0.55112714
23	0x39	-0.2857696
24	0x07	-0.48989078
25	0x80	-1.0410179
26	0xdf	-0.6531877
27	0xa6	-0.88588583
28	0xac	-0.8613913
29	0x0f	-0.4572314
30	0x79	-0.02449454
31	0x15	-0.43273684

tfl.pseudo_qconst7 i1 [32] scale=0.0047418266 zero_point=-128
0	0x36	0.86301243
1	0x4a	0.95784897
2	0x33	0.84878695
3	0x1c	0.73972493
4	0x45	0.93413985
5	0x2b	0.81085235
6	0x29	0.8013687
7	0x3a	0.88197976
8	0x36	0.86301243
9	0x1e	0.74920857
10	0x0f	0.6780812
11	0x1c	0.73972493
12	0x14	0.70179033
13	0x26	0.78714323
14	0x11	0.68756485
15	0x71	1.1427802
16	0x40	0.91043067
17	0x2d	0.820336
18	0x48	0.94836533
19	0x04	0.62592113
20	0x12	0.6923067
21	0x4a	0.95784897
22	0x2e	0.82507783
23	0x26	0.78714323
24	0x53	1.0005254
25	0x29	0.8013687
26	0x51	0.9910418
27	0x0c	0.66385573
28	0x02	0.61643744
29	0x38	0.87249607
30	0x7f	1.2091658
31	0x29	0.8013687

tfl.pseudo_qconst9 i1 [32, 2, 3, 32]
0	0x0a	10
1	0x36	54
2	0x0e	14
3	0x00	0
4	0x29	41
5	0xb0	-80
6	0x1c	28
7	0x15	21
8	0xb2	-78
9	0x17	23
10	0x0f	15
11	0xeb	-21
12	0xf7	-9
13	0xff	-1
14	0x2e	46
15	0x04	4
16	0x20	32
17	0xd3	-45
18	0xbf	-65
19	0xd2	-46
20	0x13	19
21	0xf0	-16
22	0xa2	-94
23	0xf7	-9
24	0xd1	-47
25	0x26	38
26	0x37	55
27	0x03	3
28	0x40	64
29	0xfd	-3
30	0xe6	-26
31	0xc6	-58
32	0xeb	-21
33	0x00	0
34	0x2d	45
35	0x24	36
36	0x3b	59
37	0x2c	44
38	0x35	53
39	0xf6	-10
40	0x9b	-101
41	0x34	52
42	0x0a	10
43	0x07	7
44	0x02	2
45	0x1e	30
46	0x0c	12
47	0x29	41
48	0xe8	-24
49	0x4d	77
50	0xc3	-61
51	0xe8	-24
52	0x12	18
53	0x3d	61
54	0x0c	12
55	0x08	8
56	0xa7	-89
57	0x0c	12
58	0xd7	-41
59	0x2c	44
60	0xe9	-23
61	0xf3	-13
62	0x12	18
63	0x05	5
64	0x06	6
65	0x37	55
66	0x30	48
67	0xf0	-16
68	0x3a	58
69	0xc9	-55
70	0x17	23
71	0xe0	-32
72	0x07	7
73	0xef	-17
74	0xd1	-47
75	0x28	40
76	0xf9	-7
77	0xd2	-46
78	0xff	-1
79	0xea	-22
80	0xf4	-12
81	0x18	24
82	0x7f	127
83	0x17	23
84	0x46	70
85	0x4b	75
86	0xfe	-2
87	0x0e	14
88	0xc5	-59
89	0x2c	44
90	0xbb	-69
91	0xfa	-6
92	0x06	6
93	0x0e	14
94	0x26	38
95	0x2a	42
96	0x0c	12
97	0x0d	13
98	0xea	-22
99	0xf0	-16
100	0xd9	-39
101	0x08	8
102	0xed	-19
103	0x2f	47
104	0x26	38
105	0xd8	-40
106	0x38	56
107	0xe8	-24
108	0x05	5
109	0x01	1
110	0x03	3
111	0x2c	44
112	0xf8	-8
113	0x20	32
114	0xf2	-14
115	0xe2	-30
116	0xea	-22
117	0xe9	-23
118	0x1d	29
119	0xf9	-7
120	0xe6	-26
121	0xe9	-23
122	0x06	6
123	0xe3	-29
124	0xd1	-47
125	0x4e	78
126	0x4f	79
127	0xe2	-30
128	0xc4	-60
129	0xec	-20
130	0x11	17
131	0xcb	-53
132	0xdf	-33
133	0xb4	-76
134	0x28	40
135	0x01	1
136	0x06	6
137	0xd6	-42
138	0x79	121
139	0xf0	-16
140	0xe6	-26
141	0xe0	-32
142	0x02	2
143	0x03	3
144	0x20	32
145	0x3a	58
146	0x37	55
147	0xf2	-14
148	0x25	37
149	0x0f	15
150	0x33	51
151	0xde	-34
152	0x4a	74
153	0x0e	14
154	0x0e	14
155	0xaf	-81
156	0xf4	-12
157	0x42	66
158	0xd9	-39
159	0x0b	11
160	0x2b	43
161	0x32	50
162	0x5b	91
163	0xdb	-37
164	0xdd	-35
165	0x12	18
166	0x4a	74
167	0x17	23
168	0xc7	-57
169	0xd3	-45
170	0xeb	-21
171	0x28	40
172	0x10	16
173	0x05	5
174	0x05	5
175	0x29	41
176	0xe0	-32
177	0x2b	43
178	0x2e	46
179	0xda	-38
180	0x1c	28
181	0xe8	-24
182	0x19	25
183	0x01	1
184	0xf7	-9
185	0xfd	-3
186	0x31	49
187	0x17	23
188	0x44	68
189	0xb9	-71
190	0xb2	-78
191	0x40	64
192	0xea	-22
193	0x2a	42
194	0xf8	-8
195	0xea	-22
196	0xe6	-26
197	0xd2	-46
198	0x16	22
199	0xfc	-4
200	0x1e	30
201	0xef	-17
202	0xca	-54
203	0x0c	12
204	0xd6	-42
205	0x04	4
206	0x49	73
207	0x23	35
208	0x16	22
209	0xf9	-7
210	0x28	40
211	0x57	87
212	0xf0	-16
213	0xca	-54
214	0x14	20
215	0xdd	-35
216	0x06	6
217	0x31	49
218	0x07	7
219	0xf6	-10
220	0xcf	-49
221	0xfe	-2
222	0x21	33
223	0x2c	44
224	0xe2	-30
225	0x1f	31
226	0x16	22
227	0x3d	61
228	0x0d	13
229	0xd4	-44
230	0xe8	-24
231	0xb9	-71
232	0xe6	-26
233	0xf7	-9
234	0x25	37
235	0xc5	-59
236	0xf7	-9
237	0x2e	46
238	0x2a	42
239	0x2d	45
240	0x32	50
241	0xe8	-24
242	0x1d	29
243	0x26	38
244	0xf8	-8
245	0xad	-83
246	0x1a	26
247	0xd6	-42
248	0xe9	-23
249	0xde	-34
250	0xd7	-41
251	0xe9	-23
252	0x39	57
253	0x0a	10
254	0x28	40
255	0x34	52

tfl.pseudo_qconst10 i1 [32] scale=0.005183915 zero_point=127
0	0x3d	-0.3421384
1	0x2f	-0.4147132
2	0x80	-1.3218983
3	0x05	-0.63243765
4	0x0b	-0.60133415
5	0x19	-0.52875936
6	0x2c	-0.43026495
7	0x43	-0.31103492
8	0x0a	-0.6065181
9	0x3f	-0.33177057
10	0x42	-0.31621882
11	0x1b	-0.5183915
12	0xe4	-0.80350685
13	0x17	-0.5391272
14	0xf0	-0.74129987
15	0x32	-0.39916146
16	0x51	-0.2384601
17	0xd9	-0.8605299
18	0x2b	-0.43544888
19	0xd4	-0.8864495
20	0xfc	-0.6790929
21	0x22	-0.48210412
22	0x2f	-0.4147132
23	0xcb	-0.93310475
24	0x37	-0.3732419
25	0x2f	-0.4147132
26	0x29	-0.4458167
27	0x1b	-0.5183915
28	0x0c	-0.5961502
29	0x0b	-0.60133415
30	0xdb	-0.8501621
31	0x16	-0.5443111

tfl.pseudo_qconst11 i1 [32] scale=0.008336992 zero_point=-128
0	0x2c	1.4339626
1	0x0b	1.1588418
2	0xe5	0.8420362
3	0x26	1.3839407
4	0xe4	0.8336992
5	0x2a	1.4172887
6	0xff	1.058798
7	0x1d	1.3089077
8	0x25	1.3756037
9	0x1a	1.2838968
10	0x7b	2.092585
11	0x12	1.2172009
12	0xcb	0.6252744
13	0xf2	0.9504171
14	0x1b	1.2922337
15	0x1f	1.3255817
16	0x05	1.10882
17	0xd4	0.7003073
18	0xe8	0.8670472
19	0x0b	1.1588418
20	0x23	1.3589298
21	0xdb	0.7586663
22	0x47	1.6590614
23	0xea	0.8837212
24	0x3e	1.5840285
25	0x2d	1.4422996
26	0x54	1.7674423
27	0x37	1.5256696
28	0x7f	2.125933
29	0xf6	0.98376507
30	0x15	1.2422118
31	0x1f	1.3255817

tfl.pseudo_qconst13 i1 [32, 2, 3, 16]
0	0x03	3
1	0x1d	29
2	0xe7	-25
3	0x27	39
4	0xaa	-86
5	0xf5	-11
6	0xba	-70
7	0x24	36
8	0x0c	12
9	0xa9	-87
10	0xa4	-92
11	0x3e	62
12	0x03	3
13	0x44	68
14	0x31	49
15	0x18	24
16	0x23	35
17	0xfe	-2
18	0xe4	-28
19	0xe6	-26
20	0xb9	-71
21	0xc5	-59
22	0x7f	127
23	0xf8	-8
24	0xd2	-46
25	0x19	25
26	0xf0	-16
27	0xc4	-60
28	0x27	39
29	0xf2	-14
30	0xe5	-27
31	0x10	16
32	0xbb	-69
33	0x22	34
34	0xbd	-67
35	0x1c	28
36	0x2f	47
37	0x9f	-97
38	0xf6	-10
39	0x1e	30
40	0xcb	-53
41	0x53	83
42	0x1c	28
43	0xe9	-23
44	0x37	55
45	0xc2	-62
46	0x20	32
47	0x05	5
48	0x3e	62
49	0xfe	-2
50	0x2c	44
51	0x0c	12
52	0x3f	63
53	0xc8	-56
54	0xf9	-7
55	0xe1	-31
56	0xf1	-15
57	0xff	-1
58	0x47	71
59	0x52	82
60	0x1a	26
61	0x14	20
62	0x0f	15
63	0x45	69
64	0x37	55
65	0x24	36
66	0x07	7
67	0x24	36
68	0x20	32
69	0xe6	-26
70	0x1f	31
71	0xdf	-33
72	0xc0	-64
73	0xd1	-47
74	0x0e	14
75	0xf8	-8
76	0x47	71
77	0xbb	-69
78	0x35	53
79	0xf9	-7
80	0x37	55
81	0x0f	15
82	0xf8	-8
83	0x40	64
84	0x4f	79
85	0x02	2
86	0xf9	-7
87	0xef	-17
88	0xcf	-49
89	0xbe	-66
90	0xfe	-2
91	0x3c	60
92	0x50	80
93	0xa2	-94
94	0x53	83
95	0xf3	-13
96	0xc6	-58
97	0xfc	-4
98	0x17	23
99	0xeb	-21
100	0x8f	-113
101	0x2b	43
102	0xfb	-5
103	0x5a	90
104	0x44	68
105	0x0a	10
106	0x0d	13
107	0x45	69
108	0xe7	-25
109	0xe4	-28
110	0xe4	-28
111	0x0f	15
112	0xd5	-43
113	0xef	-17
114	0xff	-1
115	0xc1	-63
116	0xc2	-62
117	0xcd	-51
118	0x22	34
119	0xc7	-57
120	0xcd	-51
121	0xb0	-80
122	0x26	38
123	0xfe	-2
124	0xdf	-33
125	0xdb	-37
126	0x12	18
127	0x27	39
128	0xf6	-10
129	0x3c	60
130	0xe8	-24
131	0xea	-22
132	0xee	-18
133	0xcb	-53
134	0xe7	-25
135	0xfd	-3
136	0xe1	-31
137	0x04	4
138	0x24	36
139	0x39	57
140	0xf2	-14
141	0x36	54
142	0x4a	74
143	0xf2	-14
144	0x11	17
145	0x07	7
146	0xe8	-24
147	0xe5	-27
148	0xe5	-27
149	0xd1	-47
150	0xfc	-4
151	0xd3	-45
152	0xb0	-80
153	0x0c	12
154	0x45	69
155	0x27	39
156	0xfd	-3
157	0x31	49
158	0x3d	61
159	0x1b	27
160	0x35	53
161	0xdc	-36
162	0xe4	-28
163	0x22	34
164	0xb4	-76
165	0xda	-38
166	0x20	32
167	0xba	-70
168	0xd2	-46
169	0x2f	47
170	0xcc	-52
171	0x1d	29
172	0x26	38
173	0x13	19
174	0x09	9
175	0x31	49
176	0x21	33
177	0x7f	127
178	0xfb	-5
179	0xe0	-32
180	0x2c	44
181	0x6f	111
182	0x0a	10
183	0xe7	-25
184	0xe0	-32
185	0x16	22
186	0xe7	-25
187	0xf7	-9
188	0x3a	58
189	0xc9	-55
190	0xed	-19
191	0x00	0
192	0xff	-1
193	0x38	56
194	0xeb	-21
195	0xe6	-26
196	0xd0	-48
197	0xf0	-16
198	0xf8	-8
199	0xf8	-8
200	0xcc	-52
201	0x35	53
202	0x25	37
203	0xc5	-59
204	0x1d	29
205	0x00	0
206	0x40	64
207	0xd9	-39
208	0x19	25
209	0xe8	-24
210	0x5f	95
211	0xe1	-31
212	0xb5	-75
213	0x34	52
214	0x28	40
215	0x34	52
216	0x6d	109
217	0x15	21
218	0x0d	13
219	0x0b	11
220	0x0d	13
221	0x09	9
222	0xdb	-37
223	0xf6	-10
224	0x52	82
225	0x11	17
226	0xf8	-8
227	0x11	17
228	0xe1	-31
229	0xd0	-48
230	0xf8	-8
231	0x24	36
232	0x13	19
233	0x32	50
234	0x62	98
235	0xe9	-23
236	0x05	5
237	0xb1	-79
238	0x0e	14
239	0x23	35
240	0x04	4
241	0xec	-20
242	0xd6	-42
243	0xbb	-69
244	0x3b	59
245	0xf6	-10
246	0x7f	127
247	0x0b	11
248	0x50	80
249	0x44	68
250	0x31	49
251	0x2b	43
252	0xf1	-15
253	0x07	7
254	0x05	5
255	0xcf	-49

tfl.pseudo_qconst14 i1 [16] scale=0.0040989323 zero_point=127
0	0xb0	-0.848479
1	0x80	-1.0452278
2	0xb9	-0.8115886
3	0xe1	-0.6476313
4	0xac	-0.8648747
5	0xc1	-0.77879715
6	0x94	-0.9632491
7	0x88	-1.0124363
8	0xc5	-0.7624014
9	0xbd	-0.79519284
10	0xa8	-0.8812704
11	0xb6	-0.8238854
12	0xa4	-0.89766616
13	0xa2	-0.905864
14	0x90	-0.97964483
15	0xb2	-0.8402811

tfl.pseudo_qconst15 i1 [16] scale=0.0034310485 zero_point=-128
0	0x70	0.82345164
1	0x55	0.7308133
2	0x79	0.8543311
3	0x5e	0.76169276
4	0x39	0.634744
5	0x5f	0.7651238
6	0x73	0.83374476
7	0x48	0.6862097
8	0x52	0.7205202
9	0x38	0.6313129
10	0x4f	0.710227
11	0x74	0.83717585
12	0x2f	0.60043347
13	0x78	0.8509
14	0x7f	0.8749174
15	0x21	0.5523988

tfl.pseudo_qconst17 i1 [16, 3, 3, 16]
0	0x1a	26
1	0xd3	-45
2	0x33	51
3	0x06	6
4	0x44	68
5	0xe9	-23
6	0x09	9
7	0x06	6
8	0x46	70
9	0xe8	-24
10	0xfe	-2
11	0xc9	-55
12	0x00	0
13	0x06	6
14	0xea	-22
15	0xf3	-13
16	0x0e	14
17	0x15	21
18	0x3d	61
19	0x15	21
20	0x03	3
21	0x09	9
22	0x0a	10
23	0xfc	-4
24	0x22	34
25	0xf6	-10
26	0xf0	-16
27	0xeb	-21
28	0xee	-18
29	0x1f	31
30	0xeb	-21
31	0xdd	-35
32	0x11	17
33	0x12	18
34	0xea	-22
35	0xf3	-13
36	0xf3	-13
37	0x02	2
38	0x14	20
39	0x1e	30
40	0x1e	30
41	0xff	-1
42	0xf1	-15
43	0xfb	-5
44	0x2b	43
45	0x21	33
46	0x12	18
47	0x11	17
48	0xf2	-14
49	0xca	-54
50	0xef	-17
51	0xd0	-48
52	0x0e	14
53	0xf4	-12
54	0x19	25
55	0xe2	-30
56	0xfa	-6
57	0x07	7
58	0xe0	-32
59	0xb3	-77
60	0xcf	-49
61	0xd3	-45
62	0x28	40
63	0xfc	-4
64	0xf8	-8
65	0xc1	-63
66	0xea	-22
67	0x11	17
68	0x12	18
69	0x42	66
70	0x2e	46
71	0x99	-103
72	0x04	4
73	0xcc	-52
74	0xcf	-49
75	0x53	83
76	0xc9	-55
77	0xc7	-57
78	0x4a	74
79	0xce	-50
80	0x3c	60
81	0x10	16
82	0x3b	59
83	0x27	39
84	0xf8	-8
85	0x26	38
86	0x0b	11
87	0xf1	-15
88	0x4d	77
89	0xbe	-66
90	0x2e	46
91	0x04	4
92	0x13	19
93	0x01	1
94	0x47	71
95	0xd2	-46
96	0xa4	-92
97	0x5b	91
98	0xca	-54
99	0x6d	109
100	0x23	35
101	0x81	-127
102	0xf7	-9
103	0xbe	-66
104	0xe7	-25
105	0xf7	-9
106	0x48	72
107	0xe3	-29
108	0x03	3
109	0xe0	-32
110	0xdb	-37
111	0x3d	61
112	0xc9	-55
113	0x56	86
114	0x2a	42
115	0x48	72
116	0x00	0
117	0x02	2
118	0x08	8
119	0xe2	-30
120	0xfa	-6
121	0xc1	-63
122	0x24	36
123	0x4c	76
124	0xe1	-31
125	0x09	9
126	0xe1	-31
127	0x58	88
128	0xfb	-5
129	0x52	82
130	0x1a	26
131	0x42	66
132	0xee	-18
133	0x1f	31
134	0x2a	42
135	0x4c	76
136	0xd7	-41
137	0xdc	-36
138	0xd0	-48
139	0x2c	44
140	0xf9	-7
141	0x26	38
142	0xd7	-41
143	0x5b	91
144	0xea	-22
145	0xdb	-37
146	0xec	-20
147	0xf6	-10
148	0xfa	-6
149	0x1e	30
150	0xc2	-62
151	0xa7	-89
152	0x11	17
153	0x2f	47
154	0xf4	-12
155	0x0a	10
156	0xd7	-41
157	0xf7	-9
158	0x12	18
159	0xe4	-28
160	0x05	5
161	0x0b	11
162	0x83	-125
163	0xf8	-8
164	0xc0	-64
165	0x3e	62
166	0xf1	-15
167	0xe8	-24
168	0xf5	-11
169	0x55	85
170	0x2d	45
171	0x32	50
172	0x04	4
173	0x45	69
174	0x10	16
175	0x12	18
176	0xf6	-10
177	0x2b	43
178	0xc5	-59
179	0xdd	-35
180	0xc8	-56
181	0x58	88
182	0xc0	-64
183	0x50	80
184	0xb5	-75
185	0x3a	58
186	0x28	40
187	0xe1	-31
188	0x12	18
189	0x7f	127
190	0x0e	14
191	0x3a	58
192	0x07	7
193	0xe9	-23
194	0xf3	-13
195	0xd8	-40
196	0xaf	-81
197	0xff	-1
198	0x07	7
199	0x1c	28
200	0xfd	-3
201	0xbf	-65
202	0x58	88
203	0xe2	-30
204	0x34	52
205	0xf4	-12
206	0x1f	31
207	0xf7	-9
208	0xe3	-29
209	0x26	38
210	0x27	39
211	0xfd	-3
212	0xce	-50
213	0xf7	-9
214	0xe0	-32
215	0xca	-54
216	0xde	-34
217	0x4e	78
218	0x31	49
219	0xd3	-45
220	0x11	17
221	0xd2	-46
222	0xff	-1
223	0xd8	-40
224	0xd7	-41
225	0x51	81
226	0x2d	45
227	0x27	39
228	0xcf	-49
229	0xd1	-47
230	0xc8	-56
231	0x21	33
232	0xee	-18
233	0x10	16
234	0x19	25
235	0xad	-83
236	0x02	2
237	0x1b	27
238	0xbd	-67
239	0x49	73
240	0x51	81
241	0x03	3
242	0x66	102
243	0x15	21
244	0x15	21
245	0xd0	-48
246	0x0a	10
247	0x03	3
248	0x56	86
249	0xdc	-36
250	0x14	20
251	0xb2	-78
252	0xef	-17
253	0x13	19
254	0x55	85
255	0xee	-18

tfl.pseudo_qconst18 i1 [16] scale=0.0049375785 zero_point=127
0	0x11	-0.5431336
1	0xe5	-0.76038706
2	0x15	-0.5233833
3	0x2b	-0.4147566
4	0xf1	-0.7011361
5	0xa1	-1.0961424
6	0x99	-1.135643
7	0xdc	-0.8048253
8	0x83	-1.2442697
9	0xd8	-0.8245756
10	0xcc	-0.88382655
11	0x13	-0.5332585
12	0x0a	-0.5776967
13	0xe2	-0.77519983
14	0x80	-1.2590826
15	0x00	-0.62707245

tfl.pseudo_qconst19 i1 [16] scale=0.006875873 zero_point=-128
0	0x20	1.1001397
1	0x4b	1.3958023
2	0x19	1.0520086
3	0x28	1.1551467
4	0x15	1.0245051
5	0xe8	0.7150908
6	0xf0	0.7700978
7	0x0f	0.98324984
8	0xe6	0.70133907
9	0x0c	0.9626222
10	0xf7	0.8182289
11	0x7f	1.7533476
12	0x48	1.3751746
13	0x2e	1.196402
14	0x25	1.1345191
15	0x15	1.0245051

tfl.pseudo_qconst21 i1 [16, 3, 3, 8]
0	0xe8	-24
1	0xaf	-81
2	0x9e	-98
3	0xd1	-47
4	0x12	18
5	0xb4	-76
6	0xfb	-5
7	0xb1	-79
8	0x1d	29
9	0xed	-19
10	0x81	-127
11	0x33	51
12	0xd5	-43
13	0xb9	-71
14	0xa0	-96
15	0x0b	11
16	0xf2	-14
17	0x26	38
18	0xca	-54
19	0x05	5
20	0x1c	28
21	0xfd	-3
22	0xe6	-26
23	0xf7	-9
24	0x13	19
25	0x01	1
26	0xfb	-5
27	0x9d	-99
28	0x3f	63
29	0x19	25
30	0x01	1
31	0x10	16
32	0x43	67
33	0x0a	10
34	0x9d	-99
35	0xd9	-39
36	0xe2	-30
37	0x0f	15
38	0x51	81
39	0xc5	-59
40	0xd7	-41
41	0xd4	-44
42	0xe8	-24
43	0xf1	-15
44	0x21	33
45	0xb1	-79
46	0x3f	63
47	0xcb	-53
48	0xbb	-69
49	0xb9	-71
50	0x2f	47
51	0x27	39
52	0x43	67
53	0x35	53
54	0xc0	-64
55	0x3d	61
56	0x07	7
57	0x31	49
58	0x3e	62
59	0x35	53
60	0x0d	13
61	0xe2	-30
62	0xf2	-14
63	0x4e	78
64	0xe6	-26
65	0xf7	-9
66	0x74	116
67	0xf4	-12
68	0xda	-38
69	0xdd	-35
70	0xfd	-3
71	0x24	36
72	0xb2	-78
73	0x33	51
74	0xe3	-29
75	0x6c	108
76	0x2e	46
77	0xcb	-53
78	0x86	-122
79	0x39	57
80	0xcc	-52
81	0xfc	-4
82	0x42	66
83	0x28	40
84	0x35	53
85	0x17	23
86	0x98	-104
87	0xfe	-2
88	0xb8	-72
89	0x33	51
90	0xc1	-63
91	0xa6	-90
92	0x25	37
93	0xfe	-2
94	0x96	-106
95	0x36	54
96	0xde	-34
97	0x2b	43
98	0x12	18
99	0x9f	-97
100	0x4a	74
101	0x04	4
102	0x12	18
103	0x2d	45
104	0xd7	-41
105	0x22	34
106	0x11	17
107	0xc6	-58
108	0x3d	61
109	0xe4	-28
110	0x48	72
111	0x31	49
112	0x6b	107
113	0x0c	12
114	0xfd	-3
115	0x04	4
116	0xfd	-3
117	0xbc	-68
118	0x94	-108
119	0x4f	79
120	0x0f	15
121	0x27	39
122	0x9b	-101
123	0x23	35
124	0xe0	-32
125	0x0b	11
126	0x33	51
127	0x94	-108
128	0xf1	-15
129	0x16	22
130	0x81	-127
131	0xed	-19
132	0x9b	-101
133	0x45	69
134	0x01	1
135	0x03	3
136	0xd0	-48
137	0xa0	-96
138	0x8f	-113
139	0x3f	63
140	0x92	-110
141	0x0f	15
142	0xe5	-27
143	0xdd	-35
144	0x3b	59
145	0xd6	-42
146	0xe4	-28
147	0xf7	-9
148	0xf7	-9
149	0xe0	-32
150	0x02	2
151	0xea	-22
152	0xd8	-40
153	0x3b	59
154	0xca	-54
155	0x07	7
156	0xf0	-16
157	0x09	9
158	0x05	5
159	0x2e	46
160	0xf7	-9
161	0x25	37
162	0x02	2
163	0x01	1
164	0xd7	-41
165	0x24	36
166	0xc0	-64
167	0x55	85
168	0x1e	30
169	0x2a	42
170	0x0e	14
171	0x24	36
172	0xc6	-58
173	0xf3	-13
174	0x12	18
175	0xfd	-3
176	0xfc	-4
177	0xeb	-21
178	0x66	102
179	0x12	18
180	0x9d	-99
181	0x03	3
182	0xf1	-15
183	0xc0	-64
184	0x24	36
185	0x10	16
186	0x4f	79
187	0xe7	-25
188	0xc6	-58
189	0xe0	-32
190	0xde	-34
191	0x2a	42
192	0xe1	-31
193	0x11	17
194	0xff	-1
195	0xde	-34
196	0xd8	-40
197	0x16	22
198	0xc6	-58
199	0xf4	-12
200	0x0b	11
201	0x00	0
202	0x7f	127
203	0x17	23
204	0xff	-1
205	0x0c	12
206	0x0e	14
207	0xac	-84
208	0x1f	31
209	0x03	3
210	0x70	112
211	0xcb	-53
212	0xb6	-74
213	0xdf	-33
214	0xdc	-36
215	0xb2	-78
216	0xe3	-29
217	0xe1	-31
218	0x95	-107
219	0x16	22
220	0x1d	29
221	0x09	9
222	0xbd	-67
223	0x0d	13
224	0x38	56
225	0xe5	-27
226	0x0a	10
227	0x2c	44
228	0xe4	-28
229	0x0e	14
230	0xb7	-73
231	0xf4	-12
232	0xd7	-41
233	0x0c	12
234	0xb4	-76
235	0x12	18
236	0xd3	-45
237	0x15	21
238	0x91	-111
239	0xed	-19
240	0x29	41
241	0xf9	-7
242	0x22	34
243	0xe1	-31
244	0x27	39
245	0x2d	45
246	0x39	57
247	0xe4	-28
248	0xef	-17
249	0xe7	-25
250	0xf5	-11
251	0xaf	-81
252	0x2f	47
253	0x4a	74
254	0xf6	-10
255	0xdb	-37

tfl.pseudo_qconst22 i1 [8] scale=0.004334338 zero_point=127
0	0xca	-0.7845152
1	0xa3	-0.9535544
2	0x1b	-0.4334338
3	0x80	-1.1052562
4	0x9c	-0.9838947
5	0xea	-0.6458164
6	0xbd	-0.84086156
7	0xa7	-0.936217

tfl.pseudo_qconst23 i1 [8] scale=0.0053262794 zero_point=-128
0	0xef	0.59121704
1	0x77	1.315591
2	0x7f	1.3582013
3	0x4e	1.0972135
4	0x0c	0.74567914
5	0x30	0.9374252
6	0x05	0.7083952
7	0x05	0.7083952

tfl.pseudo_qconst25 i1 [8, 3, 3, 8]
0	0x60	96
1	0x20	32
2	0xfb	-5
3	0xe6	-26
4	0xd0	-48
5	0xc7	-57
6	0xfa	-6
7	0x05	5
8	0xe1	-31
9	0x17	23
10	0x04	4
11	0xf3	-13
12	0xb1	-79
13	0xfb	-5
14	0xe1	-31
15	0xe2	-30
16	0x1f	31
17	0xf5	-11
18	0xf6	-10
19	0x1b	27
20	0xdb	-37
21	0x3e	62
22	0x1f	31
23	0xf8	-8
24	0xc1	-63
25	0xcc	-52
26	0x06	6
27	0xe7	-25
28	0xc9	-55
29	0xac	-84
30	0x43	67
31	0x0c	12
32	0xdd	-35
33	0x1b	27
34	0xd1	-47
35	0x04	4
36	0xf7	-9
37	0xb6	-74
38	0xf0	-16
39	0xec	-20
40	0x25	37
41	0xec	-20
42	0xe8	-24
43	0xe3	-29
44	0x16	22
45	0xe2	-30
46	0xe8	-24
47	0xba	-70
48	0x81	-127
49	0xaf	-81
50	0x11	17
51	0x03	3
52	0xb4	-76
53	0xac	-84
54	0x38	56
55	0xea	-22
56	0x95	-107
57	0x9b	-101
58	0x4c	76
59	0xe0	-32
60	0xbe	-66
61	0xf4	-12
62	0x15	21
63	0xf6	-10
64	0xea	-22
65	0x2b	43
66	0x69	105
67	0xe9	-23
68	0x50	80
69	0x03	3
70	0x14	20
71	0x2a	42
72	0xfb	-5
73	0x4e	78
74	0x81	-127
75	0xe1	-31
76	0x3c	60
77	0xf0	-16
78	0x3f	63
79	0xc7	-57
80	0x1d	29
81	0x22	34
82	0xe2	-30
83	0xef	-17
84	0xe2	-30
85	0xda	-38
86	0x1f	31
87	0x2b	43
88	0x1d	29
89	0xfb	-5
90	0x05	5
91	0xd9	-39
92	0xb3	-77
93	0xf1	-15
94	0x23	35
95	0x41	65
96	0x29	41
97	0xd8	-40
98	0x23	35
99	0x55	85
100	0xf3	-13
101	0xd9	-39
102	0xbc	-68
103	0x14	20
104	0xf1	-15
105	0xe6	-26
106	0xe3	-29
107	0x22	34
108	0xf7	-9
109	0x27	39
110	0xd6	-42
111	0x00	0
112	0x0a	10
113	0x33	51
114	0xa1	-95
115	0x41	65
116	0x21	33
117	0x05	5
118	0xf8	-8
119	0xf2	-14
120	0x21	33
121	0xf9	-7
122	0xed	-19
123	0xdc	-36
124	0xf5	-11
125	0x10	16
126	0x4d	77
127	0xee	-18
128	0xde	-34
129	0x14	20
130	0x12	18
131	0xd9	-39
132	0x1d	29
133	0xcd	-51
134	0xde	-34
135	0x1d	29
136	0xb4	-76
137	0xfc	-4
138	0xdd	-35
139	0xff	-1
140	0xe9	-23
141	0x22	34
142	0xda	-38
143	0xf9	-7
144	0x12	18
145	0x09	9
146	0x6d	109
147	0xd8	-40
148	0x1d	29
149	0xcb	-53
150	0x2e	46
151	0xb9	-71
152	0xd3	-45
153	0x30	48
154	0x68	104
155	0x1b	27
156	0x4b	75
157	0x18	24
158	0xdc	-36
159	0x5a	90
160	0xf5	-11
161	0x32	50
162	0xc7	-57
163	0x62	98
164	0x0a	10
165	0xd9	-39
166	0xe3	-29
167	0xf9	-7
168	0xba	-70
169	0x3e	62
170	0x1b	27
171	0x1b	27
172	0xfc	-4
173	0x4d	77
174	0xa1	-95
175	0xe8	-24
176	0xae	-82
177	0x29	41
178	0x1d	29
179	0x58	88
180	0xf1	-15
181	0xc5	-59
182	0x46	70
183	0x26	38
184	0xd6	-42
185	0xbe	-66
186	0x47	71
187	0x0c	12
188	0xfb	-5
189	0x29	41
190	0x40	64
191	0x6d	109
192	0xfe	-2
193	0x12	18
194	0xe5	-27
195	0xda	-38
196	0xa5	-91
197	0xbd	-67
198	0x7f	127
199	0xe4	-28
200	0xde	-34
201	0xea	-22
202	0x5f	95
203	0xef	-17
204	0x22	34
205	0x00	0
206	0x0b	11
207	0x23	35
208	0x21	33
209	0xd0	-48
210	0xf6	-10
211	0x76	118
212	0xe4	-28
213	0xc7	-57
214	0x58	88
215	0x1b	27
216	0x0a	10
217	0xc6	-58
218	0x11	17
219	0xdc	-36
220	0xd8	-40
221	0x22	34
222	0x52	82
223	0xea	-22
224	0xb0	-80
225	0x21	33
226	0x22	34
227	0x3d	61
228	0xda	-38
229	0xeb	-21
230	0xe9	-23
231	0x38	56
232	0xdd	-35
233	0x7f	127
234	0x04	4
235	0x1c	28
236	0x57	87
237	0x46	70
238	0xe3	-29
239	0x37	55
240	0x03	3
241	0xd2	-46
242	0x2a	42
243	0x1b	27
244	0x37	55
245	0xe6	-26
246	0x34	52
247	0x22	34
248	0xdd	-35
249	0xfc	-4
250	0xcd	-51
251	0xfd	-3
252	0x91	-111
253	0xba	-70
254	0x81	-127
255	0xbd	-67

tfl.pseudo_qconst26 i1 [8] scale=0.0060055526 zero_point=127
0	0x2f	-0.4804442
1	0xcc	-1.074994
2	0x17	-0.62457746
3	0xe3	-0.9368662
4	0x80	-1.5314159
5	0x92	-1.423316
6	0x20	-0.5705275
7	0xf4	-0.8347718

tfl.pseudo_qconst27 i1 [8] scale=0.027858151 zero_point=-128
0	0xe8	2.8972478
1	0x68	6.463091
2	0xf9	3.3708363
3	0x25	4.596595
4	0x08	3.7887084
5	0x64	6.3516583
6	0x7f	7.1038284
7	0x49	5.5994883

tfl.pseudo_qconst29 i1 [8, 3, 3, 1]
0	0x44	68
1	0x6e	110
2	0xcd	-51
3	0xc2	-62
4	0xdb	-37
5	0x81	-127
6	0xb4	-76
7	0xb6	-74
8	0xac	-84
9	0x7f	127
10	0x39	57
11	0xd0	-48
12	0xc0	-64
13	0xff	-1
14	0x5e	94
15	0x71	113
16	0xf0	-16
17	0xa4	-92
18	0xb3	-77
19	0xd6	-42
20	0xf5	-11
21	0x6e	110
22	0x7f	127
23	0xb1	-79
24	0xbc	-68
25	0x07	7
26	0xc8	-56
27	0x8d	-115
28	0x22	34
29	0x7f	127
30	0x2b	43
31	0x15	21
32	0xed	-19
33	0xc8	-56
34	0x30	48
35	0x2f	47
36	0x3c	60
37	0x37	55
38	0x7f	127
39	0xcb	-53
40	0xec	-20
41	0xf8	-8
42	0x39	57
43	0x00	0
44	0x54	84
45	0x50	80
46	0x0d	13
47	0x63	99
48	0x37	55
49	0x3b	59
50	0xee	-18
51	0xb1	-79
52	0x81	-127
53	0xf6	-10
54	0x23	35
55	0x00	0
56	0x8f	-113
57	0x81	-127
58	0x41	65
59	0x16	22
60	0x36	54
61	0xe8	-24
62	0xdb	-37
63	0x1f	31
64	0xcd	-51
65	0x4a	74
66	0xb4	-76
67	0x75	117
68	0x7f	127
69	0x11	17
70	0xc1	-63
71	0xb7	-73
