Model/final3.tflite (tflite, 204400 bytes, 22 tensors)

tfl.pseudo_qconst1 i1 [4, 16]
0	0xe9	-23
1	0xb1	-79
2	0x04	4
3	0x04	4
4	0xf1	-15
5	0xca	-54
6	0xda	-38
7	0x9f	-97
8	0xd5	-43
9	0x5b	91
10	0x01	1
11	0x36	54
12	0x69	105
13	0x7f	127
14	0xe1	-31
15	0xdb	-37
16	0x7e	126
17	0xf4	-12
18	0x81	-127
19	0xfe	-2
20	0x4f	79
21	0xcf	-49
22	0x4e	78
23	0x1f	31
24	0x25	37
25	0xba	-70
26	0xef	-17
27	0xd2	-46
28	0x9e	-98
29	0x66	102
30	0x53	83
31	0x4b	75
32	0x5c	92
33	0x41	65
34	0x16	22
35	0xb7	-73
36	0x44	68
37	0xd4	-44
38	0x25	37
39	0x2c	44
40	0xf2	-14
41	0xe4	-28
42	0xf7	-9
43	0x81	-127
44	0x1b	27
45	0xd8	-40
46	0x5a	90
47	0x07	7
48	0xa2	-94
49	0x21	33
50	0xbb	-69
51	0xf7	-9
52	0xa8	-88
53	0x27	39
54	0xcd	-51
55	0x16	22
56	0x21	33
57	0x39	57
58	0x7f	127
59	0x00	0
60	0x55	85
61	0xc0	-64
62	0xbb	-69
63	0x49	73

tfl.pseudo_qconst3 i1 [16, 32]
0	0x09	9
1	0xfe	-2
2	0x08	8
3	0x00	0
4	0x24	36
5	0xfd	-3
6	0xf3	-13
7	0x09	9
8	0x13	19
9	0x81	-127
10	0x00	0
11	0x1a	26
12	0x22	34
13	0xfe	-2
14	0x0d	13
15	0x1e	30
16	0x01	1
17	0x06	6
18	0xec	-20
19	0xfd	-3
20	0x00	0
21	0x96	-106
22	0x00	0
23	0x00	0
24	0x01	1
25	0x0a	10
26	0x00	0
27	0x13	19
28	0xfe	-2
29	0xff	-1
30	0x0a	10
31	0xfe	-2
32	0xf8	-8
33	0xfe	-2
34	0x0f	15
35	0x00	0
36	0x07	7
37	0xff	-1
38	0x02	2
39	0x03	3
40	0x07	7
41	0x81	-127
42	0x00	0
43	0x0e	14
44	0xfd	-3
45	0xfc	-4
46	0xba	-70
47	0xf2	-14
48	0x0a	10
49	0x0f	15
50	0xf3	-13
51	0xf7	-9
52	0xfd	-3
53	0x12	18
54	0x00	0
55	0x00	0
56	0xfd	-3
57	0xf3	-13
58	0x00	0
59	0xf8	-8
60	0xff	-1
61	0x00	0
62	0x02	2
63	0x00	0
64	0xfe	-2
65	0xf9	-7
66	0xfb	-5
67	0x00	0
68	0x0a	10
69	0x00	0
70	0xfd	-3
71	0xfd	-3
72	0x04	4
73	0x81	-127
74	0x00	0
75	0x03	3
76	0xf7	-9
77	0xfe	-2
78	0x08	8
79	0xfd	-3
80	0x09	9
81	0xfb	-5
82	0xfb	-5
83	0xfd	-3
84	0x05	5
85	0xf6	-10
86	0x00	0
87	0x00	0
88	0x02	2
89	0xfb	-5
90	0x00	0
91	0x02	2
92	0xff	-1
93	0x00	0
94	0xfe	-2
95	0xff	-1
96	0xff	-1
97	0x01	1
98	0xfd	-3
99	0x00	0
100	0x04	4
101	0x01	1
102	0x07	7
103	0x02	2
104	0xfb	-5
105	0x7f	127
106	0x00	0
107	0xfa	-6
108	0xf6	-10
109	0xfe	-2
110	0xf2	-14
111	0x01	1
112	0xfb	-5
113	0xff	-1
114	0x01	1
115	0xff	-1
116	0xfd	-3
117	0x05	5
118	0x00	0
119	0x00	0
120	0xfe	-2
121	0x02	2
122	0x00	0
123	0xf8	-8
124	0x00	0
125	0x00	0
126	0xfd	-3
127	0x00	0
128	0x00	0
129	0x00	0
130	0xfd	-3
131	0x00	0
132	0x06	6
133	0x01	1
134	0xfb	-5
135	0x01	1
136	0x03	3
137	0x81	-127
138	0x00	0
139	0x04	4
140	0x00	0
141	0xfd	-3
142	0x0c	12
143	0x01	1
144	0xfe	-2
145	0xfb	-5
146	0xf8	-8
147	0xfc	-4
148	0x00	0
149	0x00	0
150	0x00	0
151	0x00	0
152	0x00	0
153	0x00	0
154	0x00	0
155	0x01	1
156	0x00	0
157	0x00	0
158	0x01	1
159	0x00	0
160	0x04	4
161	0x10	16
162	0x10	16
163	0x00	0
164	0x0a	10
165	0xfb	-5
166	0x0e	14
167	0x06	6
168	0x0c	12
169	0x7f	127
170	0x00	0
171	0xf7	-9
172	0x0f	15
173	0xf7	-9
174	0x16	22
175	0xf1	-15
176	0xfe	-2
177	0x14	20
178	0x0c	12
179	0xf5	-11
180	0xf9	-7
181	0xf9	-7
182	0x00	0
183	0x00	0
184	0xff	-1
185	0xff	-1
186	0x00	0
187	0x06	6
188	0x0a	10
189	0x00	0
190	0xf9	-7
191	0x00	0
192	0x00	0
193	0x03	3
194	0xfb	-5
195	0x00	0
196	0x10	16
197	0x01	1
198	0x05	5
199	0x06	6
200	0xf9	-7
201	0x7f	127
202	0x00	0
203	0x00	0
204	0xfb	-5
205	0xfd	-3
206	0x07	7
207	0xff	-1
208	0xf6	-10
209	0xf7	-9
210	0xf9	-7
211	0xfe	-2
212	0xfd	-3
213	0xfa	-6
214	0x00	0
215	0x00	0
216	0x02	2
217	0x06	6
218	0x00	0
219	0xfe	-2
220	0x03	3
221	0x00	0
222	0x02	2
223	0x00	0
224	0x00	0
225	0x03	3
226	0x09	9
227	0x00	0
228	0x08	8
229	0xfd	-3
230	0xfd	-3
231	0xff	-1
232	0x09	9
233	0x81	-127
234	0x00	0
235	0x03	3
236	0xfb	-5
237	0xfc	-4
238	0x1d	29
239	0xfe	-2
240	0x04	4
241	0x06	6
242	0xfa	-6
243	0xf6	-10
244	0xfd	-3
245	0xff	-1
246	0x00	0
247	0x00	0
248	0x02	2
249	0x00	0
250	0x00	0
251	0x0a	10
252	0xff	-1
253	0x00	0
254	0x00	0
255	0x00	0

tfl.pseudo_qconst5 i1 [32, 128]
0	0xc5	-59
1	0xe8	-24
2	0xfa	-6
3	0xe7	-25
4	0x43	67
5	0x10	16
6	0x56	86
7	0xfb	-5
8	0x01	1
9	0xb5	-75
10	0x1c	28
11	0x31	49
12	0x33	51
13	0x37	55
14	0x20	32
15	0x4b	75
16	0x19	25
17	0x07	7
18	0x63	99
19	0xdb	-37
20	0x7f	127
21	0xc9	-55
22	0x37	55
23	0xff	-1
24	0xfb	-5
25	0xf3	-13
26	0x11	17
27	0x1f	31
28	0xff	-1
29	0x0f	15
30	0x18	24
31	0xed	-19
32	0xdf	-33
33	0xcb	-53
34	0xc2	-62
35	0x12	18
36	0x10	16
37	0x15	21
38	0xed	-19
39	0xd4	-44
40	0x27	39
41	0x76	118
42	0xe7	-25
43	0x54	84
44	0xf4	-12
45	0x1d	29
46	0x08	8
47	0xfc	-4
48	0x95	-107
49	0xdb	-37
50	0xfe	-2
51	0x18	24
52	0x12	18
53	0xee	-18
54	0x1d	29
55	0x2b	43
56	0xf4	-12
57	0x1a	26
58	0xee	-18
59	0xe0	-32
60	0xd4	-44
61	0xe0	-32
62	0x08	8
63	0x04	4
64	0x3e	62
65	0x25	37
66	0xfe	-2
67	0x11	17
68	0x3b	59
69	0x04	4
70	0x06	6
71	0x27	39
72	0x09	9
73	0xf8	-8
74	0xf6	-10
75	0x14	20
76	0xea	-22
77	0x6e	110
78	0x19	25
79	0xca	-54
80	0x13	19
81	0xe0	-32
82	0x1e	30
83	0x20	32
84	0xe0	-32
85	0x1e	30
86	0xf5	-11
87	0xd5	-43
88	0x3a	58
89	0x23	35
90	0xf8	-8
91	0x0f	15
92	0xc2	-62
93	0x05	5
94	0xfc	-4
95	0x16	22
96	0x09	9
97	0x31	49
98	0x1b	27
99	0x4a	74
100	0xf1	-15
101	0x28	40
102	0xd7	-41
103	0xef	-17
104	0xd6	-42
105	0x7f	127
106	0xfa	-6
107	0x0b	11
108	0x2f	47
109	0x1b	27
110	0xc1	-63
111	0xcc	-52
112	0x54	84
113	0x55	85
114	0x12	18
115	0xdc	-36
116	0x3f	63
117	0x2b	43
118	0x12	18
119	0x00	0
120	0x1b	27
121	0x43	67
122	0x2f	47
123	0xfe	-2
124	0x3b	59
125	0x3e	62
126	0x6e	110
127	0x16	22
128	0xeb	-21
129	0xf1	-15
130	0xde	-34
131	0xf2	-14
132	0x41	65
133	0x08	8
134	0x6b	107
135	0xe4	-28
136	0xe1	-31
137	0xf1	-15
138	0x76	118
139	0x1d	29
140	0x4a	74
141	0x0f	15
142	0x28	40
143	0x20	32
144	0x19	25
145	0x2a	42
146	0xe3	-29
147	0x0f	15
148	0x39	57
149	0x2e	46
150	0x3c	60
151	0x23	35
152	0x12	18
153	0xdb	-37
154	0x63	99
155	0xec	-20
156	0x17	23
157	0x69	105
158	0x06	6
159	0x0e	14
160	0x02	2
161	0xcf	-49
162	0xed	-19
163	0x41	65
164	0x75	117
165	0x6b	107
166	0x1b	27
167	0xec	-20
168	0xe0	-32
169	0x48	72
170	0x0d	13
171	0xe7	-25
172	0x20	32
173	0x32	50
174	0xef	-17
175	0x41	65
176	0x3b	59
177	0x2c	44
178	0xea	-22
179	0x24	36
180	0x08	8
181	0x2f	47
182	0x05	5
183	0x7f	127
184	0xfe	-2
185	0x0c	12
186	0x29	41
187	0xc0	-64
188	0x40	64
189	0x47	71
190	0x1d	29
191	0x08	8
192	0x55	85
193	0x2a	42
194	0x1d	29
195	0x75	117
196	0xca	-54
197	0x41	65
198	0xc2	-62
199	0x59	89
200	0x26	38
201	0xc8	-56
202	0xcd	-51
203	0x4b	75
204	0xb9	-71
205	0x21	33
206	0xdf	-33
207	0x1e	30
208	0xf7	-9
209	0xaa	-86
210	0x38	56
211	0x24	36
212	0xf0	-16
213	0xd1	-47
214	0xfd	-3
215	0x1e	30
216	0x4b	75
217	0x1f	31
218	0xf7	-9
219	0x1a	26
220	0xa4	-92
221	0xd6	-42
222	0xe9	-23
223	0x38	56
224	0x41	65
225	0x51	81
226	0xe5	-27
227	0x26	38
228	0xed	-19
229	0x10	16
230	0x1c	28
231	0xc9	-55
232	0x15	21
233	0xe2	-30
234	0xff	-1
235	0x45	69
236	0x38	56
237	0xe5	-27
238	0x1f	31
239	0xe3	-29
240	0xd3	-45
241	0x67	103
242	0xfd	-3
243	0xf2	-14
244	0x10	16
245	0x34	52
246	0x1d	29
247	0xf4	-12
248	0x20	32
249	0xe7	-25
250	0x65	101
251	0x22	34
252	0x48	72
253	0x14	20
254	0x20	32
255	0x2a	42

tfl.pseudo_qconst7 i1 [64, 3, 3, 64]
0	0x0b	11
1	0x09	9
2	0x3d	61
3	0x01	1
4	0xe1	-31
5	0x2c	44
6	0x49	73
7	0x10	16
8	0x30	48
9	0x08	8
10	0x17	23
11	0x10	16
12	0x18	24
13	0x05	5
14	0xd0	-48
15	0xc9	-55
16	0xed	-19
17	0xde	-34
18	0x26	38
19	0xe1	-31
20	0x12	18
21	0xf4	-12
22	0x0c	12
23	0xf0	-16
24	0xe9	-23
25	0x31	49
26	0x4a	74
27	0xfb	-5
28	0xe9	-23
29	0x01	1
30	0xfd	-3
31	0xef	-17
32	0xcf	-49
33	0xe7	-25
34	0x07	7
35	0x01	1
36	0x11	17
37	0x1a	26
38	0x2b	43
39	0x0f	15
40	0xff	-1
41	0x15	21
42	0xf2	-14
43	0xf7	-9
44	0x12	18
45	0x2e	46
46	0x03	3
47	0x18	24
48	0x01	1
49	0xff	-1
50	0x1e	30
51	0xd9	-39
52	0x06	6
53	0x40	64
54	0xf6	-10
55	0xc0	-64
56	0xee	-18
57	0x21	33
58	0x0b	11
59	0xd1	-47
60	0xe5	-27
61	0xa2	-94
62	0xf4	-12
63	0xf3	-13
64	0xf5	-11
65	0xd6	-42
66	0x39	57
67	0xfd	-3
68	0x0d	13
69	0xbf	-65
70	0xea	-22
71	0xfd	-3
72	0xc4	-60
73	0xfd	-3
74	0xf7	-9
75	0x1f	31
76	0xfb	-5
77	0x10	16
78	0xfc	-4
79	0x01	1
80	0xe7	-25
81	0xfa	-6
82	0xea	-22
83	0xf6	-10
84	0x18	24
85	0xae	-82
86	0x18	24
87	0x06	6
88	0xfb	-5
89	0x1a	26
90	0x02	2
91	0xef	-17
92	0xde	-34
93	0xe3	-29
94	0xf1	-15
95	0x0b	11
96	0xfb	-5
97	0x2a	42
98	0x0c	12
99	0x98	-104
100	0x16	22
101	0xec	-20
102	0x06	6
103	0x00	0
104	0x18	24
105	0xec	-20
106	0xeb	-21
107	0xd1	-47
108	0x08	8
109	0x02	2
110	0x3a	58
111	0xfa	-6
112	0x26	38
113	0x24	36
114	0xfe	-2
115	0xff	-1
116	0xf3	-13
117	0x0a	10
118	0xff	-1
119	0x14	20
120	0x19	25
121	0x0c	12
122	0x0e	14
123	0xd1	-47
124	0x33	51
125	0x23	35
126	0x2b	43
127	0x20	32
128	0x25	37
129	0x2b	43
130	0xcb	-53
131	0x06	6
132	0xd9	-39
133	0xdd	-35
134	0x19	25
135	0x03	3
136	0x30	48
137	0x2c	44
138	0xa1	-95
139	0x01	1
140	0x2e	46
141	0x60	96
142	0x0a	10
143	0x39	57
144	0xe9	-23
145	0xbf	-65
146	0xe6	-26
147	0x20	32
148	0x03	3
149	0x10	16
150	0xdb	-37
151	0xdb	-37
152	0xfc	-4
153	0x0a	10
154	0x17	23
155	0x28	40
156	0x06	6
157	0xdc	-36
158	0xe7	-25
159	0xf1	-15
160	0xd4	-44
161	0xe1	-31
162	0x24	36
163	0x34	52
164	0xec	-20
165	0x55	85
166	0xea	-22
167	0xf8	-8
168	0x3e	62
169	0xb3	-77
170	0x0d	13
171	0xfd	-3
172	0x0d	13
173	0xc9	-55
174	0xf6	-10
175	0xd5	-43
176	0x8f	-113
177	0xed	-19
178	0xea	-22
179	0x68	104
180	0xcd	-51
181	0xd0	-48
182	0x63	99
183	0xe3	-29
184	0x0e	14
185	0xc8	-56
186	0xe7	-25
187	0xf5	-11
188	0xa2	-94
189	0xcb	-53
190	0x10	16
191	0x2f	47
192	0x08	8
193	0x24	36
194	0xfb	-5
195	0xee	-18
196	0xd7	-41
197	0x12	18
198	0xdb	-37
199	0xc3	-61
200	0x1b	27
201	0xd2	-46
202	0x0f	15
203	0x10	16
204	0xde	-34
205	0x32	50
206	0xfa	-6
207	0xe2	-30
208	0xe5	-27
209	0x32	50
210	0x51	81
211	0x08	8
212	0x09	9
213	0x4f	79
214	0xf1	-15
215	0x12	18
216	0xf2	-14
217	0x22	34
218	0xd1	-47
219	0x7f	127
220	0x12	18
221	0x18	24
222	0xf1	-15
223	0x2d	45
224	0x1f	31
225	0xf0	-16
226	0xf4	-12
227	0x2b	43
228	0xd3	-45
229	0x27	39
230	0x20	32
231	0xd1	-47
232	0xd6	-42
233	0xd3	-45
234	0xaf	-81
235	0x1c	28
236	0xfd	-3
237	0x20	32
238	0xe7	-25
239	0x04	4
240	0xca	-54
241	0x07	7
242	0xe2	-30
243	0xeb	-21
244	0xcc	-52
245	0x0c	12
246	0x43	67
247	0x07	7
248	0x10	16
249	0xf4	-12
250	0xd6	-42
251	0xf2	-14
252	0xe5	-27
253	0x4d	77
254	0x1f	31
255	0xd6	-42

tfl.pseudo_qconst8 i1 [64] scale=0.0033742245 zero_point=127
0	0x10	-0.37453893
1	0x2b	-0.28343487
2	0x3d	-0.22269882
3	0x22	-0.31380287
4	0xec	-0.49601102
5	0xf9	-0.45214608
6	0x3e	-0.21932459
7	0x4c	-0.17208545
8	0x0c	-0.38803583
9	0x17	-0.35091937
10	0x30	-0.26656374
11	0x07	-0.40490693
12	0x0e	-0.38128737
13	0x05	-0.4116554
14	0x24	-0.30705443
15	0xf1	-0.4791399
16	0x24	-0.30705443
17	0x36	-0.24631839
18	0x18	-0.34754512
19	0x53	-0.14846587
20	0x07	-0.40490693
21	0x06	-0.40828118
22	0x31	-0.26318952
23	0x6c	-0.064110264
24	0x22	-0.31380287
25	0x2b	-0.28343487
26	0x17	-0.35091937
27	0x02	-0.42177805
28	0x1a	-0.34079668
29	0x20	-0.32055134
30	0x34	-0.25306684
31	0x12	-0.36779046
32	0xe2	-0.52975327
33	0x0a	-0.39478427
34	0xe2	-0.52975327
35	0x4e	-0.165337
36	0x13	-0.36441624
37	0x4c	-0.17208545
38	0xcd	-0.600612
39	0x01	-0.4251523
40	0x40	-0.21257615
41	0x33	-0.25644106
42	0x20	-0.32055134
43	0x2f	-0.26993796
44	0x5c	-0.11809786
45	0xfd	-0.43864918
46	0x04	-0.41502962
47	0x21	-0.31717712
48	0x05	-0.4116554
49	0x18	-0.34754512
50	0x60	-0.10460096
51	0x25	-0.3036802
52	0xef	-0.48588833
53	0x20	-0.32055134
54	0x10	-0.37453893
55	0xf2	-0.47576565
56	0x43	-0.20245346
57	0x53	-0.14846587
58	0x2a	-0.2868091
59	0x4b	-0.17545968
60	0x19	-0.3441709
61	0xff	-0.43190074
62	0xca	-0.61073464
63	0x80	-0.86042726

tfl.pseudo_qconst9 i1 [64] scale=0.005507027 zero_point=-128
0	0x0a	0.7599697
1	0x01	0.7104065
2	0x04	0.7269275
3	0xf7	0.6553362
4	0xd5	0.46809727
5	0xf3	0.63330805
6	0x12	0.8040259
7	0x20	0.88112426
8	0x32	0.9802508
9	0x10	0.79301184
10	0x3b	1.029814
11	0xf3	0.63330805
12	0xdc	0.50664645
13	0xf0	0.616787
14	0xfa	0.6718573
15	0x00	0.70489943
16	0x57	1.1840107
17	0xf0	0.616787
18	0xce	0.42954808
19	0x05	0.7324346
20	0x15	0.820547
21	0x0e	0.7819978
22	0x32	0.9802508
23	0x15	0.820547
24	0x11	0.7985189
25	0x01	0.7104065
26	0x31	0.9747437
27	0x22	0.89213836
28	0x45	1.0848843
29	0xf7	0.6553362
30	0xd1	0.44606918
31	0xe6	0.56171674
32	0x0c	0.77098376
33	0x2c	0.9472086
34	0xf5	0.64432216
35	0x2d	0.95271564
36	0xef	0.61127996
37	0x0b	0.7654767
38	0xee	0.605773
39	0x20	0.88112426
40	0x19	0.8425751
41	0xe1	0.5341816
42	0xdb	0.50113946
43	0xf6	0.64982915
44	0xe7	0.5672238
45	0x47	1.0958984
46	0xe5	0.5562097
47	0xdd	0.5121535
48	0x7f	1.4042919
49	0x6b	1.2941513
50	0xe7	0.5672238
51	0x66	1.2666161
52	0x40	1.0573492
53	0x0e	0.7819978
54	0x00	0.70489943
55	0x22	0.89213836
56	0xee	0.605773
57	0x46	1.0903913
58	0x56	1.1785038
59	0x03	0.7214205
60	0x14	0.81504
61	0xfc	0.68287134
62	0x0e	0.7819978
63	0x0b	0.7654767

tfl.pseudo_qconst11 i1 [64, 3, 3, 64]
0	0x23	35
1	0x12	18
2	0xea	-22
3	0xd4	-44
4	0xfe	-2
5	0x41	65
6	0xea	-22
7	0x22	34
8	0xe9	-23
9	0x0d	13
10	0xe0	-32
11	0x12	18
12	0xe4	-28
13	0xbe	-66
14	0x0f	15
15	0xf3	-13
16	0x21	33
17	0x16	22
18	0x17	23
19	0x11	17
20	0x07	7
21	0x29	41
22	0x38	56
23	0x10	16
24	0x0b	11
25	0xf7	-9
26	0x1f	31
27	0x12	18
28	0xde	-34
29	0x2b	43
30	0x08	8
31	0x2f	47
32	0x24	36
33	0x09	9
34	0x20	32
35	0x2c	44
36	0xc4	-60
37	0x39	57
38	0x0a	10
39	0x28	40
40	0x1d	29
41	0xeb	-21
42	0xde	-34
43	0xd8	-40
44	0xef	-17
45	0x23	35
46	0x09	9
47	0xf1	-15
48	0xdc	-36
49	0xdc	-36
50	0x11	17
51	0xc2	-62
52	0x1a	26
53	0x0a	10
54	0x0b	11
55	0x0b	11
56	0xf1	-15
57	0x13	19
58	0x22	34
59	0x0a	10
60	0xa4	-92
61	0x23	35
62	0x29	41
63	0xeb	-21
64	0x00	0
65	0xcd	-51
66	0xf9	-7
67	0xf8	-8
68	0xe7	-25
69	0xea	-22
70	0x1a	26
71	0x03	3
72	0xd3	-45
73	0xef	-17
74	0x1c	28
75	0xee	-18
76	0x10	16
77	0x15	21
78	0x1c	28
79	0xf6	-10
80	0xd4	-44
81	0x28	40
82	0xf3	-13
83	0xb7	-73
84	0x07	7
85	0x35	53
86	0xef	-17
87	0x35	53
88	0x02	2
89	0x25	37
90	0x3b	59
91	0x10	16
92	0x2f	47
93	0xec	-20
94	0xdb	-37
95	0x0b	11
96	0x0d	13
97	0xf9	-7
98	0xfb	-5
99	0xe0	-32
100	0x12	18
101	0x95	-107
102	0xbe	-66
103	0x46	70
104	0xee	-18
105	0xe1	-31
106	0xc6	-58
107	0x1c	28
108	0xdc	-36
109	0xe7	-25
110	0x16	22
111	0xad	-83
112	0x00	0
113	0xa7	-89
114	0x08	8
115	0x00	0
116	0xce	-50
117	0xcc	-52
118	0xd6	-42
119	0xd2	-46
120	0xff	-1
121	0x10	16
122	0x10	16
123	0x2f	47
124	0xfd	-3
125	0xd4	-44
126	0x2c	44
127	0x06	6
128	0xf9	-7
129	0xf8	-8
130	0xfe	-2
131	0x13	19
132	0xfc	-4
133	0x12	18
134	0x1c	28
135	0xcc	-52
136	0x16	22
137	0xfe	-2
138	0xea	-22
139	0x31	49
140	0x1c	28
141	0xc5	-59
142	0xdb	-37
143	0xf4	-12
144	0xe6	-26
145	0xe9	-23
146	0xf0	-16
147	0x40	64
148	0xf1	-15
149	0xf2	-14
150	0xf1	-15
151	0xf9	-7
152	0x18	24
153	0xc7	-57
154	0xbb	-69
155	0x0f	15
156	0x10	16
157	0x08	8
158	0x04	4
159	0x39	57
160	0x0c	12
161	0xd2	-46
162	0x1c	28
163	0x07	7
164	0x3f	63
165	0x0a	10
166	0x02	2
167	0x1f	31
168	0x0a	10
169	0xf7	-9
170	0xd1	-47
171	0xd0	-48
172	0xed	-19
173	0x08	8
174	0xb0	-80
175	0xe0	-32
176	0xee	-18
177	0xf1	-15
178	0x8f	-113
179	0xaa	-86
180	0xd8	-40
181	0x12	18
182	0x17	23
183	0x1a	26
184	0x05	5
185	0x17	23
186	0xe3	-29
187	0xb6	-74
188	0xf4	-12
189	0xeb	-21
190	0x2d	45
191	0x07	7
192	0x04	4
193	0xff	-1
194	0xf9	-7
195	0x01	1
196	0x1e	30
197	0x30	48
198	0xdb	-37
199	0xc5	-59
200	0xeb	-21
201	0x2c	44
202	0xfa	-6
203	0xfb	-5
204	0x1c	28
205	0x1d	29
206	0x0f	15
207	0x05	5
208	0xb2	-78
209	0x18	24
210	0xd9	-39
211	0xca	-54
212	0xdb	-37
213	0xde	-34
214	0xe8	-24
215	0x1e	30
216	0xe4	-28
217	0xec	-20
218	0x07	7
219	0x19	25
220	0xc3	-61
221	0x06	6
222	0x01	1
223	0xee	-18
224	0xf5	-11
225	0x1f	31
226	0x1d	29
227	0xf8	-8
228	0xe0	-32
229	0x18	24
230	0xd9	-39
231	0x07	7
232	0xcd	-51
233	0xd6	-42
234	0x0e	14
235	0xf5	-11
236	0xfa	-6
237	0xe2	-30
238	0x18	24
239	0xfd	-3
240	0x22	34
241	0x31	49
242	0xef	-17
243	0x0e	14
244	0xe7	-25
245	0xfa	-6
246	0x08	8
247	0xf8	-8
248	0xd6	-42
249	0xf3	-13
250	0x1e	30
251	0xfc	-4
252	0xf2	-14
253	0xe2	-30
254	0x39	57
255	0xf6	-10

tfl.pseudo_qconst12 i1 [64] scale=0.0038984176 zero_point=95
0	0xfb	-0.38984177
1	0x41	-0.11695252
2	0x34	-0.16763195
3	0x23	-0.23390505
4	0xf3	-0.4210291
5	0x0c	-0.32356867
6	0x0c	-0.32356867
7	0x22	-0.23780347
8	0xd7	-0.5301848
9	0x2c	-0.1988193
10	0xeb	-0.45221645
11	0xee	-0.44052118
12	0x26	-0.2222098
13	0xfa	-0.39374018
14	0xca	-0.5808642
15	0x29	-0.21051455
16	0xda	-0.51848954
17	0x0a	-0.3313655
18	0x57	-0.03118734
19	0x56	-0.03508576
20	0xf4	-0.41713068
21	0x25	-0.22610822
22	0xe0	-0.49509904
23	0x0e	-0.31577182
24	0x13	-0.29627973
25	0x72	0.07406993
26	0x32	-0.1754288
27	0xf0	-0.43272436
28	0x1f	-0.24949872
29	0x15	-0.2884829
30	0x09	-0.3352639
31	0x18	-0.27678764
32	0xd2	-0.5496769
33	0x15	-0.2884829
34	0x21	-0.24170189
35	0x05	-0.3508576
36	0xd9	-0.522388
37	0xc9	-0.58476263
38	0x38	-0.15203829
39	0x3a	-0.14424145
40	0x20	-0.24560031
41	0x1f	-0.24949872
42	0x21	-0.24170189
43	0xd2	-0.5496769
44	0x21	-0.24170189
45	0x21	-0.24170189
46	0x80	-0.8693471
47	0x00	-0.37034968
48	0x42	-0.11305411
49	0x7f	0.12474936
50	0xdb	-0.5145911
51	0xf1	-0.42882594
52	0xb4	-0.66662943
53	0x31	-0.1793272
54	0x26	-0.2222098
55	0x06	-0.34695917
56	0xe6	-0.47170854
57	0xd2	-0.5496769
58	0xcb	-0.5769658
59	0xfd	-0.3820449
60	0x02	-0.36255282
61	0xf7	-0.40543544
62	0xc9	-0.58476263
63	0x5a	-0.019492088

tfl.pseudo_qconst13 i1 [64] scale=0.0047738543 zero_point=-128
0	0xfa	0.5824102
1	0x1e	0.754269
2	0xfa	0.5824102
3	0x4a	0.9643186
4	0xdb	0.43442073
5	0x01	0.6158272
6	0xe9	0.5012547
7	0xeb	0.5108024
8	0xbf	0.30075282
9	0x63	1.0836649
10	0xe4	0.47738543
11	0xdf	0.45351616
12	0x36	0.86884147
13	0x0b	0.66356575
14	0xb2	0.23869272
15	0xe6	0.48693314
16	0xb9	0.2721097
17	0x49	0.9595447
18	0x05	0.6349226
19	0x03	0.6253749
20	0xb1	0.23391886
21	0xf9	0.57763636
22	0xe2	0.46783772
23	0xed	0.5203501
24	0xf9	0.57763636
25	0xe7	0.491707
26	0xfe	0.60150564
27	0xf7	0.56808865
28	0xe5	0.4821593
29	0xa8	0.19095418
30	0x47	0.949997
31	0xff	0.6062795
32	0xbb	0.2816574
33	0xa6	0.18140647
34	0xe0	0.45829
35	0xc7	0.33894366
36	0xf9	0.57763636
37	0xdc	0.4391946
38	0xfc	0.5919579
39	0xd5	0.4057776
40	0xbc	0.28643125
41	0x02	0.62060106
42	0xad	0.21482344
43	0xd1	0.38668218
44	0xea	0.50602853
45	0x0f	0.6826612
46	0xac	0.21004958
47	0xe4	0.47738543
48	0xed	0.5203501
49	0x7f	1.2173328
50	0x2e	0.8306506
51	0xd1	0.38668218
52	0xa4	0.17185876
53	0xfa	0.5824102
54	0x07	0.64447033
55	0xdd	0.44396845
56	0xe8	0.49648085
57	0xe7	0.491707
58	0xf2	0.5442194
59	0xc7	0.33894366
60	0xd5	0.4057776
61	0xc7	0.33894366
62	0xd0	0.38190836
63	0xf8	0.5728625

tfl.pseudo_qconst15 i1 [64, 3, 3, 64]
0	0xf8	-8
1	0x06	6
2	0x2e	46
3	0xf7	-9
4	0xec	-20
5	0x36	54
6	0x20	32
7	0x3a	58
8	0x39	57
9	0xd0	-48
10	0x18	24
11	0x94	-108
12	0xe8	-24
13	0x10	16
14	0xc7	-57
15	0x50	80
16	0x1c	28
17	0x15	21
18	0xdf	-33
19	0x3e	62
20	0xf8	-8
21	0xf9	-7
22	0x4f	79
23	0xeb	-21
24	0xbf	-65
25	0x16	22
26	0xe7	-25
27	0x3f	63
28	0xfb	-5
29	0xd8	-40
30	0x87	-121
31	0xf3	-13
32	0xfb	-5
33	0x2a	42
34	0xe2	-30
35	0x1b	27
36	0xf9	-7
37	0x33	51
38	0x11	17
39	0xb4	-76
40	0xd1	-47
41	0x0e	14
42	0x12	18
43	0xbf	-65
44	0x4b	75
45	0xe7	-25
46	0xf3	-13
47	0xf1	-15
48	0xd3	-45
49	0x28	40
50	0x30	48
51	0xdb	-37
52	0x28	40
53	0x4e	78
54	0x1e	30
55	0xe4	-28
56	0x15	21
57	0xff	-1
58	0xee	-18
59	0xc3	-61
60	0x3b	59
61	0xff	-1
62	0x56	86
63	0x10	16
64	0xf7	-9
65	0xec	-20
66	0x02	2
67	0x09	9
68	0xd6	-42
69	0xbc	-68
70	0xd1	-47
71	0x12	18
72	0xfa	-6
73	0xef	-17
74	0x17	23
75	0xdc	-36
76	0xfe	-2
77	0xe4	-28
78	0xe3	-29
79	0x20	32
80	0xb6	-74
81	0x1b	27
82	0xc4	-60
83	0x10	16
84	0xe0	-32
85	0x03	3
86	0x2e	46
87	0x06	6
88	0xc6	-58
89	0x1f	31
90	0xfd	-3
91	0x1e	30
92	0x1c	28
93	0xd5	-43
94	0xf1	-15
95	0xc5	-59
96	0xbb	-69
97	0x1f	31
98	0xda	-38
99	0x27	39
100	0xe4	-28
101	0x12	18
102	0x06	6
103	0xd8	-40
104	0xe0	-32
105	0xed	-19
106	0x2c	44
107	0xfd	-3
108	0x37	55
109	0x14	20
110	0x05	5
111	0xec	-20
112	0xd2	-46
113	0xc2	-62
114	0xfe	-2
115	0xfd	-3
116	0xe3	-29
117	0x20	32
118	0x1c	28
119	0x18	24
120	0x29	41
121	0x12	18
122	0xfb	-5
123	0xed	-19
124	0xf7	-9
125	0xe3	-29
126	0x00	0
127	0xf3	-13
128	0xf8	-8
129	0xcf	-49
130	0xda	-38
131	0xf2	-14
132	0xcb	-53
133	0xe9	-23
134	0xf3	-13
135	0xc3	-61
136	0x11	17
137	0xcf	-49
138	0x0e	14
139	0x08	8
140	0xcd	-51
141	0xbc	-68
142	0xe5	-27
143	0xc8	-56
144	0x11	17
145	0xb5	-75
146	0xef	-17
147	0x83	-125
148	0x24	36
149	0xd6	-42
150	0x0e	14
151	0xbb	-69
152	0xef	-17
153	0x46	70
154	0xb9	-71
155	0x0c	12
156	0x96	-106
157	0xee	-18
158	0x26	38
159	0x2b	43
160	0x96	-106
161	0x0f	15
162	0xf8	-8
163	0xcc	-52
164	0xf1	-15
165	0x04	4
166	0xea	-22
167	0x2b	43
168	0xd5	-43
169	0x32	50
170	0xf7	-9
171	0x13	19
172	0xb7	-73
173	0xed	-19
174	0xcd	-51
175	0xee	-18
176	0x0b	11
177	0xea	-22
178	0xf0	-16
179	0xf6	-10
180	0xa2	-94
181	0xcc	-52
182	0x0f	15
183	0x25	37
184	0xd2	-46
185	0x1d	29
186	0xff	-1
187	0xed	-19
188	0x1f	31
189	0xfa	-6
190	0xc7	-57
191	0xc9	-55
192	0xf9	-7
193	0xec	-20
194	0x09	9
195	0xb9	-71
196	0xfe	-2
197	0xa9	-87
198	0xe6	-26
199	0x06	6
200	0x40	64
201	0x07	7
202	0xfc	-4
203	0xf9	-7
204	0x33	51
205	0xd6	-42
206	0xf6	-10
207	0x18	24
208	0x09	9
209	0x02	2
210	0xfe	-2
211	0x49	73
212	0x11	17
213	0xd8	-40
214	0x25	37
215	0xff	-1
216	0x19	25
217	0xed	-19
218	0x22	34
219	0xd5	-43
220	0xee	-18
221	0x09	9
222	0xdb	-37
223	0xfe	-2
224	0x93	-109
225	0xdf	-33
226	0xf7	-9
227	0xde	-34
228	0x0c	12
229	0x05	5
230	0x0c	12
231	0xe5	-27
232	0xac	-84
233	0x15	21
234	0xe5	-27
235	0xe5	-27
236	0x8c	-116
237	0xab	-85
238	0x0d	13
239	0xf6	-10
240	0xee	-18
241	0xd5	-43
242	0xc1	-63
243	0xe0	-32
244	0xc2	-62
245	0xbe	-66
246	0xc9	-55
247	0xd8	-40
248	0xf1	-15
249	0xfd	-3
250	0xbd	-67
251	0xd7	-41
252	0x26	38
253	0xea	-22
254	0x09	9
255	0xd7	-41

tfl.pseudo_qconst16 i1 [64] scale=0.0038886338 zero_point=127
0	0xda	-0.64162457
1	0xe5	-0.5988496
2	0xb3	-0.7932813
3	0xa5	-0.8477222
4	0xc3	-0.7310631
5	0xa1	-0.8632767
6	0x80	-0.99160165
7	0xaa	-0.828279
8	0xab	-0.82439035
9	0xe5	-0.5988496
10	0x36	-0.28387028
11	0xd6	-0.6571791
12	0xe3	-0.60662687
13	0xa5	-0.8477222
14	0xa9	-0.8321676
15	0xeb	-0.5755178
16	0xb3	-0.7932813
17	0xd4	-0.6649564
18	0xce	-0.6882882
19	0xa3	-0.85549945
20	0xd6	-0.6571791
21	0x9f	-0.871054
22	0xbf	-0.7466177
23	0xfe	-0.50163376
24	0x97	-0.902163
25	0xd1	-0.6766223
26	0xec	-0.57162917
27	0xae	-0.8127245
28	0xb7	-0.77772677
29	0xc6	-0.71939725
30	0xb2	-0.7971699
31	0xc1	-0.7388404
32	0xd7	-0.65329045
33	0xc5	-0.7232859
34	0xba	-0.7660608
35	0xa9	-0.8321676
36	0xae	-0.8127245
37	0x0c	-0.44719288
38	0xd1	-0.6766223
39	0xc5	-0.7232859
40	0x03	-0.48219058
41	0xac	-0.82050174
42	0xd2	-0.67273366
43	0xd3	-0.668845
44	0xab	-0.82439035
45	0xec	-0.57162917
46	0x9f	-0.871054
47	0xca	-0.7038427
48	0xb3	-0.7932813
49	0xbb	-0.7621722
50	0xb5	-0.78550404
51	0xbe	-0.75050634
52	0xea	-0.57940644
53	0xd6	-0.6571791
54	0xc6	-0.71939725
55	0xe4	-0.60273826
56	0xd3	-0.668845
57	0xae	-0.8127245
58	0xd8	-0.64940184
59	0xed	-0.56774056
60	0xde	-0.62607
61	0xa4	-0.8516108
62	0xd1	-0.6766223
63	0xc8	-0.71162

tfl.pseudo_qconst17 i1 [64] scale=0.002596614 zero_point=-128
0	0x1c	0.40507177
1	0x27	0.43363452
2	0x32	0.46219727
3	0x41	0.5011465
4	0x3a	0.4829702
5	0x1e	0.410265
6	0x21	0.41805485
7	0x17	0.3920887
8	0xda	0.23369525
9	0xfd	0.32457674
10	0xb5	0.13762054
11	0x18	0.39468533
12	0x06	0.34794626
13	0x1e	0.410265
14	0x14	0.38429886
15	0xf3	0.2986106
16	0x60	0.58164155
17	0x0f	0.3713158
18	0x58	0.5608686
19	0x21	0.41805485
20	0x27	0.43363452
21	0x20	0.41545823
22	0x09	0.3557361
23	0x1f	0.41286162
24	0x1b	0.40247515
25	0x0d	0.36612257
26	0x0c	0.36352596
27	0x16	0.3894921
28	0x08	0.3531395
29	0x3c	0.4881634
30	0x39	0.4803736
31	0x5e	0.5764483
32	0x00	0.3323666
33	0x33	0.4647939
34	0x2d	0.44921422
35	0x06	0.34794626
36	0x39	0.4803736
37	0xd4	0.21811557
38	0x08	0.3531395
39	0x04	0.34275305
40	0x08	0.3531395
41	0x33	0.4647939
42	0x06	0.34794626
43	0xfc	0.32198012
44	0xff	0.32976997
45	0x09	0.3557361
46	0x15	0.38689548
47	0x00	0.3323666
48	0xf8	0.31159368
49	0x1c	0.40507177
50	0x2d	0.44921422
51	0x2b	0.444021
52	0x13	0.38170224
53	0x04	0.34275305
54	0xfb	0.3193835
55	0x2e	0.45181084
56	0xf9	0.3141903
57	0x17	0.3920887
58	0x6b	0.6102043
59	0x22	0.42065147
60	0x18	0.39468533
61	0x51	0.5426923
62	0x45	0.51153296
63	0x7f	0.66213655

tfl.pseudo_qconst19 i1 [64, 3, 3, 64]
0	0x2a	42
1	0x17	23
2	0x15	21
3	0xc6	-58
4	0xcf	-49
5	0x15	21
6	0xf6	-10
7	0x0b	11
8	0xf6	-10
9	0xfb	-5
10	0x6a	106
11	0xcb	-53
12	0x1f	31
13	0xeb	-21
14	0x0c	12
15	0xf4	-12
16	0x0c	12
17	0xdd	-35
18	0x3a	58
19	0xd5	-43
20	0x3d	61
21	0xf9	-7
22	0xc1	-63
23	0xd3	-45
24	0x06	6
25	0xbd	-67
26	0xdc	-36
27	0x2f	47
28	0x32	50
29	0xda	-38
30	0x02	2
31	0xf8	-8
32	0x03	3
33	0x1f	31
34	0x07	7
35	0xfa	-6
36	0xe4	-28
37	0xee	-18
38	0xe3	-29
39	0xb1	-79
40	0xda	-38
41	0x26	38
42	0x1d	29
43	0x0b	11
44	0x02	2
45	0x00	0
46	0xb4	-76
47	0xf0	-16
48	0xf1	-15
49	0x0c	12
50	0xde	-34
51	0x1c	28
52	0xf9	-7
53	0xf0	-16
54	0x38	56
55	0x26	38
56	0xcc	-52
57	0x28	40
58	0x0d	13
59	0xf7	-9
60	0xec	-20
61	0xe9	-23
62	0x2b	43
63	0xf1	-15
64	0x23	35
65	0xe7	-25
66	0xdd	-35
67	0xc1	-63
68	0xdf	-33
69	0x06	6
70	0xcb	-53
71	0x01	1
72	0x19	25
73	0xef	-17
74	0x46	70
75	0xb2	-78
76	0xf8	-8
77	0xc5	-59
78	0x12	18
79	0x17	23
80	0xea	-22
81	0xe2	-30
82	0x32	50
83	0xcd	-51
84	0x09	9
85	0xf0	-16
86	0xe5	-27
87	0xba	-70
88	0xe9	-23
89	0xaf	-81
90	0xcb	-53
91	0xdb	-37
92	0x27	39
93	0xe3	-29
94	0x31	49
95	0xdc	-36
96	0x2d	45
97	0xf5	-11
98	0xe9	-23
99	0x11	17
100	0xc7	-57
101	0x1d	29
102	0x02	2
103	0xde	-34
104	0xd1	-47
105	0x0d	13
106	0xfe	-2
107	0xd4	-44
108	0xcd	-51
109	0xf3	-13
110	0xa1	-95
111	0xe9	-23
112	0x1a	26
113	0xf1	-15
114	0xe7	-25
115	0xeb	-21
116	0x10	16
117	0x2a	42
118	0x1e	30
119	0x0d	13
120	0xb5	-75
121	0x13	19
122	0xfa	-6
123	0xfa	-6
124	0x09	9
125	0x1a	26
126	0x4b	75
127	0xf1	-15
128	0x00	0
129	0x06	6
130	0xb6	-74
131	0xc7	-57
132	0x02	2
133	0x21	33
134	0xe4	-28
135	0x17	23
136	0x18	24
137	0xfc	-4
138	0x51	81
139	0xdd	-35
140	0xe0	-32
141	0xb1	-79
142	0x04	4
143	0x25	37
144	0xf5	-11
145	0x19	25
146	0x0d	13
147	0xfd	-3
148	0xfb	-5
149	0xe0	-32
150	0xb0	-80
151	0xdf	-33
152	0xec	-20
153	0xbc	-68
154	0xd3	-45
155	0xe7	-25
156	0xfa	-6
157	0xe3	-29
158	0x19	25
159	0xeb	-21
160	0x22	34
161	0x28	40
162	0xc8	-56
163	0xf1	-15
164	0x10	16
165	0xe0	-32
166	0xd5	-43
167	0xcd	-51
168	0xea	-22
169	0xf4	-12
170	0xde	-34
171	0xe6	-26
172	0xae	-82
173	0x0c	12
174	0xc1	-63
175	0xff	-1
176	0x11	17
177	0xd2	-46
178	0x0a	10
179	0xe7	-25
180	0xed	-19
181	0x0e	14
182	0x16	22
183	0x17	23
184	0xbc	-68
185	0x1e	30
186	0xd9	-39
187	0xa3	-93
188	0x39	57
189	0xff	-1
190	0x3c	60
191	0x03	3
192	0xef	-17
193	0xe8	-24
194	0x24	36
195	0x08	8
196	0x1b	27
197	0x0d	13
198	0xb4	-76
199	0x0a	10
200	0x16	22
201	0xcb	-53
202	0x06	6
203	0x24	36
204	0x0d	13
205	0x1e	30
206	0x14	20
207	0x05	5
208	0x09	9
209	0xec	-20
210	0x31	49
211	0xbb	-69
212	0xf7	-9
213	0x25	37
214	0xe0	-32
215	0x0e	14
216	0xf0	-16
217	0xc1	-63
218	0xd7	-41
219	0x0e	14
220	0x0f	15
221	0xd8	-40
222	0xf6	-10
223	0xee	-18
224	0xda	-38
225	0x10	16
226	0x02	2
227	0x0b	11
228	0xf9	-7
229	0xd8	-40
230	0xf8	-8
231	0x01	1
232	0x00	0
233	0xe0	-32
234	0xfd	-3
235	0xec	-20
236	0x12	18
237	0x11	17
238	0xf8	-8
239	0x27	39
240	0xf3	-13
241	0xf1	-15
242	0xe3	-29
243	0x05	5
244	0xe9	-23
245	0x0b	11
246	0x1b	27
247	0xd4	-44
248	0x07	7
249	0x43	67
250	0xf5	-11
251	0x36	54
252	0xcd	-51
253	0xee	-18
254	0xd1	-47
255	0xce	-50

tfl.pseudo_qconst20 i1 [64] scale=0.003859793 zero_point=127
0	0x19	-0.3936989
1	0xf3	-0.540371
2	0x3d	-0.25474635
3	0x34	-0.28948447
4	0xaf	-0.80283695
5	0x65	-0.10035462
6	0x0c	-0.4438762
7	0xe4	-0.5982679
8	0x1f	-0.37054014
9	0x25	-0.34738138
10	0x2a	-0.3280824
11	0x80	-0.9842472
12	0xef	-0.5558102
13	0xf6	-0.52879167
14	0xeb	-0.57124937
15	0xa6	-0.8375751
16	0x28	-0.335802
17	0x93	-0.91091114
18	0x23	-0.35510096
19	0x4d	-0.19298965
20	0x24	-0.35124117
21	0x02	-0.48247415
22	0x4d	-0.19298965
23	0x31	-0.30106387
24	0x55	-0.16211131
25	0x53	-0.16983089
26	0x12	-0.42071745
27	0xd8	-0.64458543
28	0x40	-0.24316697
29	0x2d	-0.31650302
30	0x69	-0.084915444
31	0x9d	-0.87231326
32	0xbf	-0.7410803
33	0xf1	-0.54809064
34	0xfa	-0.51335245
35	0x36	-0.2817649
36	0x07	-0.46317518
37	0x62	-0.111934
38	0x1f	-0.37054014
39	0xb9	-0.764239
40	0x60	-0.11965358
41	0x32	-0.29720408
42	0xf8	-0.5210721
43	0x6f	-0.06175669
44	0x4b	-0.20070924
45	0x13	-0.41685766
46	0x53	-0.16983089
47	0x2b	-0.32422262
48	0x33	-0.29334426
49	0x57	-0.15439172
50	0x21	-0.36282054
51	0xf8	-0.5210721
52	0x14	-0.41299787
53	0xa9	-0.82599574
54	0xbf	-0.7410803
55	0x21	-0.36282054
56	0x3a	-0.2663257
57	0x34	-0.28948447
58	0xf8	-0.5210721
59	0x7a	-0.019298965
60	0x58	-0.15053193
61	0xcc	-0.69090295
62	0x6c	-0.073336065
63	0x10	-0.42843702

tfl.pseudo_qconst21 i1 [64] scale=0.007645638 zero_point=-128
0	0xde	0.71869
1	0xad	0.34405372
2	0xcf	0.6040054
3	0xf3	0.8792484
4	0xd7	0.66517055
5	0xcb	0.57342285
6	0xa8	0.30582553
7	0xcf	0.6040054
8	0xfb	0.9404135
9	0xd8	0.67281616
10	0xe9	0.802792
11	0xd7	0.66517055
12	0xe0	0.73398125
13	0x9f	0.23701479
14	0xff	0.970996
15	0xc6	0.5351947
16	0xc9	0.5581316
17	0xd9	0.6804618
18	0xd8	0.67281616
19	0xab	0.32876244
20	0x9b	0.20643224
21	0xd6	0.6575249
22	0xce	0.5963598
23	0xa2	0.2599517
24	0x07	1.0321611
25	0xda	0.68810743
26	0xc7	0.5428403
27	0xc4	0.5199034
28	0xf3	0.8792484
29	0xa3	0.26759735
30	0xb6	0.41286448
31	0xc4	0.5199034
32	0xb3	0.38992754
33	0xd8	0.67281616
34	0xdf	0.72633564
35	0xea	0.8104376
36	0xa9	0.31347117
37	0x7f	1.9496378
38	0xfa	0.93276787
39	0xc3	0.51225775
40	0xc0	0.48932084
41	0xfa	0.93276787
42	0x0c	1.0703894
43	0xb7	0.4205101
44	0x9b	0.20643224
45	0xe5	0.77220947
46	0x9a	0.19878659
47	0xe8	0.79514635
48	0xc6	0.5351947
49	0x17	1.1544914
50	0xa0	0.24466042
51	0xbd	0.46638393
52	0xac	0.33640808
53	0xf3	0.8792484
54	0xb7	0.4205101
55	0x98	0.18349531
56	0xc2	0.50461215
57	0xce	0.5963598
58	0xef	0.84866583
59	0x3c	1.43738
60	0xb3	0.38992754
61	0xb6	0.41286448
62	0x10	1.1009719
63	0xac	0.33640808

tfl.pseudo_qconst23 i1 [64, 3, 3, 32]
0	0x05	5
1	0xd6	-42
2	0x20	32
3	0x34	52
4	0x19	25
5	0x03	3
6	0xf6	-10
7	0x11	17
8	0x04	4
9	0x06	6
10	0xec	-20
11	0xcf	-49
12	0x04	4
13	0x13	19
14	0x16	22
15	0xef	-17
16	0x11	17
17	0xee	-18
18	0x30	48
19	0x27	39
20	0xdc	-36
21	0x25	37
22	0x1a	26
23	0x13	19
24	0xf8	-8
25	0x40	64
26	0x27	39
27	0x2a	42
28	0x2b	43
29	0xfd	-3
30	0xcb	-53
31	0x1f	31
32	0x07	7
33	0xc4	-60
34	0xe7	-25
35	0x48	72
36	0x3c	60
37	0x33	51
38	0xbd	-67
39	0x1b	27
40	0xfe	-2
41	0xfc	-4
42	0xa0	-96
43	0xf7	-9
44	0xf9	-7
45	0xf6	-10
46	0xf6	-10
47	0x04	4
48	0x33	51
49	0xd0	-48
50	0x2e	46
51	0xfa	-6
52	0xe3	-29
53	0x22	34
54	0x0d	13
55	0x27	39
56	0xaf	-81
57	0x30	48
58	0x19	25
59	0xca	-54
60	0x0c	12
61	0xfe	-2
62	0xd8	-40
63	0xe4	-28
64	0xb7	-73
65	0xbc	-68
66	0xd1	-47
67	0xe2	-30
68	0x19	25
69	0x43	67
70	0xc3	-61
71	0x3b	59
72	0xfa	-6
73	0xcc	-52
74	0xd0	-48
75	0xfb	-5
76	0xe2	-30
77	0xeb	-21
78	0xda	-38
79	0xe6	-26
80	0xce	-50
81	0xc4	-60
82	0xf5	-11
83	0xd3	-45
84	0xaf	-81
85	0xdd	-35
86	0x0b	11
87	0x08	8
88	0xb6	-74
89	0x26	38
90	0x28	40
91	0xff	-1
92	0x05	5
93	0xd4	-44
94	0xd3	-45
95	0xe2	-30
96	0x2f	47
97	0xe7	-25
98	0x20	32
99	0x03	3
100	0xfb	-5
101	0xfc	-4
102	0x33	51
103	0xee	-18
104	0xf9	-7
105	0x26	38
106	0x07	7
107	0x15	21
108	0xf5	-11
109	0x09	9
110	0x1c	28
111	0x02	2
112	0x0e	14
113	0xcd	-51
114	0xf2	-14
115	0x18	24
116	0xe1	-31
117	0xeb	-21
118	0x25	37
119	0xfc	-4
120	0x18	24
121	0x0b	11
122	0x14	20
123	0xf4	-12
124	0x1a	26
125	0xe6	-26
126	0x08	8
127	0xcf	-49
128	0x23	35
129	0x15	21
130	0x22	34
131	0x00	0
132	0x4a	74
133	0xd6	-42
134	0x3c	60
135	0xf6	-10
136	0x13	19
137	0x0b	11
138	0x38	56
139	0x3e	62
140	0xfd	-3
141	0xe8	-24
142	0xee	-18
143	0x1e	30
144	0x15	21
145	0x15	21
146	0xda	-38
147	0x20	32
148	0x16	22
149	0xc8	-56
150	0xe6	-26
151	0xf6	-10
152	0x0e	14
153	0xf4	-12
154	0xf4	-12
155	0xd7	-41
156	0x06	6
157	0xd1	-47
158	0x06	6
159	0xa4	-92
160	0xf5	-11
161	0xf1	-15
162	0xbd	-67
163	0xf3	-13
164	0x26	38
165	0xcb	-53
166	0x2a	42
167	0x0f	15
168	0xae	-82
169	0xe5	-27
170	0x20	32
171	0x1d	29
172	0xbc	-68
173	0xef	-17
174	0xc5	-59
175	0x1e	30
176	0xfc	-4
177	0x09	9
178	0xfd	-3
179	0xe3	-29
180	0x01	1
181	0xc5	-59
182	0xbf	-65
183	0xfe	-2
184	0xd5	-43
185	0xfe	-2
186	0xdf	-33
187	0xd2	-46
188	0xce	-50
189	0xcb	-53
190	0xbc	-68
191	0xab	-85
192	0x13	19
193	0xef	-17
194	0x3d	61
195	0xe7	-25
196	0xc7	-57
197	0x12	18
198	0xe7	-25
199	0xdc	-36
200	0x21	33
201	0x2f	47
202	0xf6	-10
203	0x23	35
204	0x24	36
205	0xd1	-47
206	0x35	53
207	0xee	-18
208	0xe7	-25
209	0x15	21
210	0x47	71
211	0x04	4
212	0x19	25
213	0x0c	12
214	0x33	51
215	0x04	4
216	0xf2	-14
217	0x0b	11
218	0x13	19
219	0x40	64
220	0x0e	14
221	0xca	-54
222	0x09	9
223	0x15	21
224	0xf5	-11
225	0x2c	44
226	0x3a	58
227	0x06	6
228	0xc8	-56
229	0x04	4
230	0x04	4
231	0xcf	-49
232	0xee	-18
233	0x34	52
234	0xec	-20
235	0x03	3
236	0xf1	-15
237	0xc6	-58
238	0xd8	-40
239	0xd1	-47
240	0xf7	-9
241	0x1b	27
242	0x46	70
243	0x1d	29
244	0xe2	-30
245	0x00	0
246	0x0c	12
247	0xfc	-4
248	0x05	5
249	0x13	19
250	0xd6	-42
251	0x2b	43
252	0x2d	45
253	0x19	25
254	0xdd	-35
255	0x18	24

tfl.pseudo_qconst24 i1 [32] scale=0.004049182 zero_point=127
0	0x36	-0.29559028
1	0xbd	-0.7855413
2	0x54	-0.17411482
3	0x1f	-0.38872147
4	0x97	-0.9394102
5	0x9e	-0.91106594
6	0xa1	-0.8989184
7	0xc7	-0.7450495
8	0x9c	-0.9191643
9	0x54	-0.17411482
10	0xa1	-0.8989184
11	0xbd	-0.7855413
12	0x75	-0.04049182
13	0xf6	-0.5547379
14	0xf3	-0.5668855
15	0xc3	-0.7612462
16	0x0b	-0.4697051
17	0x80	-1.0325414
18	0xdc	-0.66001666
19	0xf3	-0.5668855
20	0xd8	-0.6762134
21	0xc6	-0.74909866
22	0x23	-0.37252474
23	0x2b	-0.34013128
24	0xf2	-0.57093465
25	0xc4	-0.757197
26	0x89	-0.99609876
27	0xfe	-0.52234447
28	0x50	-0.19031155
29	0xab	-0.8584266
30	0xeb	-0.5992789
31	0xce	-0.7167052

tfl.pseudo_qconst25 i1 [32] scale=0.004039975 zero_point=-128
0	0xbf	0.25451842
1	0x35	0.73123544
2	0xbd	0.24643847
3	0xd5	0.34339786
4	0x03	0.52923673
5	0x05	0.5373167
6	0xf0	0.4524772
7	0xee	0.44439724
8	0xeb	0.43227732
9	0xa9	0.16563897
10	0xe4	0.40399748
11	0x27	0.6746758
12	0xa7	0.15755902
13	0xe3	0.3999575
14	0x07	0.5453966
15	0xdb	0.36763772
16	0xe2	0.39591753
17	0xe9	0.42419738
18	0xc9	0.29491818
19	0x67	0.9332342
20	0xdd	0.37571767
21	0xf9	0.48883697
22	0xea	0.42823735
23	0xb3	0.20603871
24	0xee	0.44439724
25	0xe1	0.39187756
26	0xeb	0.43227732
27	0x7f	1.0301936
28	0xa7	0.15755902
29	0x18	0.6140762
30	0xcd	0.31107807
31	0xd5	0.34339786

tfl.pseudo_qconst27 i1 [32, 3, 3, 32]
0	0xf2	-14
1	0xfe	-2
2	0xe4	-28
3	0xaf	-81
4	0xfd	-3
5	0x24	36
6	0x23	35
7	0x13	19
8	0xb9	-71
9	0xc3	-61
10	0x00	0
11	0x1b	27
12	0x17	23
13	0xbd	-67
14	0xfe	-2
15	0xd2	-46
16	0xed	-19
17	0x12	18
18	0x14	20
19	0xc5	-59
20	0x36	54
21	0xc1	-63
22	0x06	6
23	0x03	3
24	0x0b	11
25	0xe8	-24
26	0x0b	11
27	0x04	4
28	0xe4	-28
29	0x08	8
30	0x1f	31
31	0x16	22
32	0xc9	-55
33	0xd0	-48
34	0xd9	-39
35	0x85	-123
36	0xf1	-15
37	0xea	-22
38	0xdd	-35
39	0xef	-17
40	0x96	-106
41	0xbf	-65
42	0x04	4
43	0xe6	-26
44	0x16	22
45	0xcc	-52
46	0xee	-18
47	0x37	55
48	0x0d	13
49	0xb9	-71
50	0xda	-38
51	0xf7	-9
52	0x01	1
53	0xe6	-26
54	0x17	23
55	0x11	17
56	0x1b	27
57	0xf0	-16
58	0xea	-22
59	0x02	2
60	0xda	-38
61	0xd1	-47
62	0x2f	47
63	0xec	-20
64	0xd3	-45
65	0xee	-18
66	0xd8	-40
67	0xa6	-90
68	0xdc	-36
69	0xcf	-49
70	0xf9	-7
71	0x03	3
72	0x81	-127
73	0xd4	-44
74	0xfc	-4
75	0x11	17
76	0x08	8
77	0xf7	-9
78	0xdf	-33
79	0x2f	47
80	0xda	-38
81	0xd9	-39
82	0x03	3
83	0x04	4
84	0x01	1
85	0x09	9
86	0xd9	-39
87	0xf9	-7
88	0x11	17
89	0xec	-20
90	0x0b	11
91	0xeb	-21
92	0xf7	-9
93	0xcc	-52
94	0x14	20
95	0x08	8
96	0xb6	-74
97	0xf4	-12
98	0xd0	-48
99	0xc5	-59
100	0x03	3
101	0xe1	-31
102	0x1d	29
103	0xde	-34
104	0xe4	-28
105	0x27	39
106	0x38	56
107	0x48	72
108	0xfa	-6
109	0xb6	-74
110	0xdb	-37
111	0xc1	-63
112	0x3e	62
113	0xb5	-75
114	0xfd	-3
115	0xe4	-28
116	0xf9	-7
117	0x13	19
118	0x09	9
119	0x24	36
120	0x2d	45
121	0xe9	-23
122	0xd2	-46
123	0xae	-82
124	0x25	37
125	0xb8	-72
126	0x1a	26
127	0x10	16
128	0xcd	-51
129	0xcb	-53
130	0xab	-85
131	0xf1	-15
132	0xe4	-28
133	0xb9	-71
134	0xf9	-7
135	0xf0	-16
136	0xd2	-46
137	0x1f	31
138	0x26	38
139	0x0c	12
140	0x01	1
141	0xe0	-32
142	0x08	8
143	0x22	34
144	0xfd	-3
145	0xcc	-52
146	0xca	-54
147	0xc7	-57
148	0x2b	43
149	0x2f	47
150	0xf8	-8
151	0x2e	46
152	0x28	40
153	0x98	-104
154	0xbb	-69
155	0xb4	-76
156	0x00	0
157	0xf8	-8
158	0x2a	42
159	0x1b	27
160	0x1c	28
161	0xd1	-47
162	0xc4	-60
163	0xd1	-47
164	0xf0	-16
165	0x9c	-100
166	0x13	19
167	0xdd	-35
168	0x09	9
169	0xf0	-16
170	0x2f	47
171	0xf5	-11
172	0x13	19
173	0xf0	-16
174	0x05	5
175	0x02	2
176	0x2b	43
177	0xe9	-23
178	0xc7	-57
179	0x0e	14
180	0xd4	-44
181	0x1c	28
182	0x13	19
183	0x0d	13
184	0x01	1
185	0xa9	-87
186	0xd2	-46
187	0xb7	-73
188	0x24	36
189	0xee	-18
190	0x12	18
191	0xf6	-10
192	0xd2	-46
193	0x2e	46
194	0x0a	10
195	0xdc	-36
196	0x09	9
197	0x00	0
198	0xc4	-60
199	0x23	35
200	0xa6	-90
201	0xcb	-53
202	0xee	-18
203	0x1f	31
204	0x13	19
205	0xec	-20
206	0x14	20
207	0x2e	46
208	0x15	21
209	0x9b	-101
210	0x53	83
211	0x24	36
212	0x0c	12
213	0xe0	-32
214	0x2b	43
215	0x31	49
216	0xdc	-36
217	0xa2	-94
218	0x1a	26
219	0xc1	-63
220	0x38	56
221	0x57	87
222	0x1b	27
223	0xe4	-28
224	0xbf	-65
225	0xd4	-44
226	0x17	23
227	0xdd	-35
228	0x0f	15
229	0x0f	15
230	0xf5	-11
231	0x24	36
232	0xe6	-26
233	0xb4	-76
234	0xe2	-30
235	0x1c	28
236	0x47	71
237	0x35	53
238	0xd6	-42
239	0x23	35
240	0xd4	-44
241	0xcb	-53
242	0x32	50
243	0x09	9
244	0xf7	-9
245	0x0b	11
246	0xe2	-30
247	0x09	9
248	0xf6	-10
249	0xae	-82
250	0x18	24
251	0xd8	-40
252	0x0f	15
253	0x39	57
254	0x2b	43
255	0xf8	-8

tfl.pseudo_qconst28 i1 [32] scale=0.008677613 zero_point=117
0	0xeb	-1.1975106
1	0x61	-0.17355226
2	0xb7	-1.6487465
3	0x0d	-0.9024718
4	0x7f	0.08677613
5	0x13	-0.85040605
6	0xa3	-1.8222988
7	0x47	-0.3991702
8	0x0c	-0.9111494
9	0x7b	0.052065678
10	0x78	0.026032839
11	0x60	-0.18222988
12	0x5a	-0.23429555
13	0xb9	-1.6313913
14	0x57	-0.26032838
15	0x41	-0.4512359
16	0x66	-0.13016419
17	0xfe	-1.0326359
18	0x53	-0.29503885
19	0xf6	-1.1020569
20	0x01	-1.0066031
21	0x17	-0.81569564
22	0x68	-0.11280897
23	0x6a	-0.09545374
24	0x72	-0.026032839
25	0xe5	-1.2495763
26	0x4a	-0.37313735
27	0xdb	-1.3363523
28	0x59	-0.24297316
29	0x80	-2.1260152
30	0x4f	-0.3297493
31	0x5b	-0.22561795

tfl.pseudo_qconst29 i1 [32] scale=0.064540476 zero_point=-128
0	0x47	12.8435545
1	0x7f	16.45782
2	0xd2	5.292319
3	0xc6	4.517833
4	0x18	9.810152
5	0xde	6.066805
6	0xfa	7.873938
7	0xa1	2.1298356
8	0xcc	4.905076
9	0x14	9.5519905
10	0xa1	2.1298356
11	0xc1	4.195131
12	0xa0	2.0652952
13	0x25	10.6491785
14	0x66	14.84431
15	0x67	14.90885
16	0x16	9.681071
17	0xc5	4.453293
18	0xb5	3.4206452
19	0xb9	3.678807
20	0x54	13.682581
21	0x45	12.714474
22	0x49	12.972635
23	0x9a	1.6780524
24	0xd7	5.615021
25	0xe5	6.518588
26	0xad	2.9043214
27	0xd8	5.6795616
28	0x01	8.325722
29	0x0f	9.229288
30	0xbd	3.936969
31	0xb4	3.3561049

tfl.pseudo_qconst31 i1 [32, 3, 3, 1]
0	0x8a	-118
1	0x14	20
2	0x57	87
3	0x7f	127
4	0xd3	-45
5	0xcb	-53
6	0x30	48
7	0xdc	-36
8	0xf0	-16
9	0x5a	90
10	0x81	-127
11	0x20	32
12	0xf0	-16
13	0x5b	91
14	0xb9	-71
15	0x66	102
16	0xb3	-77
17	0xc6	-58
18	0x70	112
19	0x2c	44
20	0x5c	92
21	0xcf	-49
22	0xc3	-61
23	0xec	-20
24	0x7f	127
25	0x6f	111
26	0x1e	30
27	0xb9	-71
28	0xf4	-12
29	0xc2	-62
30	0x7f	127
31	0x6f	111
32	0x3b	59
33	0x13	19
34	0xdc	-36
35	0x4c	76
36	0x30	48
37	0x0e	14
38	0x0e	14
39	0x02	2
40	0x01	1
41	0x36	54
42	0x81	-127
43	0xa2	-94
44	0xac	-84
45	0xef	-17
46	0x6e	110
47	0x7f	127
48	0x00	0
49	0x05	5
50	0xee	-18
51	0x9e	-98
52	0xe1	-31
53	0x05	5
54	0x70	112
55	0x0f	15
56	0x81	-127
57	0xf1	-15
58	0xcb	-53
59	0x43	67
60	0xa1	-95
61	0x56	86
62	0x5d	93
63	0xdc	-36
64	0xe8	-24
65	0xca	-54
66	0xb0	-80
67	0x9d	-99
68	0x82	-126
69	0x4a	74
70	0xff	-1
71	0x7f	127
72	0x01	1
73	0xd0	-48
74	0xf4	-12
75	0xf7	-9
76	0x43	67
77	0x7f	127
78	0xfe	-2
79	0xe2	-30
80	0x19	25
81	0xe8	-24
82	0x32	50
83	0xb3	-77
84	0x08	8
85	0xea	-22
86	0x7f	127
87	0xcc	-52
88	0x3d	61
89	0xb1	-79
90	0xfd	-3
91	0x01	1
92	0x0a	10
93	0x03	3
94	0xfe	-2
95	0x19	25
96	0xaf	-81
97	0x81	-127
98	0x8c	-116
99	0x08	8
100	0x11	17
101	0xd7	-41
102	0xe3	-29
103	0xc9	-55
104	0x46	70
105	0xcb	-53
106	0xcf	-49
107	0x81	-127
108	0xed	-19
109	0xc7	-57
110	0x02	2
111	0x81	-127
112	0xa1	-95
113	0xee	-18
114	0xd8	-40
115	0xda	-38
116	0xbb	-69
117	0x4e	78
118	0x20	32
119	0x81	-127
120	0x8d	-115
121	0x27	39
122	0x47	71
123	0x5e	94
124	0xf3	-13
125	0x2f	47
126	0x3f	63
127	0x86	-122
128	0x3b	59
129	0xf0	-16
130	0x23	35
131	0xcd	-51
132	0x11	17
133	0x81	-127
134	0x77	119
135	0xc3	-61
136	0xcf	-49
137	0x7f	127
138	0xb9	-71
139	0x19	25
140	0x23	35
141	0xbf	-65
142	0xd5	-43
143	0x7f	127
144	0x2e	46
145	0x9f	-97
146	0xe4	-28
147	0x81	-127
148	0x10	16
149	0x15	21
150	0xfa	-6
151	0xa4	-92
152	0xc5	-59
153	0xe7	-25
154	0xd7	-41
155	0x36	54
156	0x7f	127
157	0x0c	12
158	0x7c	124
159	0x15	21
160	0x22	34
161	0x13	19
162	0xf5	-11
163	0xff	-1
164	0xc1	-63
165	0xdb	-37
166	0x89	-119
167	0xc8	-56
168	0xf5	-11
169	0x76	118
170	0x7f	127
171	0x1c	28
172	0x19	25
173	0x07	7
174	0xe0	-32
175	0xdf	-33
176	0xcb	-53
177	0x7f	127
178	0x32	50
179	0x6e	110
180	0xc6	-58
181	0x0d	13
182	0x39	57
183	0x5b	91
184	0x2d	45
185	0x81	-127
186	0xb6	-74
187	0xe5	-27
188	0x59	89
189	0x40	64
190	0x3b	59
191	0x81	-127
192	0xaa	-86
193	0x27	39
194	0x44	68
195	0xde	-34
196	0x25	37
197	0x2b	43
198	0xb8	-72
199	0x09	9
200	0xfd	-3
201	0x31	49
202	0xd1	-47
203	0xa6	-90
204	0x81	-127
205	0x00	0
206	0x1e	30
207	0xcc	-52
208	0x0c	12
209	0xd0	-48
210	0xa9	-87
211	0xe3	-29
212	0x84	-124
213	0x13	19
214	0x81	-127
215	0xd8	-40
216	0xe2	-30
217	0xfc	-4
218	0xf0	-16
219	0x94	-108
220	0xac	-84
221	0x7f	127
222	0xc7	-57
223	0x10	16
224	0xd6	-42
225	0x3f	63
226	0x70	112
227	0xeb	-21
228	0x20	32
229	0x55	85
230	0x60	96
231	0xd8	-40
232	0xd8	-40
233	0x81	-127
234	0x76	118
235	0x24	36
236	0x7f	127
237	0xc4	-60
238	0xa6	-90
239	0x83	-125
240	0xec	-20
241	0x40	64
242	0xec	-20
243	0xcc	-52
244	0x7f	127
245	0x2e	46
246	0xff	-1
247	0x4a	74
248	0xde	-34
249	0x03	3
250	0x30	48
251	0x16	22
252	0xb3	-77
253	0xea	-22
254	0x58	88
255	0x56	86
