Model/final2.tflite (tflite, 204400 bytes, 22 tensors)

tfl.pseudo_qconst1 i1 [4, 16]
0	0xe1	-31
1	0x1b	27
2	0x34	52
3	0xce	-50
4	0x59	89
5	0xb2	-78
6	0x7f	127
7	0x27	39
8	0xb6	-74
9	0xc2	-62
10	0x03	3
11	0x2b	43
12	0x3d	61
13	0x20	32
14	0x5e	94
15	0xf3	-13
16	0x33	51
17	0xe2	-30
18	0x21	33
19	0x0d	13
20	0xd4	-44
21	0x18	24
22	0x03	3
23	0x2c	44
24	0x6e	110
25	0x50	80
26	0xbe	-66
27	0xba	-70
28	0xf1	-15
29	0x81	-127
30	0xeb	-21
31	0x0b	11
32	0xf0	-16
33	0x34	52
34	0xbd	-67
35	0xd3	-45
36	0xce	-50
37	0x3d	61
38	0xf1	-15
39	0xce	-50
40	0x72	114
41	0x0b	11
42	0xc2	-62
43	0xba	-70
44	0xf4	-12
45	0x81	-127
46	0x15	21
47	0x54	84
48	0x47	71
49	0xd9	-39
50	0xd6	-42
51	0x30	48
52	0xef	-17
53	0xcd	-51
54	0x02	2
55	0xa0	-96
56	0xc0	-64
57	0xcf	-49
58	0x53	83
59	0x5c	92
60	0x7f	127
61	0x3e	62
62	0xf9	-7
63	0x66	102

tfl.pseudo_qconst3 i1 [16, 32]
0	0xe6	-26
1	0xd2	-46
2	0x42	66
3	0xd5	-43
4	0x11	17
5	0x20	32
6	0xf6	-10
7	0x3b	59
8	0xc5	-59
9	0x6c	108
10	0x2c	44
11	0x75	117
12	0x12	18
13	0x06	6
14	0xd2	-46
15	0xf4	-12
16	0x77	119
17	0xe3	-29
18	0xef	-17
19	0x20	32
20	0x17	23
21	0xf4	-12
22	0xf4	-12
23	0x7f	127
24	0x0b	11
25	0x13	19
26	0xd9	-39
27	0xee	-18
28	0xff	-1
29	0x29	41
30	0x3a	58
31	0xe5	-27
32	0xd7	-41
33	0x22	34
34	0x3a	58
35	0x07	7
36	0xd3	-45
37	0x23	35
38	0x19	25
39	0x2e	46
40	0x3b	59
41	0x5f	95
42	0xca	-54
43	0x7f	127
44	0x0d	13
45	0xf1	-15
46	0x25	37
47	0xfa	-6
48	0x75	117
49	0x08	8
50	0x1a	26
51	0xbc	-68
52	0x10	16
53	0x0a	10
54	0xfe	-2
55	0x75	117
56	0x0a	10
57	0xd5	-43
58	0x10	16
59	0xf0	-16
60	0xb3	-77
61	0xc5	-59
62	0xd1	-47
63	0xe8	-24
64	0x0b	11
65	0xcd	-51
66	0x55	85
67	0x12	18
68	0x18	24
69	0xee	-18
70	0x08	8
71	0x14	20
72	0x06	6
73	0x7f	127
74	0x11	17
75	0x57	87
76	0xf9	-7
77	0xcf	-49
78	0x0c	12
79	0x14	20
80	0x21	33
81	0x10	16
82	0xf3	-13
83	0x07	7
84	0x22	34
85	0x00	0
86	0xfb	-5
87	0x08	8
88	0x11	17
89	0xf8	-8
90	0xf8	-8
91	0x04	4
92	0xdc	-36
93	0xea	-22
94	0x17	23
95	0x0f	15
96	0xd8	-40
97	0xd5	-43
98	0x30	48
99	0xce	-50
100	0xef	-17
101	0x2b	43
102	0xf7	-9
103	0x37	55
104	0xcb	-53
105	0x20	32
106	0x33	51
107	0x66	102
108	0x18	24
109	0xdc	-36
110	0xc6	-58
111	0xff	-1
112	0x51	81
113	0xd2	-46
114	0xdf	-33
115	0x21	33
116	0x20	32
117	0x0b	11
118	0xd4	-44
119	0x7f	127
120	0x0d	13
121	0x19	25
122	0xec	-20
123	0x1c	28
124	0x0e	14
125	0xe3	-29
126	0x3e	62
127	0xea	-22
128	0x06	6
129	0xd6	-42
130	0x23	35
131	0x16	22
132	0x17	23
133	0xfe	-2
134	0xe4	-28
135	0x42	66
136	0x19	25
137	0x7f	127
138	0xe1	-31
139	0x24	36
140	0x05	5
141	0xed	-19
142	0x09	9
143	0xf4	-12
144	0x2a	42
145	0x02	2
146	0x0f	15
147	0xe2	-30
148	0x06	6
149	0xe4	-28
150	0x18	24
151	0x56	86
152	0xfe	-2
153	0x16	22
154	0x12	18
155	0x0c	12
156	0xd1	-47
157	0xfb	-5
158	0x0f	15
159	0xfd	-3
160	0xe1	-31
161	0xf6	-10
162	0x1a	26
163	0xee	-18
164	0xf6	-10
165	0xd8	-40
166	0x16	22
167	0x20	32
168	0x11	17
169	0x7f	127
170	0xdb	-37
171	0x50	80
172	0x06	6
173	0x14	20
174	0x11	17
175	0x0f	15
176	0x2c	44
177	0xf0	-16
178	0xec	-20
179	0xda	-38
180	0xf3	-13
181	0x18	24
182	0xf1	-15
183	0x46	70
184	0xec	-20
185	0xf8	-8
186	0xe0	-32
187	0xd8	-40
188	0xdd	-35
189	0x17	23
190	0xda	-38
191	0x04	4
192	0x15	21
193	0xe3	-29
194	0x44	68
195	0x11	17
196	0xed	-19
197	0xee	-18
198	0x05	5
199	0x13	19
200	0x09	9
201	0x7f	127
202	0xf4	-12
203	0x22	34
204	0xf1	-15
205	0xe6	-26
206	0xfa	-6
207	0xe5	-27
208	0x2c	44
209	0x17	23
210	0x11	17
211	0xfe	-2
212	0x0a	10
213	0xfe	-2
214	0x17	23
215	0x40	64
216	0xff	-1
217	0x0b	11
218	0x0c	12
219	0x0c	12
220	0x10	16
221	0xd2	-46
222	0x17	23
223	0x10	16
224	0xed	-19
225	0xc3	-61
226	0x39	57
227	0xe8	-24
228	0x11	17
229	0xc7	-57
230	0x0a	10
231	0x5e	94
232	0xda	-38
233	0x55	85
234	0x2b	43
235	0x7f	127
236	0xdf	-33
237	0xcf	-49
238	0x06	6
239	0xe7	-25
240	0x49	73
241	0x1e	30
242	0x1a	26
243	0x0c	12
244	0xf4	-12
245	0xf0	-16
246	0x20	32
247	0x7a	122
248	0x09	9
249	0xdd	-35
250	0xe5	-27
251	0x01	1
252	0xc5	-59
253	0xd5	-43
254	0xfb	-5
255	0x0a	10

tfl.pseudo_qconst5 i1 [32, 128]
0	0x11	17
1	0xb5	-75
2	0xa5	-91
3	0x2f	47
4	0xce	-50
5	0x67	103
6	0xd8	-40
7	0xec	-20
8	0x07	7
9	0x14	20
10	0xd9	-39
11	0x46	70
12	0x4e	78
13	0xdc	-36
14	0xf7	-9
15	0x06	6
16	0xd6	-42
17	0x23	35
18	0xf5	-11
19	0xb5	-75
20	0x2e	46
21	0x2a	42
22	0xc2	-62
23	0xdb	-37
24	0x6d	109
25	0xb1	-79
26	0x59	89
27	0x47	71
28	0xea	-22
29	0x37	55
30	0xd4	-44
31	0x81	-127
32	0x0d	13
33	0xa7	-89
34	0x33	51
35	0x50	80
36	0x0f	15
37	0xe7	-25
38	0xab	-85
39	0x39	57
40	0xd3	-45
41	0x20	32
42	0xea	-22
43	0xa7	-89
44	0xf8	-8
45	0x3c	60
46	0xac	-84
47	0x1b	27
48	0x9c	-100
49	0x0f	15
50	0xb1	-79
51	0x01	1
52	0x05	5
53	0x2e	46
54	0xba	-70
55	0xc7	-57
56	0x83	-125
57	0x4f	79
58	0xf0	-16
59	0xe8	-24
60	0x02	2
61	0x0c	12
62	0x6c	108
63	0x13	19
64	0xe8	-24
65	0x69	105
66	0x35	53
67	0xdd	-35
68	0x38	56
69	0xf5	-11
70	0x29	41
71	0xcc	-52
72	0x41	65
73	0x35	53
74	0x0c	12
75	0xba	-70
76	0x26	38
77	0x29	41
78	0x45	69
79	0x0b	11
80	0x74	116
81	0x1d	29
82	0xb5	-75
83	0x78	120
84	0xfd	-3
85	0x2c	44
86	0xc4	-60
87	0x05	5
88	0xab	-85
89	0xd3	-45
90	0x00	0
91	0xe9	-23
92	0xb7	-73
93	0x17	23
94	0x10	16
95	0xd8	-40
96	0xc8	-56
97	0x2c	44
98	0x93	-109
99	0xe7	-25
100	0x99	-103
101	0xcd	-51
102	0x42	66
103	0xc4	-60
104	0xc8	-56
105	0x1d	29
106	0x8c	-116
107	0x3a	58
108	0x05	5
109	0x45	69
110	0x26	38
111	0x70	112
112	0x4e	78
113	0x13	19
114	0xbb	-69
115	0x13	19
116	0x0c	12
117	0x0d	13
118	0x28	40
119	0xd6	-42
120	0x0f	15
121	0x3d	61
122	0x0b	11
123	0x59	89
124	0xed	-19
125	0x5f	95
126	0xc6	-58
127	0xfb	-5
128	0xe3	-29
129	0xcc	-52
130	0x23	35
131	0x6b	107
132	0x2e	46
133	0x32	50
134	0x30	48
135	0xe0	-32
136	0x1d	29
137	0xb5	-75
138	0xe2	-30
139	0xad	-83
140	0xce	-50
141	0x33	51
142	0x7f	127
143	0xcf	-49
144	0xe6	-26
145	0x3b	59
146	0xd5	-43
147	0xc9	-55
148	0x25	37
149	0xfd	-3
150	0xbd	-67
151	0x27	39
152	0xce	-50
153	0x08	8
154	0xd5	-43
155	0x9f	-97
156	0x2b	43
157	0xac	-84
158	0xec	-20
159	0x0f	15
160	0x61	97
161	0x57	87
162	0x0b	11
163	0xa6	-90
164	0x18	24
165	0xb5	-75
166	0x4c	76
167	0x16	22
168	0x9e	-98
169	0x1d	29
170	0x2b	43
171	0x45	69
172	0x27	39
173	0x5f	95
174	0xf7	-9
175	0xd8	-40
176	0x01	1
177	0x9b	-101
178	0x25	37
179	0x97	-105
180	0x49	73
181	0x33	51
182	0xd2	-46
183	0x33	51
184	0xf0	-16
185	0xbb	-69
186	0xd8	-40
187	0x40	64
188	0xf7	-9
189	0xe7	-25
190	0x96	-106
191	0x24	36
192	0x54	84
193	0x08	8
194	0xf4	-12
195	0x5c	92
196	0x34	52
197	0x1e	30
198	0xf4	-12
199	0x3b	59
200	0x01	1
201	0xf5	-11
202	0xc3	-61
203	0x1d	29
204	0xd0	-48
205	0x54	84
206	0x4c	76
207	0xe0	-32
208	0xbd	-67
209	0xce	-50
210	0xcd	-51
211	0x43	67
212	0xb9	-71
213	0x14	20
214	0x57	87
215	0xdb	-37
216	0x16	22
217	0xe0	-32
218	0xce	-50
219	0x06	6
220	0xf6	-10
221	0xcd	-51
222	0xf3	-13
223	0x41	65
224	0x31	49
225	0xad	-83
226	0x43	67
227	0x61	97
228	0x75	117
229	0x13	19
230	0xb0	-80
231	0x06	6
232	0x06	6
233	0x13	19
234	0x46	70
235	0x92	-110
236	0xc1	-63
237	0x39	57
238	0xec	-20
239	0xa7	-89
240	0x9b	-101
241	0x2b	43
242	0x54	84
243	0xe3	-29
244	0xea	-22
245	0x43	67
246	0x2e	46
247	0x07	7
248	0x00	0
249	0x96	-106
250	0x26	38
251	0x32	50
252	0xc4	-60
253	0xdc	-36
254	0xe7	-25
255	0xd3	-45

tfl.pseudo_qconst7 i1 [64, 3, 3, 64]
0	0xbf	-65
1	0x1f	31
2	0x38	56
3	0x16	22
4	0x2e	46
5	0xaf	-81
6	0x1d	29
7	0x53	83
8	0xb7	-73
9	0x45	69
10	0x9f	-97
11	0xd4	-44
12	0x31	49
13	0xf2	-14
14	0xed	-19
15	0x3f	63
16	0xf6	-10
17	0x11	17
18	0xca	-54
19	0xbf	-65
20	0xcd	-51
21	0xfa	-6
22	0xe4	-28
23	0xeb	-21
24	0xdf	-33
25	0x00	0
26	0x17	23
27	0x04	4
28	0xee	-18
29	0x28	40
30	0xf8	-8
31	0x2d	45
32	0x32	50
33	0xf7	-9
34	0xce	-50
35	0xbd	-67
36	0xa6	-90
37	0x35	53
38	0xf4	-12
39	0xa2	-94
40	0xe9	-23
41	0xe0	-32
42	0x33	51
43	0x1a	26
44	0xf5	-11
45	0xf8	-8
46	0x10	16
47	0x0b	11
48	0xfa	-6
49	0xe9	-23
50	0x0a	10
51	0x2c	44
52	0x1f	31
53	0xd3	-45
54	0x00	0
55	0x23	35
56	0x12	18
57	0x23	35
58	0xed	-19
59	0x08	8
60	0x0a	10
61	0xc5	-59
62	0x05	5
63	0xf3	-13
64	0xeb	-21
65	0xbd	-67
66	0x49	73
67	0x41	65
68	0xda	-38
69	0x12	18
70	0xce	-50
71	0x3d	61
72	0x1c	28
73	0x02	2
74	0x42	66
75	0x4f	79
76	0x10	16
77	0x19	25
78	0xe9	-23
79	0xdf	-33
80	0x27	39
81	0x56	86
82	0x18	24
83	0xb5	-75
84	0x09	9
85	0xe3	-29
86	0x48	72
87	0xf8	-8
88	0x06	6
89	0xb3	-77
90	0xab	-85
91	0x43	67
92	0xc6	-58
93	0xd7	-41
94	0x24	36
95	0x43	67
96	0xf1	-15
97	0xdb	-37
98	0x4a	74
99	0x3f	63
100	0xeb	-21
101	0x23	35
102	0xf6	-10
103	0x12	18
104	0x2d	45
105	0xb5	-75
106	0x0e	14
107	0xde	-34
108	0x52	82
109	0xb5	-75
110	0x57	87
111	0xb5	-75
112	0x17	23
113	0x23	35
114	0xa8	-88
115	0x3a	58
116	0x0e	14
117	0x0e	14
118	0xbd	-67
119	0xea	-22
120	0x02	2
121	0xac	-84
122	0xa3	-93
123	0x2d	45
124	0xd8	-40
125	0xd1	-47
126	0x58	88
127	0x17	23
128	0x04	4
129	0xd9	-39
130	0x2d	45
131	0xbd	-67
132	0x12	18
133	0xfa	-6
134	0x26	38
135	0xde	-34
136	0xce	-50
137	0xfa	-6
138	0x20	32
139	0xb7	-73
140	0xcc	-52
141	0x19	25
142	0x30	48
143	0x37	55
144	0xd7	-41
145	0xb0	-80
146	0xca	-54
147	0x8d	-115
148	0xcf	-49
149	0xd9	-39
150	0xbf	-65
151	0x1a	26
152	0xc1	-63
153	0x08	8
154	0x0c	12
155	0xeb	-21
156	0x32	50
157	0xc8	-56
158	0xfe	-2
159	0x01	1
160	0xf0	-16
161	0xf6	-10
162	0xea	-22
163	0xc5	-59
164	0x4a	74
165	0x03	3
166	0xfc	-4
167	0x7d	125
168	0xe3	-29
169	0xbc	-68
170	0xf2	-14
171	0xe9	-23
172	0xdb	-37
173	0x41	65
174	0xb6	-74
175	0xcb	-53
176	0x81	-127
177	0x11	17
178	0xb6	-74
179	0x2a	42
180	0xa8	-88
181	0xd3	-45
182	0x47	71
183	0xb4	-76
184	0x50	80
185	0x1c	28
186	0x14	20
187	0xf3	-13
188	0x1b	27
189	0x5f	95
190	0x3f	63
191	0xe4	-28
192	0x5f	95
193	0xcc	-52
194	0x1d	29
195	0xec	-20
196	0x3b	59
197	0xaf	-81
198	0x46	70
199	0xc5	-59
200	0x18	24
201	0x14	20
202	0xdd	-35
203	0x4d	77
204	0x43	67
205	0xb8	-72
206	0xff	-1
207	0x12	18
208	0xf7	-9
209	0x39	57
210	0xf5	-11
211	0x4e	78
212	0xef	-17
213	0xee	-18
214	0x28	40
215	0x32	50
216	0x2d	45
217	0x32	50
218	0xd5	-43
219	0xc2	-62
220	0x4d	77
221	0xd3	-45
222	0xf4	-12
223	0xca	-54
224	0xe3	-29
225	0xed	-19
226	0x1f	31
227	0xc4	-60
228	0x25	37
229	0xd4	-44
230	0xde	-34
231	0x37	55
232	0xfd	-3
233	0x69	105
234	0xf5	-11
235	0x49	73
236	0x09	9
237	0x26	38
238	0x4e	78
239	0xdb	-37
240	0x59	89
241	0x00	0
242	0xe9	-23
243	0x12	18
244	0x1c	28
245	0x2d	45
246	0xd6	-42
247	0xe2	-30
248	0xde	-34
249	0xde	-34
250	0xf8	-8
251	0x27	39
252	0xdf	-33
253	0x37	55
254	0x22	34
255	0x10	16

tfl.pseudo_qconst8 i1 [64] scale=0.003677456 zero_point=127
0	0xed	-0.53690857
1	0xb1	-0.7575559
2	0xbe	-0.709749
3	0xd6	-0.62149006
4	0xde	-0.5920704
5	0xe2	-0.5773606
6	0xcc	-0.65826464
7	0x80	-0.9377513
8	0xb3	-0.750201
9	0xca	-0.66561955
10	0xf3	-0.5148438
11	0xbe	-0.709749
12	0xbf	-0.70607156
13	0xd3	-0.6325224
14	0xc1	-0.69871664
15	0xc4	-0.68768424
16	0xb4	-0.74652356
17	0xb8	-0.7318137
18	0xf0	-0.5258762
19	0xf5	-0.5074889
20	0xcd	-0.65458715
21	0xe1	-0.58103806
22	0xef	-0.52955365
23	0xbe	-0.709749
24	0x15	-0.38981032
25	0xb1	-0.7575559
26	0xc6	-0.6803293
27	0xe0	-0.5847155
28	0xf2	-0.5185213
29	0xb5	-0.7428461
30	0xcb	-0.66194206
31	0x08	-0.43761724
32	0xd4	-0.628845
33	0xe7	-0.5589733
34	0xe8	-0.5552958
35	0xa3	-0.8090403
36	0x04	-0.45232707
37	0xc9	-0.669297
38	0xcf	-0.64723223
39	0xaa	-0.78329813
40	0xde	-0.5920704
41	0xd4	-0.628845
42	0xc7	-0.6766519
43	0x25	-0.33097103
44	0xcf	-0.64723223
45	0x12	-0.4008427
46	0xb2	-0.7538785
47	0xda	-0.60678023
48	0xd9	-0.61045766
49	0x0a	-0.43026236
50	0xde	-0.5920704
51	0xb7	-0.7354912
52	0xc1	-0.69871664
53	0x0a	-0.43026236
54	0xff	-0.47071436
55	0xd8	-0.61413515
56	0x0f	-0.41187507
57	0xd1	-0.6398773
58	0xa5	-0.8016854
59	0xb9	-0.7281363
60	0xea	-0.5479409
61	0xcb	-0.66194206
62	0xc9	-0.669297
63	0xc4	-0.68768424

tfl.pseudo_qconst9 i1 [64] scale=0.029019378 zero_point=-128
0	0x02	3.772519
1	0xe0	2.7858603
2	0xec	3.1340928
3	0xd0	2.3215504
4	0xed	3.1631122
5	0x03	3.8015385
6	0x02	3.772519
7	0xce	2.2635114
8	0xea	3.076054
9	0xf0	3.2501702
10	0x08	3.9466355
11	0xe6	2.9599767
12	0xdc	2.6697829
13	0xeb	3.1050735
14	0xfa	3.540364
15	0xd8	2.5537052
16	0xef	3.2211509
17	0xfa	3.540364
18	0x01	3.7434998
19	0x11	4.20781
20	0xfc	3.598403
21	0xeb	3.1050735
22	0x1c	4.527023
23	0xf7	3.453306
24	0x29	4.904275
25	0xe5	2.930957
26	0xed	3.1631122
27	0x0d	4.0917325
28	0xec	3.1340928
29	0xe3	2.8729184
30	0xf0	3.2501702
31	0xfc	3.598403
32	0xd8	2.5537052
33	0xe9	3.0470347
34	0xfd	3.6274223
35	0xdc	2.6697829
36	0x37	5.3105464
37	0x09	3.9756548
38	0xeb	3.1050735
39	0xd8	2.5537052
40	0xf7	3.453306
41	0xe6	2.9599767
42	0xed	3.1631122
43	0x7f	7.3999414
44	0xe3	2.8729184
45	0x1c	4.527023
46	0xd5	2.4666471
47	0xf5	3.3952672
48	0x0b	4.033694
49	0x22	4.7011395
50	0xe7	2.988996
51	0xd4	2.4376278
52	0xe8	3.0180154
53	0x1b	4.4980035
54	0xfe	3.6564417
55	0xe0	2.7858603
56	0x39	5.368585
57	0xc8	2.0893953
58	0xcb	2.1764534
59	0xef	3.2211509
60	0x15	4.3238873
61	0x05	3.8595772
62	0x02	3.772519
63	0xea	3.076054

tfl.pseudo_qconst11 i1 [64, 3, 3, 64]
0	0xba	-70
1	0xd8	-40
2	0x08	8
3	0x00	0
4	0xa7	-89
5	0xc8	-56
6	0x23	35
7	0x2f	47
8	0x08	8
9	0x07	7
10	0xb2	-78
11	0xe9	-23
12	0xc3	-61
13	0xcf	-49
14	0x32	50
15	0xcb	-53
16	0xd1	-47
17	0x11	17
18	0xc7	-57
19	0x4a	74
20	0x42	66
21	0xd9	-39
22	0x9e	-98
23	0xd9	-39
24	0xbf	-65
25	0xf0	-16
26	0x1e	30
27	0xbf	-65
28	0xe6	-26
29	0xea	-22
30	0x26	38
31	0x16	22
32	0x32	50
33	0xd4	-44
34	0xce	-50
35	0xc4	-60
36	0xc9	-55
37	0xdd	-35
38	0xf6	-10
39	0x11	17
40	0x38	56
41	0xc3	-61
42	0xc7	-57
43	0xec	-20
44	0x30	48
45	0x08	8
46	0x01	1
47	0xcb	-53
48	0x29	41
49	0xd7	-41
50	0x15	21
51	0xbe	-66
52	0xea	-22
53	0xd1	-47
54	0xfe	-2
55	0xd5	-43
56	0xc0	-64
57	0x1f	31
58	0x41	65
59	0x38	56
60	0x28	40
61	0xdc	-36
62	0x02	2
63	0xd5	-43
64	0x0e	14
65	0xa7	-89
66	0xd1	-47
67	0x12	18
68	0xa8	-88
69	0x1e	30
70	0xc1	-63
71	0x21	33
72	0x55	85
73	0x57	87
74	0xd6	-42
75	0xb9	-71
76	0xda	-38
77	0xcd	-51
78	0xcd	-51
79	0xc5	-59
80	0x4d	77
81	0x2b	43
82	0x68	104
83	0xda	-38
84	0xdc	-36
85	0xad	-83
86	0xa3	-93
87	0xbe	-66
88	0xa5	-91
89	0x6d	109
90	0xfd	-3
91	0x12	18
92	0x01	1
93	0x60	96
94	0x44	68
95	0xef	-17
96	0x05	5
97	0xe1	-31
98	0x35	53
99	0x13	19
100	0xc0	-64
101	0xb8	-72
102	0x8b	-117
103	0x37	55
104	0xa3	-93
105	0xe3	-29
106	0xfd	-3
107	0xea	-22
108	0xeb	-21
109	0x4d	77
110	0xe1	-31
111	0x01	1
112	0x26	38
113	0x99	-103
114	0xb2	-78
115	0xfd	-3
116	0x94	-108
117	0x5f	95
118	0xf4	-12
119	0xac	-84
120	0x9e	-98
121	0x08	8
122	0x6b	107
123	0x65	101
124	0x14	20
125	0x5b	91
126	0xef	-17
127	0x38	56
128	0x25	37
129	0x40	64
130	0x44	68
131	0xc4	-60
132	0x3b	59
133	0xd4	-44
134	0xa5	-91
135	0xf4	-12
136	0x19	25
137	0xde	-34
138	0x19	25
139	0xf0	-16
140	0x11	17
141	0xc5	-59
142	0x2a	42
143	0xd6	-42
144	0xdd	-35
145	0x2c	44
146	0xbf	-65
147	0xfb	-5
148	0x0f	15
149	0x13	19
150	0x41	65
151	0x0d	13
152	0xbb	-69
153	0x77	119
154	0xf7	-9
155	0xfc	-4
156	0x1a	26
157	0xca	-54
158	0xb8	-72
159	0x0c	12
160	0xe5	-27
161	0x2a	42
162	0x0c	12
163	0x03	3
164	0xa4	-92
165	0xa4	-92
166	0x2d	45
167	0x4f	79
168	0x1c	28
169	0x40	64
170	0x18	24
171	0xd7	-41
172	0xc2	-62
173	0xd4	-44
174	0x3e	62
175	0x46	70
176	0x47	71
177	0xdb	-37
178	0x98	-104
179	0x2d	45
180	0x3d	61
181	0x22	34
182	0x4d	77
183	0x01	1
184	0x0a	10
185	0x2c	44
186	0xd3	-45
187	0xee	-18
188	0xd1	-47
189	0x03	3
190	0x0c	12
191	0xf2	-14
192	0xef	-17
193	0x11	17
194	0x39	57
195	0x29	41
196	0xc8	-56
197	0x3c	60
198	0x9e	-98
199	0xdb	-37
200	0xd9	-39
201	0xed	-19
202	0xa2	-94
203	0x1e	30
204	0xdd	-35
205	0x5e	94
206	0xa9	-87
207	0x2f	47
208	0x01	1
209	0x3e	62
210	0x34	52
211	0xab	-85
212	0x51	81
213	0x4f	79
214	0xfb	-5
215	0x28	40
216	0xfd	-3
217	0xd4	-44
218	0x19	25
219	0xb9	-71
220	0x50	80
221	0x08	8
222	0xfc	-4
223	0xd5	-43
224	0x12	18
225	0x52	82
226	0xf1	-15
227	0xc9	-55
228	0xe6	-26
229	0xb7	-73
230	0x9f	-97
231	0x8b	-117
232	0x10	16
233	0x35	53
234	0xec	-20
235	0xd8	-40
236	0xb2	-78
237	0x34	52
238	0xb6	-74
239	0x28	40
240	0x3e	62
241	0xda	-38
242	0x20	32
243	0x44	68
244	0x59	89
245	0x01	1
246	0x4b	75
247	0xe4	-28
248	0xef	-17
249	0x2f	47
250	0xd3	-45
251	0x05	5
252	0x01	1
253	0x6a	106
254	0x30	48
255	0x50	80

tfl.pseudo_qconst12 i1 [64] scale=0.0052407165 zero_point=127
0	0xf8	-0.7074967
1	0x07	-0.628886
2	0x2f	-0.4192573
3	0xf5	-0.72321886
4	0x01	-0.6603303
5	0xfc	-0.68653387
6	0x10	-0.5817195
7	0xf2	-0.738941
8	0xfb	-0.6917746
9	0xd3	-0.90140325
10	0xf5	-0.72321886
11	0xec	-0.7703853
12	0xd0	-0.9171254
13	0xb8	-1.0429026
14	0x24	-0.4769052
15	0xfd	-0.68129313
16	0xae	-1.0953097
17	0xd1	-0.91188467
18	0x09	-0.61840457
19	0x0c	-0.6026824
20	0xec	-0.7703853
21	0xb4	-1.0638654
22	0x03	-0.6498488
23	0x0c	-0.6026824
24	0x01	-0.6603303
25	0x3f	-0.33540586
26	0x22	-0.48738664
27	0xc5	-0.9747733
28	0x18	-0.5397938
29	0xf9	-0.702256
30	0x1e	-0.5083495
31	0xbd	-1.016699
32	0x11	-0.57647884
33	0xce	-0.9276068
34	0xc4	-0.98001397
35	0x0e	-0.592201
36	0xc4	-0.98001397
37	0x3b	-0.35636872
38	0x27	-0.46118304
39	0x03	-0.6498488
40	0x19	-0.5345531
41	0x0a	-0.6131638
42	0x0f	-0.58696026
43	0x0f	-0.58696026
44	0xfa	-0.6970153
45	0xef	-0.75466317
46	0x00	-0.665571
47	0x14	-0.5607567
48	0xb8	-1.0429026
49	0xd5	-0.89092183
50	0x21	-0.49262735
51	0x80	-1.3363827
52	0xe0	-0.83327395
53	0x2f	-0.4192573
54	0xcb	-0.943329
55	0xe2	-0.8227925
56	0x18	-0.5397938
57	0xf6	-0.7179782
58	0x1a	-0.5293124
59	0x2c	-0.43497947
60	0xb9	-1.0376619
61	0x1b	-0.52407163
62	0x0a	-0.6131638
63	0xc0	-1.0009768

tfl.pseudo_qconst13 i1 [64] scale=0.022730738 zero_point=-128
0	0xe0	2.1821508
1	0xf1	2.5685735
2	0x12	3.3186877
3	0xd1	1.8411897
4	0xca	1.6820745
5	0xd8	2.000305
6	0xee	2.5003812
7	0xdf	2.15942
8	0xd2	1.8639205
9	0xbd	1.386575
10	0xcc	1.7275361
11	0xcc	1.7275361
12	0xd5	1.9321127
13	0xd1	1.8411897
14	0xed	2.4776504
15	0xd2	1.8639205
16	0xbc	1.3638443
17	0xba	1.3183827
18	0xbc	1.3638443
19	0xe6	2.3185353
20	0xc5	1.5684209
21	0xb2	1.1365368
22	0xd6	1.9548435
23	0xee	2.5003812
24	0xd3	1.8866513
25	0x35	4.1142635
26	0xe3	2.250343
27	0xc6	1.5911517
28	0xd6	1.9548435
29	0xe9	2.3867276
30	0xf1	2.5685735
31	0xcc	1.7275361
32	0xf1	2.5685735
33	0xc0	1.4547672
34	0xc2	1.5002286
35	0xe5	2.2958045
36	0xb0	1.0910754
37	0x7f	5.796338
38	0xed	2.4776504
39	0xd3	1.8866513
40	0xec	2.4549198
41	0xd8	2.000305
42	0xe6	2.3185353
43	0xd9	2.0230358
44	0xdd	2.1139586
45	0xdd	2.1139586
46	0xda	2.0457664
47	0xef	2.5231118
48	0xc4	1.5456902
49	0xcb	1.7048054
50	0x09	3.1141112
51	0xc6	1.5911517
52	0xc5	1.5684209
53	0xfa	2.77315
54	0xd1	1.8411897
55	0xc7	1.6138824
56	0xfb	2.7958808
57	0xce	1.7729976
58	0xdd	2.1139586
59	0xec	2.4549198
60	0xb9	1.295652
61	0x08	3.0913804
62	0xd9	2.0230358
63	0xc9	1.6593438

tfl.pseudo_qconst15 i1 [64, 3, 3, 64]
0	0x5f	95
1	0xe4	-28
2	0x2b	43
3	0x85	-123
4	0xf5	-11
5	0xee	-18
6	0x11	17
7	0x5e	94
8	0x09	9
9	0x00	0
10	0x45	69
11	0xdf	-33
12	0xb1	-79
13	0xeb	-21
14	0xd8	-40
15	0x2c	44
16	0xbd	-67
17	0x12	18
18	0x57	87
19	0x60	96
20	0xaa	-86
21	0xe2	-30
22	0xac	-84
23	0x5f	95
24	0x1e	30
25	0x35	53
26	0x33	51
27	0x54	84
28	0xa6	-90
29	0x4c	76
30	0xab	-85
31	0x04	4
32	0xb0	-80
33	0xa6	-90
34	0xcc	-52
35	0x4e	78
36	0x18	24
37	0xb3	-77
38	0x69	105
39	0x9e	-98
40	0x36	54
41	0x15	21
42	0x9e	-98
43	0xcc	-52
44	0x31	49
45	0x02	2
46	0xbe	-66
47	0xeb	-21
48	0xa0	-96
49	0xcb	-53
50	0x25	37
51	0xe6	-26
52	0xc5	-59
53	0x5a	90
54	0xdc	-36
55	0x19	25
56	0x68	104
57	0xe6	-26
58	0x18	24
59	0xf0	-16
60	0x9b	-101
61	0x37	55
62	0xf4	-12
63	0xd6	-42
64	0xe4	-28
65	0x20	32
66	0x0f	15
67	0x33	51
68	0x3e	62
69	0xe8	-24
70	0x57	87
71	0x07	7
72	0x49	73
73	0xc7	-57
74	0x47	71
75	0x1f	31
76	0xaa	-86
77	0xce	-50
78	0x58	88
79	0xb6	-74
80	0x38	56
81	0xd9	-39
82	0x93	-109
83	0xe0	-32
84	0xc3	-61
85	0x2b	43
86	0x3d	61
87	0x18	24
88	0xd0	-48
89	0x47	71
90	0xe6	-26
91	0xc5	-59
92	0x49	73
93	0xa7	-89
94	0xa8	-88
95	0x48	72
96	0x10	16
97	0xea	-22
98	0xd4	-44
99	0x33	51
100	0xd4	-44
101	0x40	64
102	0x0e	14
103	0x88	-120
104	0xae	-82
105	0xfe	-2
106	0x17	23
107	0x47	71
108	0x97	-105
109	0xee	-18
110	0x47	71
111	0xe9	-23
112	0x64	100
113	0xa6	-90
114	0x55	85
115	0xd2	-46
116	0xc5	-59
117	0x22	34
118	0x0f	15
119	0xc7	-57
120	0xd7	-41
121	0x3b	59
122	0xe7	-25
123	0x0b	11
124	0xed	-19
125	0xc4	-60
126	0xfd	-3
127	0x0c	12
128	0xf5	-11
129	0x3a	58
130	0x4e	78
131	0x0d	13
132	0x20	32
133	0xb0	-80
134	0x3a	58
135	0xc3	-61
136	0xc3	-61
137	0x56	86
138	0xe1	-31
139	0xea	-22
140	0xec	-20
141	0x3c	60
142	0xb3	-77
143	0x1f	31
144	0x54	84
145	0xfd	-3
146	0x14	20
147	0x1e	30
148	0x0d	13
149	0x6e	110
150	0x5f	95
151	0x42	66
152	0xad	-83
153	0x4a	74
154	0xb5	-75
155	0x29	41
156	0x06	6
157	0x01	1
158	0xd0	-48
159	0xc7	-57
160	0xe4	-28
161	0x59	89
162	0xe9	-23
163	0x2b	43
164	0x28	40
165	0x13	19
166	0xe9	-23
167	0xfa	-6
168	0xc7	-57
169	0xa5	-91
170	0xfc	-4
171	0xfe	-2
172	0x93	-109
173	0xf0	-16
174	0xf0	-16
175	0xc6	-58
176	0x27	39
177	0x30	48
178	0x1a	26
179	0xf6	-10
180	0xc9	-55
181	0x01	1
182	0x42	66
183	0xde	-34
184	0xf1	-15
185	0x0a	10
186	0xa7	-89
187	0x11	17
188	0x33	51
189	0xf8	-8
190	0x49	73
191	0x5c	92
192	0xe9	-23
193	0x3a	58
194	0xdd	-35
195	0x6c	108
196	0x30	48
197	0x64	100
198	0x3d	61
199	0xee	-18
200	0x66	102
201	0xb0	-80
202	0xf4	-12
203	0x47	71
204	0x04	4
205	0xf3	-13
206	0x49	73
207	0x73	115
208	0xa6	-90
209	0x04	4
210	0x30	48
211	0x49	73
212	0x34	52
213	0xab	-85
214	0x1f	31
215	0x1c	28
216	0x8e	-114
217	0x0f	15
218	0x55	85
219	0xf9	-7
220	0xb4	-76
221	0x20	32
222	0x45	69
223	0xe3	-29
224	0xe0	-32
225	0xb0	-80
226	0x6a	106
227	0xd6	-42
228	0x8e	-114
229	0x57	87
230	0xe5	-27
231	0xd0	-48
232	0x47	71
233	0x08	8
234	0x29	41
235	0xd1	-47
236	0x3a	58
237	0x2d	45
238	0x2e	46
239	0x4f	79
240	0xf4	-12
241	0x66	102
242	0x4a	74
243	0x46	70
244	0x35	53
245	0xf7	-9
246	0x47	71
247	0x93	-109
248	0xf4	-12
249	0x41	65
250	0xfe	-2
251	0xfa	-6
252	0xca	-54
253	0x17	23
254	0x44	68
255	0xe9	-23

tfl.pseudo_qconst16 i1 [64] scale=0.0031122118 zero_point=127
0	0xa1	-0.69091105
1	0xb5	-0.62866676
2	0xb7	-0.62244236
3	0xc1	-0.5913203
4	0xbd	-0.60376906
5	0xc9	-0.5664226
6	0x9c	-0.7064721
7	0xca	-0.5633103
8	0xd0	-0.5446371
9	0xa0	-0.69402325
10	0xc2	-0.588208
11	0xc8	-0.5695348
12	0xa7	-0.67223775
13	0xbd	-0.60376906
14	0xcf	-0.5477493
15	0xcc	-0.55708593
16	0xdc	-0.50729054
17	0xb4	-0.631779
18	0xc9	-0.5664226
19	0xbb	-0.6099935
20	0x8c	-0.7562675
21	0x9b	-0.7095843
22	0xa5	-0.67846215
23	0xaf	-0.64734006
24	0xb6	-0.62555456
25	0xbc	-0.6068813
26	0xbe	-0.60065687
27	0xa7	-0.67223775
28	0xb3	-0.6348912
29	0x9b	-0.7095843
30	0xa1	-0.69091105
31	0xbe	-0.60065687
32	0xbc	-0.6068813
33	0xcb	-0.5601981
34	0x89	-0.76560414
35	0xcb	-0.5601981
36	0xb0	-0.64422786
37	0xc5	-0.57887137
38	0x9a	-0.7126965
39	0xb3	-0.6348912
40	0xbe	-0.60065687
41	0xad	-0.65356445
42	0xb8	-0.61933017
43	0xd4	-0.53218824
44	0xd9	-0.5166272
45	0x8b	-0.7593797
46	0x91	-0.74070644
47	0xa3	-0.6846866
48	0xc9	-0.5664226
49	0xd8	-0.5197394
50	0x96	-0.72514534
51	0xa8	-0.66912556
52	0xc4	-0.5819836
53	0xcd	-0.5539737
54	0xc2	-0.588208
55	0xd3	-0.53530043
56	0xb1	-0.64111567
57	0xbe	-0.60065687
58	0xdb	-0.51040274
59	0x80	-0.79361403
60	0xde	-0.5010661
61	0xc3	-0.5850958
62	0xab	-0.6597889
63	0xcf	-0.5477493

tfl.pseudo_qconst17 i1 [64] scale=0.011080099 zero_point=-128
0	0x53	2.3379009
1	0x77	2.7367845
2	0x77	2.7367845
3	0x3a	2.0608985
4	0x41	2.1384592
5	0x72	2.681384
6	0x22	1.7949761
7	0x4e	2.2825005
8	0x4e	2.2825005
9	0x67	2.5595028
10	0x40	2.127379
11	0x1d	1.7395756
12	0x30	1.9500974
13	0x37	2.0276582
14	0x63	2.5151825
15	0x2c	1.9057771
16	0x48	2.2160199
17	0x47	2.2049398
18	0x4a	2.2381802
19	0x47	2.2049398
20	0x6a	2.5927432
21	0x76	2.7257044
22	0x63	2.5151825
23	0x44	2.1716995
24	0x21	1.783896
25	0x4c	2.2603402
26	0x32	1.9722576
27	0x60	2.4819422
28	0x39	2.0498183
29	0x4e	2.2825005
30	0x31	1.9611776
31	0x26	1.8392965
32	0x3b	2.0719786
33	0x1f	1.7617358
34	0x6e	2.6370637
35	0x5d	2.4487019
36	0x40	2.127379
37	0x43	2.1606193
38	0x41	2.1384592
39	0x66	2.5484228
40	0x7f	2.8254254
41	0x48	2.2160199
42	0x61	2.4930224
43	0x52	2.3268209
44	0x63	2.5151825
45	0x5f	2.4708622
46	0x7b	2.7811048
47	0x4d	2.2714202
48	0x09	1.5179735
49	0x3c	2.0830586
50	0x22	1.7949761
51	0x5b	2.4265418
52	0x43	2.1606193
53	0x2b	1.894697
54	0x5a	2.4154615
55	0x5c	2.4376218
56	0x5a	2.4154615
57	0x48	2.2160199
58	0x51	2.3157408
59	0x3f	2.116299
60	0x65	2.5373428
61	0x17	1.673095
62	0x45	2.1827796
63	0x58	2.3933015

tfl.pseudo_qconst19 i1 [64, 3, 3, 64]
0	0x8c	-116
1	0x5d	93
2	0xb5	-75
3	0x24	36
4	0xcd	-51
5	0xad	-83
6	0x1f	31
7	0x4b	75
8	0xdd	-35
9	0xd1	-47
10	0x48	72
11	0xb2	-78
12	0x08	8
13	0x48	72
14	0x35	53
15	0xdd	-35
16	0x60	96
17	0x60	96
18	0x0f	15
19	0xaa	-86
20	0x16	22
21	0x00	0
22	0xce	-50
23	0x23	35
24	0x5b	91
25	0xec	-20
26	0xbb	-69
27	0xd5	-43
28	0xec	-20
29	0x0c	12
30	0x73	115
31	0x3c	60
32	0x3f	63
33	0xe5	-27
34	0x23	35
35	0xf7	-9
36	0x1f	31
37	0x1b	27
38	0x58	88
39	0x25	37
40	0x11	17
41	0xa4	-92
42	0xf5	-11
43	0x15	21
44	0xc1	-63
45	0xd6	-42
46	0xdb	-37
47	0x2c	44
48	0x7a	122
49	0xca	-54
50	0x09	9
51	0xa4	-92
52	0x9c	-100
53	0x37	55
54	0x0b	11
55	0x2d	45
56	0xfa	-6
57	0x0a	10
58	0x07	7
59	0x1e	30
60	0xb3	-77
61	0x40	64
62	0xca	-54
63	0x3f	63
64	0xcf	-49
65	0x0b	11
66	0xd6	-42
67	0x0c	12
68	0x0d	13
69	0xc8	-56
70	0xcf	-49
71	0xcd	-51
72	0x29	41
73	0xec	-20
74	0x19	25
75	0xc4	-60
76	0xd5	-43
77	0xf8	-8
78	0xb3	-77
79	0xfa	-6
80	0x4c	76
81	0xa4	-92
82	0x44	68
83	0xc2	-62
84	0x6d	109
85	0xff	-1
86	0xfb	-5
87	0x10	16
88	0x13	19
89	0xef	-17
90	0xd7	-41
91	0x61	97
92	0x12	18
93	0x45	69
94	0x3a	58
95	0xfc	-4
96	0x3f	63
97	0xae	-82
98	0x30	48
99	0x10	16
100	0x4e	78
101	0xbc	-68
102	0xbd	-67
103	0xc4	-60
104	0x02	2
105	0x0f	15
106	0xee	-18
107	0x12	18
108	0x10	16
109	0xfe	-2
110	0xf8	-8
111	0xda	-38
112	0x66	102
113	0x0f	15
114	0xf5	-11
115	0x3d	61
116	0xd5	-43
117	0x00	0
118	0x34	52
119	0x26	38
120	0x48	72
121	0xf9	-7
122	0x16	22
123	0xec	-20
124	0x3a	58
125	0x44	68
126	0x06	6
127	0xd4	-44
128	0x88	-120
129	0x0c	12
130	0xd0	-48
131	0xf9	-7
132	0xbe	-66
133	0xfa	-6
134	0x0d	13
135	0xd8	-40
136	0xf7	-9
137	0xe0	-32
138	0xee	-18
139	0x55	85
140	0xdc	-36
141	0xf7	-9
142	0x4a	74
143	0x24	36
144	0xc8	-56
145	0xe8	-24
146	0xce	-50
147	0x02	2
148	0x43	67
149	0xf5	-11
150	0x43	67
151	0x8b	-117
152	0xab	-85
153	0xd9	-39
154	0xd9	-39
155	0x2b	43
156	0x3c	60
157	0xd6	-42
158	0x6f	111
159	0x3d	61
160	0x0a	10
161	0x0b	11
162	0xd4	-44
163	0xa1	-95
164	0xda	-38
165	0x01	1
166	0x3e	62
167	0xf6	-10
168	0xd2	-46
169	0x9c	-100
170	0xf6	-10
171	0xe4	-28
172	0x52	82
173	0xe9	-23
174	0xa4	-92
175	0x5f	95
176	0x16	22
177	0xbc	-68
178	0x20	32
179	0xd7	-41
180	0xf0	-16
181	0x9f	-97
182	0x83	-125
183	0x52	82
184	0xc6	-58
185	0xa7	-89
186	0x05	5
187	0xeb	-21
188	0xb0	-80
189	0xd7	-41
190	0x20	32
191	0x0d	13
192	0xe8	-24
193	0x61	97
194	0x0d	13
195	0x31	49
196	0x34	52
197	0xea	-22
198	0x5d	93
199	0xdc	-36
200	0xf9	-7
201	0xfb	-5
202	0x5d	93
203	0xf3	-13
204	0xcc	-52
205	0xf1	-15
206	0xf9	-7
207	0x78	120
208	0xe7	-25
209	0x31	49
210	0x40	64
211	0x4d	77
212	0xdb	-37
213	0x29	41
214	0xac	-84
215	0xbe	-66
216	0xb5	-75
217	0x07	7
218	0x33	51
219	0x3e	62
220	0x55	85
221	0x13	19
222	0xef	-17
223	0xbc	-68
224	0x31	49
225	0x62	98
226	0x97	-105
227	0xe7	-25
228	0xc3	-61
229	0x28	40
230	0xe2	-30
231	0xef	-17
232	0xfb	-5
233	0xa6	-90
234	0x32	50
235	0xa2	-94
236	0x27	39
237	0x47	71
238	0x41	65
239	0x21	33
240	0xf1	-15
241	0x34	52
242	0x26	38
243	0x07	7
244	0x34	52
245	0x1d	29
246	0xd2	-46
247	0xd1	-47
248	0xb0	-80
249	0xc5	-59
250	0x44	68
251	0x1d	29
252	0x2b	43
253	0x4e	78
254	0xf8	-8
255	0x9a	-102

tfl.pseudo_qconst20 i1 [64] scale=0.004364963 zero_point=127
0	0xb0	-0.90354735
1	0xe9	-0.65474445
2	0xf7	-0.59363496
3	0xcc	-0.7813284
4	0xd4	-0.7464087
5	0x8c	-1.060686
6	0x0e	-0.49324083
7	0x26	-0.3884817
8	0x19	-0.44522625
9	0x92	-1.0344963
10	0x26	-0.3884817
11	0xcc	-0.7813284
12	0x08	-0.51943064
13	0xe4	-0.6765693
14	0x10	-0.4845109
15	0xb0	-0.90354735
16	0x86	-1.0868758
17	0xed	-0.63728464
18	0xa5	-0.951562
19	0x23	-0.4015766
20	0xda	-0.7202189
21	0x10	-0.4845109
22	0x80	-1.1130656
23	0x2f	-0.34919706
24	0xf3	-0.61109483
25	0xa3	-0.9602919
26	0x89	-1.0737809
27	0xed	-0.63728464
28	0x0d	-0.4976058
29	0x33	-0.3317372
30	0xc4	-0.8162481
31	0xd1	-0.7595036
32	0x1b	-0.43649632
33	0xad	-0.91664225
34	0xc3	-0.8206131
35	0xf6	-0.59799993
36	0xb3	-0.8904525
37	0xaf	-0.9079123
38	0xf9	-0.5849051
39	0xe6	-0.66783935
40	0x8d	-1.056321
41	0xd0	-0.7638686
42	0x1c	-0.43213135
43	0x1d	-0.42776638
44	0x10	-0.4845109
45	0x12	-0.475781
46	0x2e	-0.35356203
47	0xf0	-0.62418973
48	0xbe	-0.84243786
49	0x9e	-0.9821167
50	0xfc	-0.5718102
51	0xba	-0.85989773
52	0x05	-0.5325255
53	0xf4	-0.60672987
54	0x3a	-0.30118245
55	0x10	-0.4845109
56	0xd1	-0.7595036
57	0xee	-0.63291967
58	0xe4	-0.6765693
59	0x31	-0.34046713
60	0xe3	-0.68093425
61	0xc1	-0.829343
62	0xdf	-0.6983941
63	0x27	-0.38411677

tfl.pseudo_qconst21 i1 [64] scale=0.018492645 zero_point=-128
0	0xf3	2.1266541
1	0xf1	2.0896688
2	0xf0	2.0711763
3	0x1f	2.9403305
4	0xd6	1.5903674
5	0xd1	1.4979042
6	0x0f	2.6444483
7	0xed	2.0156982
8	0x0c	2.5889702
9	0xce	1.4424263
10	0x29	3.125257
11	0x03	2.4225364
12	0xee	2.034191
13	0xcc	1.405441
14	0xdd	1.719816
15	0xcc	1.405441
16	0xcb	1.3869483
17	0x11	2.6814334
18	0xd7	1.6088601
19	0xf5	2.1636393
20	0x16	2.7738967
21	0xf6	2.182132
22	0xc8	1.3314704
23	0x7f	4.7156243
24	0xd0	1.4794116
25	0xd2	1.5163969
26	0xd1	1.4979042
27	0xfe	2.330073
28	0xf8	2.2191174
29	0x4c	3.7724996
30	0xee	2.034191
31	0xd8	1.6273527
32	0xf6	2.182132
33	0xcf	1.4609189
34	0xed	2.0156982
35	0xc9	1.3499631
36	0xd2	1.5163969
37	0xf2	2.1081614
38	0x06	2.4780145
39	0xdd	1.719816
40	0xd4	1.5533822
41	0xf3	2.1266541
42	0x18	2.810882
43	0x1c	2.8848526
44	0x2b	3.1622422
45	0xee	2.034191
46	0x05	2.4595218
47	0xdf	1.7568012
48	0x0a	2.551985
49	0xe3	1.8307718
50	0xdc	1.7013233
51	0xec	1.9972056
52	0xd0	1.4794116
53	0x06	2.4780145
54	0x7b	4.641654
55	0xfe	2.330073
56	0xd3	1.5348895
57	0xff	2.3485658
58	0xea	1.9602203
59	0x28	3.1067643
60	0xd6	1.5903674
61	0xd1	1.4979042
62	0xe5	1.8677571
63	0x18	2.810882

tfl.pseudo_qconst23 i1 [64, 3, 3, 32]
0	0x04	4
1	0xba	-70
2	0x3d	61
3	0x67	103
4	0x3c	60
5	0x43	67
6	0x3b	59
7	0x98	-104
8	0x2e	46
9	0x6c	108
10	0x64	100
11	0x05	5
12	0x1b	27
13	0x74	116
14	0x2b	43
15	0x56	86
16	0x49	73
17	0x56	86
18	0xc4	-60
19	0x0b	11
20	0x21	33
21	0xb3	-77
22	0xe9	-23
23	0xc0	-64
24	0x81	-127
25	0x59	89
26	0xb1	-79
27	0x4f	79
28	0x53	83
29	0x11	17
30	0x1f	31
31	0x17	23
32	0xa4	-92
33	0x18	24
34	0x61	97
35	0xb2	-78
36	0x11	17
37	0xa5	-91
38	0xcf	-49
39	0xb9	-71
40	0xd3	-45
41	0xf0	-16
42	0x5a	90
43	0x37	55
44	0xfb	-5
45	0xca	-54
46	0xfe	-2
47	0x15	21
48	0xec	-20
49	0x34	52
50	0xf9	-7
51	0xea	-22
52	0xb7	-73
53	0xca	-54
54	0x96	-106
55	0x0c	12
56	0xa6	-90
57	0x73	115
58	0xff	-1
59	0x3e	62
60	0x3d	61
61	0x27	39
62	0xd3	-45
63	0x61	97
64	0x0a	10
65	0xca	-54
66	0x52	82
67	0x53	83
68	0xee	-18
69	0xd5	-43
70	0x1d	29
71	0xeb	-21
72	0x0b	11
73	0xc0	-64
74	0x44	68
75	0x96	-106
76	0x98	-104
77	0x42	66
78	0xa7	-89
79	0x1a	26
80	0x3c	60
81	0xab	-85
82	0x33	51
83	0xa3	-93
84	0x56	86
85	0xae	-82
86	0xc2	-62
87	0x4a	74
88	0x11	17
89	0x2b	43
90	0xdb	-37
91	0x48	72
92	0x1e	30
93	0xe4	-28
94	0x98	-104
95	0x4c	76
96	0xe2	-30
97	0xdb	-37
98	0x9d	-99
99	0xfa	-6
100	0x02	2
101	0xd7	-41
102	0x01	1
103	0xba	-70
104	0x4e	78
105	0x1f	31
106	0xa3	-93
107	0x11	17
108	0x03	3
109	0x53	83
110	0xde	-34
111	0x04	4
112	0x30	48
113	0x1d	29
114	0xec	-20
115	0x23	35
116	0x55	85
117	0xf4	-12
118	0x34	52
119	0xaf	-81
120	0x25	37
121	0x3f	63
122	0xf7	-9
123	0x4a	74
124	0x67	103
125	0xc2	-62
126	0xf1	-15
127	0x41	65
128	0xab	-85
129	0xf6	-10
130	0xef	-17
131	0xbb	-69
132	0x52	82
133	0xe7	-25
134	0x05	5
135	0x45	69
136	0x15	21
137	0xad	-83
138	0x43	67
139	0xb9	-71
140	0x68	104
141	0xbf	-65
142	0xcb	-53
143	0xff	-1
144	0xa0	-96
145	0x0f	15
146	0xa0	-96
147	0x32	50
148	0x21	33
149	0x02	2
150	0xe5	-27
151	0x02	2
152	0xf4	-12
153	0x1e	30
154	0xc1	-63
155	0x19	25
156	0x17	23
157	0xa5	-91
158	0xcd	-51
159	0x5b	91
160	0x12	18
161	0xaa	-86
162	0xfa	-6
163	0xcf	-49
164	0x2f	47
165	0xd3	-45
166	0xad	-83
167	0x32	50
168	0xbd	-67
169	0x15	21
170	0x94	-108
171	0xa2	-94
172	0xc7	-57
173	0xb8	-72
174	0x64	100
175	0x24	36
176	0x93	-109
177	0x27	39
178	0x5b	91
179	0x61	97
180	0x33	51
181	0x1f	31
182	0x07	7
183	0xab	-85
184	0x05	5
185	0x3d	61
186	0x34	52
187	0xd9	-39
188	0xc9	-55
189	0xa3	-93
190	0xa4	-92
191	0x3e	62
192	0x12	18
193	0x88	-120
194	0xa8	-88
195	0x06	6
196	0xb4	-76
197	0xb1	-79
198	0xb0	-80
199	0x40	64
200	0xf3	-13
201	0x24	36
202	0xe1	-31
203	0xb8	-72
204	0xc9	-55
205	0x1b	27
206	0x03	3
207	0x6f	111
208	0xb0	-80
209	0x9d	-99
210	0x30	48
211	0x4e	78
212	0x62	98
213	0xde	-34
214	0xb1	-79
215	0x2f	47
216	0xc6	-58
217	0x4b	75
218	0x68	104
219	0x0f	15
220	0x20	32
221	0x04	4
222	0x3e	62
223	0x65	101
224	0xf7	-9
225	0x24	36
226	0x9e	-98
227	0xaf	-81
228	0xa8	-88
229	0x70	112
230	0x98	-104
231	0xd2	-46
232	0xc1	-63
233	0x03	3
234	0xbc	-68
235	0x16	22
236	0x29	41
237	0x11	17
238	0x0a	10
239	0xe2	-30
240	0xda	-38
241	0xd4	-44
242	0xe5	-27
243	0xf7	-9
244	0x05	5
245	0x21	33
246	0x50	80
247	0x14	20
248	0xfe	-2
249	0xe0	-32
250	0xc9	-55
251	0xd9	-39
252	0xf8	-8
253	0xba	-70
254	0xec	-20
255	0x2f	47

tfl.pseudo_qconst24 i1 [32] scale=0.00403997 zero_point=127
0	0xc3	-0.7595144
1	0xce	-0.7150747
2	0xdd	-0.65447515
3	0xf0	-0.57771575
4	0xc1	-0.76759434
5	0xcc	-0.72315466
6	0x23	-0.37167725
7	0x1a	-0.408037
8	0xea	-0.6019556
9	0x0d	-0.4605566
10	0xcc	-0.72315466
11	0xd1	-0.7029548
12	0x12	-0.44035676
13	0x01	-0.50903624
14	0x84	-1.0140325
15	0xab	-0.8564737
16	0x27	-0.3555174
17	0x03	-0.5009563
18	0xed	-0.58983564
19	0x80	-1.0301924
20	0xf1	-0.57367575
21	0x16	-0.42419687
22	0xff	-0.5171162
23	0xf9	-0.541356
24	0xf9	-0.541356
25	0xc0	-0.77163434
26	0xc3	-0.7595144
27	0xf1	-0.57367575
28	0x1c	-0.39995706
29	0xcf	-0.7110348
30	0x09	-0.4767165
31	0x84	-1.0140325

tfl.pseudo_qconst25 i1 [32] scale=0.013246731 zero_point=-128
0	0x10	1.9075292
1	0x26	2.1989574
2	0xe4	1.324673
3	0x29	2.2386975
4	0x0c	1.8545424
5	0x31	2.3446715
6	0xc5	0.9140244
7	0xec	1.4306469
8	0x09	1.8148022
9	0x05	1.7618152
10	0x1e	2.0929835
11	0x09	1.8148022
12	0xe3	1.3114264
13	0x02	1.722075
14	0x17	2.0002563
15	0x1a	2.0399966
16	0xfe	1.6690881
17	0x0e	1.8810358
18	0x10	1.9075292
19	0x16	1.9870096
20	0x21	2.1327236
21	0x13	1.9472694
22	0x02	1.722075
23	0x2f	2.318178
24	0x20	2.119477
25	0x7f	3.3779163
26	0x17	2.0002563
27	0x23	2.1592171
28	0xc5	0.9140244
29	0xe2	1.2981796
30	0xf1	1.4968807
31	0x23	2.1592171

tfl.pseudo_qconst27 i1 [32, 3, 3, 32]
0	0x14	20
1	0x9d	-99
2	0xb0	-80
3	0x40	64
4	0xfa	-6
5	0x37	55
6	0xf8	-8
7	0x54	84
8	0xbd	-67
9	0x25	37
10	0xe6	-26
11	0x4f	79
12	0xea	-22
13	0x32	50
14	0x2a	42
15	0x61	97
16	0x05	5
17	0x70	112
18	0x63	99
19	0x3d	61
20	0xf1	-15
21	0x1f	31
22	0x43	67
23	0xdf	-33
24	0x60	96
25	0x2d	45
26	0xed	-19
27	0xe6	-26
28	0x05	5
29	0x92	-110
30	0x31	49
31	0x0c	12
32	0x4a	74
33	0x63	99
34	0x60	96
35	0xad	-83
36	0xa9	-87
37	0x00	0
38	0xfe	-2
39	0xf3	-13
40	0x26	38
41	0x30	48
42	0x58	88
43	0x0a	10
44	0x8f	-113
45	0x2f	47
46	0x23	35
47	0xb8	-72
48	0x30	48
49	0x76	118
50	0x97	-105
51	0x8f	-113
52	0x9f	-97
53	0x06	6
54	0x3f	63
55	0xbc	-68
56	0x62	98
57	0xb6	-74
58	0x26	38
59	0x8d	-115
60	0x4e	78
61	0xa3	-93
62	0xbb	-69
63	0xa8	-88
64	0xc2	-62
65	0xe8	-24
66	0x1f	31
67	0xcb	-53
68	0x0a	10
69	0xaf	-81
70	0x70	112
71	0xd8	-40
72	0x4a	74
73	0xa1	-95
74	0x7c	124
75	0xa7	-89
76	0x81	-127
77	0x45	69
78	0xa2	-94
79	0xb6	-74
80	0xb0	-80
81	0x1e	30
82	0x4c	76
83	0x32	50
84	0xfe	-2
85	0xb2	-78
86	0xbe	-66
87	0x09	9
88	0x14	20
89	0xb8	-72
90	0x32	50
91	0xc5	-59
92	0xe0	-32
93	0x2a	42
94	0x4e	78
95	0x3f	63
96	0x9d	-99
97	0x25	37
98	0x56	86
99	0x17	23
100	0x30	48
101	0x1a	26
102	0x95	-107
103	0x97	-105
104	0xd2	-46
105	0x0b	11
106	0x6e	110
107	0xb0	-80
108	0xb0	-80
109	0x16	22
110	0xb9	-71
111	0xf5	-11
112	0x21	33
113	0xf6	-10
114	0xbc	-68
115	0xe0	-32
116	0x1e	30
117	0xc8	-56
118	0x0a	10
119	0x2c	44
120	0x90	-112
121	0x2e	46
122	0x62	98
123	0x19	25
124	0xf9	-7
125	0xa1	-95
126	0x29	41
127	0x31	49
128	0x34	52
129	0x43	67
130	0x12	18
131	0x22	34
132	0xdb	-37
133	0xd8	-40
134	0xec	-20
135	0xd9	-39
136	0x8f	-113
137	0xd7	-41
138	0x57	87
139	0xe9	-23
140	0xc8	-56
141	0xdf	-33
142	0xd5	-43
143	0x4a	74
144	0x50	80
145	0x4b	75
146	0xf4	-12
147	0x4b	75
148	0x04	4
149	0xb0	-80
150	0x63	99
151	0xa0	-96
152	0xdd	-35
153	0xc7	-57
154	0x43	67
155	0xd8	-40
156	0x48	72
157	0x1a	26
158	0xca	-54
159	0xac	-84
160	0x20	32
161	0xf2	-14
162	0x3f	63
163	0x91	-111
164	0xb4	-76
165	0xe6	-26
166	0x8a	-118
167	0x47	71
168	0xa1	-95
169	0x2a	42
170	0xea	-22
171	0x6c	108
172	0xf8	-8
173	0x32	50
174	0xd0	-48
175	0xf7	-9
176	0xb7	-73
177	0x14	20
178	0xc9	-55
179	0xce	-50
180	0x9f	-97
181	0x5d	93
182	0xf0	-16
183	0xfd	-3
184	0x29	41
185	0x29	41
186	0xf3	-13
187	0x38	56
188	0x19	25
189	0x4f	79
190	0xa4	-92
191	0x3f	63
192	0x09	9
193	0xd7	-41
194	0x02	2
195	0xe2	-30
196	0xfa	-6
197	0xf8	-8
198	0x31	49
199	0x19	25
200	0x1d	29
201	0x66	102
202	0xc6	-58
203	0x2d	45
204	0x59	89
205	0x11	17
206	0xf3	-13
207	0xa9	-87
208	0x11	17
209	0xd6	-42
210	0x46	70
211	0x15	21
212	0x02	2
213	0x35	53
214	0xdc	-36
215	0x52	82
216	0x28	40
217	0xbf	-65
218	0xbb	-69
219	0x2d	45
220	0x30	48
221	0x3e	62
222	0x40	64
223	0x61	97
224	0x66	102
225	0x32	50
226	0x9c	-100
227	0xcb	-53
228	0x74	116
229	0xe2	-30
230	0xe5	-27
231	0x3b	59
232	0x25	37
233	0x22	34
234	0x30	48
235	0x4e	78
236	0xfb	-5
237	0x66	102
238	0xf9	-7
239	0xda	-38
240	0x61	97
241	0x4a	74
242	0x49	73
243	0x1f	31
244	0x38	56
245	0x55	85
246	0xc2	-62
247	0x06	6
248	0xd1	-47
249	0xff	-1
250	0xc4	-60
251	0xd6	-42
252	0xfa	-6
253	0xa5	-91
254	0xab	-85
255	0xf7	-9

tfl.pseudo_qconst28 i1 [32] scale=0.005003168 zero_point=127
0	0x3f	-0.32020274
1	0x3e	-0.3252059
2	0x01	-0.63039917
3	0x32	-0.38524392
4	0x35	-0.37023443
5	0xe4	-0.775491
6	0xd8	-0.835529
7	0x35	-0.37023443
8	0x15	-0.5303358
9	0x22	-0.4652946
10	0x2d	-0.41025975
11	0x8a	-1.2257761
12	0x37	-0.3602281
13	0xa4	-1.0956937
14	0x35	-0.37023443
15	0xdd	-0.8105132
16	0x96	-1.1657381
17	0x3d	-0.33020908
18	0x35	-0.37023443
19	0xec	-0.73546565
20	0x3a	-0.34521857
21	0x29	-0.43027243
22	0x80	-1.2758077
23	0x3a	-0.34521857
24	0x3b	-0.3402154
25	0xbd	-0.97061455
26	0xa1	-1.1107032
27	0xfe	-0.64540863
28	0xa7	-1.0806842
29	0x16	-0.5253326
30	0xfa	-0.6654213
31	0x2b	-0.4202661

tfl.pseudo_qconst29 i1 [32] scale=0.076124646 zero_point=-128
0	0x13	11.190323
1	0xcb	5.709348
2	0x41	14.692057
3	0xd3	6.3183455
4	0x03	9.972328
5	0x08	10.352952
6	0xf3	8.754334
7	0xd6	6.5467196
8	0xe7	7.8408384
9	0x15	11.342572
10	0xfe	9.591705
11	0x12	11.114199
12	0x16	11.418696
13	0x3a	14.159184
14	0x67	17.584793
15	0xf8	9.134957
16	0x33	13.626311
17	0xd3	6.3183455
18	0xec	8.221461
19	0x08	10.352952
20	0x14	11.266448
21	0x61	17.128046
22	0x09	10.429076
23	0xf3	8.754334
24	0x30	13.397938
25	0x04	10.048453
26	0x36	13.854686
27	0x0b	10.581326
28	0x36	13.854686
29	0xfe	9.591705
30	0x7f	19.411785
31	0x7e	19.33566

tfl.pseudo_qconst31 i1 [32, 3, 3, 1]
0	0xf8	-8
1	0x0d	13
2	0x82	-126
3	0x21	33
4	0x4c	76
5	0x83	-125
6	0xa6	-90
7	0x81	-127
8	0x6b	107
9	0x83	-125
10	0x12	18
11	0x98	-104
12	0xfc	-4
13	0x46	70
14	0x5d	93
15	0x34	52
16	0xf8	-8
17	0x81	-127
18	0x7f	127
19	0x20	32
20	0x6d	109
21	0x65	101
22	0x12	18
23	0x26	38
24	0xb8	-72
25	0x83	-125
26	0x9a	-102
27	0x7f	127
28	0xe0	-32
29	0xa6	-90
30	0x0a	10
31	0x96	-106
32	0x9b	-101
33	0xd1	-47
34	0x3a	58
35	0x62	98
36	0x15	21
37	0x9b	-101
38	0x60	96
39	0xc6	-58
40	0x9b	-101
41	0x20	32
42	0x7f	127
43	0xa5	-91
44	0xe4	-28
45	0x7b	123
46	0x32	50
47	0x7f	127
48	0xa2	-94
49	0x9e	-98
50	0x4e	78
51	0x03	3
52	0x5c	92
53	0xcc	-52
54	0xfb	-5
55	0xcf	-49
56	0xc0	-64
57	0x23	35
58	0x72	114
59	0x7f	127
60	0xef	-17
61	0x5b	91
62	0xd8	-40
63	0x7f	127
64	0xca	-54
65	0xad	-83
66	0xcc	-52
67	0x9f	-97
68	0xc2	-62
69	0x65	101
70	0xd6	-42
71	0x9f	-97
72	0x00	0
73	0xc3	-61
74	0x81	-127
75	0x23	35
76	0xc9	-55
77	0xe1	-31
78	0x48	72
79	0x71	113
80	0x00	0
81	0x21	33
82	0x05	5
83	0x88	-120
84	0x36	54
85	0x64	100
86	0xfd	-3
87	0x4c	76
88	0x81	-127
89	0x13	19
90	0x12	18
91	0xeb	-21
92	0xa1	-95
93	0xab	-85
94	0x99	-103
95	0x66	102
96	0xaf	-81
97	0x77	119
98	0x81	-127
99	0x0d	13
100	0x35	53
101	0x15	21
102	0x6f	111
103	0x16	22
104	0x90	-112
105	0x7f	127
106	0x3b	59
107	0x7c	124
108	0xe8	-24
109	0x03	3
110	0x5c	92
111	0x0e	14
112	0xb9	-71
113	0xbf	-65
114	0xf5	-11
115	0x45	69
116	0x81	-127
117	0xd6	-42
118	0x41	65
119	0xfc	-4
120	0x81	-127
121	0x41	65
122	0x7a	122
123	0x2b	43
124	0x7a	122
125	0x11	17
126	0x32	50
127	0x02	2
128	0x4a	74
129	0x81	-127
130	0x0c	12
131	0x56	86
132	0x9b	-101
133	0xc4	-60
134	0x1c	28
135	0x59	89
136	0x69	105
137	0x7f	127
138	0x9e	-98
139	0xb9	-71
140	0x42	66
141	0xe6	-26
142	0xbe	-66
143	0x33	51
144	0xac	-84
145	0x0e	14
146	0x66	102
147	0x7f	127
148	0x59	89
149	0x36	54
150	0x7f	127
151	0x68	104
152	0xdf	-33
153	0x97	-105
154	0xb4	-76
155	0x31	49
156	0xff	-1
157	0xde	-34
158	0xea	-22
159	0xad	-83
160	0xd6	-42
161	0x81	-127
162	0x54	84
163	0xb8	-72
164	0xd9	-39
165	0xb1	-79
166	0xb8	-72
167	0x81	-127
168	0x50	80
169	0x0b	11
170	0xa9	-87
171	0x81	-127
172	0x23	35
173	0xba	-70
174	0x4d	77
175	0x61	97
176	0x50	80
177	0x44	68
178	0x4d	77
179	0xdf	-33
180	0x41	65
181	0x11	17
182	0xca	-54
183	0x54	84
184	0x94	-108
185	0x9f	-97
186	0xbf	-65
187	0xc8	-56
188	0x7f	127
189	0xde	-34
190	0x6f	111
191	0x81	-127
192	0xea	-22
193	0x0d	13
194	0xb0	-80
195	0xf3	-13
196	0x5a	90
197	0xb9	-71
198	0xfd	-3
199	0x7a	122
200	0x7c	124
201	0x7f	127
202	0x12	18
203	0xc1	-63
204	0xee	-18
205	0x79	121
206	0x30	48
207	0x6c	108
208	0x15	21
209	0xd5	-43
210	0x81	-127
211	0x95	-107
212	0x4b	75
213	0x92	-110
214	0xca	-54
215	0x3a	58
216	0x12	18
217	0x8b	-117
218	0x5c	92
219	0x7f	127
220	0xfa	-6
221	0x06	6
222	0xf2	-14
223	0x81	-127
224	0xfe	-2
225	0x79	121
226	0x5f	95
227	0xdf	-33
228	0x8f	-113
229	0x40	64
230	0xdb	-37
231	0x7f	127
232	0x45	69
233	0x1e	30
234	0x64	100
235	0xea	-22
236	0x09	9
237	0x12	18
238	0x7f	127
239	0x25	37
240	0xdc	-36
241	0x3c	60
242	0xe9	-23
243	0x00	0
244	0x9b	-101
245	0xda	-38
246	0x81	-127
247	0xfe	-2
248	0x37	55
249	0x75	117
250	0x4a	74
251	0x27	39
252	0x9a	-102
253	0x35	53
254	0x43	67
255	0xff	-1
