Model/model_0.tflite (tflite, 684820 bytes, 36 tensors)

arith.constant f4 [64]
0	0xbf301d6b	-0.6879489
1	0xbf13883d	-0.5762976
2	0xbece7022	-0.40319926
3	0xbf1627bc	-0.5865438
4	0xbf6ad0a2	-0.917246
5	0xbf27046d	-0.6524113
6	0xbebdf5b4	-0.3710152
7	0xbf2a6eb7	-0.6657519
8	0xbe885ceb	-0.2663339
9	0xbf701d65	-0.9379485
10	0xbf4620fc	-0.7739408
11	0xbf5b1425	-0.85577613
12	0xbf52e63e	-0.8238257
13	0xbf5d5d30	-0.8647032
14	0xbf1a46d9	-0.60264355
15	0xbf533353	-0.8250019
16	0xbf034030	-0.5126982
17	0xbf59097d	-0.847801
18	0xbf4141ba	-0.75490916
19	0xbf9597f9	-1.1687003
20	0xbee56d52	-0.44809967
21	0xbf58f703	-0.8475191
22	0xbf6f4c30	-0.9347563
23	0xbf36872d	-0.7130001
24	0xbf7fa7ac	-0.9986522
25	0xbf48845e	-0.78326976
26	0xbf4c9d79	-0.79927784
27	0xbef6bf15	-0.4819266
28	0xbf4d546b	-0.80206937
29	0xbeba26d7	-0.36357757
30	0xbf80b1c1	-1.0054246
31	0xbf050909	-0.5196691
32	0xbf8f5119	-1.1196624
33	0xbe87c13b	-0.2651461
34	0xbf152114	-0.582536
35	0xbf8f0a4c	-1.1175017
36	0xbf40618f	-0.7514886
37	0xbf876213	-1.0576805
38	0xbf1f8c15	-0.62323123
39	0xbf5e7437	-0.8689608
40	0xbe934c41	-0.28769115
41	0xbf4c69ad	-0.7984875
42	0xbf4f7c46	-0.81049
43	0xbee32cc0	-0.4437008
44	0xbe957034	-0.29187167
45	0xbf55e161	-0.83547026
46	0xbf22aa74	-0.6354134
47	0xbec47e0e	-0.38377422
48	0xbf83c358	-1.0293989
49	0xbf0417f6	-0.5159906
50	0xbf956e00	-1.1674194
51	0xbf1b1999	-0.60585934
52	0xbf50ef75	-0.8161538
53	0xbef273ef	-0.47354075
54	0xbf369865	-0.71326286
55	0xbf51fdfa	-0.8202816
56	0xbf007c3a	-0.50189555
57	0xbf3e79ef	-0.74404806
58	0xbf265b0a	-0.64982665
59	0xbf5199fe	-0.818756
60	0xbf9418d7	-1.157008
61	0xbf681fa1	-0.9067326
62	0xbf2a05f8	-0.6641536
63	0xbf315bd1	-0.69280726

arith.constant1 f4 [64]
0	0xbeb3ebf6	-0.3514096
1	0xbf76d5de	-0.96420085
2	0xbee704ea	-0.45120937
3	0xbf3a22ff	-0.7270965
4	0xbf994394	-1.1973748
5	0xbf578d46	-0.8419994
6	0xbf175d9c	-0.5912721
7	0xbf0c7fb5	-0.54882365
8	0xbfad9b4b	-1.3563017
9	0xbf62d8c2	-0.88611996
10	0xbeeb9aa4	-0.4601642
11	0xbe5ce246	-0.21570691
12	0xbf73dba3	-0.95257014
13	0xbf3c9024	-0.7365744
14	0xbf59911b	-0.8498704
15	0xbf2cdcfe	-0.6752471
16	0xbef51969	-0.4787095
17	0xbfac1f5a	-1.3447068
18	0xbf41ad10	-0.756547
19	0xbf67e78d	-0.90587693
20	0xbd601dbd	-0.05471586
21	0xbf999884	-1.1999669
22	0xbf0909e2	-0.53530705
23	0xbf2ecab0	-0.68278027
24	0xbf6c3e5f	-0.9228267
25	0xbee2f5ef	-0.44328257
26	0xbea6095b	-0.32429013
27	0xbf7c5f9e	-0.985834
28	0xbe826eb5	-0.25475088
29	0xbf14aa5a	-0.58072436
30	0xbf705c41	-0.9389077
31	0x3e4aa89c	0.19790882
32	0xbf454d6a	-0.7707125
33	0xbdf92b86	-0.121665046
34	0xbf2cf27c	-0.675575
35	0x3aab50df	0.0013070366
36	0xbe2479c6	-0.16062078
37	0xbee279dc	-0.44233596
38	0xbf1061ed	-0.5639942
39	0xbed7501e	-0.42053312
40	0xbed554b3	-0.41666183
41	0xbf0eaf66	-0.55736387
42	0xbf3ab9e0	-0.7293987
43	0xbeebf59d	-0.46085826
44	0xbee961c5	-0.45582405
45	0xbf013e00	-0.5048523
46	0xbf4cebc3	-0.80047244
47	0xbf53a67d	-0.82675916
48	0xbf250724	-0.6446402
49	0xbe067d98	-0.13133848
50	0x3e820d3f	0.2540073
51	0xbf8535bf	-1.0407027
52	0xbf47416d	-0.77834207
53	0xbf372fd0	-0.7155733
54	0xbfba75e1	-1.4567224
55	0xbe13ac6d	-0.14421244
56	0xbe9fc67e	-0.31206125
57	0xbf59ec36	-0.85126054
58	0xbf18f1fc	-0.5974424
59	0xbf1ff54e	-0.6248368
60	0xbf70d7b8	-0.9407916
61	0xbf1086d5	-0.5645574
62	0xbeb97246	-0.36219996
63	0xbf60fdc8	-0.8788724

arith.constant2 f4 [64]
0	0xbf8f78e4	-1.1208768
1	0xbf34e1d4	-0.70657086
2	0xbf39eb0d	-0.72624284
3	0xbed8c549	-0.42338017
4	0xbf1c20fc	-0.6098783
5	0xbf95b607	-1.1696175
6	0x3dcc22d3	0.0996758
7	0xbea46686	-0.3210947
8	0x3f310bd5	0.6915868
9	0x3d1059a9	0.035241757
10	0x3e39c6f2	0.18142298
11	0xbee071a7	-0.4383671
12	0xb734fb98	-1.0787415e-05
13	0xbee35f70	-0.4440875
14	0xbe7dbb23	-0.24778418
15	0xbf0ae9c6	-0.5426296
16	0xbf09ba5c	-0.53799987
17	0xbea076ae	-0.31340545
18	0xbee81da2	-0.45335108
19	0xbd69d9d8	-0.057092518
20	0x3dcc36e2	0.099714056
21	0xbe95f0ac	-0.2928518
22	0x3eb3c6df	0.35112664
23	0x3e044538	0.1291703
24	0x3e8a955c	0.27067077
25	0xbf3f612b	-0.7475764
26	0xbe5ec215	-0.21753724
27	0xbf9b871c	-1.2150607
28	0xbe2f0216	-0.1709064
29	0xbf9143e7	-1.1348847
30	0xbf3ca9ce	-0.736966
31	0xbf5d5fab	-0.864741
32	0xbf18d543	-0.5970041
33	0x3ebaf933	0.3651825
34	0xbf0294db	-0.51008385
35	0xbf2a01ae	-0.66408813
36	0x3e40e0d9	0.18835773
37	0x3e746c96	0.23869547
38	0x3e80d0a5	0.25159183
39	0x3e39f0ce	0.18158266
40	0xbed6b41c	-0.41934288
41	0xbf3aa388	-0.7290578
42	0xbd64c8ed	-0.05585568
43	0xbd374c8d	-0.04475074
44	0xbe925a42	-0.28584486
45	0x3d40bb0f	0.047053393
46	0xbe71f894	-0.23629981
47	0xbe2f9713	-0.17147474
48	0xbe56feab	-0.20995586
49	0xbe17a4cd	-0.1480896
50	0xbfe99711	-1.8249227
51	0xbe670448	-0.22560227
52	0xbeb57fa0	-0.35448933
53	0xbf64a900	-0.89320374
54	0xbe80f2aa	-0.25185138
55	0xbe9d2dcf	-0.30699012
56	0xbf34e822	-0.70666707
57	0xbf60e2db	-0.87846154
58	0x3f16534c	0.5872085
59	0x3e91fb89	0.2851222
60	0xbf1d03e7	-0.6133408
61	0xbf3ae4c4	-0.7300532
62	0xbf337230	-0.7009611
63	0xbe624cf0	-0.22099662

arith.constant3 f4 [64]
0	0xbead3796	-0.3383147
1	0xbf067c76	-0.5253366
2	0x3e650292	0.22364262
3	0xbec84c77	-0.39120838
4	0xbe0a3d45	-0.13499935
5	0x3a95c6df	0.0011427066
6	0xbf03d27a	-0.51493037
7	0x3eecaa3e	0.46223634
8	0xbe7941ff	-0.24341582
9	0x3cba0911	0.022709401
10	0xbf0797c5	-0.52965957
11	0x3edd7a13	0.43257198
12	0xbe04c216	-0.12964663
13	0xbf030b1d	-0.5118883
14	0xbdcd8ead	-0.10036979
15	0x3eb39940	0.35077858
16	0xbf696295	-0.9116605
17	0xbf1f03d0	-0.6211519
18	0xbf47fe67	-0.7812256
19	0x3de626b3	0.1123785
20	0xbf13461a	-0.5752884
21	0xbecd7cd5	-0.40134302
22	0x3f5d6ea1	0.8649693
23	0xbe7802e6	-0.24219856
24	0xbeb00370	-0.34377623
25	0xbe962668	-0.29326177
26	0x3e7e3994	0.24826652
27	0xbed4c683	-0.41557702
28	0xbec3a63e	-0.3821277
29	0x3ea97e67	0.3310425
30	0x3ea5b6a5	0.3236591
31	0x3f03c323	0.5146963
32	0xbeb96215	-0.36207643
33	0xbc47cc86	-0.012194758
34	0x3eb3e955	0.35138956
35	0xbe22fc56	-0.15916571
36	0xbe4fb56a	-0.20284048
37	0xbe1d4d9e	-0.1536164
38	0x3ddfb4f8	0.10923189
39	0xbe94f10c	-0.29090154
40	0xbe78b925	-0.24289377
41	0x3f8e6511	1.1124593
42	0xbefaf210	-0.49012804
43	0xbe806aed	-0.25081578
44	0x3ca52b1b	0.020162156
45	0xbf0695d5	-0.52572376
46	0xbf16e08f	-0.589364
47	0xbf31851c	-0.69343734
48	0xbf8229e1	-1.016903
49	0xbfab17c6	-1.336663
50	0xbf321207	-0.6955876
51	0xbf27c270	-0.65531063
52	0xbf8445ed	-1.033384
53	0x3f129b6b	0.572684
54	0x3e30515c	0.17218536
55	0x3f1ab518	0.6043258
56	0x3e251eff	0.16125105
57	0xbe3a3142	-0.18182853
58	0xbeb278f0	-0.34857893
59	0xbc32d148	-0.010914154
60	0xbdf4df03	-0.119565986
61	0xbedf9628	-0.43669248
62	0x3d2dc2b4	0.04242201
63	0xbed1d322	-0.40981394

arith.constant4 f4 [32]
0	0x3f4ea0e1	0.8071423
1	0x3e355fd0	0.17712331
2	0x3fc37034	1.5268617
3	0xbee177c8	-0.44036698
4	0x3d8a6b16	0.06758706
5	0xbe052e7e	-0.13006017
6	0x3f19b410	0.6004038
7	0x3f5190a1	0.8186131
8	0xbc1a4f26	-0.0094182845
9	0x3e7b475c	0.2453894
10	0x3daba074	0.083802134
11	0xbbe51599	-0.0069911
12	0x3f43c400	0.7647095
13	0xbe5ab842	-0.21359351
14	0xbef43bc1	-0.4770184
15	0x3e99f831	0.30072168
16	0x3d89c52a	0.06727059
17	0xbf2eab1e	-0.68229854
18	0xbe94d304	-0.29067242
19	0x3e8444e1	0.258338
20	0xbe900613	-0.28129634
21	0x3f050310	0.519578
22	0x3f1ea204	0.61965966
23	0x3f1b9342	0.6077157
24	0x3ef027a9	0.46905258
25	0xbf254bb7	-0.64568657
26	0x3e823f50	0.2543893
27	0x3f46e3af	0.7769117
28	0x3e9b0d46	0.30283564
29	0xbe054aa5	-0.13016756
30	0xbf3d7893	-0.74012107
31	0x3ee83d1c	0.45359123

arith.constant5 f4 [32]
0	0xbe933e96	-0.28758687
1	0x3f0eea4b	0.5582625
2	0x3f12a1ea	0.5727831
3	0xbf50f685	-0.8162616
4	0x3e9ec881	0.31012347
5	0x3ed1204b	0.4084495
6	0x3fbee448	1.4913416
7	0x3f4b0ba5	0.79314643
8	0x3eb2e0cd	0.34937134
9	0x3f8357ae	1.0261133
10	0xbf00ec6e	-0.50360763
11	0xbe3096ff	-0.172451
12	0xbe55b340	-0.2086916
13	0xbe76088e	-0.24026701
14	0x3ee59d9d	0.44846812
15	0xbb0cce58	-0.0021485295
16	0x3eeb1bc1	0.45919612
17	0x3edc0372	0.4297138
18	0xbe69a826	-0.2281805
19	0xbe8b3111	-0.27185872
20	0x3f0780c8	0.5293088
21	0x3e88120d	0.26576272
22	0xbdff7e07	-0.1247521
23	0x3f250298	0.6445708
24	0x3e485b2a	0.19566026
25	0x3dc8ed3b	0.09810873
26	0xbd7df01e	-0.06199657
27	0x3f313d84	0.6923449
28	0x3eb0d59f	0.3453798
29	0x3e97abb2	0.2962318
30	0xbaeb925d	-0.0017972697
31	0x3dd6a4ad	0.10480628

arith.constant6 f4 [32]
0	0x3f14b45e	0.5808772
1	0x3f18c291	0.59671885
2	0x3e2ad900	0.16684341
3	0x3ea7b092	0.327519
4	0xbede8d4f	-0.43467185
5	0x3d87b2a8	0.06625873
6	0xbd193db6	-0.037412368
7	0x3ef5f2f1	0.48036912
8	0xbe6aab7e	-0.22916982
9	0x3f7ad03a	0.9797398
10	0xbc99553b	-0.018717399
11	0xbdac3f2d	-0.08410487
12	0x3a585851	0.0008252906
13	0xbfdc2a98	-1.7200499
14	0xbed1e7fc	-0.40997303
15	0xbec83db1	-0.39109567
16	0xbd539dcf	-0.05166417
17	0xbfaab04c	-1.3335052
18	0x3eedb655	0.4642817
19	0xbf0fd1a2	-0.5617925
20	0x3e316570	0.17323852
21	0x3e8d8adf	0.27645013
22	0x3e407fac	0.18798703
23	0xbddcd4c0	-0.10782766
24	0xbd5b61c6	-0.05356004
25	0x3e2268c0	0.15860271
26	0x3ee1b0cf	0.44080207
27	0xbde27b26	-0.11058645
28	0xbf6553d7	-0.89581054
29	0xbeca552f	-0.39518115
30	0x3f046518	0.51716757
31	0xbebb6db4	-0.36607134

arith.constant7 f4 [64, 3, 3, 64]
0	0x3eccc4eb	0.39993986
1	0xbe1ad9cb	-0.15122144
2	0xbf732a6a	-0.94986594
3	0xbeaa4c5a	-0.33261377
4	0xbd4b56d1	-0.04964334
5	0xbf1b9a9b	-0.60782784
6	0xbe9be6c2	-0.30449492
7	0x3ef02814	0.46905577
8	0xbf6288ab	-0.8848979
9	0xbf238b32	-0.6388427
10	0xbef53179	-0.47889307
11	0xbda6e3e7	-0.08148938
12	0xbf8b7b51	-1.0897008
13	0x3ee150ae	0.44006866
14	0x3e8e4a05	0.27790847
15	0xbd7fd68a	-0.06246046
16	0x3e76f5ae	0.24117157
17	0x3f1ddbf3	0.6166374
18	0xbeb58c69	-0.35458687
19	0xbe43f80c	-0.19137591
20	0xbf1115d0	-0.5667391
21	0x3cf7911a	0.030220557
22	0x3f3483c0	0.70513535
23	0xbfa328d6	-1.2746837
24	0x3ef3a01c	0.4758309
25	0xbfcc6593	-1.5968498
26	0xbfcbfc9b	-1.5936464
27	0x3f2a54d4	0.6653569
28	0xbeca90c7	-0.3956358
29	0xbe438d3c	-0.19096845
30	0xbe0720a1	-0.1319604
31	0x3ef22af9	0.4729841
32	0xbf2d41b4	-0.6767838
33	0x3d05d3ac	0.03267257
34	0x3f1b135b	0.6057641
35	0xbe66c7f5	-0.22537215
36	0xbe80cc58	-0.25155902
37	0xbeb410e7	-0.35169145
38	0x3d65f10e	0.05613809
39	0x3f6c7335	0.9236329
40	0x3f4696f1	0.7757407
41	0xbf0e20f7	-0.5551905
42	0xbf96b93e	-1.1775281
43	0xbf3d1d61	-0.73872954
44	0xbe5d4288	-0.21607411
45	0xbef80032	-0.4843765
46	0xbd39e0eb	-0.045380514
47	0x3e92c34a	0.2866462
48	0x3e026440	0.12733555
49	0xbe3efe44	-0.18651682
50	0x3f5605a4	0.83602357
51	0x3edba679	0.42900446
52	0xbf2141e8	-0.6299119
53	0xbe9f0842	-0.31060988
54	0xbf20dad7	-0.62833923
55	0xbee5693c	-0.4480685
56	0xbe91af2e	-0.28453964
57	0x3ea45a91	0.32100347
58	0x3ef2b7a7	0.4740574
59	0x3f00d6c8	0.5032773
60	0xbd98979f	-0.074507944
61	0xbd260e17	-0.04054078
62	0xbd846883	-0.064652465
63	0xbe28d32e	-0.16486809
64	0xbe4be47c	-0.19911379
65	0xbe690da9	-0.22759117
66	0x3db26598	0.08710784
67	0x3dc9f56a	0.09861262
68	0xbb83d15a	-0.0040227594
69	0xbeb14f6b	-0.34630904
70	0x3db8acab	0.09017309
71	0x3e71bee4	0.23607975
72	0xbf938126	-1.1523788
73	0xbf140085	-0.5781329
74	0xbdca74f8	-0.09885591
75	0x3eb16f2b	0.34655127
76	0xbeb71ab3	-0.35762557
77	0xbf1c96a9	-0.6116739
78	0x3f35c070	0.7099676
79	0x3f0f60fa	0.5600735
80	0xbc9f8943	-0.019474631
81	0x3efdff4d	0.49608842
82	0x3c0eb955	0.008711179
83	0xbea7beda	-0.32762796
84	0xbe4af0e3	-0.19818453
85	0xbe012878	-0.12613094
86	0x3e8cb193	0.27479228
87	0x3e6d9952	0.23203018
88	0x3eb55be8	0.3542168
89	0x3f8c1be0	1.0946007
90	0x3ea7f21e	0.32801908
91	0xbf176b96	-0.5914854
92	0x3d688d8c	0.056775615
93	0x3c779668	0.015111543
94	0xbe97e8a1	-0.2966967
95	0xbd8c62c2	-0.06854774
96	0xbf052651	-0.5201159
97	0x3e8198fa	0.25312024
98	0xbf108334	-0.564502
99	0xbec68693	-0.38774547
100	0x3e3d3ad9	0.1847948
101	0xbf10f4b7	-0.56623405
102	0x3c093278	0.008373849
103	0xbc9dc8ae	-0.01926073
104	0xbf405f32	-0.75145257
105	0xbf87b5cb	-1.0602354
106	0xbf40cd31	-0.753131
107	0x3f439697	0.76401657
108	0xbe8c6eb9	-0.27428225
109	0x3f095ea4	0.53660035
110	0x3eacc66c	0.33745134
111	0x3eb0dc87	0.3454325
112	0xbe566ea3	-0.20940642
113	0x3e1c0da0	0.15239573
114	0x3f08cb2f	0.53435034
115	0x3e9b3ff0	0.30322218
116	0x3e24843d	0.1606607
117	0x3e230b08	0.15922177
118	0x3ef6c2d8	0.4819553
119	0x3ea3d29f	0.3199663
120	0xbf2a28b5	-0.66468364
121	0x3e9c8b54	0.3057505
122	0xbe55f692	-0.2089484
123	0xbe885293	-0.266255
124	0xbf0f136c	-0.5588901
125	0x3ebfc2b0	0.37453222
126	0x3f22a58d	0.6353386
127	0x3f259d49	0.64693123
128	0xbf6204c2	-0.8828851
129	0xbf8ddff4	-1.108397
130	0x3df1f37f	0.11814021
131	0x3e1586c9	0.14602198
132	0x3db82a1b	0.08992406
133	0xbea874bf	-0.3290157
134	0xbebf8264	-0.37404168
135	0xbecc507c	-0.39905155
136	0xbf9ae8d7	-1.2102307
137	0x3e0b06ab	0.13576762
138	0x3f1da5f2	0.6158134
139	0x3ec86e10	0.3914647
140	0x3f767a40	0.9628029
141	0x3f94e96b	1.1633734
142	0x3f66010c	0.8984535
143	0xbd0f53d3	-0.03499205
144	0x3e8fc53d	0.28080168
145	0xbf9c1323	-1.219334
146	0x3eb54a0e	0.35408062
147	0x3ed0341d	0.4066476
148	0x3e6f9c58	0.23399484
149	0xbec8f9c3	-0.39253053
150	0xbd1a44da	-0.03766332
151	0xbf7b43e8	-0.9815049
152	0x3f215a42	0.6302835
153	0xbd4b6ead	-0.049666096
154	0xbf886120	-1.065464
155	0xbedf3b2b	-0.4359983
156	0x3f6b49d8	0.9190955
157	0xbf948d9c	-1.1605716
158	0xbf6f5952	-0.93495667
159	0x3de41fd8	0.11138886
160	0xbf0497f0	-0.5179434
161	0xbe0844db	-0.13307516
162	0x3f585123	0.84498805
163	0x3e722699	0.23647536
164	0xbe84f997	-0.25971672
165	0xbe8db2a6	-0.2767536
166	0xbf3d679f	-0.7398624
167	0x3ea864cf	0.3288941
168	0xbf04a5e6	-0.5181564
169	0xbeb3f19a	-0.35145265
170	0xbf54a013	-0.83056754
171	0x3dbfcaa7	0.09364825
172	0xbe969fc0	-0.29418755
173	0xbd112b18	-0.035441488
174	0x3f5d03b9	0.86333805
175	0xbebf5c0d	-0.37374917
176	0x3d013f35	0.03155442
177	0xbe06e2aa	-0.13172403
178	0xbdeec277	-0.11658185
179	0x3e3743fc	0.17897028
180	0x3eb44e5d	0.35216036
181	0x3eabf37a	0.33584195
182	0xbf456c62	-0.77118504
183	0xbeacaa0c	-0.33723485
184	0x3f58a548	0.846272
185	0xbee9000b	-0.45507845
186	0xbf92650c	-1.1437087
187	0x3e3ed75f	0.18636845
188	0xbf80e79e	-1.0070684
189	0xbde070e0	-0.10959029
190	0xbe549daf	-0.20763277
191	0xbccf2591	-0.025286468
192	0x3e2cd7a0	0.1687913
193	0x3f6dff22	0.92967427
194	0x3dea2a2e	0.114338264
195	0xbf6bd54a	-0.9212233
196	0x3aa6c05f	0.0012722126
197	0xbea9f2d7	-0.33193085
198	0xbf32a4ae	-0.6978253
199	0xbe9a74da	-0.30167276
200	0xbe29dc94	-0.1658805
201	0x3f3bae8b	0.73313206
202	0xbe79b05c	-0.24383682
203	0x3dbc7d28	0.09203559
204	0xbc74f5a3	-0.0149511425
205	0x3e2262b7	0.15857969
206	0x3ea60fe1	0.3243399
207	0x3dde00c1	0.108399875
208	0xbf3d0f94	-0.73851895
209	0xbf873bc7	-1.0565118
210	0x3ee3beb9	0.44481447
211	0x3f00a87a	0.50257075
212	0xbf031a3a	-0.51211894
213	0x3f6d0fd4	0.92602277
214	0x3e91354c	0.28360975
215	0xbf6d7e62	-0.9277097
216	0xbf205fcd	-0.6264618
217	0xbd965a6f	-0.073414676
218	0xbef4aeab	-0.4778951
219	0x3e8331bd	0.25623885
220	0xbf0861c8	-0.532742
221	0xbee225c5	-0.4416944
222	0xbf26a8b4	-0.6510117
223	0xbe904636	-0.28178567
224	0xbf48b4fd	-0.78401166
225	0x3ea79377	0.32729694
226	0x3e71aba1	0.23600627
227	0xbf76a67d	-0.9634779
228	0x3e7df5c5	0.24800785
229	0x3d1021a6	0.03518834
230	0xbea8545a	-0.32876855
231	0xbc3542e8	-0.011063315
232	0xbf30c73e	-0.6905402
233	0x3beb9bd6	0.007190208
234	0xbf411d96	-0.7543577
235	0x3f7ddb86	0.9916309
236	0x3f232379	0.63726
237	0xbf14248b	-0.5786826
238	0xbef746af	-0.48296115
239	0x3e817659	0.25285605
240	0x3f562d6a	0.83663046
241	0x3f6e3f99	0.9306579
242	0xbe8c3f71	-0.27392152
243	0xbd288145	-0.041138906
244	0xbf6dcca0	-0.9289036
245	0xbe90c414	-0.28274596
246	0x3ec852ec	0.39125764
247	0xbee4a04b	-0.44653544
248	0x3edad46f	0.427402
249	0xbc93dceb	-0.018049678
250	0xbf4102af	-0.7539472
251	0xbeaab2fd	-0.33339682
252	0xbe397c54	-0.18113834
253	0xbf896c13	-1.0736107
254	0x3eb37fab	0.3505834
255	0xbeb4c949	-0.35309818

arith.constant8 f4 [64, 3, 3, 64]
0	0xbf2deb7f	-0.67937464
1	0xbee2a183	-0.4426385
2	0xbfb77cb5	-1.4334933
3	0xbe9e7cf3	-0.30954704
4	0xbf4424ea	-0.76618826
5	0x3eb6b419	0.3568428
6	0xbced1a2e	-0.028943148
7	0xbf2943fa	-0.6611935
8	0xbf3d1329	-0.7385736
9	0xbf845775	-1.033919
10	0xbe889aef	-0.26680705
11	0xbd3e80ee	-0.046509676
12	0x3f44aec2	0.7682916
13	0x3eeba92f	0.46027514
14	0x3ea1e0fb	0.3161696
15	0xbe604346	-0.21900663
16	0xbf0b5531	-0.54426867
17	0xbf194cab	-0.5988261
18	0xbf2e0321	-0.67973524
19	0x3cd477b3	0.025935983
20	0x3ed6f8b9	0.41986635
21	0xbf4070c2	-0.75172055
22	0x3e2a4822	0.16629079
23	0xbe879386	-0.2647974
24	0xbe9f4d22	-0.31113535
25	0xbd0bf2da	-0.03416715
26	0xbcc18432	-0.023622606
27	0x3ecadac3	0.39620027
28	0xbd3bc582	-0.045842655
29	0x3eddb7ac	0.43304193
30	0x3eb9fb5c	0.36324584
31	0xbe86f0ee	-0.2635569
32	0x3f2382e1	0.6387158
33	0x3e15d201	0.14630891
34	0xbf856700	-1.0422058
35	0xbcf7c42e	-0.030244913
36	0x3e9e0a5f	0.30867288
37	0xbecc58ce	-0.39911503
38	0x3ec3af7f	0.3821983
39	0xbd8c3991	-0.068469174
40	0x3d390647	0.045172002
41	0xbe3aeaf0	-0.18253684
42	0xbf4b2720	-0.79356575
43	0xbf0c84bc	-0.54890037
44	0xbe0368c7	-0.12832938
45	0x3d9c3faf	0.07629334
46	0x3edf0f3f	0.4356632
47	0xbf589b7c	-0.8461225
48	0x3f218af1	0.6310263
49	0xbe75a5ac	-0.2398898
50	0xbe0e61bd	-0.13904472
51	0x3f4ee3a4	0.808161
52	0x3ebe57a1	0.3717623
53	0x3e8e8b9b	0.27840886
54	0x3ed596d1	0.41716626
55	0x3ea2d953	0.3180643
56	0xbe578893	-0.21048193
57	0x3e4af9cf	0.19821857
58	0xbf6dc274	-0.92874837
59	0xbff0155f	-1.8756522
60	0x3f0ff0d8	0.56226873
61	0x3e870707	0.2637255
62	0xbe953caa	-0.29147846
63	0xbd1c52f9	-0.038165066
64	0x3e365599	0.1780609
65	0xbf89ed86	-1.0775611
66	0xbf7bf9b7	-0.9842791
67	0xbf5a50c8	-0.8527951
68	0xbf04c5b3	-0.51864165
69	0xbe650af3	-0.22367458
70	0x3e3f9a71	0.18711258
71	0xbf26edc3	-0.65206546
72	0xbe71ca3a	-0.236123
73	0xbf117d38	-0.56831694
74	0x3c617f64	0.013763282
75	0xbe93e2c3	-0.28883943
76	0x3e389c38	0.18028343
77	0xbf1d08ba	-0.6134144
78	0x3e3f999d	0.18710943
79	0x3ebb7b11	0.3661733
80	0xbe4b926d	-0.19880076
81	0xbe1b929f	-0.1519265
82	0x3dc05dae	0.09392868
83	0x3c1962e4	0.009361956
84	0x3ee886ce	0.45415348
85	0xbeb774e9	-0.35831383
86	0xbe7f30b7	-0.24920927
87	0xbde738cc	-0.1129013
88	0x3e486318	0.19569051
89	0xbe324a8f	-0.17411254
90	0xbf817024	-1.0112348
91	0x3d10cc79	0.03535125
92	0x3e776674	0.24160177
93	0x3e56500b	0.20928971
94	0x3f22c204	0.63577294
95	0xbde6b2a1	-0.112645395
96	0xbe1b1b3c	-0.15147108
97	0xbf0314f9	-0.51203877
98	0x3dd4a75e	0.10383485
99	0xbf0102b0	-0.50394726
100	0x3e87a924	0.26496232
101	0xbeb7815f	-0.3584089
102	0x3ed74a72	0.42048985
103	0xbec3d18f	-0.38245818
104	0xbd4dbbe2	-0.050228007
105	0xbe0e0a7e	-0.1387119
106	0xbf4dd084	-0.80396295
107	0xbca363d3	-0.01994506
108	0xbf2f5903	-0.68495196
109	0xbcf1ed3a	-0.029532064
110	0xbecf1d0d	-0.4045185
111	0xbc927287	-0.017876877
112	0x3c9b61bb	0.0189675
113	0x3db3d8a4	0.08781555
114	0xbe04ace2	-0.12956575
115	0xbf063ec2	-0.5243951
116	0x3f4cf450	0.8006029
117	0x3e6b8662	0.23000482
118	0x3f1a6a15	0.6031812
119	0x3db19f59	0.08672971
120	0x3e1e91f5	0.15485366
121	0xbd453e4e	-0.04815512
122	0xbeb6507a	-0.35608274
123	0xbfafc96a	-1.3733342
124	0x3ecfdeef	0.40599772
125	0xbed7c34d	-0.4214119
126	0x3e22b281	0.15888406
127	0xbef546e8	-0.4790566
128	0x3f048df6	0.51779115
129	0xbead86f5	-0.33892027
130	0x3f3f5b3e	0.747486
131	0x3de8c205	0.11365131
132	0xbfadd380	-1.358017
133	0x3f166903	0.58753985
134	0xbe02cd09	-0.12773527
135	0x3e12064f	0.14260219
136	0x3e0d36af	0.13790391
137	0xbf00efae	-0.5036572
138	0xbf89c762	-1.0763972
139	0xbf3c926d	-0.7366093
140	0xbf0d692e	-0.55238616
141	0x3e6355a4	0.22200638
142	0x3f1a543f	0.602848
143	0x3f15b1c5	0.5847438
144	0x3f25cbc4	0.64764047
145	0x3be7b972	0.0070716674
146	0x3e74998a	0.23886696
147	0xbe3e435c	-0.18580383
148	0xbe43953b	-0.19099896
149	0x3eac64c9	0.33670643
150	0xbf217fb6	-0.63085496
151	0xbe16debc	-0.14733404
152	0x3f3da1f9	0.74075276
153	0xbe110b62	-0.14164498
154	0xbd56ac80	-0.052410603
155	0x3e0a5172	0.13507631
156	0x3f80372d	1.0016838
157	0xbea4fe6d	-0.3222536
158	0x3e7cf8e8	0.24704325
159	0x3f6b60fe	0.91944873
160	0xbf92a87c	-1.1457667
161	0xbf21e116	-0.6323408
162	0xbf6e3dbb	-0.93062943
163	0x3d23a89a	0.039955713
164	0xbf9c6450	-1.2218113
165	0x3ea0676b	0.31328902
166	0x3e5ef4ec	0.21773118
167	0xbde3db8d	-0.1112586
168	0xbecc121f	-0.39857575
169	0xbfb74c2f	-1.4320124
170	0xbee8a1ef	-0.45436046
171	0xbeb80a31	-0.35945275
172	0xbed6d5db	-0.41960034
173	0x3f298d20	0.66230965
174	0xbcb95518	-0.022623584
175	0xbde08500	-0.10962868
176	0x3b84a2df	0.004047736
177	0xbebae264	-0.36500847
178	0xbfb2069b	-1.3908266
179	0x3eddb410	0.4330144
180	0xbef35e29	-0.47532776
181	0x3e3cab90	0.18424821
182	0xbf13a84b	-0.5767867
183	0x3e4462d1	0.1917832
184	0xbe9e7116	-0.30945653
185	0xbf40b9d2	-0.7528354
186	0x3e0f31a7	0.13983785
187	0xbec87239	-0.39149645
188	0xbe919483	-0.28433618
189	0xbdd8f207	-0.10593038
190	0x3da5b769	0.08091623
191	0xbe9a0361	-0.30080703
192	0xbede464b	-0.43413004
193	0xbf85f975	-1.0466753
194	0xbed4d863	-0.4157134
195	0xbef43daa	-0.47703296
196	0xbed3f287	-0.4139597
197	0x3d92b4d4	0.071633965
198	0x3e4aba50	0.19797635
199	0xbdfdfd07	-0.12401777
200	0x3e8b1f5a	0.27172357
201	0xbf8a9a67	-1.082837
202	0x3e1f3fd4	0.15551692
203	0x3f084253	0.532262
204	0xbe039294	-0.12848884
205	0x3e05ea30	0.13077617
206	0xbd7bb8e4	-0.061455622
207	0x3f16d7a1	0.58922774
208	0xbef315b7	-0.47477505
209	0x3e810812	0.2520147
210	0xbdd6e13b	-0.10492178
211	0xbf0c5272	-0.548133
212	0xbcea31e4	-0.028588243
213	0xbedeb83d	-0.43499938
214	0x3eaaf68a	0.3339122
215	0x3daaecb1	0.083459266
216	0x3ab57685	0.0013844526
217	0x3ecf9290	0.40541506
218	0xbf8046fe	-1.0021665
219	0xbe0efc23	-0.1396337
220	0x3d2256a0	0.039633393
221	0xbd1f2568	-0.038854033
222	0x3d35603b	0.044281226
223	0xbe93f755	-0.28899637
224	0x3e69849e	0.22804496
225	0x3e71617d	0.23572345
226	0xbf215d35	-0.6303285
227	0xbe78e0fa	-0.24304572
228	0xbe1720d1	-0.14758612
229	0xbe0ad322	-0.13557103
230	0x3e31d61f	0.17366837
231	0xbe8fc864	-0.28082573
232	0xbdaf9ff8	-0.085754335
233	0x3e16f993	0.14743643
234	0x3e316e24	0.17327172
235	0xbf40c671	-0.753028
236	0x3e056ad6	0.13029036
237	0x3efe1f68	0.49633336
238	0x3e9feeae	0.31236786
239	0xbeecc239	-0.4624193
240	0xbef3973d	-0.47576323
241	0x3f211154	0.62917066
242	0x3e90c3cf	0.2827439
243	0x3f00ebf5	0.5036004
244	0xbe67d15d	-0.2263846
245	0xbebb56f5	-0.3658978
246	0xbf97ef41	-1.186989
247	0xbd913f72	-0.07092179
248	0x3f608758	0.8770652
249	0xbd1f869a	-0.038946725
250	0xbea9f7cb	-0.33196864
251	0xbe77a4f0	-0.24184012
252	0xbf0a89e8	-0.5411668
253	0x3c5670a1	0.013088376
254	0xbd68b087	-0.056808975
255	0x3f052485	0.5200885

arith.constant9 f4 [64, 3, 3, 64]
0	0x3e4a4ef1	0.19756676
1	0xbecc8158	-0.3994243
2	0xbf452810	-0.77014256
3	0xbf6bfc21	-0.92181593
4	0x3e21ffb7	0.15820204
5	0xbe94accc	-0.29038084
6	0x3edc327c	0.43007267
7	0x3eae87e7	0.3408806
8	0x3dc531bc	0.09628627
9	0x3f166bec	0.58758426
10	0x3f58537d	0.84502393
11	0x3db706b2	0.08936824
12	0x3ebacedc	0.36485946
13	0x3f26b2e4	0.65116715
14	0xbed75b36	-0.42061776
15	0xbe9df3c1	-0.30850032
16	0x3da486d2	0.080335274
17	0x3d9d9646	0.07694678
18	0xbea66073	-0.3249546
19	0x3ef6a18f	0.48170134
20	0x3d1c29a3	0.038125645
21	0x3f16804c	0.58789515
22	0xbe3caabc	-0.18424505
23	0xbe1adc75	-0.1512316
24	0xbece7291	-0.40321782
25	0x3f15dc9e	0.5853976
26	0xbe919a39	-0.28437975
27	0x3eb6aa69	0.35676888
28	0xbe51ff0a	-0.20507446
29	0x3f259b4f	0.6469011
30	0xbf1722e3	-0.5903761
31	0x3eabf4bf	0.33585164
32	0x3f33d27a	0.70243037
33	0xbf50cb7a	-0.8156048
34	0x3f10d596	0.56575906
35	0x3ec8acaa	0.39194232
36	0xbe9be28f	-0.30446288
37	0x3ed92949	0.4241431
38	0x3e0f688c	0.14004725
39	0xbed49835	-0.41522375
40	0xbe663a30	-0.22483134
41	0x3eb0cc1f	0.34530732
42	0x3f0620b6	0.5239366
43	0xbdb2d65d	-0.08732293
44	0xbd3640c1	-0.044495348
45	0x3ea0beee	0.31395668
46	0xbe385400	-0.18000793
47	0x3ef54266	0.4790222
48	0x3ea93012	0.33044487
49	0xbdb13192	-0.08652033
50	0x3f2b1d6d	0.66841775
51	0xbda32f67	-0.07968026
52	0x3e588f6c	0.21148461
53	0x3eab0861	0.3340483
54	0xbe483588	-0.1955167
55	0x3eb0c130	0.3452239
56	0x3efddd5c	0.49582946
57	0xbe4c1e63	-0.19933467
58	0xbeac3988	-0.33637643
59	0x3d57ae3e	0.052656405
60	0xbedfd60a	-0.43717986
61	0xbe33190a	-0.1749002
62	0xbf23bc16	-0.6395887
63	0xbe108e0b	-0.14116685
64	0xbec8ae22	-0.39195353
65	0xbf2c15f3	-0.6722099
66	0xbf4eac27	-0.80731434
67	0x3dda8800	0.10670471
68	0x3eafa129	0.34302643
69	0x3b343ece	0.0027503255
70	0xbed0debc	-0.40794933
71	0xbe0ad13d	-0.1355638
72	0xbe398c00	-0.18119812
73	0xbe7adcca	-0.24498287
74	0x3f124a61	0.57144743
75	0x3f47327d	0.77811414
76	0x3f3bf4da	0.7342049
77	0x3eb4e4b6	0.35330743
78	0x3e6dff47	0.23241912
79	0xbe1ad969	-0.15121998
80	0x3eec541c	0.4615792
81	0x3f2d3d1d	0.67671376
82	0x3f090263	0.53519267
83	0x3eaa1b08	0.33223748
84	0xbe5b28c8	-0.21402276
85	0x3ecca00c	0.39965856
86	0xbec57726	-0.38567466
87	0xbf103a82	-0.56339276
88	0xbf2fdcb2	-0.6869613
89	0x3ef80286	0.48439425
90	0x3dc9f03e	0.09860276
91	0x3edb49a2	0.42829615
92	0xbcd17966	-0.025570583
93	0xbbda0a06	-0.006654027
94	0xbf4fbb0f	-0.81144804
95	0x3eb38048	0.35058808
96	0x3eaca54c	0.33719862
97	0xbe24c680	-0.16091347
98	0x3ee09cdd	0.43869677
99	0x3f19d00f	0.600831
100	0xbf0cdce6	-0.55024564
101	0x3ea325ec	0.3186487
102	0x3eaa3b2c	0.3324827
103	0xbf041606	-0.51596105
104	0xbe1316ab	-0.14364116
105	0x3f0e1071	0.5549384
106	0x3dcad6ab	0.09904226
107	0x3dd71e4e	0.10503827
108	0xbe8252c6	-0.25453776
109	0x3f20704a	0.6267134
110	0x3d76a3fa	0.060214974
111	0xbf1a59ff	-0.60293573
112	0x3e2afc4c	0.16697806
113	0xbf17d051	-0.5930224
114	0x3e00de01	0.12584688
115	0x3d22e702	0.039771087
116	0xbdfd6cdb	-0.12374278
117	0xbebe069b	-0.37114415
118	0x3d4cd129	0.05000416
119	0xbe9f3327	-0.31093714
120	0xbece1c23	-0.40255842
121	0xbe1f7762	-0.15572885
122	0xbd835a3d	-0.06413696
123	0xbecf7aaf	-0.40523288
124	0x3dda2ee7	0.10653477
125	0xbe10ef1c	-0.14153713
126	0xbdcd239f	-0.1001656
127	0xbe7237b1	-0.23654057
128	0x3ece538d	0.4029812
129	0xbeefd894	-0.46844923
130	0xbdc98e57	-0.09841602
131	0x3f0e05aa	0.5547739
132	0x3e10f0d5	0.1415437
133	0x3e41862d	0.1889884
134	0x3dcc5c8f	0.09978592
135	0xbd863b7b	-0.06554314
136	0xbdf163e5	-0.117866315
137	0xbea20e9d	-0.31651774
138	0x3ac6f989	0.0015180568
139	0x3d487e6b	0.048948687
140	0x3e605256	0.21906409
141	0x3d90d188	0.07071215
142	0xbf058d28	-0.5216851
143	0x3df7db92	0.121024266
144	0x3e4108a5	0.18850954
145	0x3f3af367	0.7302765
146	0x3e0945c1	0.13405515
147	0x3e1d519a	0.1536316
148	0x3f1d234c	0.61381984
149	0x3eb95bde	0.36202902
150	0xbe376576	-0.17909798
151	0xbe11f0b9	-0.14251985
152	0xbe9bb8b4	-0.30414355
153	0xbe5f9dbe	-0.21837518
154	0x3f771167	0.9651093
155	0xbf04ae93	-0.5182888
156	0xbf2c69b8	-0.67348814
157	0x3e19258a	0.14955726
158	0xbf4579ea	-0.7713915
159	0xbf54f13b	-0.8318059
160	0x3dcd72d7	0.100316696
161	0x3ce5a596	0.02803306
162	0xbe0551ae	-0.1301944
163	0x3f0ada1c	0.5423906
164	0xbf24a054	-0.6430714
165	0x3f218ee7	0.63108677
166	0x3f2cd2b2	0.67508996
167	0xbe9592b4	-0.29213488
168	0x3e8af391	0.2713895
169	0x3fa452ba	1.2837746
170	0x3eeaa8e7	0.45831987
171	0x3e3bb06e	0.18329021
172	0x3f21864d	0.6309555
173	0x3fbf59be	1.4949262
174	0xbe94a7fe	-0.29034418
175	0xbf5514d4	-0.83234906
176	0x3f5e54a4	0.868479
177	0xbf88e0ce	-1.0693605
178	0xbe965bc8	-0.293669
179	0x3e96d6b5	0.29460683
180	0x3eb7611d	0.3581628
181	0xbef936f2	-0.48674732
182	0xbace55d8	-0.0015742136
183	0x3cd827b9	0.026386129
184	0xbf11646d	-0.5679386
185	0x3d44e649	0.04807118
186	0x3eb3958f	0.35075042
187	0xbede70bc	-0.43445385
188	0xbe043ffc	-0.12915033
189	0xbb624da4	-0.003453114
190	0x3ddb233f	0.10700082
191	0xbf670a1d	-0.90249807
192	0xbebc5b5a	-0.36788446
193	0xbf737d3d	-0.95112973
194	0xbe3577a4	-0.1772142
195	0xbecee6b8	-0.404104
196	0xbe738797	-0.23782192
197	0xbe68105c	-0.2266249
198	0x3d9a0b08	0.07521635
199	0x3f04226d	0.5161503
200	0x3e3322d5	0.17493756
201	0xbe33e8ea	-0.17569318
202	0xbf3d830a	-0.74028075
203	0x3f88bd76	1.0682819
204	0xbdb0504f	-0.08609068
205	0xbf247f4b	-0.64256734
206	0x3dd362da	0.10321589
207	0x3e694f21	0.22784092
208	0x3e33ec2e	0.17570564
209	0xbf08b05e	-0.53394115
210	0x3eb184f4	0.34671748
211	0xbee81f67	-0.45336458
212	0x3ecc1927	0.3986294
213	0xbe338755	-0.17532094
214	0x3e2f9cd8	0.17149675
215	0xbf947e70	-1.1601086
216	0xbc473313	-0.012158173
217	0xbea30cef	-0.31845805
218	0x3ec609d4	0.38679373
219	0xbe4bf2cf	-0.19916843
220	0xbed10b15	-0.40828767
221	0xbea8b845	-0.32953086
222	0xbf51e105	-0.8198398
223	0x3e3c3357	0.1837896
224	0xbdb09059	-0.08621282
225	0x3e0ce41e	0.13758895
226	0x3f3dc8c5	0.74134475
227	0x3f61c8d4	0.88197064
228	0xbf8522e7	-1.0401276
229	0xbedd08f3	-0.4317089
230	0x3e1742ff	0.1477165
231	0x3e1f5075	0.15558036
232	0x3ea047b3	0.31304702
233	0x3db88414	0.09009567
234	0x3e7bc457	0.24586616
235	0x3ee4d336	0.4469239
236	0xbe4bc18a	-0.19898048
237	0xbedbef56	-0.42956036
238	0xbf6bf3f0	-0.92169094
239	0x3f2f7108	0.68531847
240	0x3dc2584a	0.09489496
241	0x3ee4b603	0.44670114
242	0xbed07ac0	-0.4071865
243	0x3da48799	0.08033676
244	0xbe943f29	-0.28954437
245	0xbf485ea3	-0.78269404
246	0xbe581de4	-0.21105152
247	0x3dd19c6e	0.10234915
248	0xbeceda41	-0.4040089
249	0xbed40d72	-0.41416508
250	0x3d2386c8	0.03992346
251	0xbea0e1f7	-0.31422397
252	0x3f1015a3	0.56283015
253	0x3eba5eb7	0.36400387
254	0xbf274c5a	-0.6535088
255	0x3e5c0610	0.21486688

arith.constant10 f4 [64, 3, 3, 32]
0	0xbfcac526	-1.5841415
1	0x3f3bc73f	0.733509
2	0xbed9938c	-0.42495382
3	0x3ea87915	0.32904878
4	0x3ca9ad9b	0.020712664
5	0xbede56f9	-0.4342573
6	0xbecb1659	-0.39665487
7	0xbe815253	-0.2525812
8	0xbf1976cd	-0.599469
9	0x3da282bd	0.079350926
10	0xbef8c217	-0.4858558
11	0x3d09bcb9	0.033627246
12	0xbf614058	-0.87988806
13	0xbf8d14f9	-1.1022025
14	0xbf1cb303	-0.6121065
15	0xbfa6c5fa	-1.3029168
16	0xbd78ba82	-0.060724743
17	0x3e0f770d	0.14010258
18	0x3eba577a	0.36394864
19	0xbd671707	-0.056418445
20	0xbe90094b	-0.2813209
21	0x3f3aa95e	0.72914684
22	0x3e139916	0.14413866
23	0xbe15e217	-0.14637028
24	0xbf949385	-1.1607519
25	0xbf26dec6	-0.65183675
26	0xbf6106ac	-0.87900805
27	0xbe4146dc	-0.18874687
28	0xbe7592f4	-0.2398184
29	0xbfb70eb4	-1.4301362
30	0xbe9cada0	-0.30601215
31	0xbda7468e	-0.08167754
32	0xbf3910aa	-0.7229105
33	0x3f06fad7	0.527265
34	0xbe9be854	-0.3045069
35	0xbe1e6b48	-0.15470612
36	0xbd18a518	-0.03726682
37	0xbef3d616	-0.47624272
38	0xbe87e805	-0.26544204
39	0xbeb7b873	-0.3588291
40	0xbf123b7e	-0.5712203
41	0xbe45976e	-0.19296047
42	0xbf1a470b	-0.6026465
43	0xbedbbbf3	-0.4291683
44	0xbf9eed3d	-1.2416149
45	0x3cac6159	0.021042513
46	0xbf70ec4e	-0.9411057
47	0xbf1d0a14	-0.61343503
48	0xbdadcdbd	-0.08486507
49	0x3eb36339	0.35036638
50	0xbe99c7c2	-0.30035216
51	0x3ebaade8	0.36460805
52	0xbeb788ad	-0.35846463
53	0x3e0f078b	0.13967721
54	0xbd8f712a	-0.07004006
55	0xbda804a9	-0.08204014
56	0xbf423779	-0.75865895
57	0xbeea3825	-0.4574596
58	0xbec9bd4a	-0.3940223
59	0xbecbc021	-0.3979502
60	0x3e2847f0	0.16433692
61	0xbe836768	-0.2566483
62	0x3e8ce166	0.27515715
63	0xbe6911bf	-0.22760676
64	0xbe92e1e1	-0.28687957
65	0x3f0b5040	0.54419327
66	0xbecfbfa1	-0.4057589
67	0xbe4d7cc3	-0.20067124
68	0xbe8cb68c	-0.27483022
69	0xbefde9ea	-0.49592525
70	0xbee7f00d	-0.45300332
71	0xbe9f393a	-0.31098348
72	0xbe05df20	-0.13073397
73	0xbf642e68	-0.8913331
74	0xbfb9bd8c	-1.451097
75	0xbf285aa4	-0.65763307
76	0xbf16262f	-0.58652014
77	0xbed3b559	-0.41349295
78	0xbed9ac85	-0.42514434
79	0xbef5f9a3	-0.4804202
80	0x3f145dc5	0.5795558
81	0x3eadb4f2	0.33927113
82	0xbe8a9a7c	-0.27070987
83	0x3f28eab6	0.6598314
84	0xbecc8799	-0.39947203
85	0x3df77a7a	0.120839074
86	0xbf665d39	-0.89985996
87	0xbe38ec77	-0.18058954
88	0xbf112758	-0.5670066
89	0xbf063403	-0.52423114
90	0xbf3e0c9a	-0.7423798
91	0xbe30288a	-0.17202964
92	0xbe66d4e2	-0.22542146
93	0x3c5762f7	0.013146154
94	0x3eb69087	0.3565714
95	0x3bedf7c3	0.0072622015
96	0xbf02fa6f	-0.5116338
97	0x3f82227c	1.0166774
98	0x3e2ab80e	0.16671774
99	0x3e734b35	0.23759158
100	0xbf64c420	-0.89361763
101	0x3c1eb806	0.009687429
102	0x3e68c97c	0.2273311
103	0x3ecc2119	0.39869002
104	0x3db1a659	0.086743064
105	0xbf03a6f1	-0.5142661
106	0x3c33bb76	0.010969987
107	0xbe39eb8c	-0.1815626
108	0xbd9802bc	-0.074223965
109	0xbe26b485	-0.162798
110	0x3e21fee8	0.15819895
111	0xbdc8248c	-0.09772596
112	0x3e3be496	0.18348917
113	0xbeeb928c	-0.46010244
114	0x3ea9d6d6	0.3317172
115	0x3e18911a	0.14899102
116	0xbd43bc93	-0.04778726
117	0x3ea0e179	0.31422022
118	0x3ca3c12f	0.019989578
119	0x3d7ae176	0.061250173
120	0xbe7965d3	-0.24355249
121	0xba885eab	-0.001040419
122	0x3e821cac	0.254125
123	0x3e950d8e	0.29111904
124	0xbe803de1	-0.2504721
125	0x3d852929	0.06501991
126	0xbf55a1b3	-0.8344986
127	0x3f1db37e	0.6160201
128	0xbebbd9e6	-0.3668968
129	0xbd6e6bee	-0.0582084
130	0xbefd54c3	-0.4947873
131	0xbe43415c	-0.19067901
132	0xbec3793d	-0.38178435
133	0x3c828edc	0.015937261
134	0x3e5684cf	0.209491
135	0x3ecfa5f2	0.40556294
136	0x3d282420	0.041050076
137	0xbe57d30e	-0.21076605
138	0xbdf46af2	-0.11934461
139	0xbe9bb497	-0.30411217
140	0x3e04055e	0.12892672
141	0xbec79198	-0.38978267
142	0x3e0d3f98	0.1379379
143	0x3cb2e8ce	0.021839526
144	0x3ef870ee	0.4852366
145	0x3d444765	0.04791965
146	0x3df40009	0.11914069
147	0x3e06eda0	0.13176584
148	0xbe1754b9	-0.14778413
149	0xbed51456	-0.41617078
150	0x3e0b015c	0.13574737
151	0xbebadf3f	-0.36498448
152	0x3e55a6a8	0.20864356
153	0x3f67f42b	0.90606946
154	0x3c516a49	0.012781688
155	0xbd8e8f08	-0.06960875
156	0x3e308780	0.17239189
157	0xbdbba44d	-0.09162197
158	0xbf486cf3	-0.78291243
159	0x3e78af54	0.24285632
160	0xbe4d8a7f	-0.20072363
161	0x3f019b63	0.50627726
162	0xbd9df647	-0.07712989
163	0x3e3952dd	0.18098016
164	0xbe9fc29f	-0.31203172
165	0xbdc7084b	-0.09718379
166	0x3eeb9ac2	0.46016508
167	0x3ec3c665	0.382373
168	0x3dbd3774	0.092390925
169	0xbcec599c	-0.028851323
170	0x3bf12672	0.0073593194
171	0xbe8b4642	-0.2720204
172	0xbe823302	-0.2542954
173	0xbe9be326	-0.30446738
174	0x3e756365	0.23963697
175	0xbec21fdd	-0.37914935
176	0x3f49eeff	0.78880304
177	0xbe35b87a	-0.17746153
178	0x3eba0c1a	0.36337358
179	0xbe405b12	-0.1878474
180	0x3dafe796	0.085890934
181	0xbeee13ec	-0.46499574
182	0xbd8ce27d	-0.06879137
183	0xbf4a4068	-0.79004526
184	0x3e962133	0.29322204
185	0xbe55f288	-0.208933
186	0xbd938d42	-0.07204677
187	0xbed07a3b	-0.40718254
188	0x3eb08507	0.34476492
189	0xbe13aa47	-0.14420424
190	0xbecf88e3	-0.40534124
191	0x3e4eb54c	0.20186347
192	0x3e5b234f	0.21400188
193	0xbeccee64	-0.40025628
194	0x3f3126b4	0.6919968
195	0x3eaee611	0.34159902
196	0x3f8b428d	1.0879685
197	0x3d9e4f59	0.07729978
198	0x3da0d3f6	0.07852928
199	0xbedbf64b	-0.42961344
200	0xbd99e32f	-0.07514035
201	0x3ed12d98	0.40855098
202	0x3ec582e1	0.38576415
203	0xbd25f94a	-0.040520944
204	0xbeac8b14	-0.33699858
205	0x3f2504aa	0.6446024
206	0x3f1a40b1	0.6025496
207	0x3d97edfd	0.074184395
208	0xbf576ae9	-0.84147507
209	0x3dd071be	0.101779446
210	0x3ee65168	0.44983983
211	0xbf095c7b	-0.5365674
212	0x3e995516	0.29947728
213	0xbf130703	-0.57432574
214	0x3e59b757	0.21261345
215	0x3f20e3aa	0.6284739
216	0x3f2f1e9d	0.6840609
217	0xbf0f38d6	-0.559461
218	0xbef8d2e1	-0.48598388
219	0xbfb6ff4c	-1.429666
220	0x3f475bba	0.7787434
221	0xbeb51b4d	-0.3537239
222	0x3f2e2a30	0.68033123
223	0x3e47c350	0.195081
224	0x3ec1fbba	0.37887365
225	0xbdb100a8	-0.08642703
226	0x3ee583ec	0.4482721
227	0x3e3b2c6b	0.18278663
228	0x3ec069a1	0.37580588
229	0x3e225df9	0.1585616
230	0x3e17f223	0.14838462
231	0x3e1628f7	0.14664064
232	0x3e7494cf	0.23884891
233	0x3e879ad0	0.264853
234	0xbe63d57e	-0.2224941
235	0x3e374531	0.17897488
236	0xbe3ef892	-0.1864951
237	0xbf49d0fb	-0.78834504
238	0x3f4ff454	0.8123219
239	0x3ee415bd	0.44547835
240	0xbf108bd6	-0.5646337
241	0xbd92d638	-0.07169765
242	0x3e5528ed	0.20816393
243	0xbf351e0d	-0.7074898
244	0x3ec4ca3e	0.3843555
245	0xbf4687e9	-0.7755113
246	0x3bcc3db6	0.0062329425
247	0x3ea5fb52	0.32418305
248	0x3f1015dc	0.56283355
249	0xbe46393e	-0.19357774
250	0xbe97809a	-0.29590303
251	0xbf0dd553	-0.5540363
252	0x3f1a7ac1	0.6034356
253	0xbd6a6c21	-0.057232026
254	0x3dc3b357	0.09555691
255	0x3d214d6a	0.03938047

arith.constant11 f4 [32, 3, 3, 32]
0	0x3e155195	0.14581902
1	0x3eb35e4d	0.35032883
2	0xbd9e3e68	-0.07726747
3	0x3d39699a	0.045266725
4	0xbddfcec4	-0.10928109
5	0xbdbf5fa5	-0.093444146
6	0x3edbff95	0.4296843
7	0xbf022d85	-0.5085071
8	0x3e9640ab	0.29346213
9	0xbe167484	-0.14692885
10	0x3e94a061	0.2902861
11	0x3ee7ec3e	0.45297426
12	0x3f18d07c	0.5969312
13	0x3eb8b5a0	0.3607607
14	0x3e8ce217	0.27516243
15	0xbe6d11b4	-0.23151284
16	0x3ca6156b	0.020273885
17	0x3f2909a9	0.66030365
18	0x3e31ffd6	0.1738275
19	0xbe8730e5	-0.2640449
20	0xbd442baa	-0.047893204
21	0x3f21cdb2	0.6320449
22	0x3f8ddc7f	1.1082915
23	0xbf3b85b0	-0.73250866
24	0xbe591f82	-0.21203426
25	0xbd3cb900	-0.046074867
26	0x3e90498d	0.28181115
27	0x3e7dc18a	0.2478086
28	0x3f2d8b42	0.67790616
29	0x3c3f1971	0.011663781
30	0x3dbef74f	0.09324514
31	0xbb54f8d0	-0.0032496937
32	0xbdc87465	-0.097878255
33	0x3e6242fa	0.22095862
34	0x3eee1564	0.46500695
35	0xbe041cb2	-0.12901571
36	0xbe9da6cd	-0.3079132
37	0xbe21a2fa	-0.15784827
38	0xbc7c151f	-0.015385895
39	0xbf294c3c	-0.6613195
40	0xbf0272a1	-0.5095616
41	0xbec31f75	-0.38109937
42	0x3ecc0de8	0.3985436
43	0x3f2ca830	0.67444134
44	0x3ee36a13	0.44416866
45	0x3e9d2004	0.30688488
46	0x3e0472a4	0.12934357
47	0xbea0fea9	-0.3144429
48	0x3eaeb271	0.34120515
49	0xbe7cd0f3	-0.24689083
50	0xbe5fa9b7	-0.21842085
51	0xbda57c84	-0.0808039
52	0x3e763262	0.24042657
53	0x3edd929a	0.4327591
54	0x3f5e8f4b	0.869374
55	0xbf73a94d	-0.9518021
56	0xbe8c096e	-0.27350944
57	0xbeace874	-0.33771098
58	0xbea13ed9	-0.3149326
59	0x3e39389f	0.18088005
60	0x3e5de08c	0.21667689
61	0x3e19832a	0.14991441
62	0x3d040c4a	0.032238282
63	0x3e919a53	0.28438053
64	0xbda77e13	-0.081783436
65	0x3dfc1714	0.12309089
66	0x3c29ddaa	0.01036779
67	0xbe6377fd	-0.2221374
68	0xbda87fc2	-0.08227493
69	0xbef23cd3	-0.4731203
70	0x3e86f224	0.26356614
71	0xbeb6ea24	-0.3572551
72	0x3d8e3bc6	0.06944995
73	0xbe7d2b75	-0.24723609
74	0x3e90732c	0.2821287
75	0x3d362eb9	0.044478152
76	0x3eafb984	0.34321225
77	0xbe6b6769	-0.22988667
78	0xbd99ed3f	-0.07515954
79	0xbe0e0d62	-0.13872293
80	0x3e891013	0.26770076
81	0xbe94dba9	-0.29073837
82	0x3cbeecba	0.02330624
83	0x3f108ec1	0.56467825
84	0x3e84f802	0.25970465
85	0x3ee13133	0.4398285
86	0x3f5b4caa	0.85663855
87	0xbf387a91	-0.7206202
88	0xbed90610	-0.42387438
89	0xbf0c8b7e	-0.5490035
90	0xbe8f195a	-0.2794903
91	0xbd980843	-0.07423451
92	0x3e6d3560	0.23164892
93	0x3f0b756c	0.54476047
94	0x3e78eaf8	0.24308383
95	0x3e4a1e6b	0.19738166
96	0x3ddb186d	0.10698018
97	0x3e17d6e8	0.14828074
98	0xbee10b01	-0.43953708
99	0xbf8d99d7	-1.1062573
100	0xbedaf30c	-0.42763555
101	0x3d9f3735	0.07774202
102	0x3e8e75c3	0.2782422
103	0xbefe7f2d	-0.49706402
104	0xbe742422	-0.23841909
105	0x3d7e4952	0.062081642
106	0xbf2c4186	-0.6728748
107	0xbe192149	-0.14954104
108	0xbd603479	-0.05473754
109	0xbf3def08	-0.7419286
110	0xbec8d72e	-0.3922667
111	0x3f1bee30	0.6091032
112	0xbece6e6b	-0.40318617
113	0x3e1e9f46	0.15490445
114	0xbf1a94df	-0.6038341
115	0x3f37cc23	0.7179586
116	0x3de2db57	0.11076992
117	0x3f6d75d3	0.9275791
118	0x3e5aa9ec	0.21353883
119	0xbec01e08	-0.37522912
120	0x3f484de7	0.7824387
121	0xbeb26886	-0.3484537
122	0xbf5ecbc8	-0.87029696
123	0x3e23cfa8	0.15997183
124	0xbe2b9297	-0.16755138
125	0xbdc9afff	-0.09848022
126	0x3f3564a5	0.70856696
127	0x3e855cc1	0.26047328
128	0x3e825e84	0.25462735
129	0x3ecb1d4a	0.39670783
130	0xbe70bf64	-0.2351051
131	0xbf9b7d50	-1.2147617
132	0xbf1d7b6f	-0.6151647
133	0x3d3a2d6a	0.045453466
134	0x3c86ec3a	0.016470063
135	0xbf428836	-0.7598909
136	0xbe41d969	-0.18930592
137	0xbf446147	-0.76710933
138	0xbfbd17f8	-1.477294
139	0xbe0d70eb	-0.13812606
140	0x3ebb17f7	0.3654172
141	0xbf1c6794	-0.6109555
142	0xbe31cf97	-0.17364345
143	0x3eb043ca	0.3442672
144	0xbe9562fb	-0.2917708
145	0x3f17dd0c	0.59321666
146	0xbdf812df	-0.121129744
147	0x3f281eb1	0.6567183
148	0xbd932274	-0.07184306
149	0x3f75e7f1	0.9605704
150	0x3d2f807c	0.04284714
151	0xbf1b8590	-0.60750675
152	0x3f58fd6e	0.84761703
153	0xbda5af03	-0.080900215
154	0xbfa21ded	-1.2665383
155	0x3e698890	0.22806
156	0xbf1b3219	-0.6062332
157	0xbddd03ae	-0.107917175
158	0x3eb83309	0.35976437
159	0x3e298c87	0.16557513
160	0x3e4f8f0d	0.20269413
161	0x3f8188d2	1.0119879
162	0x3dfd1f25	0.12359456
163	0xbf75f76e	-0.9608067
164	0xbe480049	-0.19531359
165	0x3ee28151	0.44239286
166	0x3d305932	0.043053813
167	0xbf66ccd6	-0.90156305
168	0xbcc5e7cf	-0.024158387
169	0xbf605ac2	-0.87638485
170	0xbfab946a	-1.3404667
171	0x3e9b30a7	0.30310556
172	0x3c7c8927	0.015413559
173	0xbeab929a	-0.33510286
174	0xbe483973	-0.19553165
175	0x3df68f5b	0.12039062
176	0xbeb0b5aa	-0.345136
177	0x3f02f362	0.5115262
178	0xbf8943e8	-1.0723848
179	0x3f792b2c	0.973315
180	0x3db7989f	0.08964657
181	0x3f733531	0.9500304
182	0x3ceee077	0.029159768
183	0xbe645c23	-0.22300772
184	0x3f15ac17	0.58465713
185	0xbdfe571e	-0.1241896
186	0xbf8f1fcc	-1.1181579
187	0x3f0fdeb1	0.56199175
188	0xbf117734	-0.56822515
189	0x3ea515f7	0.3224332
190	0x3e92eb27	0.28695032
191	0x3e31d407	0.17366038
192	0x3f456501	0.77107245
193	0xbf0da104	-0.55323815
194	0x3dbcd5e2	0.092204824
195	0xbd710360	-0.05884111
196	0x3eb93aa8	0.36177564
197	0x3f7d5c2a	0.98968756
198	0x3bceeb7e	0.006314694
199	0x3ec26f69	0.37975624
200	0xbe6271b4	-0.22113687
201	0x3da7192f	0.081591
202	0xbfea2ef5	-1.829558
203	0x3ea26dc9	0.31724384
204	0x3eee71bd	0.4657115
205	0xbf791946	-0.9730419
206	0xbd2dd93a	-0.04244349
207	0xbf185c4e	-0.59515846
208	0xbf0deb5e	-0.55437267
209	0xbdac2dec	-0.084071964
210	0xbe9ce6d0	-0.30644846
211	0xbe28b2f7	-0.1647452
212	0x3e9a22a5	0.30104557
213	0xbf2f91c4	-0.68581796
214	0x3e676a13	0.22599058
215	0xbe816d0c	-0.2527851
216	0x3e82cec4	0.25548375
217	0xbe9b59d8	-0.30341983
218	0x3d5d701f	0.054062005
219	0x3e966334	0.2937256
220	0xbd9c0a19	-0.076191135
221	0xbdb01f97	-0.08599775
222	0xbe86fdf8	-0.26365638
223	0x3dd78661	0.105236776
224	0x3f2e0263	0.6797239
225	0xbf6ade0d	-0.9174507
226	0x3ec41563	0.38297567
227	0xbc884a5e	-0.016637024
228	0xbe8fc8c6	-0.28082865
229	0x3f35b5e7	0.70980686
230	0xbdc1307a	-0.09433074
231	0x3eecb0e4	0.46228707
232	0xbe83e150	-0.25757837
233	0xbebe5d41	-0.37180522
234	0xbfb94fef	-1.4477519
235	0x3c55ee0e	0.013057245
236	0x3e1a3942	0.15060905
237	0xbed23b82	-0.41061026
238	0xbeadbb1d	-0.3393182
239	0xbdf27ad4	-0.11839834
240	0xbf1243f6	-0.5713495
241	0xbd99850d	-0.074960805
242	0xbf1801c7	-0.5937771
243	0xbd892aac	-0.06697592
244	0x3e88b26b	0.26698622
245	0xbf1f0760	-0.6212063
246	0xbf241268	-0.64090586
247	0xbe56f91b	-0.20993464
248	0x3ed23989	0.4105952
249	0x3e7c9053	0.2466443
250	0xbeafb13f	-0.34314916
251	0xbdccd2d3	-0.10001149
252	0xbe221112	-0.15826824
253	0xbf276a9b	-0.6539704
254	0xbeaf2d13	-0.34214076
255	0x3e406d7d	0.18791766

arith.constant12 f4 [32, 3, 3, 32]
0	0xbe05b170	-0.13055968
1	0xbe919f5a	-0.28441888
2	0xbf19e0fa	-0.6010891
3	0xbcc3ee1f	-0.023917256
4	0xbf797d3a	-0.97456706
5	0xbe02f537	-0.12788855
6	0x3e0e2166	0.13879928
7	0xbe17f684	-0.14840132
8	0x3f33b29d	0.7019442
9	0xbea583d1	-0.3232713
10	0x3e006a36	0.12540516
11	0x3e689b62	0.22715524
12	0x3e1cc8aa	0.15310922
13	0x3ef2c1c5	0.4741346
14	0xbec3698c	-0.38166463
15	0xbf897a49	-1.0740443
16	0x3eae30ff	0.34021756
17	0xbe752316	-0.23939165
18	0xbf06aa84	-0.52603936
19	0xbe930718	-0.2871635
20	0xbceb8968	-0.028752044
21	0xbe928aaa	-0.28621417
22	0xbf4ea328	-0.80717707
23	0xbe2b198e	-0.16708967
24	0x3d7178ff	0.05895328
25	0x3e781b4f	0.24229167
26	0x3de839dd	0.113391615
27	0x3f073d21	0.5282765
28	0xbe059d8d	-0.13048382
29	0xbf44152d	-0.7659481
30	0x3f4054b1	0.7512923
31	0xbef9a6a0	-0.48759937
32	0xbf0a2f3c	-0.53978324
33	0xbec9a2f0	-0.39382124
34	0xbe1ab7b1	-0.15109135
35	0x3b3b8510	0.0028613247
36	0xbf136da6	-0.57589185
37	0x3f0ae9fb	0.54263276
38	0x3f06a22e	0.52591217
39	0xbe5865b1	-0.21132542
40	0x3eeaf9e3	0.45893773
41	0xbea4862f	-0.32133624
42	0x3d7145b4	0.058904365
43	0xbda37460	-0.07981181
44	0x3e3922ac	0.18079633
45	0x3e9034d6	0.2816531
46	0xbe4be7f0	-0.19912696
47	0xbf2af44e	-0.6677903
48	0x3e203c15	0.1564792
49	0xbe5b3ec5	-0.21410663
50	0xbf2ad219	-0.66726834
51	0xbc9d5a53	-0.019208109
52	0xbd90bcb0	-0.07067239
53	0xbf3a792a	-0.7284113
54	0xbf1c933c	-0.6116216
55	0xbe729475	-0.23689444
56	0x3f1adf47	0.60496944
57	0x3e37a0d1	0.1793244
58	0xbd24ee85	-0.040266532
59	0x3f048436	0.5176424
60	0x3e454a5c	0.19266647
61	0xbf316f4a	-0.6931044
62	0x3f05f730	0.52330303
63	0xbda29923	-0.07939365
64	0xbe2888e5	-0.16458471
65	0x3daf745c	0.08567116
66	0xbeb95fcf	-0.3620591
67	0x3e8f556e	0.27994865
68	0xbef229ae	-0.47297424
69	0x3f60df4f	0.8784074
70	0x3e139925	0.14413889
71	0xbe159b59	-0.14610042
72	0x3ed416b4	0.4142357
73	0xbf0d1e1c	-0.5512407
74	0xbd06f835	-0.032951552
75	0x3c0f73d2	0.008755641
76	0x3f2893f4	0.6585076
77	0xbec630bf	-0.38709065
78	0xbeb2ce12	-0.34922844
79	0xbf55d901	-0.83534247
80	0xbe86062f	-0.26176593
81	0xbf14f5a4	-0.5818732
82	0xbf165118	-0.5871749
83	0x3e9b995a	0.30390435
84	0xbe330f66	-0.17486343
85	0xbe53d902	-0.2068825
86	0xbf6da088	-0.92823076
87	0xbe24faba	-0.1611127
88	0x3e99e491	0.30057195
89	0x3dbffb17	0.093740635
90	0x3eed4e76	0.46348923
91	0x3e848248	0.25880647
92	0xbd9464ec	-0.07245812
93	0xbeed1006	-0.46301287
94	0x3f25120b	0.64480656
95	0xbf0c3c81	-0.5477982
96	0x3c3c60d4	0.011497695
97	0x3c51ec54	0.012812693
98	0x3eed6eb7	0.4637353
99	0xbecd9ef4	-0.40160334
100	0x3d15ceb1	0.03657407
101	0x3ee21439	0.44156054
102	0x3defcc1d	0.117088534
103	0x3e7d4f28	0.24737227
104	0xbdd7de3e	-0.10540436
105	0x3eaeea78	0.3416326
106	0xbf864897	-1.0490903
107	0x3f1ba839	0.6080356
108	0x3e8fb238	0.28065658
109	0xbedf69bc	-0.43635356
110	0xbf40da72	-0.7533332
111	0xbf5a3806	-0.85241735
112	0x3d45323e	0.048143618
113	0xbe255491	-0.16145541
114	0x3e9e4dc6	0.3091871
115	0xbed7dff1	-0.4216304
116	0x3d35ca54	0.04438241
117	0xbf3f98d3	-0.74842566
118	0x3f3ccc39	0.7374912
119	0xbdaf7593	-0.085673474
120	0x3e5ff8f3	0.2187231
121	0x3ee8e5c4	0.45487797
122	0xbe77d3dc	-0.24201912
123	0x3f0062ce	0.50150764
124	0xbefb8d92	-0.49131447
125	0xbe821e99	-0.2541397
126	0x3f237857	0.638555
127	0x3dfe5138	0.12417835
128	0x3e998a55	0.2998835
129	0x3c257fbe	0.010101257
130	0x3f2b32c8	0.6687436
131	0xbe84d70d	-0.2594532
132	0x3f0513be	0.5198325
133	0x3f35ea74	0.7106087
134	0x3e960aee	0.29305214
135	0x3da733b8	0.081641614
136	0xbea8bc0f	-0.32955977
137	0x3e9cf152	0.30652863
138	0xbf1c6efd	-0.61106855
139	0x3f0a4d9c	0.5402467
140	0x3ed7d095	0.42151323
141	0xbf39cc97	-0.72577804
142	0xbe9ae20f	-0.30250594
143	0xbe9f4203	-0.3110505
144	0xbee5abb2	-0.44857556
145	0xbe7adaa5	-0.24497469
146	0x3e4c4813	0.19949369
147	0xbec25bcc	-0.3796066
148	0x3e120f6b	0.14263694
149	0xbe6ef81b	-0.23336832
150	0x3e8b841e	0.27249235
151	0xbdc3e307	-0.095647864
152	0x3f066b65	0.5250762
153	0x3f4d1e88	0.8012471
154	0xbf6b6c5d	-0.91962224
155	0x3f3afc8d	0.7304161
156	0x3e1557cc	0.14584273
157	0x3e70b06f	0.23504804
158	0x3e2fc95b	0.17166655
159	0x3dac4b60	0.08412814
160	0x3f3b1b3e	0.73088443
161	0x3c01aafa	0.007914299
162	0x3d98906e	0.07449423
163	0x3d4d0cab	0.05006091
164	0x3eb6d858	0.35711932
165	0x3f52417f	0.8213119
166	0x3f291616	0.66049325
167	0x3d63c1a4	0.055604592
168	0xbef2cc28	-0.47421384
169	0x3e833668	0.25627446
170	0xbf32fee3	-0.69920176
171	0x3e8ce46a	0.27518016
172	0x3eaa4d52	0.33262116
173	0xbf3b0b4b	-0.73064107
174	0xbf0902db	-0.5351998
175	0xbf35b8fb	-0.7098538
176	0xbee3a990	-0.44465303
177	0xbefb4e50	-0.49083185
178	0x3d6abbb9	0.057307933
179	0x3c9acf93	0.018897807
180	0x3ddc5bdf	0.107597105
181	0xbe08b3c4	-0.13349825
182	0x3eb57db8	0.35447478
183	0x3e33b2f2	0.17548731
184	0x3f2fe9e1	0.68716246
185	0x3f1c5df4	0.6108086
186	0xbf3057fa	-0.6888424
187	0x3f6af3c3	0.917782
188	0x3e577da7	0.21044026
189	0x3ede8b99	0.4346588
190	0x3ed5e331	0.41774896
191	0xbd25cd55	-0.040479023
192	0xbea90c0c	-0.33017004
193	0x3ea74895	0.32672563
194	0xbeaf78c0	-0.34271812
195	0xbf2ba038	-0.6704135
196	0xbf6fe6c2	-0.93711483
197	0x3e3213f6	0.17390427
198	0xbf6a1d9d	-0.91451436
199	0xbe420943	-0.18948846
200	0x3e989813	0.29803523
201	0xbeffe588	-0.49979806
202	0x3f99f064	1.2026486
203	0xbf7d9fe9	-0.9907213
204	0xbf3ad6c4	-0.72983956
205	0xbf4c1b93	-0.79729575
206	0x3e7dc85e	0.24783465
207	0xbf44c4b4	-0.76862645
208	0x3e76be81	0.24096109
209	0xbf33c6e6	-0.7022537
210	0xbebacc08	-0.36483788
211	0x3e80878f	0.25103423
212	0x3f3beb98	0.7340636
213	0xbe66ae21	-0.22527362
214	0x3e6df869	0.23239292
215	0xbe2092a8	-0.15680945
216	0x3dc28885	0.09498695
217	0xbf2d2020	-0.67627144
218	0x3e1e98ae	0.1548793
219	0x3d9e05f0	0.07715976
220	0xbd492fd2	-0.04911787
221	0xbeda1dc8	-0.42600846
222	0xbe992c9c	-0.29916847
223	0xbf24093f	-0.6407661
224	0xbe51b66a	-0.20479742
225	0x3f2230a9	0.633555
226	0xbe100fe4	-0.14068562
227	0xbf0b120e	-0.54324424
228	0xbf3e9291	-0.7444239
229	0xbe2ea8af	-0.17056535
230	0xbf049995	-0.5179685
231	0xbeaca9fb	-0.33723435
232	0x3e9a660f	0.3015599
233	0xbe650ea5	-0.22368868
234	0x3f9aec97	1.2103451
235	0xbe1ef75a	-0.15524045
236	0xbf465d06	-0.7748569
237	0xbe9a1763	-0.30095968
238	0x3f3218e0	0.69569206
239	0xbec8f24e	-0.39247364
240	0xbd89de4c	-0.06731853
241	0xbea8a4a5	-0.32938114
242	0xbebf2a19	-0.37336805
243	0x3f078aa2	0.5294591
244	0x3f553f61	0.83299834
245	0x3e43db2a	0.19126573
246	0xbc7c80af	-0.01541154
247	0x3ec04f34	0.37560427
248	0x3d09337a	0.033496358
249	0xbf1e735d	-0.6189478
250	0xbeef4a37	-0.4673631
251	0x3ed8990b	0.42304263
252	0xbd9a7c1e	-0.07543205
253	0xbefa8a08	-0.48933434
254	0xbe6d20af	-0.23156999
255	0xbe8e6c0f	-0.27816817
