Model/tests/40k.tflite (tflite, 47552 bytes, 3 tensors)

tfl.pseudo_qconst i1 [4, 272]
000000 86 b8 7d 71 a8 f5 49 90 65 cc 9f ef fd af 51 49
       -122 -72 125 113 -88 -11 73 -112 101 -52 -97 -17 -3 -81 81 73
000010 45 df fc d2 b4 bb b0 4c d0 70 9e 3e ba 16 7c b4
       69 -33 -4 -46 -76 -69 -80 76 -48 112 -98 62 -70 22 124 -76
000020 4d 75 aa 81 a0 9f ca 1c e0 52 85 cb a1 dc 82 42
       77 117 -86 -127 -96 -97 -54 28 -32 82 -123 -53 -95 -36 -126 66
000030 a7 4c 8e b3 bf 79 1c 53 89 dd 0b 20 8f 63 77 cf
       -89 76 -114 -77 -65 121 28 83 -119 -35 11 32 -113 99 119 -49
000040 7e 03 88 db d4 2a d4 45 13 4e f0 f5 4c 03 85 71
       126 3 -120 -37 -44 42 -44 69 19 78 -16 -11 76 3 -123 113
000050 ea 79 bf c8 a7 95 fc 95 ac e6 dc fd 8b 6b de 5f
       -22 121 -65 -56 -89 -107 -4 -107 -84 -26 -36 -3 -117 107 -34 95
000060 96 0e 7e f4 c7 cb ac 4e 82 e4 86 49 e4 b3 c3 31
       -106 14 126 -12 -57 -53 -84 78 -126 -28 -122 73 -28 -77 -61 49
000070 52 b1 b6 24 ec 7c 53 40 f2 8e b4 e2 46 3c f1 f9
       82 -79 -74 36 -20 124 83 64 -14 -114 -76 -30 70 60 -15 -7
000080 27 8a 9b a9 99 d1 48 5a a5 b8 48 ca b3 a3 5c 1a
       39 -118 -101 -87 -103 -47 72 90 -91 -72 72 -54 -77 -93 92 26
000090 ae e1 61 ad 36 9b 8c 7c 58 e3 0b 2b 1e d7 a3 87
       -82 -31 97 -83 54 -101 -116 124 88 -29 11 43 30 -41 -93 -121
0000a0 b8 18 d7 94 fc 98 c1 6c 94 5d d1 67 c3 90 00 8a
       -72 24 -41 -108 -4 -104 -63 108 -108 93 -47 103 -61 -112 0 -118
0000b0 2f 10 17 ae 1f 81 b4 3f bf 1e 4e c2 6d 21 8d b2
       47 16 23 -82 31 -127 -76 63 -65 30 78 -62 109 33 -115 -78
0000c0 35 14 f7 48 dd 76 2f f8 de 58 41 25 22 00 1c 26
       53 20 -9 72 -35 118 47 -8 -34 88 65 37 34 0 28 38
0000d0 fe 81 a6 6e b0 7f 2b 6b 09 47 0b 2f 6c 2e 38 82
       -2 -127 -90 110 -80 127 43 107 9 71 11 47 108 46 56 -126
0000e0 a6 fc b1 d0 7c 0f 5b f6 43 e0 3b 94 c0 b5 8d 70
       -90 -4 -79 -48 124 15 91 -10 67 -32 59 -108 -64 -75 -115 112
0000f0 21 e4 c6 67 c7 bc 2d 04 c8 02 50 55 59 f1 32 22
       33 -28 -58 103 -57 -68 45 4 -56 2 80 85 89 -15 50 34

tfl.pseudo_qconst2 i1 [68, 3, 3, 64]
000000 fb 82 c0 fa ae fd 82 13 77 04 e0 28 ae 27 12 cd
       -5 -126 -64 -6 -82 -3 -126 19 119 4 -32 40 -82 39 18 -51
000010 89 5d a9 24 f8 ff 0b 88 c7 4b 25 f7 82 85 d2 66
       -119 93 -87 36 -8 -1 11 -120 -57 75 37 -9 -126 -123 -46 102
000020 a7 3d cf 32 67 30 fb 5e d8 ce 51 5c 97 18 73 ba
       -89 61 -49 50 103 48 -5 94 -40 -50 81 92 -105 24 115 -70
000030 76 85 64 21 7e db de 08 83 1c e0 82 da ec 4c 86
       118 -123 100 33 126 -37 -34 8 -125 28 -32 -126 -38 -20 76 -122
000040 e8 75 8d 7a 7e 08 94 48 f9 d5 45 8c b4 b0 3f 4f
       -24 117 -115 122 126 8 -108 72 -7 -43 69 -116 -76 -80 63 79
000050 4e cf b9 e4 88 cf 7b df a1 fa 10 39 14 81 3d 37
       78 -49 -71 -28 -120 -49 123 -33 -95 -6 16 57 20 -127 61 55
000060 9a a7 37 4b bf 9a 53 15 8d bb 0f 39 6d 5f 05 f8
       -102 -89 55 75 -65 -102 83 21 -115 -69 15 57 109 95 5 -8
000070 95 db 66 a3 fb a5 af e1 ef b7 97 b5 08 b0 70 fc
       -107 -37 102 -93 -5 -91 -81 -31 -17 -73 -105 -75 8 -80 112 -4
000080 dd 27 d0 d4 2a 00 0a b2 04 52 12 d0 dd cb 8e d6
       -35 39 -48 -44 42 0 10 -78 4 82 18 -48 -35 -53 -114 -42
000090 6c 76 eb 88 34 01 c6 3b d0 9c 84 0e 14 00 5d b3
       108 118 -21 -120 52 1 -58 59 -48 -100 -124 14 20 0 93 -77
0000a0 b9 6b 40 cb e0 02 09 0f 55 2d af ec ea 0e fe 0b
       -71 107 64 -53 -32 2 9 15 85 45 -81 -20 -22 14 -2 11
0000b0 6b 0e d9 01 e8 24 10 8d 9f 37 43 2a f3 81 75 93
       107 14 -39 1 -24 36 16 -115 -97 55 67 42 -13 -127 117 -109
0000c0 58 e3 eb ce f0 04 57 bb 7c 78 95 5c 8a 03 08 cc
       88 -29 -21 -50 -16 4 87 -69 124 120 -107 92 -118 3 8 -52
0000d0 88 cd 94 40 21 b1 3b c1 97 c2 29 93 c1 cd d3 7f
       -120 -51 -108 64 33 -79 59 -63 -105 -62 41 -109 -63 -51 -45 127
0000e0 05 f7 b4 8b 1e a7 eb 24 7e 32 a8 53 c3 15 78 96
       5 -9 -76 -117 30 -89 -21 36 126 50 -88 83 -61 21 120 -106
0000f0 65 23 11 00 d7 82 3f 8d 33 45 b8 4e b5 5a a8 70
       101 35 17 0 -41 -126 63 -115 51 69 -72 78 -75 90 -88 112

tfl.pseudo_qconst4 i1 [64, 3, 3, 1]
000000 a3 ad 04 41 ec 7f 12 96 d3 48 5a f5 81 ef 2d cc
       -93 -83 4 65 -20 127 18 -106 -45 72 90 -11 -127 -17 45 -52
000010 11 ab 68 e4 7f 2a 48 27 05 66 5a d9 4e 59 71 dc
       17 -85 104 -28 127 42 72 39 5 102 90 -39 78 89 113 -36
000020 08 81 d4 c4 28 fa 40 14 48 e9 6f 81 69 9d 7a 4f
       8 -127 -44 -60 40 -6 64 20 72 -23 111 -127 105 -99 122 79
000030 33 05 7f c1 95 be 57 b5 81 81 e8 a8 2b 83 ae 05
       51 5 127 -63 -107 -66 87 -75 -127 -127 -24 -88 43 -125 -82 5
000040 c1 e9 26 81 77 4b 42 a4 24 05 81 6d c3 22 64 15
       -63 -23 38 -127 119 75 66 -92 36 5 -127 109 -61 34 100 21
000050 9a 55 26 ab 9d ec 86 fd 7f 3d 81 c0 e4 de f4 a9
       -102 85 38 -85 -99 -20 -122 -3 127 61 -127 -64 -28 -34 -12 -87
000060 be 1a 02 04 57 92 21 96 3f ef a0 7f 81 98 35 86
       -66 26 2 4 87 -110 33 -106 63 -17 -96 127 -127 -104 53 -122
000070 1e 10 b6 a1 f1 de 16 9c 0d e9 45 63 df 81 ee 34
       30 16 -74 -95 -15 -34 22 -100 13 -23 69 99 -33 -127 -18 52
000080 81 e5 25 2c 8c 65 ed 65 98 27 fe 15 81 88 58 52
       -127 -27 37 44 -116 101 -19 101 -104 39 -2 21 -127 -120 88 82
000090 ce 81 6c c3 e0 36 5b 7b e1 21 b0 29 5e 81 d1 73
       -50 -127 108 -61 -32 54 91 123 -31 33 -80 41 94 -127 -47 115
0000a0 b4 fe 21 64 b1 81 f6 ee e5 43 bc a1 e4 12 1c bb
       -76 -2 33 100 -79 -127 -10 -18 -27 67 -68 -95 -28 18 28 -69
0000b0 d6 5f 91 81 9e 72 81 f5 b1 ec 03 cf bc c3 0c 85
       -42 95 -111 -127 -98 114 -127 -11 -79 -20 3 -49 -68 -61 12 -123
0000c0 0a 68 7c 32 a8 7f fa f8 33 34 c5 18 4a bd 81 26
       10 104 124 50 -88 127 -6 -8 51 52 -59 24 74 -67 -127 38
0000d0 53 f4 cb e5 3c 81 bf 29 42 81 7b c1 6d ed b7 0e
       83 -12 -53 -27 60 -127 -65 41 66 -127 123 -63 109 -19 -73 14
0000e0 f4 3a e0 7f 57 a3 bf 1f af 36 73 81 08 cc 7d 9f
       -12 58 -32 127 87 -93 -65 31 -81 54 115 -127 8 -52 125 -97
0000f0 f2 c5 15 7f 8a 74 96 73 b0 8e b7 fc a9 e8 81 46
       -14 -59 21 127 -118 116 -106 115 -80 -114 -73 -4 -87 -24 -127 70
