Model/tests/475_kb_model.tflite (tflite, 139096 bytes, 15 tensors)

tfl.pseudo_qconst1 i1 [4, 32]
000000 d1 2f 7f e3 f5 0e d3 34 10 dc 0d fa f0 42 ff 55
       -47 47 127 -29 -11 14 -45 52 16 -36 13 -6 -16 66 -1 85
000010 0f 08 e8 de e1 cc d0 f0 0f a7 ef 0b 22 da e8 fb
       15 8 -24 -34 -31 -52 -48 -16 15 -89 -17 11 34 -38 -24 -5
000020 c2 1d 7f d8 f0 0c 0a bb fe 34 ff 1b f4 db 06 72
       -62 29 127 -40 -16 12 10 -69 -2 52 -1 27 -12 -37 6 114
000030 ef 15 00 3a 25 01 25 03 0c 39 cb 05 b6 e5 b9 f7
       -17 21 0 58 37 1 37 3 12 57 -53 5 -74 -27 -71 -9
000040 22 c1 21 0e 0e 09 0b 09 be 45 db 0f 05 dd fe 90
       34 -63 33 14 14 9 11 9 -66 69 -37 15 5 -35 -2 -112
000050 f8 ef eb e7 10 cb d7 f3 d7 3b 7f 0e 13 36 ca ec
       -8 -17 -21 -25 16 -53 -41 -13 -41 59 127 14 19 54 -54 -20
000060 2e ed 85 26 0d ae f9 fc f3 f9 04 ac f6 0f 01 df
       46 -19 -123 38 13 -82 -7 -4 -13 -7 4 -84 -10 15 1 -33
000070 02 fb 0e ee f6 3d fb f7 07 13 f6 03 f9 15 40 7f
       2 -5 14 -18 -10 61 -5 -9 7 19 -10 3 -7 21 64 127

tfl.pseudo_qconst3 i1 [32, 64]
000000 d1 48 e0 00 00 00 00 e3 00 00 00 00 00 cd 00 00
       -47 72 -32 0 0 0 0 -29 0 0 0 0 0 -51 0 0
000010 00 00 00 00 b1 f4 00 00 00 00 00 00 00 62 00 00
       0 0 0 0 -79 -12 0 0 0 0 0 0 0 98 0 0
000020 00 00 ce fb 00 00 cc 00 da 00 00 00 00 ca 00 00
       0 0 -50 -5 0 0 -52 0 -38 0 0 0 0 -54 0 0
000030 00 d1 00 00 00 00 00 7f 00 00 00 00 29 00 00 e5
       0 -47 0 0 0 0 0 127 0 0 0 0 41 0 0 -27
000040 39 81 e3 00 00 00 00 3e 00 00 00 00 00 45 00 00
       57 -127 -29 0 0 0 0 62 0 0 0 0 0 69 0 0
000050 00 00 00 00 74 15 00 00 00 00 00 00 00 c1 00 00
       0 0 0 0 116 21 0 0 0 0 0 0 0 -63 0 0
000060 00 00 dd c5 00 00 5e 00 48 00 00 00 00 68 00 00
       0 0 -35 -59 0 0 94 0 72 0 0 0 0 104 0 0
000070 00 2f 00 00 00 00 00 b1 00 00 00 00 39 00 00 f8
       0 47 0 0 0 0 0 -79 0 0 0 0 57 0 0 -8
000080 e8 ec 36 00 00 00 00 d3 00 00 00 00 00 fd 00 00
       -24 -20 54 0 0 0 0 -45 0 0 0 0 0 -3 0 0
000090 00 00 00 00 b5 fd 00 00 00 00 00 00 00 69 00 00
       0 0 0 0 -75 -3 0 0 0 0 0 0 0 105 0 0
0000a0 00 00 e4 39 00 00 01 00 f3 00 00 00 00 eb 00 00
       0 0 -28 57 0 0 1 0 -13 0 0 0 0 -21 0 0
0000b0 00 ff 00 00 00 00 00 7f 00 00 00 00 22 00 00 f2
       0 -1 0 0 0 0 0 127 0 0 0 0 34 0 0 -14
0000c0 06 b9 54 00 00 00 00 e8 00 00 00 00 00 3e 00 00
       6 -71 84 0 0 0 0 -24 0 0 0 0 0 62 0 0
0000d0 00 00 00 00 5a e9 00 00 00 00 00 00 00 42 00 00
       0 0 0 0 90 -23 0 0 0 0 0 0 0 66 0 0
0000e0 00 00 de 5b 00 00 30 00 11 00 00 00 00 c0 00 00
       0 0 -34 91 0 0 48 0 17 0 0 0 0 -64 0 0
0000f0 00 04 00 00 00 00 00 81 00 00 00 00 06 00 00 d3
       0 4 0 0 0 0 0 -127 0 0 0 0 6 0 0 -45

tfl.pseudo_qconst5 i1 [64, 256]
000000 2e 2d c1 0b 1c ec df 04 4f 8c a7 ac 3b ca fc e9
       46 45 -63 11 28 -20 -33 4 79 -116 -89 -84 59 -54 -4 -23
000010 f4 20 2c 26 23 fb ed 19 f3 f8 f8 35 0c d4 3d f2
       -12 32 44 38 35 -5 -19 25 -13 -8 -8 53 12 -44 61 -14
000020 d4 99 c5 e4 40 c9 eb bf e3 ee f5 01 c2 22 ec 43
       -44 -103 -59 -28 64 -55 -21 -65 -29 -18 -11 1 -62 34 -20 67
000030 c3 07 a9 19 28 00 f0 e8 13 11 fe 28 26 0c e5 e8
       -61 7 -87 25 40 0 -16 -24 19 17 -2 40 38 12 -27 -24
000040 1e c7 36 e3 c5 36 ed 0b e9 0d e6 25 0f f2 18 fe
       30 -57 54 -29 -59 54 -19 11 -23 13 -26 37 15 -14 24 -2
000050 33 bd 19 ac 37 24 23 d7 08 1e ef 03 14 a1 03 f4
       51 -67 25 -84 55 36 35 -41 8 30 -17 3 20 -95 3 -12
000060 ce f0 10 d7 50 f8 e8 f3 ae db f1 f2 f2 bf d1 36
       -50 -16 16 -41 80 -8 -24 -13 -82 -37 -15 -14 -14 -65 -47 54
000070 ce ca 1b 06 81 02 cf 07 00 d2 35 05 58 8f d7 b4
       -50 -54 27 6 -127 2 -49 7 0 -46 53 5 88 -113 -41 -76
000080 e1 f5 de d8 22 fe 0a fa 07 b1 ff 07 fb dd 3f 15
       -31 -11 -34 -40 34 -2 10 -6 7 -79 -1 7 -5 -35 63 21
000090 1a f1 30 13 fe 19 48 fe df 0c e9 26 d2 be e7 2f
       26 -15 48 19 -2 25 72 -2 -33 12 -23 38 -46 -66 -25 47
0000a0 e6 e3 0d 35 40 e2 d3 0c e4 33 f0 e9 08 2e ff c2
       -26 -29 13 53 64 -30 -45 12 -28 51 -16 -23 8 46 -1 -62
0000b0 e2 3b 1d ea 0c 16 21 21 47 13 28 fb 0e 19 e9 ef
       -30 59 29 -22 12 22 33 33 71 19 40 -5 14 25 -23 -17
0000c0 3b f4 07 ff 36 cd f5 fa c4 1f f4 43 fa f8 e9 f7
       59 -12 7 -1 54 -51 -11 -6 -60 31 -12 67 -6 -8 -23 -9
0000d0 00 e7 0e b5 d9 04 0f 06 e6 99 c0 f4 17 29 f4 ec
       0 -25 14 -75 -39 4 15 6 -26 -103 -64 -12 23 41 -12 -20
0000e0 28 f9 fa d6 ec d9 e7 02 e0 17 cd c1 f0 ff 08 e3
       40 -7 -6 -42 -20 -39 -25 2 -32 23 -51 -63 -16 -1 8 -29
0000f0 0b f2 10 da 3e 0f 02 07 da 1a ec f4 3a 22 13 e6
       11 -14 16 -38 62 15 2 7 -38 26 -20 -12 58 34 19 -26

tfl.pseudo_qconst6 i1 [128] scale=0.008699518 zero_point=127
000000 30 1c fd 35 24 37 fa f0 1b 0e 37 35 0a 2e f3 2d
       -0.6872619 -0.86125225 -1.1309373 -0.6437643 -0.79165614 -0.6263653 -1.1570358 -1.2440311 -0.8699518 -0.9830455 -0.6263653 -0.6437643 -1.0178436 -0.70466095 -1.2179325 -0.7133604
000010 1c 1e 15 2b 1f 12 0e 1e 2c 23 02 31 04 3b 2f 14
       -0.86125225 -0.84385324 -0.9221489 -0.7307595 -0.8351537 -0.94824743 -0.9830455 -0.84385324 -0.72205997 -0.8003556 -1.0874397 -0.6785624 -1.0700407 -0.5915672 -0.6959614 -0.9308484
000020 1c 64 37 45 32 31 31 80 2c 10 55 41 21 2e 29 1e
       -0.86125225 -0.23488697 -0.6263653 -0.50457203 -0.66986287 -0.6785624 -0.6785624 -2.218377 -0.72205997 -0.96564645 -0.36537975 -0.5393701 -0.8177547 -0.70466095 -0.7481585 -0.84385324
000030 39 fa 44 1c f7 49 22 0e 3c 15 f7 2d 17 3d 54 49
       -0.60896623 -1.1570358 -0.5132716 -0.86125225 -1.1831344 -0.46977395 -0.80905515 -0.9830455 -0.5828677 -0.9221489 -1.1831344 -0.7133604 -0.9047499 -0.57416815 -0.37407926 -0.46977395
000040 39 3a 4c 56 53 34 3f 13 31 42 42 2c 1d fa 3b 42
       -0.60896623 -0.6002667 -0.4436754 -0.3566802 -0.38277876 -0.65246385 -0.55676913 -0.9395479 -0.6785624 -0.5306706 -0.5306706 -0.72205997 -0.8525527 -1.1570358 -0.5915672 -0.5306706
000050 39 29 47 35 3b 41 22 46 2d 10 3e 2a 0d 12 32 43
       -0.60896623 -0.7481585 -0.487173 -0.6437643 -0.5915672 -0.5393701 -0.80905515 -0.4958725 -0.7133604 -0.96564645 -0.56546867 -0.739459 -0.991745 -0.94824743 -0.66986287 -0.52197105
000060 46 49 10 2c 1d 35 4c 2b 5f 47 5d 29 33 2b 1e 27
       -0.4958725 -0.46977395 -0.96564645 -0.72205997 -0.8525527 -0.6437643 -0.4436754 -0.7307595 -0.27838457 -0.487173 -0.2957836 -0.7481585 -0.66116333 -0.7307595 -0.84385324 -0.7655575
000070 19 0e 21 1e 15 39 16 41 31 20 f3 12 2c 49 46 1c
       -0.8873508 -0.9830455 -0.8177547 -0.84385324 -0.9221489 -0.60896623 -0.91344935 -0.5393701 -0.6785624 -0.82645416 -1.2179325 -0.94824743 -0.72205997 -0.46977395 -0.4958725 -0.86125225

tfl.pseudo_qconst7 i1 [128] scale=0.005904778 zero_point=-128
000000 10 e8 ce f1 eb 26 e6 ed e0 ca f6 ee e4 ed e4 f4
       0.85028803 0.6140969 0.4605727 0.6672399 0.63181126 0.98019314 0.60228735 0.6436208 0.56685865 0.43695357 0.6967638 0.6495256 0.59047776 0.6436208 0.59047776 0.6849542
000010 eb f1 ec 03 e1 f4 ec ed fe 08 e8 e3 17 de 15 ee
       0.63181126 0.6672399 0.637716 0.7735259 0.57276344 0.6849542 0.637716 0.6436208 0.74400204 0.8030498 0.6140969 0.58457303 0.8916215 0.5550491 0.8798119 0.6495256
000020 ec 75 13 08 1e 10 14 d6 01 d7 15 33 f0 f4 03 14
       0.637716 1.4466705 0.86800236 0.8030498 0.9329549 0.85028803 0.87390715 0.5078109 0.76171637 0.5137157 0.8798119 1.0569552 0.6613351 0.6849542 0.7735259 0.87390715
000030 09 e1 01 e4 d9 22 e8 ed fe d9 ee e7 dc 2d 1b 0b
       0.8089546 0.57276344 0.76171637 0.59047776 0.5255252 0.956574 0.6140969 0.6436208 0.74400204 0.5255252 0.6495256 0.60819215 0.5432396 1.0215266 0.9152406 0.8207641
000040 6d ef fd fd 4b f8 20 13 ed f4 f9 06 ee dd 77 47
       1.3994324 0.6554304 0.73809725 0.73809725 1.1986699 0.70857334 0.9447645 0.86800236 0.6436208 0.6849542 0.71447814 0.7912402 0.6495256 0.5491443 1.4584801 1.1750509
000050 01 0e 39 d7 f6 f5 e4 48 fe cc 0c e5 fd d5 0e 0d
       0.76171637 0.83847845 1.0923839 0.5137157 0.6967638 0.690859 0.59047776 1.1809555 0.74400204 0.44876313 0.8266689 0.59638256 0.73809725 0.5019061 0.83847845 0.8325737
000060 f1 3a e2 fd f4 f4 fc fc 37 fb 7f 03 f9 fa ef ea
       0.6672399 1.0982887 0.57866824 0.73809725 0.6849542 0.6849542 0.73219246 0.73219246 1.0805744 0.72628766 1.5057184 0.7735259 0.71447814 0.7203829 0.6554304 0.62590647
000070 d4 e8 e9 f5 0d f0 df 0b 19 fd dc f2 f5 1a 27 2d
       0.49600133 0.6140969 0.6200017 0.690859 0.8325737 0.6613351 0.5609539 0.8207641 0.903431 0.73809725 0.5432396 0.6731447 0.690859 0.9093358 0.98609793 1.0215266

tfl.pseudo_qconst9 i1 [128, 3, 3, 64]
000000 c9 be 02 96 b0 f3 e2 c3 e4 07 d8 0d 1d c4 73 bd
       -55 -66 2 -106 -80 -13 -30 -61 -28 7 -40 13 29 -60 115 -67
000010 bd d4 f0 98 fb e3 f9 da 01 de e3 2a fc 25 d4 04
       -67 -44 -16 -104 -5 -29 -7 -38 1 -34 -29 42 -4 37 -44 4
000020 92 37 25 e9 f9 2a 27 a4 23 dd 8c c0 21 08 f0 85
       -110 55 37 -23 -7 42 39 -92 35 -35 -116 -64 33 8 -16 -123
000030 20 ab 02 fd 24 1d 95 ba c7 12 09 fe d0 24 cb e9
       32 -85 2 -3 36 29 -107 -70 -57 18 9 -2 -48 36 -53 -23
000040 f1 0c cd 18 30 f8 e2 f9 e8 fe f0 02 03 c9 cd 06
       -15 12 -51 24 48 -8 -30 -7 -24 -2 -16 2 3 -55 -51 6
000050 ec 29 e2 fc eb 00 fc ca ea 09 00 1f fa 08 fb e5
       -20 41 -30 -4 -21 0 -4 -54 -22 9 0 31 -6 8 -5 -27
000060 07 f5 10 09 1b 05 27 f9 09 0a f5 f0 0d f5 d9 de
       7 -11 16 9 27 5 39 -7 9 10 -11 -16 13 -11 -39 -34
000070 07 13 0c 14 ed 1b f6 08 fa bb 17 e3 e4 38 ea 08
       7 19 12 20 -19 27 -10 8 -6 -69 23 -29 -28 56 -22 8
000080 bb 13 c1 f7 2f 22 82 09 ed 13 b8 0d ef 00 d2 f4
       -69 19 -63 -9 47 34 -126 9 -19 19 -72 13 -17 0 -46 -12
000090 06 1a 28 00 16 cb f5 1f 0c f7 1d fb f2 f9 f1 e0
       6 26 40 0 22 -53 -11 31 12 -9 29 -5 -14 -7 -15 -32
0000a0 15 0f e8 17 04 0b 10 16 db ce 06 e4 0d b2 f0 c4
       21 15 -24 23 4 11 16 22 -37 -50 6 -28 13 -78 -16 -60
0000b0 f6 12 fc d4 0b 02 35 00 3f 1b 09 c6 1e 20 ed da
       -10 18 -4 -44 11 2 53 0 63 27 9 -58 30 32 -19 -38
0000c0 f1 b2 ee f8 df f0 f2 9c 1b f3 16 e5 03 c5 2e 23
       -15 -78 -18 -8 -33 -16 -14 -100 27 -13 22 -27 3 -59 46 35
0000d0 c3 25 1e ec 05 e8 db 07 26 22 ea 20 02 0d ca c5
       -61 37 30 -20 5 -24 -37 7 38 34 -22 32 2 13 -54 -59
0000e0 f7 0a c2 12 0f f5 b4 36 f9 f4 ff 0e de 12 0b 0a
       -9 10 -62 18 15 -11 -76 54 -7 -12 -1 14 -34 18 11 10
0000f0 f6 e6 15 36 3a 17 04 0d f3 05 d0 25 f0 1e 00 27
       -10 -26 21 54 58 23 4 13 -13 5 -48 37 -16 30 0 39

tfl.pseudo_qconst10 i1 [64] scale=0.0071659056 zero_point=110
000000 f8 58 40 71 0f 5b 0b 12 ea 6a bc 03 26 57 76 54
       -0.8455769 -0.15764992 -0.32963166 0.021497717 -0.68076104 -0.13615221 -0.7094247 -0.6592633 -0.94589955 -0.028663622 -1.2755312 -0.7667519 -0.5159452 -0.16481583 0.057327244 -0.18631354
000010 0f e1 5d f7 09 16 12 7f 33 0a cb 53 06 6b 52 39
       -0.68076104 -1.0103927 -0.1218204 -0.85274273 -0.72375643 -0.6305997 -0.6592633 0.1218204 -0.42278844 -0.7165906 -1.1680427 -0.19347945 -0.74525416 -0.021497717 -0.20064536 -0.379793
000020 34 33 ff 7e b8 59 4e 2e 05 28 00 24 e2 80 6b 39
       -0.41562253 -0.42278844 -0.7954155 0.11465449 -1.3041948 -0.15048401 -0.22930898 -0.45861796 -0.75242007 -0.5016134 -0.7882496 -0.530277 -1.0032268 -1.7054855 -0.021497717 -0.379793
000030 26 38 10 05 17 50 26 38 de f8 17 18 2d 36 1e 2a
       -0.5159452 -0.3869589 -0.67359513 -0.75242007 -0.62343377 -0.21497716 -0.5159452 -0.3869589 -1.0318904 -0.8455769 -0.62343377 -0.61626786 -0.46578386 -0.4012907 -0.57327247 -0.4872816

tfl.pseudo_qconst11 i1 [64] scale=0.002363735 zero_point=-128
000000 ea 6d 2d 35 4c 7f 16 09 39 61 f6 f8 28 dc 17 3a
       0.25055593 0.5602052 0.4089262 0.42783606 0.48220196 0.60275245 0.35456026 0.3238317 0.437291 0.5318404 0.27892074 0.28364822 0.3971075 0.21746363 0.356924 0.43965474
000010 01 ed eb 4b 12 fb 0a fb 1a 16 e8 fb 00 26 15 ef
       0.30492184 0.25764713 0.25291964 0.47983822 0.34510532 0.29073942 0.32619545 0.29073942 0.36401522 0.35456026 0.24582845 0.29073942 0.3025581 0.39238003 0.35219654 0.2623746
000020 30 58 13 3e 02 44 42 15 14 32 15 fd fc dc 54 45
       0.41601738 0.5105668 0.34746906 0.44910967 0.30728558 0.4632921 0.4585646 0.35219654 0.3498328 0.42074484 0.35219654 0.2954669 0.29310316 0.21746363 0.50111187 0.4656558
000030 01 1a ee 06 04 00 4f f7 e2 e8 ea 1d 44 e9 f5 32
       0.30492184 0.36401522 0.26001087 0.3167405 0.31201303 0.3025581 0.48929316 0.28128448 0.23164605 0.24582845 0.25055593 0.37110642 0.4632921 0.24819219 0.276557 0.42074484

tfl.pseudo_qconst13 i1 [64, 3, 3, 32]
000000 ea f6 11 e9 fc fb f1 17 1d 20 0f 07 ed 07 0c 48
       -22 -10 17 -23 -4 -5 -15 23 29 32 15 7 -19 7 12 72
000010 f2 ea 22 e6 04 ee 0d 0e 04 08 fb fe 05 e0 0c ff
       -14 -22 34 -26 4 -18 13 14 4 8 -5 -2 5 -32 12 -1
000020 eb ed 0c da ee eb 0a f1 06 05 09 11 f5 11 00 3b
       -21 -19 12 -38 -18 -21 10 -15 6 5 9 17 -11 17 0 59
000030 f9 ec 11 f5 fd fc f5 0c 0d f2 e8 09 02 ed fb fd
       -7 -20 17 -11 -3 -4 -11 12 13 -14 -24 9 2 -19 -5 -3
000040 f8 f6 18 f0 f7 bd f2 0e 0c 0b f0 f7 09 10 0a 7f
       -8 -10 24 -16 -9 -67 -14 14 12 11 -16 -9 9 16 10 127
000050 f7 ff 0c e9 ec ec de 01 09 e8 f4 ef 08 f7 1f f0
       -9 -1 12 -23 -20 -20 -34 1 9 -24 -12 -17 8 -9 31 -16
000060 ee 14 09 f0 f0 14 02 f9 ec f9 ef 06 f9 e9 1b 31
       -18 20 9 -16 -16 20 2 -7 -20 -7 -17 6 -7 -23 27 49
000070 ee 04 21 f0 13 0e 18 fb 07 0c ef ef 0c f9 0a fd
       -18 4 33 -16 19 14 24 -5 7 12 -17 -17 12 -7 10 -3
000080 03 fe 38 dd 00 1a e0 2a ec f4 f5 f4 00 0f 17 1e
       3 -2 56 -35 0 26 -32 42 -20 -12 -11 -12 0 15 23 30
000090 fe 0e 18 f2 0e f2 08 ed 06 f3 e4 12 10 f9 08 0a
       -2 14 24 -14 14 -14 8 -19 6 -13 -28 18 16 -7 8 10
0000a0 12 0d 03 e6 03 fd e5 09 de 03 cd 12 f5 0b 0e 61
       18 13 3 -26 3 -3 -27 9 -34 3 -51 18 -11 11 14 97
0000b0 08 fb 2f fa 14 08 02 ee 05 fd e1 08 18 11 f8 fc
       8 -5 47 -6 20 8 2 -18 5 -3 -31 8 24 17 -8 -4
0000c0 13 fa 04 e2 0a fc 07 0d ff e9 23 d9 03 e3 0d 1a
       19 -6 4 -30 10 -4 7 13 -1 -23 35 -39 3 -29 13 26
0000d0 f7 fd f7 fe ea 19 0a 0f d7 f6 01 f0 ed 1d 09 e2
       -9 -3 -9 -2 -22 25 10 15 -41 -10 1 -16 -19 29 9 -30
0000e0 f8 fa 0b ea 0d 13 02 f9 01 ef 0d f2 05 ee 08 3b
       -8 -6 11 -22 13 19 2 -7 1 -17 13 -14 5 -18 8 59
0000f0 fa 03 10 f8 12 05 06 19 e9 03 e5 0a d7 f7 0d 03
       -6 3 16 -8 18 5 6 25 -23 3 -27 10 -41 -9 13 3

tfl.pseudo_qconst14 i1 [32] scale=0.005523472 zero_point=127
000000 21 13 1b 68 63 ae a1 75 db e6 9d 80 30 af 55 39
       -0.5192064 -0.59653497 -0.5523472 -0.12703986 -0.15465721 -1.1544057 -1.2262108 -0.055234723 -0.9058494 -0.8450912 -1.2483047 -1.4084854 -0.4363543 -1.1488822 -0.23198582 -0.38664305
000010 88 74 cd 39 a3 45 0b ba b2 8c 55 4c 65 e6 3a bf
       -1.3642976 -0.060758192 -0.983178 -0.38664305 -1.2151638 -0.32036138 -0.64072275 -1.088124 -1.1323118 -1.3422037 -0.23198582 -0.28169706 -0.14361027 -0.8450912 -0.38111958 -1.0605066

tfl.pseudo_qconst15 i1 [32] scale=0.0012393328 zero_point=-128
000000 1c 28 40 04 fd 12 1f 7f 05 4c 42 57 32 39 1d 08
       0.19333592 0.20820792 0.2379519 0.16359194 0.1549166 0.1809426 0.19705392 0.31602988 0.16483127 0.2528239 0.24043056 0.26645657 0.22060125 0.22927657 0.19457525 0.16854927
000010 42 34 4d 3b 70 22 f9 2f 48 22 2e 49 1f 44 5a 25
       0.24043056 0.2230799 0.25406322 0.23175524 0.29743987 0.20077191 0.14995927 0.21688324 0.24786657 0.20077191 0.21564391 0.2491059 0.19705392 0.24290924 0.27017456 0.20448992

tfl.pseudo_qconst17 i1 [32, 3, 3, 32]
000000 fb 0f f6 f7 22 2e d1 e5 17 03 0c 24 d8 00 fb 0f
       -5 15 -10 -9 34 46 -47 -27 23 3 12 36 -40 0 -5 15
000010 e3 2c 20 0d 05 06 c3 d5 2f 22 15 c6 ce ed f7 f7
       -29 44 32 13 5 6 -61 -43 47 34 21 -58 -50 -19 -9 -9
000020 17 0e 18 f6 25 26 f7 f8 f8 f0 15 10 f0 f3 0e 00
       23 14 24 -10 37 38 -9 -8 -8 -16 21 16 -16 -13 14 0
000030 df ff 0d e2 fe fe ad d5 38 12 0c d0 f7 eb fe 01
       -33 -1 13 -30 -2 -2 -83 -43 56 18 12 -48 -9 -21 -2 1
000040 20 35 db f9 1b 1f c9 f1 c0 dd fe 02 96 1a 13 03
       32 53 -37 -7 27 31 -55 -15 -64 -35 -2 2 -106 26 19 3
000050 fb fc 1d ef ec ee 8a f2 36 20 12 c1 e8 ec fa f0
       -5 -4 29 -17 -20 -18 -118 -14 54 32 18 -63 -24 -20 -6 -16
000060 fe e5 14 fa d9 03 23 a8 fd b5 b6 fc f0 f0 13 2c
       -2 -27 20 -6 -39 3 35 -88 -3 -75 -74 -4 -16 -16 19 44
000070 fc db 26 cb 34 3c 02 fa f9 f3 f1 e3 d3 07 f2 13
       -4 -37 38 -53 52 60 2 -6 -7 -13 -15 -29 -45 7 -14 19
000080 f3 da e4 e9 d0 df 43 97 ff aa b7 de 0a 02 0a e9
       -13 -38 -28 -23 -48 -33 67 -105 -1 -86 -73 -34 10 2 10 -23
000090 e1 14 07 ef 1e 42 0c ee 1d bb f2 06 fa 12 dc bc
       -31 20 7 -17 30 66 12 -18 29 -69 -14 6 -6 18 -36 -68
0000a0 ee 04 e8 d3 cd c3 1b 81 ec 83 ae dc 07 02 ff 05
       -18 4 -24 -45 -51 -61 27 -127 -20 -125 -82 -36 7 2 -1 5
0000b0 ec e3 28 f8 1c 3b 0d fb fb e8 dc ea eb 0e de b4
       -20 -29 40 -8 28 59 13 -5 -5 -24 -36 -22 -21 14 -34 -76
0000c0 4d f4 f2 08 fa fa 0b 34 ec 10 f3 e7 b7 f3 31 cb
       77 -12 -14 8 -6 -6 11 52 -20 16 -13 -25 -73 -13 49 -53
0000d0 f6 e9 dc 18 34 13 e0 3d ee 0a 1a e3 f5 34 b6 0e
       -10 -23 -36 24 52 19 -32 61 -18 10 26 -29 -11 52 -74 14
0000e0 4f ee 0a c6 ef e7 34 15 04 00 d2 eb da 04 23 f8
       79 -18 10 -58 -17 -25 52 21 4 0 -46 -21 -38 4 35 -8
0000f0 df cb db 14 04 0f e2 1a 02 f7 06 e7 fb 17 bf 0c
       -33 -53 -37 20 4 15 -30 26 2 -9 6 -25 -5 23 -65 12

tfl.pseudo_qconst18 i1 [32] scale=0.0070457365 zero_point=114
000000 20 84 71 f8 76 dc 62 73 2b a9 48 d8 5e 48 a5 6c
       -0.5777504 -1.6768852 -0.0070457365 -0.85957986 0.028182946 -1.0568604 -0.112731785 0.0070457365 -0.5002473 -1.416193 -0.29592094 -1.0850434 -0.14091474 -0.29592094 -1.444376 -0.04227442
000010 56 08 28 7f 30 07 07 b4 0d 6f 05 33 fa 05 4b 80
       -0.19728062 -0.74684805 -0.5213845 0.09159458 -0.4650186 -0.7538938 -0.7538938 -1.3386899 -0.7116194 -0.02113721 -0.7679853 -0.4438814 -0.84548837 -0.7679853 -0.27478373 -1.7050682

tfl.pseudo_qconst19 i1 [32] scale=0.04214533 zero_point=-128
000000 da 18 e9 cf a5 a2 61 a9 d2 b0 b2 ff 36 68 d0 7f
       3.7930799 6.4060903 4.4252596 3.3294811 1.5593772 1.4329412 9.482699 1.7279586 3.4559171 2.022976 2.1072664 5.352457 7.67045 9.777717 3.3716264 10.747059
000010 5e aa 37 b0 a6 bf 9c d1 ad c2 9c 61 cb 9b 9c d5
       9.356263 1.7701039 7.7125955 2.022976 1.6015226 2.655156 1.1800692 3.4137719 1.8965399 2.781592 1.1800692 9.482699 3.1608999 1.137924 1.1800692 3.582353

tfl.pseudo_qconst21 i1 [32, 3, 3, 1]
000000 f4 17 4f 26 05 f1 cf d0 81 aa f4 5c 57 29 81 ef
       -12 23 79 38 5 -15 -49 -48 -127 -86 -12 92 87 41 -127 -17
000010 ce 47 71 88 00 7f a7 f6 37 b3 ca 1b d8 7f 28 f9
       -50 71 113 -120 0 127 -89 -10 55 -77 -54 27 -40 127 40 -7
000020 0b da eb 6d 3c 34 7f 96 a3 c6 ac d3 d7 03 2b 7f
       11 -38 -21 109 60 52 127 -106 -93 -58 -84 -45 -41 3 43 127
000030 f1 de b9 29 4f 7d 86 f3 7f d4 02 2a 4c 01 a8 44
       -15 -34 -71 41 79 125 -122 -13 127 -44 2 42 76 1 -88 68
000040 1c 03 5f 61 42 aa 81 e3 f8 be 42 af 1f 69 2e 15
       28 3 95 97 66 -86 -127 -29 -8 -66 66 -81 31 105 46 21
000050 81 23 39 1a 51 5b 7f f6 25 10 e7 af 4f 81 f3 a3
       -127 35 57 26 81 91 127 -10 37 16 -25 -81 79 -127 -13 -93
000060 88 c4 ac 4c e7 ef 81 63 e7 4f aa 3a bc ef 54 cf
       -120 -60 -84 76 -25 -17 -127 99 -25 79 -86 58 -68 -17 84 -49
000070 fc 37 81 11 67 ae 5c f7 99 7f ea db 34 f8 7f fa
       -4 55 -127 17 103 -82 92 -9 -103 127 -22 -37 52 -8 127 -6
000080 ee ec 36 c6 a6 0d ba 42 f1 ca 28 20 b3 2f 4e 81
       -18 -20 54 -58 -90 13 -70 66 -15 -54 40 32 -77 47 78 -127
000090 05 c7 12 fe 50 81 01 cb 20 7f 47 07 42 c4 f1 2d
       5 -57 18 -2 80 -127 1 -53 32 127 71 7 66 -60 -15 45
0000a0 06 33 64 1c 81 86 f9 7f 5b fc aa 81 36 c7 40 54
       6 51 100 28 -127 -122 -7 127 91 -4 -86 -127 54 -57 64 84
0000b0 42 8b 21 91 02 eb 21 e2 ff d8 6e 35 7f 7f 3e 61
       66 -117 33 -111 2 -21 33 -30 -1 -40 110 53 127 127 62 97
0000c0 0b 06 47 a4 b3 bb cb e4 b9 7f 4b 52 10 05 0f e4
       11 6 71 -92 -77 -69 -53 -28 -71 127 75 82 16 5 15 -28
0000d0 1c 27 32 de 3e 81 bc e2 56 14 75 a9 d6 da 5e 60
       28 39 50 -34 62 -127 -68 -30 86 20 117 -87 -42 -38 94 96
0000e0 81 36 12 c2 02 c9 c8 ce bc 81 ed 0d 0b c3 e8 b4
       -127 54 18 -62 2 -55 -56 -50 -68 -127 -19 13 11 -61 -24 -76
0000f0 33 fb 7f c3 cc f8 0d 81 14 e9 c5 24 4e 51 9d 7f
       51 -5 127 -61 -52 -8 13 -127 20 -23 -59 36 78 81 -99 127
