Model/tests/60k.tflite (tflite, 69256 bytes, 3 tensors)

tfl.pseudo_qconst i1 [4, 412]
0	0x29	41
1	0x4d	77
2	0xe7	-25
3	0x65	101
4	0x83	-125
5	0x48	72
6	0xf1	-15
7	0xa5	-91
8	0x94	-108
9	0x09	9
10	0x85	-123
11	0xd4	-44
12	0x61	97
13	0x60	96
14	0x40	64
15	0x13	19
16	0x14	20
17	0xc4	-60
18	0x6f	111
19	0xb1	-79
20	0xe8	-24
21	0x92	-110
22	0x62	98
23	0x2e	46
24	0x10	16
25	0x4c	76
26	0x24	36
27	0x94	-108
28	0xfd	-3
29	0x41	65
30	0xd0	-48
31	0xa9	-87
32	0x00	0
33	0xb6	-74
34	0xba	-70
35	0x52	82
36	0x60	96
37	0x30	48
38	0x9f	-97
39	0x2d	45
40	0x2e	46
41	0x5f	95
42	0x20	32
43	0xb3	-77
44	0x62	98
45	0xe7	-25
46	0x39	57
47	0xd7	-41
48	0x49	73
49	0x39	57
50	0x04	4
51	0xa8	-88
52	0x8b	-117
53	0x97	-105
54	0x8e	-114
55	0xca	-54
56	0x10	16
57	0x89	-119
58	0x9d	-99
59	0xe5	-27
60	0xfe	-2
61	0x9f	-97
62	0xe2	-30
63	0xbd	-67
64	0xc7	-57
65	0x6b	107
66	0xa9	-87
67	0xab	-85
68	0xda	-38
69	0xa0	-96
70	0xe0	-32
71	0x42	66
72	0x94	-108
73	0x79	121
74	0x32	50
75	0x8f	-113
76	0x66	102
77	0xe6	-26
78	0x8c	-116
79	0x35	53
80	0x94	-108
81	0x63	99
82	0x50	80
83	0x1d	29
84	0x07	7
85	0xd7	-41
86	0xf9	-7
87	0xcc	-52
88	0xa6	-90
89	0x2e	46
90	0xd8	-40
91	0x1b	27
92	0x4c	76
93	0x67	103
94	0x75	117
95	0x21	33
96	0x0e	14
97	0x07	7
98	0xf5	-11
99	0xd5	-43
100	0x8b	-117
101	0xd6	-42
102	0x12	18
103	0x34	52
104	0x46	70
105	0x3a	58
106	0xae	-82
107	0x88	-120
108	0x21	33
109	0x4c	76
110	0x25	37
111	0x26	38
112	0x09	9
113	0x43	67
114	0x57	87
115	0x52	82
116	0xe6	-26
117	0xc2	-62
118	0x86	-122
119	0x19	25
120	0x5a	90
121	0x24	36
122	0xbc	-68
123	0x18	24
124	0x62	98
125	0xf9	-7
126	0x70	112
127	0x88	-120
128	0x45	69
129	0x79	121
130	0xcc	-52
131	0x56	86
132	0x08	8
133	0x37	55
134	0xdf	-33
135	0xfd	-3
136	0xca	-54
137	0xab	-85
138	0x3f	63
139	0xb1	-79
140	0xda	-38
141	0x90	-112
142	0x97	-105
143	0x12	18
144	0x29	41
145	0xfe	-2
146	0xda	-38
147	0x28	40
148	0xd4	-44
149	0x1f	31
150	0xa1	-95
151	0x14	20
152	0x40	64
153	0x10	16
154	0xc3	-61
155	0x97	-105
156	0x06	6
157	0x63	99
158	0x3a	58
159	0xc8	-56
160	0x82	-126
161	0x7f	127
162	0x21	33
163	0xa9	-87
164	0xad	-83
165	0x06	6
166	0xee	-18
167	0xa2	-94
168	0xb8	-72
169	0xbf	-65
170	0x3c	60
171	0xf1	-15
172	0x1c	28
173	0x85	-123
174	0x17	23
175	0x72	114
176	0xff	-1
177	0x47	71
178	0xc1	-63
179	0x8c	-116
180	0x3e	62
181	0xfd	-3
182	0x77	119
183	0xdb	-37
184	0x3e	62
185	0x30	48
186	0x38	56
187	0x49	73
188	0x77	119
189	0x47	71
190	0xc5	-59
191	0x4f	79
192	0xad	-83
193	0xcc	-52
194	0xc0	-64
195	0xd6	-42
196	0xd6	-42
197	0x9a	-102
198	0xbb	-69
199	0x13	19
200	0x1b	27
201	0x63	99
202	0x08	8
203	0x9e	-98
204	0x2f	47
205	0x0e	14
206	0x79	121
207	0xdc	-36
208	0x00	0
209	0x20	32
210	0x81	-127
211	0xd4	-44
212	0x92	-110
213	0xe4	-28
214	0x9a	-102
215	0xf0	-16
216	0x78	120
217	0xf0	-16
218	0xdf	-33
219	0xc2	-62
220	0x04	4
221	0x90	-112
222	0x85	-123
223	0xfa	-6
224	0x78	120
225	0x12	18
226	0xd0	-48
227	0x36	54
228	0x2c	44
229	0xb1	-79
230	0xfc	-4
231	0x45	69
232	0x8c	-116
233	0xdd	-35
234	0x6c	108
235	0x30	48
236	0x7e	126
237	0xbb	-69
238	0xf2	-14
239	0xe4	-28
240	0xc9	-55
241	0x7a	122
242	0xe1	-31
243	0xe5	-27
244	0xbf	-65
245	0x91	-111
246	0x44	68
247	0xc7	-57
248	0xaf	-81
249	0x9a	-102
250	0xb4	-76
251	0xc6	-58
252	0x76	118
253	0xed	-19
254	0x36	54
255	0x0f	15

tfl.pseudo_qconst2 i1 [103, 3, 3, 64]
0	0x0e	14
1	0xd7	-41
2	0x30	48
3	0x43	67
4	0xbc	-68
5	0xe9	-23
6	0xbb	-69
7	0x0d	13
8	0xc9	-55
9	0x1e	30
10	0x9a	-102
11	0xb8	-72
12	0x66	102
13	0x70	112
14	0xc3	-61
15	0xf6	-10
16	0x76	118
17	0xac	-84
18	0x7d	125
19	0xe8	-24
20	0xcb	-53
21	0x22	34
22	0x30	48
23	0x5f	95
24	0x7c	124
25	0x97	-105
26	0xb3	-77
27	0x88	-120
28	0x96	-106
29	0x9c	-100
30	0x17	23
31	0x4f	79
32	0x9e	-98
33	0x50	80
34	0xe7	-25
35	0xe0	-32
36	0x72	114
37	0xa6	-90
38	0x54	84
39	0x47	71
40	0x0a	10
41	0xe9	-23
42	0x69	105
43	0xc6	-58
44	0x79	121
45	0x28	40
46	0xbb	-69
47	0xd1	-47
48	0xc7	-57
49	0xf0	-16
50	0xd1	-47
51	0xdd	-35
52	0xc8	-56
53	0x59	89
54	0xe6	-26
55	0xe9	-23
56	0x0c	12
57	0x73	115
58	0x5f	95
59	0x8a	-118
60	0x55	85
61	0x41	65
62	0xd2	-46
63	0xc7	-57
64	0xb9	-71
65	0xd9	-39
66	0xf2	-14
67	0xa5	-91
68	0xcd	-51
69	0x10	16
70	0xe1	-31
71	0x97	-105
72	0x1d	29
73	0x31	49
74	0x4e	78
75	0x7f	127
76	0x47	71
77	0xf7	-9
78	0x2e	46
79	0xda	-38
80	0x68	104
81	0x3d	61
82	0x9c	-100
83	0x7c	124
84	0x67	103
85	0x0d	13
86	0x07	7
87	0xaa	-86
88	0x00	0
89	0xdd	-35
90	0xe5	-27
91	0x36	54
92	0x03	3
93	0x83	-125
94	0xab	-85
95	0x32	50
96	0x9d	-99
97	0x1f	31
98	0x85	-123
99	0xb9	-71
100	0xde	-34
101	0x29	41
102	0x7d	125
103	0xf0	-16
104	0x6f	111
105	0x92	-110
106	0xa3	-93
107	0xb3	-77
108	0x0c	12
109	0xbd	-67
110	0xd9	-39
111	0x9b	-101
112	0x43	67
113	0xcf	-49
114	0x39	57
115	0x44	68
116	0xba	-70
117	0xdc	-36
118	0x16	22
119	0x16	22
120	0x3a	58
121	0x34	52
122	0xb4	-76
123	0xac	-84
124	0x44	68
125	0xa9	-87
126	0x4e	78
127	0x8e	-114
128	0x0e	14
129	0x8d	-115
130	0x24	36
131	0x50	80
132	0x89	-119
133	0x6a	106
134	0xd3	-45
135	0x85	-123
136	0x9b	-101
137	0x90	-112
138	0xf7	-9
139	0xfe	-2
140	0xa6	-90
141	0xce	-50
142	0xc6	-58
143	0xf9	-7
144	0x0e	14
145	0xc8	-56
146	0x9d	-99
147	0xf9	-7
148	0x19	25
149	0x05	5
150	0x4d	77
151	0xb8	-72
152	0x72	114
153	0x4f	79
154	0xe1	-31
155	0x2a	42
156	0xad	-83
157	0x0d	13
158	0x6b	107
159	0x82	-126
160	0xe3	-29
161	0x9d	-99
162	0x52	82
163	0xe5	-27
164	0x06	6
165	0x08	8
166	0x7d	125
167	0x2f	47
168	0xa3	-93
169	0xf2	-14
170	0x58	88
171	0x5f	95
172	0xde	-34
173	0xf7	-9
174	0xfc	-4
175	0x8f	-113
176	0x03	3
177	0xf5	-11
178	0x6f	111
179	0xb9	-71
180	0xa0	-96
181	0xfe	-2
182	0x4c	76
183	0x0e	14
184	0xa2	-94
185	0xde	-34
186	0x1c	28
187	0xe7	-25
188	0x07	7
189	0xd5	-43
190	0x8f	-113
191	0x46	70
192	0xff	-1
193	0x65	101
194	0x23	35
195	0xce	-50
196	0x95	-107
197	0x74	116
198	0x8b	-117
199	0xa5	-91
200	0x4b	75
201	0xcc	-52
202	0x33	51
203	0x97	-105
204	0x35	53
205	0xfb	-5
206	0x85	-123
207	0x47	71
208	0x07	7
209	0xc6	-58
210	0xf9	-7
211	0x39	57
212	0x10	16
213	0x68	104
214	0xdb	-37
215	0xfa	-6
216	0x71	113
217	0x3a	58
218	0x85	-123
219	0x93	-109
220	0x78	120
221	0xd1	-47
222	0xc7	-57
223	0x1a	26
224	0x4d	77
225	0x9a	-102
226	0x7b	123
227	0x4b	75
228	0x20	32
229	0x54	84
230	0x4e	78
231	0x77	119
232	0x1a	26
233	0x5b	91
234	0xe5	-27
235	0x0a	10
236	0xad	-83
237	0x1f	31
238	0x51	81
239	0x60	96
240	0x2f	47
241	0x8a	-118
242	0x91	-111
243	0x8c	-116
244	0xee	-18
245	0xc9	-55
246	0xbc	-68
247	0xc6	-58
248	0x25	37
249	0xe8	-24
250	0xe5	-27
251	0xc2	-62
252	0xcd	-51
253	0xe4	-28
254	0x99	-103
255	0x04	4

tfl.pseudo_qconst4 i1 [64, 3, 3, 1]
0	0xd4	-44
1	0x1e	30
2	0x2e	46
3	0x8f	-113
4	0x7a	122
5	0xff	-1
6	0x81	-127
7	0xad	-83
8	0x41	65
9	0x99	-103
10	0xb9	-71
11	0x6e	110
12	0x72	114
13	0x24	36
14	0x7f	127
15	0x7c	124
16	0x45	69
17	0xd7	-41
18	0xda	-38
19	0xd7	-41
20	0x81	-127
21	0xcf	-49
22	0xbb	-69
23	0x08	8
24	0x83	-125
25	0xf2	-14
26	0x26	38
27	0x27	39
28	0xc2	-62
29	0xba	-70
30	0x3e	62
31	0x61	97
32	0x7f	127
33	0x27	39
34	0xee	-18
35	0xce	-50
36	0xec	-20
37	0x7e	126
38	0x43	67
39	0x92	-110
40	0x64	100
41	0xe4	-28
42	0x42	66
43	0x7f	127
44	0xec	-20
45	0x81	-127
46	0x4d	77
47	0x76	118
48	0xee	-18
49	0xe9	-23
50	0x9f	-97
51	0x95	-107
52	0xbd	-67
53	0x56	86
54	0xa4	-92
55	0x86	-122
56	0x6d	109
57	0x25	37
58	0x91	-111
59	0x77	119
60	0x81	-127
61	0x4a	74
62	0xa4	-92
63	0xb1	-79
64	0x4d	77
65	0xb1	-79
66	0x04	4
67	0x6c	108
68	0x7f	127
69	0x33	51
70	0x41	65
71	0x5c	92
72	0xbc	-68
73	0x6e	110
74	0x0d	13
75	0xde	-34
76	0x7f	127
77	0x10	16
78	0x9d	-99
79	0xd8	-40
80	0x7a	122
81	0x99	-103
82	0xb1	-79
83	0x5c	92
84	0xb9	-71
85	0x7f	127
86	0xe8	-24
87	0x15	21
88	0xb8	-72
89	0x40	64
90	0x3e	62
91	0xc6	-58
92	0xf1	-15
93	0x6a	106
94	0x7f	127
95	0x09	9
96	0x36	54
97	0xaa	-86
98	0x48	72
99	0xc4	-60
100	0x30	48
101	0x7f	127
102	0x48	72
103	0x35	53
104	0xec	-20
105	0xa7	-89
106	0xb5	-75
107	0x6b	107
108	0x16	22
109	0xff	-1
110	0xc8	-56
111	0xa6	-90
112	0xbc	-68
113	0x81	-127
114	0x5d	93
115	0xa4	-92
116	0x5b	91
117	0xc3	-61
118	0x1f	31
119	0x04	4
120	0x81	-127
121	0xd6	-42
122	0xbb	-69
123	0xa4	-92
124	0x69	105
125	0xc7	-57
126	0x97	-105
127	0x5f	95
128	0xb8	-72
129	0x64	100
130	0x64	100
131	0x7f	127
132	0xf5	-11
133	0x84	-124
134	0xab	-85
135	0x21	33
136	0xc2	-62
137	0x60	96
138	0x7f	127
139	0x5e	94
140	0x03	3
141	0x21	33
142	0xb4	-76
143	0xdc	-36
144	0xfc	-4
145	0xc9	-55
146	0xab	-85
147	0x70	112
148	0x81	-127
149	0x0c	12
150	0x9e	-98
151	0x69	105
152	0xb4	-76
153	0x7a	122
154	0x81	-127
155	0xc3	-61
156	0x33	51
157	0xbc	-68
158	0x08	8
159	0xa4	-92
160	0x46	70
161	0x34	52
162	0x3a	58
163	0x73	115
164	0xce	-50
165	0xd8	-40
166	0xe5	-27
167	0xd0	-48
168	0x8c	-116
169	0x81	-127
170	0x3a	58
171	0x26	38
172	0xf7	-9
173	0x81	-127
174	0x83	-125
175	0xc7	-57
176	0x1c	28
177	0xc3	-61
178	0xcb	-53
179	0xfc	-4
180	0x6d	109
181	0x7f	127
182	0x7c	124
183	0xe5	-27
184	0x79	121
185	0xb8	-72
186	0x58	88
187	0x6f	111
188	0x9f	-97
189	0xcd	-51
190	0x0c	12
191	0x7f	127
192	0xed	-19
193	0xd9	-39
194	0x9c	-100
195	0x49	73
196	0xa4	-92
197	0x7a	122
198	0x86	-122
199	0x81	-127
200	0xb4	-76
201	0xb8	-72
202	0x0e	14
203	0x49	73
204	0x28	40
205	0x18	24
206	0x10	16
207	0x72	114
208	0x19	25
209	0x64	100
210	0xde	-34
211	0x81	-127
212	0xaa	-86
213	0x8a	-118
214	0xbb	-69
215	0x2d	45
216	0xa7	-89
217	0x42	66
218	0x7f	127
219	0xed	-19
220	0x29	41
221	0xdd	-35
222	0x62	98
223	0x3c	60
224	0x99	-103
225	0xa9	-87
226	0x4c	76
227	0x2a	42
228	0x7f	127
229	0x4f	79
230	0x4d	77
231	0xfb	-5
232	0x19	25
233	0x8b	-117
234	0x16	22
235	0xae	-82
236	0x7f	127
237	0x60	96
238	0xa3	-93
239	0x2d	45
240	0xf2	-14
241	0x66	102
242	0x5e	94
243	0x5a	90
244	0xfa	-6
245	0x95	-107
246	0xb3	-77
247	0x81	-127
248	0x47	71
249	0xbe	-66
250	0x09	9
251	0xc6	-58
252	0x64	100
253	0x84	-124
254	0x51	81
255	0x42	66
