Model/tests/619_kb_model.tflite (tflite, 180936 bytes, 21 tensors)

tfl.pseudo_qconst1 i1 [4, 64]
00000000: 3c03 e009 10be 1504 e3bc ffca f6fd 0f02
00000010: 4d07 f607 fe01 16fa 5a06 08fd c9d1 d70e
00000020: f300 130e 09fb 0307 3610 0cfe 0cf0 0d01
00000030: ee03 fe02 0b10 0109 f31f e72a 7f07 0304
00000040: 0107 ec08 1143 1304 0a18 ffe0 f9ff 50fd
00000050: b802 f714 b3fd eef3 5d03 08fd 45eb e621
00000060: f300 e110 eaf1 0401 efdb 0bfb 0c18 0a10
00000070: f403 04fd f80e 0908 0bea 7fe0 d00b 03f1
00000080: f709 1509 c2e3 1607 db1a ff36 fd0e 77f9
00000090: 7206 f7f1 21fb 19f6 be07 f3f6 27da 7fc8
000000a0: 07ff d6d4 07fd fd0b e414 0dfd 05f7 0a1b
000000b0: 0d04 0605 02ef 0d09 03d5 aecf d808 05fb
000000c0: bf0c 390d 34ff a808 5423 ffe6 f309 81ff
000000d0: d307 f418 3c06 ccf6 b20c 01f9 ef5a 66cc
000000e0: ef00 4504 e90e ef0a c20c 15fc eecf c988
000000f0: 3005 0706 ff1e 1b0e 020e 414a 660a 05fe
60 3 -32 9 16 -66 21 4
-29 -68 -1 -54 -10 -3 15 2
77 7 -10 7 -2 1 22 -6
90 6 8 -3 -55 -47 -41 14
-13 0 19 14 9 -5 3 7
54 16 12 -2 12 -16 13 1
-18 3 -2 2 11 16 1 9
-13 31 -25 42 127 7 3 4
1 7 -20 8 17 67 19 4
10 24 -1 -32 -7 -1 80 -3
-72 2 -9 20 -77 -3 -18 -13
93 3 8 -3 69 -21 -26 33
-13 0 -31 16 -22 -15 4 1
-17 -37 11 -5 12 24 10 16
-12 3 4 -3 -8 14 9 8
11 -22 127 -32 -48 11 3 -15
-9 9 21 9 -62 -29 22 7
-37 26 -1 54 -3 14 119 -7
114 6 -9 -15 33 -5 25 -10
-66 7 -13 -10 39 -38 127 -56
7 -1 -42 -44 7 -3 -3 11
-28 20 13 -3 5 -9 10 27
13 4 6 5 2 -17 13 9
3 -43 -82 -49 -40 8 5 -5
-65 12 57 13 52 -1 -88 8
84 35 -1 -26 -13 9 -127 -1
-45 7 -12 24 60 6 -52 -10
-78 12 1 -7 -17 90 102 -52
-17 0 69 4 -23 14 -17 10
-62 12 21 -4 -18 -49 -55 -120
48 5 7 6 -1 30 27 14
2 14 65 74 102 10 5 -2

tfl.pseudo_qconst3 i1 [64, 128]
00000000: 1400 0000 0000 00e0 0000 0000 0000 0000
00000010: 0000 0000 0000 0000 0000 0000 0000 0000
00000020: 0000 0000 0000 0000 0000 0000 0000 0000
00000030: 0000 0000 0040 0000 0000 0000 0000 0000
00000040: 0006 0000 0000 0000 0000 0000 0000 0000
00000050: 0000 0000 0000 0000 00be 0000 0000 0000
00000060: 0000 0000 0000 0000 0000 4f7f 0000 0000
00000070: 0000 0000 0000 0000 0000 0000 df00 0000
00000080: 0000 0000 0000 0000 0000 0000 0000 0000
00000090: 0000 0000 0000 0000 0000 0000 0000 0000
000000a0: 0000 0000 0000 0000 0000 0000 0000 0000
000000b0: 0000 0000 0000 0000 0000 0000 0000 0000
000000c0: 0000 0000 0000 0000 0000 0000 0000 0000
000000d0: 0000 0000 0000 0000 0000 0000 0000 0000
000000e0: 0000 0000 0000 0000 0000 0000 0000 0000
000000f0: 0000 0000 0000 0000 0000 0000 0000 0000
20 0 0 0 0 0 0 -32
0 0 0 0 0 0 0 0
0 0 0 0 0 0 0 0
0 0 0 0 0 0 0 0
0 0 0 0 0 0 0 0
0 0 0 0 0 0 0 0
0 0 0 0 0 64 0 0
0 0 0 0 0 0 0 0
0 6 0 0 0 0 0 0
0 0 0 0 0 0 0 0
0 0 0 0 0 0 0 0
0 -66 0 0 0 0 0 0
0 0 0 0 0 0 0 0
0 0 79 127 0 0 0 0
0 0 0 0 0 0 0 0
0 0 0 0 -33 0 0 0
0 0 0 0 0 0 0 0
0 0 0 0 0 0 0 0
0 0 0 0 0 0 0 0
0 0 0 0 0 0 0 0
0 0 0 0 0 0 0 0
0 0 0 0 0 0 0 0
0 0 0 0 0 0 0 0
0 0 0 0 0 0 0 0
0 0 0 0 0 0 0 0
0 0 0 0 0 0 0 0
0 0 0 0 0 0 0 0
0 0 0 0 0 0 0 0
0 0 0 0 0 0 0 0
0 0 0 0 0 0 0 0
0 0 0 0 0 0 0 0
0 0 0 0 0 0 0 0

tfl.pseudo_qconst5 i1 [128, 512]
00000000: ea59 cbe5 b461 d0e8 b0fa d2c6 dadf 14a1
00000010: d0fc 3401 eec5 c0fe e721 3767 4928 fbc5
00000020: 4bbe c5e7 181f d4f2 a7ae c04a 48de be11
00000030: 42f7 54fc 58e9 e9d0 e40b de64 fef3 34f5
00000040: f34e 4146 491c b0fc e1c9 21be 20c6 a0de
00000050: 61b7 4fc3 71f8 bd78 f1c0 292e fe10 0fb4
00000060: 415c 433c c0e7 e4d8 1dc6 c0de 460c 46c2
00000070: 63f7 014b e6c9 ac76 2cf6 def8 0cee f313
00000080: e4e8 5c45 5e1f 1e9b d707 92ae a103 1f32
00000090: 2275 49a0 5601 dcfb 0d16 26d1 0ad9 e1f9
000000a0: d32a 55f2 ecd2 d244 e374 e363 1244 f71c
000000b0: 5339 fbc9 9a8e b7f5 1c7f f5c9 c0cd 94a7
000000c0: d730 b04a cbc0 96d0 ede5 e3ab f5fd 5425
000000d0: c362 02e5 e49b 411a 2fab 02d2 3259 a8aa
000000e0: fae7 e12c 5cd1 6dcd b3b2 c7e2 2125 d347
000000f0: 3e5b ad3f c8f5 3ce4 c9cc ff9f ba1e 8bb6
-22 89 -53 -27 -76 97 -48 -24
-80 -6 -46 -58 -38 -33 20 -95
-48 -4 52 1 -18 -59 -64 -2
-25 33 55 103 73 40 -5 -59
75 -66 -59 -25 24 31 -44 -14
-89 -82 -64 74 72 -34 -66 17
66 -9 84 -4 88 -23 -23 -48
-28 11 -34 100 -2 -13 52 -11
-13 78 65 70 73 28 -80 -4
-31 -55 33 -66 32 -58 -96 -34
97 -73 79 -61 113 -8 -67 120
-15 -64 41 46 -2 16 15 -76
65 92 67 60 -64 -25 -28 -40
29 -58 -64 -34 70 12 70 -62
99 -9 1 75 -26 -55 -84 118
44 -10 -34 -8 12 -18 -13 19
-28 -24 92 69 94 31 30 -101
-41 7 -110 -82 -95 3 31 50
34 117 73 -96 86 1 -36 -5
13 22 38 -47 10 -39 -31 -7
-45 42 85 -14 -20 -46 -46 68
-29 116 -29 99 18 68 -9 28
83 57 -5 -55 -102 -114 -73 -11
28 127 -11 -55 -64 -51 -108 -89
-41 48 -80 74 -53 -64 -106 -48
-19 -27 -29 -85 -11 -3 84 37
-61 98 2 -27 -28 -101 65 26
47 -85 2 -46 50 89 -88 -86
-6 -25 -31 44 92 -47 109 -51
-77 -78 -57 -30 33 37 -45 71
62 91 -83 63 -56 -11 60 -28
-55 -52 -1 -97 -70 30 -117 -74

tfl.pseudo_qconst6 i1 [64] scale=0.001968691 zero_point=127
00000000: dc2c 192d 2f23 dd18 f818 1fda e8fd 14f7
00000010: 19de e213 43f5 402f 1d02 04ff a214 36bc
00000020: 0f56 ee2f ccfa 17ea d5db 2042 f608 1f0d
00000030: c732 e61b 2880 ca05 08f9 37fd d5fa e629
-0.32089663 -0.16340135 -0.20080647 -0.16143265 -0.15749528 -0.18111956 -0.3189279 -0.20277517
-0.26577327 -0.20277517 -0.18899432 -0.324834 -0.29727232 -0.25592983 -0.21064992 -0.26774195
-0.20080647 -0.31695923 -0.30908448 -0.21261862 -0.11812145 -0.27167934 -0.12402753 -0.15749528
-0.19293171 -0.24608636 -0.24214898 -0.25199243 -0.43508068 -0.21064992 -0.14371443 -0.3838947
-0.22049338 -0.08071633 -0.28546017 -0.15749528 -0.35239568 -0.2618359 -0.20474385 -0.29333493
-0.33467746 -0.3228653 -0.18702564 -0.12009014 -0.26971066 -0.23427422 -0.18899432 -0.22443075
-0.36223912 -0.1515892 -0.30120972 -0.19686909 -0.1712761 -0.5020162 -0.35633305 -0.24018028
-0.23427422 -0.26380458 -0.14174575 -0.25592983 -0.33467746 -0.2618359 -0.30120972 -0.16930741

tfl.pseudo_qconst7 i1 [64] scale=0.007321997 zero_point=-128
00000000: 3249 532f 261e 1404 1645 512b 1c1d 0936
00000010: 1efe f01d 491e 7466 6f14 12fe fc29 2b02
00000020: 3646 0f32 0d4d 3816 101c 3039 0f33 4f09
00000030: 022c 1e1f 7ff1 262a 6416 2e27 0d4e ee2a
1.3033155 1.4717214 1.5449414 1.2813495 1.2154515 1.1568755 1.0836556 0.9665036
1.0982995 1.4424335 1.5302974 1.2520615 1.1422316 1.1495535 1.0031136 1.3326035
1.1568755 0.92257166 0.82006365 1.1495535 1.4717214 1.1568755 1.7865673 1.6840594
1.7499573 1.0836556 1.0690116 0.92257166 0.90792763 1.2374175 1.2520615 0.9518596
1.3326035 1.4497554 1.0470456 1.3033155 1.0324016 1.5010093 1.3472475 1.0982995
1.0543675 1.1422316 1.2886715 1.3545694 1.0470456 1.3106375 1.5156534 1.0031136
0.9518596 1.2593834 1.1568755 1.1641976 1.8671093 0.82738566 1.2154515 1.2447395
1.6694154 1.0982995 1.2740275 1.2227736 1.0324016 1.5083314 0.8054197 1.2447395

tfl.pseudo_qconst9 i1 [64, 3, 3, 64]
00000000: 4003 0535 f3e1 e0cf efe4 0b1d 1e03 d908
00000010: fafa 16d4 1dbb f41d 2c53 e738 26c1 16cd
00000020: 3434 09e6 ef05 14f5 2267 e2fa cf0d 1bfd
00000030: f8d9 a8e7 f41e ea2b 99f3 ae19 f216 d9f1
00000040: 0d07 0f0f e233 e0e0 c0ee 1ef9 eef3 cd31
00000050: dedd f819 e9f3 29f6 de04 0e15 ee08 deed
00000060: f912 c0f9 db07 2234 09f8 fe15 1cf6 f009
00000070: f22c 12d7 bd0a fbf3 d5da 211c fc23 0cd9
00000080: 02ef d839 deff 240a d110 d734 0e24 2bb4
00000090: b5a3 dbff 9d13 2fef 3fb8 e2f6 17e5 a837
000000a0: 33c8 20dc 111d 0fae c681 07e7 0dd1 ee28
000000b0: f5f9 b844 fde1 b61b f5ef 0097 f0f6 f143
000000c0: e198 06f9 03da 3ff9 0b0c 1f1f dfe7 08f7
000000d0: 30c9 df3a f013 f416 0221 a6e6 ef24 06ea
000000e0: 140e 32c0 baf9 021c f5da edf6 dee9 fde4
000000f0: 0aff f828 ebd5 34da cede 10d5 bde9 0820
64 3 5 53 -13 -31 -32 -49
-17 -28 11 29 30 3 -39 8
-6 -6 22 -44 29 -69 -12 29
44 83 -25 56 38 -63 22 -51
52 52 9 -26 -17 5 20 -11
34 103 -30 -6 -49 13 27 -3
-8 -39 -88 -25 -12 30 -22 43
-103 -13 -82 25 -14 22 -39 -15
13 7 15 15 -30 51 -32 -32
-64 -18 30 -7 -18 -13 -51 49
-34 -35 -8 25 -23 -13 41 -10
-34 4 14 21 -18 8 -34 -19
-7 18 -64 -7 -37 7 34 52
9 -8 -2 21 28 -10 -16 9
-14 44 18 -41 -67 10 -5 -13
-43 -38 33 28 -4 35 12 -39
2 -17 -40 57 -34 -1 36 10
-47 16 -41 52 14 36 43 -76
-75 -93 -37 -1 -99 19 47 -17
63 -72 -30 -10 23 -27 -88 55
51 -56 32 -36 17 29 15 -82
-58 -127 7 -25 13 -47 -18 40
-11 -7 -72 68 -3 -31 -74 27
-11 -17 0 -105 -16 -10 -15 67
-31 -104 6 -7 3 -38 63 -7
11 12 31 31 -33 -25 8 -9
48 -55 -33 58 -16 19 -12 22
2 33 -90 -26 -17 36 6 -22
20 14 50 -64 -70 -7 2 28
-11 -38 -19 -10 -34 -23 -3 -28
10 -1 -8 40 -21 -43 52 -38
-50 -34 16 -43 -67 -23 8 32

tfl.pseudo_qconst10 i1 [64] scale=0.0049025337 zero_point=36
00000000: 2c1c 42ff f8e7 c58b ce0d 023f 2b18 7fd2
00000010: fe38 0ff9 5025 c626 d2f3 a6dc 42d8 e062
00000020: 160b fa16 03fd 3d95 eec9 a6f7 d32f 2ce1
00000030: fd13 ce80 1f1c f017 ea9e 5484 11d0 360d
0.03922027 -0.03922027 0.14707601 -0.18139374 -0.21571149 -0.29905456 -0.4657407 -0.7500877
-0.4216179 -0.11275828 -0.16668615 0.13236842 0.034317736 -0.058830403 0.44613057 -0.40200776
-0.18629628 0.09805068 -0.10295321 -0.21080895 0.21571149 0.0049025337 -0.46083817 0.009805067
-0.40200776 -0.24022415 -0.61771923 -0.35298243 0.14707601 -0.37259257 -0.3333723 0.3039571
-0.06863547 -0.12256334 -0.20590642 -0.06863547 -0.1617836 -0.19119881 0.12256334 -0.7010623
-0.26473683 -0.44613057 -0.61771923 -0.22061402 -0.39710522 0.053927872 0.03922027 -0.32846975
-0.19119881 -0.083343074 -0.4216179 -0.8040155 -0.02451267 -0.03922027 -0.25493175 -0.06373294
-0.28434697 -0.6569395 0.23532161 -0.7844054 -0.09314814 -0.41181284 0.08824561 -0.11275828

tfl.pseudo_qconst11 i1 [64] scale=0.0030622943 zero_point=-128
00000000: 163a f805 061e fcdc 1821 4d2f f506 3238
00000010: 091b f87f 2a4a fd31 3900 0202 77e3 fbfb
00000020: 3248 0816 f737 1cdb 07d8 f321 0c3b f7fc
00000030: 1f00 f7df 1c26 1c46 00eb 28e2 0933 411e
0.45934415 0.56958675 0.36747533 0.40728515 0.41034743 0.4838425 0.3797245 0.28173107
0.46546873 0.4930294 0.62777036 0.5359015 0.35828844 0.41034743 0.5450884 0.56346214
0.41953433 0.47465563 0.36747533 0.78088504 0.52059 0.61858344 0.38278678 0.5420261
0.56652445 0.39197367 0.39809826 0.39809826 0.7563867 0.30316713 0.3766622 0.3766622
0.5450884 0.6124589 0.41647202 0.45934415 0.36441302 0.5603999 0.4777179 0.2786688
0.41340974 0.2694819 0.35216385 0.4930294 0.42872122 0.57264906 0.36441302 0.3797245
0.4869048 0.39197367 0.36441302 0.29091796 0.4777179 0.50834084 0.4777179 0.60633427
0.39197367 0.3276655 0.51446545 0.30010486 0.41953433 0.54815066 0.5910228 0.4838425

tfl.pseudo_qconst13 i1 [64, 3, 3, 32]
00000000: f5ea 0403 13d6 99de 1ecf 2332 bc27 e1c2
00000010: cc18 e7e6 04e1 fab9 01bf 2eba 24ba fe69
00000020: da12 f5fc 08f5 cc0d d408 f415 c311 35bd
00000030: e7de cf05 38ee 1cdf 370f c5f5 10ec f619
00000040: d032 fe46 fbe1 db27 c2d9 8d13 ebf8 f9f9
00000050: cb0d cc1a 200e e329 27ef 81fd bf0c c8e7
00000060: 28f6 fad3 edea df2d 3401 3739 32f5 f9bc
00000070: 2c11 0515 f5d3 eae2 c4dc 1ef3 08f6 f6f5
00000080: 05f3 f3ed be12 09cf 4526 3125 1520 c3e7
00000090: 19f9 20f8 19fe 24d8 d2d7 edcf 02f4 d007
000000a0: cbf1 f208 0b26 e3d9 eabd 0515 f430 3e01
000000b0: 5907 1abd 0dbf fb0f cc02 09eb fabc ed1c
000000c0: da1f 13bd cce8 1910 2b98 0808 4d17 1d62
000000d0: 051d 2ce6 02ce 1cb7 3ffa 06e0 a627 b1f4
000000e0: f214 ebeb 170d 0ce4 28f0 c419 fbf3 eae6
000000f0: 02da dbd1 08dc 0901 35c2 de21 9325 150b
-11 -22 4 3 19 -42 -103 -34
30 -49 35 50 -68 39 -31 -62
-52 24 -25 -26 4 -31 -6 -71
1 -65 46 -70 36 -70 -2 105
-38 18 -11 -4 8 -11 -52 13
-44 8 -12 21 -61 17 53 -67
-25 -34 -49 5 56 -18 28 -33
55 15 -59 -11 16 -20 -10 25
-48 50 -2 70 -5 -31 -37 39
-62 -39 -115 19 -21 -8 -7 -7
-53 13 -52 26 32 14 -29 41
39 -17 -127 -3 -65 12 -56 -25
40 -10 -6 -45 -19 -22 -33 45
52 1 55 57 50 -11 -7 -68
44 17 5 21 -11 -45 -22 -30
-60 -36 30 -13 8 -10 -10 -11
5 -13 -13 -19 -66 18 9 -49
69 38 49 37 21 32 -61 -25
25 -7 32 -8 25 -2 36 -40
-46 -41 -19 -49 2 -12 -48 7
-53 -15 -14 8 11 38 -29 -39
-22 -67 5 21 -12 48 62 1
89 7 26 -67 13 -65 -5 15
-52 2 9 -21 -6 -68 -19 28
-38 31 19 -67 -52 -24 25 16
43 -104 8 8 77 23 29 98
5 29 44 -26 2 -50 28 -73
63 -6 6 -32 -90 39 -79 -12
-14 20 -21 -21 23 13 12 -28
40 -16 -60 25 -5 -13 -22 -26
2 -38 -37 -47 8 -36 9 1
53 -62 -34 33 -109 37 21 11

tfl.pseudo_qconst14 i1 [32] scale=0.0053056297 zero_point=127
00000000: d1b7 f8c4 809c d6d0 9ee5 e8fb c6e9 ce8d
00000010: aad6 9eb9 8392 06ae a9c4 a330 cce0 e98f
-0.92317957 -1.061126 -0.71626 -0.99215275 -1.3529356 -1.2043779 -0.89665145 -0.9284852
-1.1937667 -0.81706697 -0.8011501 -0.70034313 -0.9815415 -0.79584444 -0.93909645 -1.2839624
-1.1300992 -0.89665145 -1.1937667 -1.0505147 -1.3370187 -1.2574342 -0.6419812 -1.1088766
-1.1354047 -0.99215275 -1.1672385 -0.41914475 -0.9497077 -0.84359515 -0.79584444 -1.2733511

tfl.pseudo_qconst15 i1 [32] scale=0.0011319746 zero_point=-128
00000000: 654a 6773 4a5e 4a79 375e 4758 765b 667c
00000010: 414a 344e 4679 6747 4e62 7f5a 5551 5836
0.25922218 0.22865887 0.26148614 0.27506983 0.22865887 0.25129837 0.22865887 0.2818617
0.20715135 0.25129837 0.22526295 0.24450652 0.27846575 0.24790244 0.26035416 0.2852576
0.21847111 0.22865887 0.20375544 0.23318677 0.22413097 0.2818617 0.26148614 0.22526295
0.23318677 0.25582626 0.28865352 0.24677047 0.2411106 0.2365827 0.24450652 0.20601939

tfl.pseudo_qconst17 i1 [32, 3, 3, 32]
00000000: 06f0 1ff3 810b 3f1d 0aef e6b6 fcc9 1903
00000010: 33e8 edc1 14ec 30a7 e328 ea1a fbd8 3fc7
00000020: d1da 04ba effa 1a17 1c08 f7ec 07e5 2416
00000030: f01e d9dc edce f6f7 b52b 0df3 d2f0 ceb7
00000040: d6f3 c3e0 2ae3 2617 04ff eaf7 f80b fe08
00000050: ff19 b699 d8c4 b8e9 d423 25bf 1608 fc21
00000060: e8d0 2bf4 efdb c12a 2915 04f4 170d d714
00000070: e60f 20b3 fdf2 d01d 5534 16f0 09e1 1c3d
00000080: ec36 0be6 e0df c60c 34dc 3706 28f1 d2fc
00000090: 0631 0508 00db ed51 10e7 1908 08ea b90d
000000a0: b608 ace7 e1ec d5f6 170f f81d 22ba 02aa
000000b0: 28cc b4c3 ef32 ec0d 11eb 0aff cdae 2311
000000c0: c9e4 0dd8 11f2 240d e8dc 4ae6 e6f1 1612
000000d0: ceec f7ce 4006 0609 dfeb 0f21 f7b9 e142
000000e0: cdce e2f0 d10e eedd e103 2b0c e0e3 f09b
000000f0: a3b7 2019 ef25 f9f9 d3ed 12ee feee f623
6 -16 31 -13 -127 11 63 29
10 -17 -26 -74 -4 -55 25 3
51 -24 -19 -63 20 -20 48 -89
-29 40 -22 26 -5 -40 63 -57
-47 -38 4 -70 -17 -6 26 23
28 8 -9 -20 7 -27 36 22
-16 30 -39 -36 -19 -50 -10 -9
-75 43 13 -13 -46 -16 -50 -73
-42 -13 -61 -32 42 -29 38 23
4 -1 -22 -9 -8 11 -2 8
-1 25 -74 -103 -40 -60 -72 -23
-44 35 37 -65 22 8 -4 33
-24 -48 43 -12 -17 -37 -63 42
41 21 4 -12 23 13 -41 20
-26 15 32 -77 -3 -14 -48 29
85 52 22 -16 9 -31 28 61
-20 54 11 -26 -32 -33 -58 12
52 -36 55 6 40 -15 -46 -4
6 49 5 8 0 -37 -19 81
16 -25 25 8 8 -22 -71 13
-74 8 -84 -25 -31 -20 -43 -10
23 15 -8 29 34 -70 2 -86
40 -52 -76 -61 -17 50 -20 13
17 -21 10 -1 -51 -82 35 17
-55 -28 13 -40 17 -14 36 13
-24 -36 74 -26 -26 -15 22 18
-50 -20 -9 -50 64 6 6 9
-33 -21 15 33 -9 -71 -31 66
-51 -50 -30 -16 -47 14 -18 -35
-31 3 43 12 -32 -29 -16 -101
-93 -73 32 25 -17 37 -7 -7
-45 -19 18 -18 -2 -18 -10 35

tfl.pseudo_qconst18 i1 [32] scale=0.0043628737 zero_point=127
00000000: 903d d9be f9b4 c3e2 d526 2230 8525 80f7
00000010: f4ff 95e2 34ec bea1 daff e8eb 3c3f 37fc
-1.0427269 -0.28794968 -0.724237 -0.84203464 -0.58462507 -0.8856634 -0.82022023 -0.68497115
-0.74168855 -0.38829577 -0.40574726 -0.34466702 -1.0907184 -0.39265865 -1.1125329 -0.5933508
-0.6064395 -0.55844784 -1.0209124 -0.68497115 -0.32721552 -0.64134246 -0.84203464 -0.96855795
-0.71987414 -0.55844784 -0.6587939 -0.64570534 -0.29231253 -0.27922392 -0.3141269 -0.5715365

tfl.pseudo_qconst19 i1 [32] scale=0.001149764 zero_point=-128
00000000: ef1d 1a04 e7fe 1914 3307 7f4d e303 1ef1
00000010: 1005 2403 4f78 2107 100c 5b59 2a07 2449
0.12762381 0.18051295 0.17706366 0.15176885 0.1184257 0.14487027 0.1759139 0.17016508
0.20580776 0.15521815 0.29318982 0.23570164 0.11382664 0.15061909 0.18166272 0.12992334
0.16556603 0.15291862 0.1885613 0.15061909 0.23800115 0.2851415 0.18511201 0.15521815
0.16556603 0.16096696 0.25179833 0.2494988 0.19545989 0.15521815 0.1885613 0.23110257

tfl.pseudo_qconst21 i1 [32, 3, 3, 32]
00000000: edba ccde ff2b 1f0b 24f5 dfff 094c f409
00000010: d839 2dee 50c2 1cf9 070a 10fb 0c28 1c14
00000020: c9f5 f4f1 0827 10fd 2b1c d2eb 0e00 eb06
00000030: e627 0beb 18f0 12f6 0af7 3df2 1229 1def
00000040: e835 eed9 0a1b 1552 2531 1512 1347 f411
00000050: e24a e3ee 54eb 1822 3119 13d4 d043 2900
00000060: 32fb fcda e222 6e16 18ea 4a59 dbfc d002
00000070: 0013 15cf 1d18 13fb f61a 1aeb ecde 0540
00000080: 2cf7 fc10 d716 3308 f809 f802 ecfe c8fc
00000090: f219 1ed0 eff9 ed13 d9fd 0801 17e7 271d
000000a0: 5ded f2ff cef8 7f16 4729 3c4b db11 ccd7
000000b0: da1e 12de 3ce2 ebfb 2a1d ead6 0914 1a33
000000c0: 15f0 22f2 aed7 1e2a 2d42 1832 37f4 fe04
000000d0: db2c 1ddb c638 e9a2 380f 03ea 2cd5 162d
000000e0: 07f9 e7e6 df08 1c12 260b 0819 16e9 f30f
000000f0: 030a fae6 e624 02f6 11f5 ef13 01e6 e417
-19 -70 -52 -34 -1 43 31 11
36 -11 -33 -1 9 76 -12 9
-40 57 45 -18 80 -62 28 -7
7 10 16 -5 12 40 28 20
-55 -11 -12 -15 8 39 16 -3
43 28 -46 -21 14 0 -21 6
-26 39 11 -21 24 -16 18 -10
10 -9 61 -14 18 41 29 -17
-24 53 -18 -39 10 27 21 82
37 49 21 18 19 71 -12 17
-30 74 -29 -18 84 -21 24 34
49 25 19 -44 -48 67 41 0
50 -5 -4 -38 -30 34 110 22
24 -22 74 89 -37 -4 -48 2
0 19 21 -49 29 24 19 -5
-10 26 26 -21 -20 -34 5 64
44 -9 -4 16 -41 22 51 8
-8 9 -8 2 -20 -2 -56 -4
-14 25 30 -48 -17 -7 -19 19
-39 -3 8 1 23 -25 39 29
93 -19 -14 -1 -50 -8 127 22
71 41 60 75 -37 17 -52 -41
-38 30 18 -34 60 -30 -21 -5
42 29 -22 -42 9 20 26 51
21 -16 34 -14 -82 -41 30 42
45 66 24 50 55 -12 -2 4
-37 44 29 -37 -58 56 -23 -94
56 15 3 -22 44 -43 22 45
7 -7 -25 -26 -33 8 28 18
38 11 8 25 22 -23 -13 15
3 10 -6 -26 -26 36 2 -10
17 -11 -17 19 1 -26 -28 23

tfl.pseudo_qconst22 i1 [32] scale=0.005778114 zero_point=127
00000000: 3ebf 0cbd 80f3 b233 58d0 39af cc9f f8fd
00000010: 5a0d fbb1 af1d 21d8 42b7 06c2 e2d1 dfc7
-0.3755774 -1.1093979 -0.6644831 -1.120954 -1.4734191 -0.80893594 -1.1845133 -0.43913665
-0.22534645 -1.0111699 -0.40446797 -1.2018477 -1.0342823 -1.2942975 -0.7800454 -0.7511548
-0.21379021 -0.658705 -0.76271105 -1.1902914 -1.2018477 -0.56625515 -0.5431427 -0.964945
-0.35246494 -1.1556227 -0.69915175 -1.0920635 -0.90716386 -1.0053918 -0.9244982 -1.0631729

tfl.pseudo_qconst23 i1 [32] scale=0.0010610664 zero_point=-128
00000000: 13eb 3d30 f229 2601 286b 7f39 3401 0713
00000010: 4237 102c 24e5 0821 2163 163e 206c 3b22
0.15597676 0.11353411 0.20054156 0.18674769 0.12096157 0.17932022 0.17613703 0.13687757
0.17825915 0.2493506 0.27057195 0.19629729 0.19099195 0.13687757 0.14324397 0.15597676
0.20584688 0.19417515 0.15279356 0.18250342 0.1740149 0.107167706 0.14430504 0.1708317
0.1708317 0.24086207 0.15915996 0.20160262 0.16977063 0.25041166 0.19841942 0.17189276

tfl.pseudo_qconst25 i1 [32, 3, 3, 32]
00000000: e138 1fdc 4021 18d2 fff4 bee4 e0eb 02ce
00000010: fef1 22bc ded2 b5d6 fce2 ea3d c2f2 fdf5
00000020: fb0a 07e2 5009 10d4 0cf3 abe5 fe37 0bf7
00000030: 13db 16c9 e3ef a6fe dc0b 0138 ca0f 5fe8
00000040: fe25 f50f 4417 14ce e208 e00d fb3a 1d19
00000050: 18d6 23f9 e0a5 e421 0a15 fd22 cbd7 dad4
00000060: f64f 320c 59f5 0c0f fee9 152e fbf9 221d
00000070: 24d7 ec0d 1a44 12f0 4328 084e 1cf9 1426
00000080: 1d37 2f16 7011 2509 44f2 453d fc4a 2f2f
00000090: 2c35 ecfb 0458 123a 3c11 ff40 08e4 47df
000000a0: 0b05 411e 512f 20f1 03ef de2a 216d 3d22
000000b0: 1b01 fefa ff3e de1d 422b f851 fa15 4050
000000c0: 0b12 3511 2805 0f14 dd1e 09e8 05d0 10fb
000000d0: 234b 09ff 45e6 1e0b 232d 0734 2ed1 0beb
000000e0: 1d1f 1907 36f6 0734 3c0f 4918 f020 1f10
000000f0: 1920 e31f 1e1a 2d17 ff01 0f2a 1919 3e0c
-31 56 31 -36 64 33 24 -46
-1 -12 -66 -28 -32 -21 2 -50
-2 -15 34 -68 -34 -46 -75 -42
-4 -30 -22 61 -62 -14 -3 -11
-5 10 7 -30 80 9 16 -44
12 -13 -85 -27 -2 55 11 -9
19 -37 22 -55 -29 -17 -90 -2
-36 11 1 56 -54 15 95 -24
-2 37 -11 15 68 23 20 -50
-30 8 -32 13 -5 58 29 25
24 -42 35 -7 -32 -91 -28 33
10 21 -3 34 -53 -41 -38 -44
-10 79 50 12 89 -11 12 15
-2 -23 21 46 -5 -7 34 29
36 -41 -20 13 26 68 18 -16
67 40 8 78 28 -7 20 38
29 55 47 22 112 17 37 9
68 -14 69 61 -4 74 47 47
44 53 -20 -5 4 88 18 58
60 17 -1 64 8 -28 71 -33
11 5 65 30 81 47 32 -15
3 -17 -34 42 33 109 61 34
27 1 -2 -6 -1 62 -34 29
66 43 -8 81 -6 21 64 80
11 18 53 17 40 5 15 20
-35 30 9 -24 5 -48 16 -5
35 75 9 -1 69 -26 30 11
35 45 7 52 46 -47 11 -21
29 31 25 7 54 -10 7 52
60 15 73 24 -16 32 31 16
25 32 -29 31 30 26 45 23
-1 1 15 42 25 25 62 12

tfl.pseudo_qconst26 i1 [32] scale=0.009664093 zero_point=125
00000000: 3b5d 2a3d 24d5 4e42 d224 4302 f932 ee72
00000010: 237f 9964 7765 5b75 02b9 10f4 4780 6d7e
-0.63783014 -0.30925098 -0.80211973 -0.61850196 -0.86010426 -1.6235677 -0.45421237 -0.5701815
-1.6525599 -0.86010426 -0.56051743 -1.1886835 -1.2756603 -0.72480696 -1.3819653 -0.106305026
-0.8697684 0.019328186 -2.2034132 -0.24160233 -0.05798456 -0.23193824 -0.32857916 -0.077312745
-1.1886835 -1.8941623 -1.0533862 -1.3239808 -0.521861 -2.4450157 -0.15462549 0.009664093

tfl.pseudo_qconst27 i1 [32] scale=0.04427177 zero_point=-128
00000000: 7f47 9fb7 a6ea 93bc edad 4cbb b0eb b5d5
00000010: b66d fea8 98d9 a3d8 bf2c adb3 a313 4676
11.289302 8.810082 1.3724248 2.4349475 1.6823273 4.6928077 0.84116364 2.6563063
4.825623 1.9922297 9.031442 2.6120346 2.125045 4.7370796 2.3464038 3.7631006
2.3906755 10.49241 5.5782433 1.7708708 1.0625225 3.9401877 1.549512 3.8959157
2.7891216 7.6147447 1.9922297 2.2578604 1.549512 6.5079503 8.765811 10.890856

tfl.pseudo_qconst29 i1 [32, 3, 3, 1]
00000000: 8150 0751 d2f1 cc01 f76e 068b 6b0f 81f3
00000010: 0d04 b9b1 b7ff 4f3a 747f 6741 2884 fbd9
00000020: 7f07 eea6 0e43 2a06 677f d568 3355 812d
00000030: 57cc 4720 4596 f37f 261d f1ef f742 e8f3
00000040: 0308 e545 810c e23d 8732 7fb6 400f 27fb
00000050: cab6 de04 7f57 40cf bef7 e034 810a 04a7
00000060: c411 f100 1d7f 1734 558c b9ab 7f29 67f0
00000070: c7ce 18b5 070c b355 ead0 7f04 d755 7f0f
00000080: 3410 0c1f 68fc 3713 f1da 0ede f2a5 f781
00000090: 1237 3836 6540 a0a9 8181 1c44 eaf0 2830
000000a0: fad3 0ad7 20b6 2e0f 7fec b4fa dce6 c79c
000000b0: e8c2 8181 fee2 f781 e30f e611 43e7 2e34
000000c0: 0c10 1281 dde4 b207 810b edbb 14da d01f
000000d0: 3709 32d3 a91d b081 7f00 0b2e 0407 e7e9
000000e0: d70b 7081 dce3 5538 dee6 fb41 5809 b581
000000f0: df4f 7205 fce2 f349 0116 7f64 81f2 bf14
-127 80 7 81 -46 -15 -52 1
-9 110 6 -117 107 15 -127 -13
13 4 -71 -79 -73 -1 79 58
116 127 103 65 40 -124 -5 -39
127 7 -18 -90 14 67 42 6
103 127 -43 104 51 85 -127 45
87 -52 71 32 69 -106 -13 127
38 29 -15 -17 -9 66 -24 -13
3 8 -27 69 -127 12 -30 61
-121 50 127 -74 64 15 39 -5
-54 -74 -34 4 127 87 64 -49
-66 -9 -32 52 -127 10 4 -89
-60 17 -15 0 29 127 23 52
85 -116 -71 -85 127 41 103 -16
-57 -50 24 -75 7 12 -77 85
-22 -48 127 4 -41 85 127 15
52 16 12 31 104 -4 55 19
-15 -38 14 -34 -14 -91 -9 -127
18 55 56 54 101 64 -96 -87
-127 -127 28 68 -22 -16 40 48
-6 -45 10 -41 32 -74 46 15
127 -20 -76 -6 -36 -26 -57 -100
-24 -62 -127 -127 -2 -30 -9 -127
-29 15 -26 17 67 -25 46 52
12 16 18 -127 -35 -28 -78 7
-127 11 -19 -69 20 -38 -48 31
55 9 50 -45 -87 29 -80 -127
127 0 11 46 4 7 -25 -23
-41 11 112 -127 -36 -29 85 56
-34 -26 -5 65 88 9 -75 -127
-33 79 114 5 -4 -30 -13 73
1 22 127 100 -127 -14 -65 20
