Model/tests/802_kb_model.tflite (tflite, 227360 bytes, 18 tensors)

tfl.pseudo_qconst1 i1 [4, 32]
000000 ca 08 18 02 51 0d e0 ca 03 e3 05 0b 0e d4 f6 de
       -54 8 24 2 81 13 -32 -54 3 -29 5 11 14 -44 -10 -34
000010 de ce 4a 0a 0a 2b fe 0f bb 0c 03 7f 36 11 ea fb
       -34 -50 74 10 10 43 -2 15 -69 12 3 127 54 17 -22 -5
000020 d2 08 21 9c 7f ff ca e4 15 f5 fc 17 15 43 db 5f
       -46 8 33 -100 127 -1 -54 -28 21 -11 -4 23 21 67 -37 95
000030 4f 41 ba c2 10 dc 07 ff 17 f2 18 d9 d2 14 2f ed
       79 65 -70 -62 16 -36 7 -1 23 -14 24 -39 -46 20 47 -19
000040 38 02 19 16 b6 fb 7f 3b e4 f0 0e 14 0f 58 fd c1
       56 2 25 22 -74 -5 127 59 -28 -16 14 20 15 88 -3 -63
000050 09 cc 65 25 ba dc c2 c8 19 fb 15 e5 e6 db 01 db
       9 -52 101 37 -70 -36 -62 -56 25 -5 21 -27 -26 -37 1 -37
000060 fa 01 b9 23 c9 f4 38 f4 e7 7f 0a c2 07 d5 0c 2e
       -6 1 -71 35 -55 -12 56 -12 -25 127 10 -62 7 -43 12 46
000070 1c 02 d7 e7 12 19 20 e2 23 0b cd 16 f1 04 e9 2b
       28 2 -41 -25 18 25 32 -30 35 11 -51 22 -15 4 -23 43

tfl.pseudo_qconst3 i1 [32, 64]
000000 00 00 00 00 bc 00 00 00 7f 02 00 0c dc 00 00 00
       0 0 0 0 -68 0 0 0 127 2 0 12 -36 0 0 0
000010 00 00 00 00 00 00 00 00 00 00 00 00 00 00 00 00
       0 0 0 0 0 0 0 0 0 0 0 0 0 0 0 0
000020 00 00 00 00 e2 00 00 00 00 00 00 00 00 fa ef 00
       0 0 0 0 -30 0 0 0 0 0 0 0 0 -6 -17 0
000030 00 00 00 00 00 eb 00 e7 00 00 00 00 00 00 e7 00
       0 0 0 0 0 -21 0 -25 0 0 0 0 0 0 -25 0
000040 00 00 00 00 00 00 00 00 00 00 00 00 00 00 00 00
       0 0 0 0 0 0 0 0 0 0 0 0 0 0 0 0
000050 00 00 00 00 00 00 00 00 00 00 00 00 00 00 00 00
       0 0 0 0 0 0 0 0 0 0 0 0 0 0 0 0
000060 00 00 00 00 00 00 00 00 00 00 00 00 00 00 00 00
       0 0 0 0 0 0 0 0 0 0 0 0 0 0 0 0
000070 00 00 00 00 00 00 00 00 00 00 00 00 00 00 00 00
       0 0 0 0 0 0 0 0 0 0 0 0 0 0 0 0
000080 00 00 00 00 00 00 00 00 25 fd 00 10 81 00 00 00
       0 0 0 0 0 0 0 0 37 -3 0 16 -127 0 0 0
000090 00 00 00 00 00 00 00 00 00 00 00 00 00 00 00 00
       0 0 0 0 0 0 0 0 0 0 0 0 0 0 0 0
0000a0 00 00 00 00 00 00 00 00 00 00 00 00 00 06 18 00
       0 0 0 0 0 0 0 0 0 0 0 0 0 6 24 0
0000b0 00 00 00 00 00 15 00 18 00 00 00 00 00 00 9f 00
       0 0 0 0 0 21 0 24 0 0 0 0 0 0 -97 0
0000c0 00 00 00 00 c9 00 00 00 5a 03 00 eb 7f 00 00 00
       0 0 0 0 -55 0 0 0 90 3 0 -21 127 0 0 0
0000d0 00 00 00 00 00 00 00 00 00 00 00 00 00 00 00 00
       0 0 0 0 0 0 0 0 0 0 0 0 0 0 0 0
0000e0 00 00 00 00 de 00 00 00 00 00 00 00 00 c9 21 00
       0 0 0 0 -34 0 0 0 0 0 0 0 0 -55 33 0
0000f0 00 00 00 00 00 58 00 a1 00 00 00 00 00 00 50 00
       0 0 0 0 0 88 0 -95 0 0 0 0 0 0 80 0

tfl.pseudo_qconst5 i1 [64, 256]
000000 00 00 00 00 00 00 00 00 00 00 00 00 00 00 00 00
       0 0 0 0 0 0 0 0 0 0 0 0 0 0 0 0
000010 00 00 00 00 00 00 00 00 00 00 00 00 00 00 00 00
       0 0 0 0 0 0 0 0 0 0 0 0 0 0 0 0
000020 00 00 00 00 00 00 00 00 00 00 00 00 00 00 00 00
       0 0 0 0 0 0 0 0 0 0 0 0 0 0 0 0
000030 00 00 00 00 00 00 00 00 00 00 00 00 00 00 00 00
       0 0 0 0 0 0 0 0 0 0 0 0 0 0 0 0
000040 00 00 00 00 00 00 00 00 00 00 00 00 00 00 00 00
       0 0 0 0 0 0 0 0 0 0 0 0 0 0 0 0
000050 00 00 00 00 00 00 00 00 00 00 00 00 00 00 00 00
       0 0 0 0 0 0 0 0 0 0 0 0 0 0 0 0
000060 00 00 00 00 00 00 00 00 00 00 00 00 00 00 00 00
       0 0 0 0 0 0 0 0 0 0 0 0 0 0 0 0
000070 00 00 00 00 00 00 00 00 00 00 00 00 00 00 00 00
       0 0 0 0 0 0 0 0 0 0 0 0 0 0 0 0
000080 00 00 00 00 00 00 00 00 00 00 00 00 00 00 00 00
       0 0 0 0 0 0 0 0 0 0 0 0 0 0 0 0
000090 00 00 00 00 00 00 00 00 00 00 00 00 00 00 00 00
       0 0 0 0 0 0 0 0 0 0 0 0 0 0 0 0
0000a0 00 00 00 00 00 00 00 00 00 00 00 00 00 00 00 00
       0 0 0 0 0 0 0 0 0 0 0 0 0 0 0 0
0000b0 00 00 00 00 00 00 00 00 00 00 00 00 00 00 00 00
       0 0 0 0 0 0 0 0 0 0 0 0 0 0 0 0
0000c0 00 00 00 00 00 00 00 00 00 00 00 00 00 00 00 00
       0 0 0 0 0 0 0 0 0 0 0 0 0 0 0 0
0000d0 00 00 00 00 00 00 00 00 00 00 00 00 00 00 00 00
       0 0 0 0 0 0 0 0 0 0 0 0 0 0 0 0
0000e0 00 00 00 00 00 00 00 00 00 00 00 00 00 00 00 00
       0 0 0 0 0 0 0 0 0 0 0 0 0 0 0 0
0000f0 00 00 00 00 00 00 00 00 00 00 00 00 00 00 00 00
       0 0 0 0 0 0 0 0 0 0 0 0 0 0 0 0

tfl.pseudo_qconst6 i1 [128] scale=0.005750633 zero_point=127
000000 09 0f 08 2b 12 e9 dd f0 d2 16 f7 fe 41 dc f1 1d
       -0.6785747 -0.64407086 -0.68432534 -0.48305315 -0.62681895 -0.8625949 -0.93160254 -0.8223405 -0.99485946 -0.60381645 -0.7820861 -0.74183166 -0.35653925 -0.93735313 -0.8165899 -0.56356204
000010 31 20 0a e4 2d 1e 07 b7 0c 0f 0f 20 2f 3c ee 04
       -0.44854936 -0.5463101 -0.672824 -0.89134806 -0.4715519 -0.5578114 -0.69007593 -1.1501266 -0.6613228 -0.64407086 -0.64407086 -0.5463101 -0.46005064 -0.3852924 -0.83384174 -0.70732784
000020 19 e5 2c 3a 24 fc 17 03 38 f4 11 db 47 35 01 ca
       -0.58656454 -0.88559747 -0.47730252 -0.39679366 -0.52330756 -0.7533329 -0.5980658 -0.7130785 -0.40829495 -0.799338 -0.6325696 -0.9431038 -0.32203543 -0.42554682 -0.72457975 -1.0408646
000030 10 2e e1 12 15 e1 fd 25 fb e1 b6 2f e1 0e f0 d8
       -0.63832027 -0.46580127 -0.9086 -0.62681895 -0.6095671 -0.9086 -0.74758226 -0.51755697 -0.7590835 -0.9086 -1.1558772 -0.46005064 -0.9086 -0.6498215 -0.8223405 -0.9603557
000040 1b 80 2a 30 c5 e4 30 22 e1 17 25 49 fa 1a 05 e2
       -0.5750633 -1.4664114 -0.4888038 -0.4543 -1.0696177 -0.89134806 -0.4543 -0.5348089 -0.9086 -0.5980658 -0.51755697 -0.31053418 -0.76483417 -0.58081394 -0.7015772 -0.9028494
000050 09 42 2a f5 30 e6 09 25 29 00 22 f4 2e 0d d4 cf
       -0.6785747 -0.3507886 -0.4888038 -0.7935873 -0.4543 -0.8798468 -0.6785747 -0.51755697 -0.49455443 -0.73033035 -0.5348089 -0.799338 -0.46580127 -0.6555721 -0.9833582 -1.0121114
000060 f8 ed fa 0a 0d 25 b5 19 08 44 1e 22 13 d0 34 32
       -0.7763354 -0.8395924 -0.76483417 -0.672824 -0.6555721 -0.51755697 -1.1616279 -0.58656454 -0.68432534 -0.33928734 -0.5578114 -0.5348089 -0.62106836 -1.0063608 -0.43129745 -0.44279873
000070 41 e0 07 42 1d 34 2b d3 15 1c fe 0d 53 f9 1d 3a
       -0.35653925 -0.9143506 -0.69007593 -0.3507886 -0.56356204 -0.43129745 -0.48305315 -0.98910886 -0.6095671 -0.56931263 -0.74183166 -0.6555721 -0.25302786 -0.7705848 -0.56356204 -0.39679366

tfl.pseudo_qconst7 i1 [128] scale=0.007217602 zero_point=-128
000000 ef df e0 07 d9 e9 e6 ce c6 d5 c2 c3 f2 e2 f3 ec
       0.8011538 0.68567216 0.6928898 0.97437626 0.6423666 0.7578482 0.7361954 0.56297296 0.50523216 0.6134962 0.47636172 0.48357934 0.8228066 0.707325 0.83002424 0.779501
000010 f0 e3 ec d9 f8 db f1 b3 ef eb fa cf f7 01 e4 da
       0.8083714 0.71454257 0.779501 0.6423666 0.86611223 0.65680176 0.815589 0.3680977 0.8011538 0.7722834 0.8805474 0.57019055 0.85889465 0.9310706 0.7217602 0.6495842
000020 10 e2 01 fc 34 db e9 c6 ed f2 ed d7 f0 ff db d1
       1.0393347 0.707325 0.9310706 0.89498264 1.2991683 0.65680176 0.7578482 0.50523216 0.7867186 0.8228066 0.7867186 0.62793136 0.8083714 0.91663545 0.65680176 0.5846258
000030 e9 36 d1 da f1 d1 e7 da db 04 d0 e6 ca ec c9 d3
       0.7578482 1.3136035 0.5846258 0.6495842 0.815589 0.5846258 0.743413 0.6495842 0.65680176 0.95272344 0.57740813 0.7361954 0.53410256 0.779501 0.5268849 0.59906095
000040 f3 b5 1a 02 d4 0b e8 ea cc ef fd 7f f7 e4 e1 e3
       0.83002424 0.3825329 1.1115106 0.9382883 0.60627854 1.0032467 0.7506306 0.7650658 0.54853773 0.8011538 0.9022002 1.8404884 0.85889465 0.7217602 0.7001074 0.71454257
000050 c8 41 0f d1 f9 c8 e3 e0 1b e7 1f dd da 27 c7 ea
       0.5196673 1.3929971 1.032117 0.5846258 0.8733298 0.5196673 0.71454257 0.6928898 1.1187283 0.743413 1.1475987 0.671237 0.6495842 1.2053396 0.51244974 0.7650658
000060 d6 fa cb fd df e7 d6 dd 03 01 ed f9 ee e2 0f ee
       0.6207138 0.8805474 0.54132015 0.9022002 0.68567216 0.743413 0.6207138 0.671237 0.94550586 0.9310706 0.7867186 0.8733298 0.7939362 0.707325 1.032117 0.7939362
000070 09 d5 d1 eb e2 d8 f1 c4 c8 e9 d5 e6 fd c0 ef dc
       0.98881143 0.6134962 0.5846258 0.7722834 0.707325 0.63514894 0.815589 0.49079692 0.5196673 0.7578482 0.6134962 0.7361954 0.9022002 0.46192652 0.8011538 0.66401935

tfl.pseudo_qconst9 i1 [128, 3, 3, 64]
000000 e3 13 ff 0c f5 c8 31 07 f6 ea fe 09 86 03 f5 2d
       -29 19 -1 12 -11 -56 49 7 -10 -22 -2 9 -122 3 -11 45
000010 ff fa 11 09 05 01 d4 05 04 1d d2 25 10 19 d4 f4
       -1 -6 17 9 5 1 -44 5 4 29 -46 37 16 25 -44 -12
000020 fe d0 e3 cd 16 05 1c 10 1b db d9 f0 cf 10 23 f7
       -2 -48 -29 -51 22 5 28 16 27 -37 -39 -16 -49 16 35 -9
000030 fa 20 f4 ff f1 19 22 ff f2 04 13 ee fb 2b f9 fa
       -6 32 -12 -1 -15 25 34 -1 -14 4 19 -18 -5 43 -7 -6
000040 e9 ee fc c9 01 13 28 19 09 02 04 0a de 05 05 e6
       -23 -18 -4 -55 1 19 40 25 9 2 4 10 -34 5 5 -26
000050 de 19 0f ed 15 00 ef 0c de 15 02 00 fe 1d ba f0
       -34 25 15 -19 21 0 -17 12 -34 21 2 0 -2 29 -70 -16
000060 06 d2 e1 f1 06 f8 fe e5 fe dc f1 db f3 1c eb 24
       6 -46 -31 -15 6 -8 -2 -27 -2 -36 -15 -37 -13 28 -21 36
000070 0d 03 c9 d5 ea b8 05 ca ef 1b ed 20 2d 1e 1f fd
       13 3 -55 -43 -22 -72 5 -54 -17 27 -19 32 45 30 31 -3
000080 dd 87 de dc 0c 14 0f f1 1b 20 e0 cf dd f3 5b 3a
       -35 -121 -34 -36 12 20 15 -15 27 32 -32 -49 -35 -13 91 58
000090 b7 e4 dc fe d5 fd 1f f6 cd cb 38 fb f8 03 00 e4
       -73 -28 -36 -2 -43 -3 31 -10 -51 -53 56 -5 -8 3 0 -28
0000a0 9b d4 d5 06 e2 14 b6 be 24 ed a8 11 e1 db de 0e
       -101 -44 -43 6 -30 20 -74 -66 36 -19 -88 17 -31 -37 -34 14
0000b0 23 f5 ac fb 21 f4 03 ff 11 d4 f2 e1 3b a1 11 e6
       35 -11 -84 -5 33 -12 3 -1 17 -44 -14 -31 59 -95 17 -26
0000c0 13 dc ff fb 04 ec 33 fa 17 dd c9 f1 0a 05 fb e1
       19 -36 -1 -5 4 -20 51 -6 23 -35 -55 -15 10 5 -5 -31
0000d0 f6 f2 e2 fe f4 f5 25 fe f2 e6 0c 00 ed 02 1c 11
       -10 -14 -30 -2 -12 -11 37 -2 -14 -26 12 0 -19 2 28 17
0000e0 12 fc f8 18 d8 fa 10 03 1a fd 14 f6 e9 d2 e0 16
       18 -4 -8 24 -40 -6 16 3 26 -3 20 -10 -23 -46 -32 22
0000f0 fa ef 19 f5 da 0a e5 3c c1 09 ec 04 11 22 0b 2b
       -6 -17 25 -11 -38 10 -27 60 -63 9 -20 4 17 34 11 43

tfl.pseudo_qconst10 i1 [64] scale=0.005129523 zero_point=114
000000 b0 cf fa 4f e7 2a 12 fe e5 b6 3e e1 23 d2 c2 00
       -0.9951275 -0.83611226 -0.61554277 -0.1795333 -0.7130037 -0.36932567 -0.4924342 -0.5950247 -0.7232628 -0.96435034 -0.2667352 -0.74378085 -0.40523234 -0.8207237 -0.9027961 -0.5847656
000010 db d2 c9 63 3f 29 0b f9 45 4c ff ff 4b 39 16 e9
       -0.774558 -0.8207237 -0.8668894 -0.076942846 -0.26160568 -0.37445518 -0.5283409 -0.6206723 -0.23082854 -0.19492188 -0.5898951 -0.5898951 -0.2000514 -0.2923828 -0.47191614 -0.70274466
000020 de df d8 fd 7f ab 0b 11 1c c7 e6 38 d9 dd ec 80
       -0.7591694 -0.7540399 -0.78994656 -0.6001542 0.0666838 -1.0207751 -0.5283409 -0.49756375 -0.44113898 -0.87714845 -0.7181332 -0.29751235 -0.78481704 -0.7642989 -0.6873561 -1.2413446
000030 50 c0 bc 22 e0 ff ff ab ca 2a 95 c9 28 1a 1a 09
       -0.17440379 -0.9130551 -0.9335732 -0.41036186 -0.74891037 -0.5898951 -0.5898951 -1.0207751 -0.8617599 -0.36932567 -1.1336246 -0.8668894 -0.3795847 -0.45139804 -0.45139804 -0.5385999

tfl.pseudo_qconst11 i1 [64] scale=0.0013781482 zero_point=-128
000000 2b 50 7f 72 33 1d 28 55 3c 2a 36 41 53 35 39 47
       0.23566334 0.28665483 0.3514278 0.33351186 0.24668853 0.21636927 0.2315289 0.29354557 0.25909185 0.23428519 0.25082296 0.2659826 0.29078928 0.24944483 0.2549574 0.2742515
000010 62 21 21 2a 5c 3b 42 3d 4d 2d 3f 3d 2c 4e 3b 38
       0.3114615 0.22188187 0.22188187 0.23428519 0.30319262 0.2577137 0.26736075 0.26047 0.28252038 0.23841964 0.2632263 0.26047 0.23704149 0.28389853 0.2577137 0.25357926
000020 43 12 48 44 4b 4e 4b 4b 45 32 3e 46 2e 25 31 50
       0.2687389 0.20120963 0.27562964 0.27011704 0.2797641 0.28389853 0.2797641 0.2797641 0.2714952 0.24531038 0.26184815 0.27287334 0.23979779 0.22739446 0.24393223 0.28665483
000030 5a 48 2d 44 3b 43 2e 25 3f 67 45 3f 40 43 51 61
       0.30043632 0.27562964 0.23841964 0.27011704 0.2577137 0.2687389 0.23979779 0.22739446 0.2632263 0.31835222 0.2714952 0.2632263 0.26460445 0.2687389 0.28803298 0.31008336

tfl.pseudo_qconst13 i1 [64, 3, 3, 64]
000000 11 03 99 1a 05 f0 01 db 33 cd c3 15 0f f1 17 14
       17 3 -103 26 5 -16 1 -37 51 -51 -61 21 15 -15 23 20
000010 34 18 08 00 19 1b 12 ec e1 00 2a ee aa d5 e8 22
       52 24 8 0 25 27 18 -20 -31 0 42 -18 -86 -43 -24 34
000020 f3 dd 3b f8 f0 fa 01 e9 2c f7 25 1b e0 08 15 f3
       -13 -35 59 -8 -16 -6 1 -23 44 -9 37 27 -32 8 21 -13
000030 e4 e7 14 0b 1d 06 f9 f8 d2 cc ea 24 c4 fa dc ff
       -28 -25 20 11 29 6 -7 -8 -46 -52 -22 36 -60 -6 -36 -1
000040 e2 20 f4 18 ef fa 11 d9 0e e9 fb e0 02 eb d9 f3
       -30 32 -12 24 -17 -6 17 -39 14 -23 -5 -32 2 -21 -39 -13
000050 1d f0 fe 20 ff fc fe f2 dd ee 18 e4 ea fb e8 12
       29 -16 -2 32 -1 -4 -2 -14 -35 -18 24 -28 -22 -5 -24 18
000060 d5 13 19 32 cf 07 0a f4 10 04 fe 1f db de f8 01
       -43 19 25 50 -49 7 10 -12 16 4 -2 31 -37 -34 -8 1
000070 ee f5 0b ea 07 05 19 03 c9 e0 0d 09 e7 18 03 f0
       -18 -11 11 -22 7 5 25 3 -55 -32 13 9 -25 24 3 -16
000080 07 fb 20 10 f3 da f1 f3 07 e7 2c e6 07 05 b9 ec
       7 -5 32 16 -13 -38 -15 -13 7 -25 44 -26 7 5 -71 -20
000090 0f ef 1a 30 f6 c2 17 f1 cb 43 bf c9 d4 1b 18 e7
       15 -17 26 48 -10 -62 23 -15 -53 67 -65 -55 -44 27 24 -25
0000a0 00 11 38 00 12 f7 18 12 d8 24 ec 31 1c df ff 1d
       0 17 56 0 18 -9 24 18 -40 36 -20 49 28 -33 -1 29
0000b0 0e 1c ef b4 d1 37 05 15 d5 b3 fe f8 d6 23 f1 dc
       14 28 -17 -76 -47 55 5 21 -43 -77 -2 -8 -42 35 -15 -36
0000c0 f2 f9 14 15 d8 0a 0f 1b 1a e9 e1 04 fb 19 f1 37
       -14 -7 20 21 -40 10 15 27 26 -23 -31 4 -5 25 -15 55
0000d0 3a db 20 25 31 f5 16 18 0d 15 01 ce ff 0c f5 0d
       58 -37 32 37 49 -11 22 24 13 21 1 -50 -1 12 -11 13
0000e0 08 2c e9 ff fc 14 ec 06 f7 c7 f2 d7 f0 f2 0d e0
       8 44 -23 -1 -4 20 -20 6 -9 -57 -14 -41 -16 -14 13 -32
0000f0 fe f9 0f 2c d7 14 05 07 01 ef f9 ff 21 e3 eb 2c
       -2 -7 15 44 -41 20 5 7 1 -17 -7 -1 33 -29 -21 44

tfl.pseudo_qconst14 i1 [64] scale=0.0054166703 zero_point=69
000000 07 36 e8 3b 30 d2 92 34 1d d2 f2 fc f6 de b6 0a
       -0.33583355 -0.08125006 -0.5037503 -0.054166704 -0.11375008 -0.6229171 -0.969584 -0.092083395 -0.21666682 -0.6229171 -0.44958365 -0.39541695 -0.42791694 -0.55791706 -0.7745839 -0.31958356
000010 33 0b ef c7 33 29 af 83 3a 0a 10 2b bd 4e 0d 80
       -0.09750006 -0.31416687 -0.46583366 -0.6825005 -0.09750006 -0.15166678 -0.81250054 -1.0508341 -0.059583373 -0.31958356 -0.28708354 -0.14083342 -0.73666716 0.04875003 -0.30333355 -1.0670841
000020 24 1f c4 fb 64 e2 15 61 07 36 d7 39 2f a5 0e 1a
       -0.17875013 -0.20583348 -0.6987505 -0.4008336 0.16791677 -0.53625035 -0.26000017 0.15166678 -0.33583355 -0.08125006 -0.5958337 -0.06500004 -0.11916675 -0.8666673 -0.29791686 -0.23291683
000030 30 7f e5 97 60 b3 1a 14 2e 94 ea 4d 24 30 ea 56
       -0.11375008 0.31416687 -0.52000034 -0.94250065 0.1462501 -0.7908339 -0.23291683 -0.26541686 -0.124583416 -0.95875067 -0.492917 0.043333363 -0.17875013 -0.11375008 -0.492917 0.092083395

tfl.pseudo_qconst15 i1 [64] scale=0.0014827962 zero_point=-128
000000 e1 27 f6 22 c2 f3 ce 17 e1 e2 03 ee fd c2 c1 cc
       0.14383122 0.24762696 0.17496994 0.24021298 0.097864546 0.17052156 0.1156581 0.22390223 0.14383122 0.14531402 0.19424629 0.16310757 0.18534952 0.097864546 0.09638175 0.112692505
000010 d6 e8 b2 d5 be ba 07 d9 e5 c4 ad f8 c1 7f e9 de
       0.12752047 0.1542108 0.07413981 0.12603767 0.09193336 0.08600218 0.20017748 0.13196886 0.1497624 0.10083014 0.06672583 0.17793554 0.09638175 0.37811303 0.15569359 0.13938284
000020 02 14 fa f9 02 cd d0 26 1d ea c5 cd f6 b1 ff cd
       0.1927635 0.21945383 0.18090113 0.17941834 0.1927635 0.114175305 0.11862369 0.24614416 0.232799 0.15717639 0.10231294 0.114175305 0.17496994 0.07265701 0.18831511 0.114175305
000030 de 1a 04 bc f1 ce c0 12 d2 ba d2 f8 1c ba e1 14
       0.13938284 0.22835061 0.19572909 0.08896777 0.16755597 0.1156581 0.094898954 0.21648824 0.12158929 0.08600218 0.12158929 0.17793554 0.2313162 0.08600218 0.14383122 0.21945383

tfl.pseudo_qconst17 i1 [64, 3, 3, 64]
000000 eb 03 fd 0e 11 ee 0b 23 12 0a 05 ff 09 0d 16 02
       -21 3 -3 14 17 -18 11 35 18 10 5 -1 9 13 22 2
000010 f7 0f 1e 0d e0 18 e1 00 fc 1b f4 d4 0f f0 dc f7
       -9 15 30 13 -32 24 -31 0 -4 27 -12 -44 15 -16 -36 -9
000020 2b 29 f3 d1 2c ed 27 1a ea fb 21 f5 21 d3 23 de
       43 41 -13 -47 44 -19 39 26 -22 -5 33 -11 33 -45 35 -34
000030 eb f7 ef 1b 05 16 24 40 e9 e8 f7 20 03 01 d0 0e
       -21 -9 -17 27 5 22 36 64 -23 -24 -9 32 3 1 -48 14
000040 0c fe e2 ef ec de e8 0e 0c 12 f1 f3 ee fb eb 03
       12 -2 -30 -17 -20 -34 -24 14 12 18 -15 -13 -18 -5 -21 3
000050 20 1a f1 f7 e6 f6 cb f8 1c 0e ec f1 15 f4 b9 e6
       32 26 -15 -9 -26 -10 -53 -8 28 14 -20 -15 21 -12 -71 -26
000060 07 21 f6 ed 25 09 10 1e 09 10 16 02 1e d3 07 f3
       7 33 -10 -19 37 9 16 30 9 16 22 2 30 -45 7 -13
000070 00 f9 ee 0d 05 2f fe 31 c4 c8 03 0f ec 1b e3 f7
       0 -7 -18 13 5 47 -2 49 -60 -56 3 15 -20 27 -29 -9
000080 14 0e 0b e6 15 e9 07 3f 21 02 13 f5 04 fd 22 f9
       20 14 11 -26 21 -23 7 63 33 2 19 -11 4 -3 34 -7
000090 0d 1e fe f9 1c 21 da fb 1f 10 f5 12 14 e9 0c ed
       13 30 -2 -7 28 33 -38 -5 31 16 -11 18 20 -23 12 -19
0000a0 10 2c dd d7 1c f5 f8 17 f4 00 03 13 16 dc 15 fc
       16 44 -35 -41 28 -11 -8 23 -12 0 3 19 22 -36 21 -4
0000b0 f1 eb 00 17 07 09 23 2d 18 05 f9 00 f7 0e ed ef
       -15 -21 0 23 7 9 35 45 24 5 -7 0 -9 14 -19 -17
0000c0 fc 18 f9 34 00 0e 49 0b 3d 03 00 f7 03 fc 22 0d
       -4 24 -7 52 0 14 73 11 61 3 0 -9 3 -4 34 13
0000d0 f6 e7 16 1a 15 e6 d1 e2 15 d2 00 f0 ff fb c7 14
       -10 -25 22 26 21 -26 -47 -30 21 -46 0 -16 -1 -5 -57 20
0000e0 fc 00 05 c6 d3 11 ef 08 13 ea 12 e9 2a 02 ec 0c
       -4 0 5 -58 -45 17 -17 8 19 -22 18 -23 42 2 -20 12
0000f0 ef 09 05 e3 e4 0b 2c 0b e8 e4 15 07 f1 06 0f f2
       -17 9 5 -29 -28 11 44 11 -24 -28 21 7 -15 6 15 -14

tfl.pseudo_qconst18 i1 [64] scale=0.00683196 zero_point=127
000000 3d 42 8a c8 d3 b8 b4 fb e7 a9 4e c4 f8 49 5d 14
       -0.45090935 -0.41674954 -1.6738302 -1.2502487 -1.1750971 -1.35956 -1.3868878 -0.9018187 -1.0384579 -1.4620394 -0.33476603 -1.2775764 -0.9223146 -0.36892584 -0.23228663 -0.7310197
000010 56 dd 0a 25 db ae 64 52 1b 6e 5f f7 f5 4f 50 20
       -0.28011036 -1.1067775 -0.7993393 -0.6148764 -1.1204414 -1.4278796 -0.18446292 -0.3074382 -0.683196 -0.116143316 -0.21862271 -0.9291465 -0.9428105 -0.3279341 -0.3211021 -0.64903617
000020 37 0d ee 16 71 24 e3 32 80 21 31 62 11 05 49 1a
       -0.4919011 -0.7788434 -0.9906342 -0.7173558 -0.09564744 -0.62170833 -1.0657858 -0.5260609 -1.7421497 -0.6422042 -0.5328929 -0.19812684 -0.75151557 -0.8334991 -0.36892584 -0.69002795
000030 d7 69 13 0e 77 26 dc e8 48 44 06 88 8a cd 26 62
       -1.1477692 -0.15030311 -0.7378517 -0.77201146 -0.05465568 -0.60804445 -1.1136094 -1.031626 -0.37575778 -0.40308562 -0.82666713 -1.687494 -1.6738302 -1.2160889 -0.60804445 -0.19812684

tfl.pseudo_qconst19 i1 [64] scale=0.0010009704 zero_point=-128
000000 f0 d0 46 19 ff fb 1e 61 f7 19 22 5d 27 f6 f0 29
       0.11210868 0.08007763 0.19819213 0.15314847 0.12712324 0.123119354 0.15815333 0.22521833 0.11911547 0.15314847 0.1621572 0.22121446 0.16716205 0.1181145 0.11210868 0.16916399
000010 d0 22 f5 f2 49 62 05 02 e9 d9 eb 4e 1e cb 5b 32
       0.08007763 0.1621572 0.11711353 0.11411062 0.20119505 0.2262193 0.13312906 0.13012615 0.10510189 0.08908636 0.10710383 0.2061999 0.15815333 0.07507278 0.21921252 0.17817272
000020 ec 03 f6 3b f3 f2 c1 12 0c f2 c1 02 15 e1 7f f9
       0.1081048 0.13112712 0.1181145 0.18718146 0.11511159 0.11411062 0.065063074 0.14614168 0.14013585 0.11411062 0.065063074 0.13012615 0.14914459 0.097094126 0.25524744 0.12111741
000030 09 d7 e2 ea da fe 04 03 46 5e 36 fe 2d ef dd f5
       0.13713294 0.08708442 0.0980951 0.10610286 0.09008733 0.12612227 0.13212809 0.13112712 0.19819213 0.22221543 0.1821766 0.12612227 0.17316787 0.111107714 0.09309024 0.11711353

tfl.pseudo_qconst21 i1 [64, 3, 3, 64]
000000 15 3d 47 fc 09 12 34 20 04 15 df 19 f9 07 19 d1
       21 61 71 -4 9 18 52 32 4 21 -33 25 -7 7 25 -47
000010 24 0d e0 0e 16 0a 0b 06 24 02 21 14 f1 0e 03 2d
       36 13 -32 14 22 10 11 6 36 2 33 20 -15 14 3 45
000020 23 23 f8 2b 12 30 ff fe 0f e9 07 16 fc fe 25 3a
       35 35 -8 43 18 48 -1 -2 15 -23 7 22 -4 -2 37 58
000030 e2 c0 04 0b 3f 3d f3 d1 18 15 03 16 ee 26 fa 18
       -30 -64 4 11 63 61 -13 -47 24 21 3 22 -18 38 -6 24
000040 13 d9 50 fa 06 f7 3c 05 0a 0a c1 31 f2 04 0e e4
       19 -39 80 -6 6 -9 60 5 10 10 -63 49 -14 4 14 -28
000050 1c 03 fe 1b f1 16 03 1e 3a f8 17 29 01 11 0c 36
       28 3 -2 27 -15 22 3 30 58 -8 23 41 1 17 12 54
000060 e3 10 f5 0e 00 10 f5 e6 ff f1 f9 1a 02 f0 0e 2d
       -29 16 -11 14 0 16 -11 -26 -1 -15 -7 26 2 -16 14 45
000070 e9 f7 fb 04 1c 2a f5 f5 f4 1d 0e 1c 35 39 f8 13
       -23 -9 -5 4 28 42 -11 -11 -12 29 14 28 53 57 -8 19
000080 0a 06 47 00 ec e5 1f e8 0a 1d e5 d4 fe 09 0d ea
       10 6 71 0 -20 -27 31 -24 10 29 -27 -44 -2 9 13 -22
000090 17 eb c1 e8 f4 0a 0d 08 24 f0 1b 1b f8 17 f7 24
       23 -21 -63 -24 -12 10 13 8 36 -16 27 27 -8 23 -9 36
0000a0 f9 0a 11 f6 00 2d 32 60 04 f0 0b ee fd f3 0f 26
       -7 10 17 -10 0 45 50 96 4 -16 11 -18 -3 -13 15 38
0000b0 e5 e0 48 f9 ea 16 dd fb dd 14 06 04 03 2c 3e 0e
       -27 -32 72 -7 -22 22 -35 -5 -35 20 6 4 3 44 62 14
0000c0 16 10 59 00 c9 0d d4 18 e9 e0 f6 ea f4 31 e2 ff
       22 16 89 0 -55 13 -44 24 -23 -32 -10 -22 -12 49 -30 -1
0000d0 1d 17 52 0d 01 05 ea 04 ec ec 05 cd f3 32 0a 11
       29 23 82 13 1 5 -22 4 -20 -20 5 -51 -13 50 10 17
0000e0 37 ea 1f 1f e2 11 d8 ec 3f f2 81 06 f9 f9 2b c0
       55 -22 31 31 -30 17 -40 -20 63 -14 -127 6 -7 -7 43 -64
0000f0 0b fe 1f 24 fd cd d4 db 0e 3c 06 f9 12 f9 07 c7
       11 -2 31 36 -3 -51 -44 -37 14 60 6 -7 18 -7 7 -57

tfl.pseudo_qconst22 i1 [64] scale=0.010628191 zero_point=113
000000 16 71 ff 80 65 91 45 14 39 67 7f 5f 4b 25 75 61
       -0.96716535 0.0 -1.2116138 -2.561394 -0.1275383 -2.3807147 -0.4676404 -0.98842174 -0.59517866 -0.10628191 0.14879467 -0.19130744 -0.40387124 -0.8077425 0.042512763 -0.17005105
000010 0d 45 7c 7d 6d 9d 74 3f 50 6b 16 6a 6a 50 5d 37
       -1.0628191 -0.4676404 0.1169101 0.1275383 -0.042512763 -2.2531765 0.031884573 -0.53140956 -0.3507303 -0.06376915 -0.96716535 -0.07439733 -0.07439733 -0.3507303 -0.21256381 -0.61643505
000020 39 34 67 5c 57 77 77 4f 34 51 0a 4c 5c 65 49 c0
       -0.59517866 -0.64831966 -0.10628191 -0.223192 -0.27633297 0.06376915 0.06376915 -0.3613585 -0.64831966 -0.3401021 -1.0947037 -0.39324307 -0.223192 -0.1275383 -0.42512763 -1.8811898
000030 55 72 6a 36 7c 6e 42 74 90 09 36 69 69 28 20 6d
       -0.29758933 0.010628191 -0.07439733 -0.6270633 0.1169101 -0.031884573 -0.49952498 0.031884573 -2.3913429 -1.1053319 -0.6270633 -0.08502553 -0.08502553 -0.7758579 -0.8608835 -0.042512763

tfl.pseudo_qconst23 i1 [64] scale=0.095246986 zero_point=-128
000000 8e 36 9b c7 b0 e3 a0 bc f9 a6 61 3c 8e 8f 8f 97
       1.3334578 17.334951 2.5716686 6.762536 4.5718555 9.429452 3.0479035 5.714819 11.524885 3.6193855 21.430573 17.906433 1.3334578 1.4287047 1.4287047 2.1906807
000010 8c b5 1b da 0c dd 97 95 d5 8c 90 8a 8c 8c 8b fd
       1.1429639 5.0480905 14.763283 8.572228 13.334578 8.857969 2.1906807 2.0001867 8.095994 1.1429639 1.5239518 0.9524698 1.1429639 1.1429639 1.0477169 11.905873
000020 e8 94 88 36 8c ec 15 e8 88 8c a6 8d 8c 83 87 aa
       9.905686 1.9049397 0.7619759 17.334951 1.1429639 10.2866745 14.191801 9.905686 0.7619759 1.1429639 3.6193855 1.2382108 1.1429639 0.28574097 0.6667289 4.0003734
000030 9e cd cd 89 d1 93 8d c5 da 92 90 a3 7f 91 bb 95
       2.8574095 7.3340178 7.3340178 0.85722286 7.715006 1.8096927 1.2382108 6.572042 8.572228 1.7144457 1.5239518 3.3336444 24.287981 1.6191988 5.619572 2.0001867

tfl.pseudo_qconst25 i1 [64, 3, 3, 1]
000000 44 25 31 e4 e4 d9 7a 1d 7f 28 81 50 35 8f 49 04
       68 37 49 -28 -28 -39 122 29 127 40 -127 80 53 -113 73 4
000010 fe 15 49 39 f4 7f 4f 20 30 3e 0e 76 81 15 f9 f7
       -2 21 73 57 -12 127 79 32 48 62 14 118 -127 21 -7 -9
000020 16 de 62 b9 7f 4f 04 1b 1f f2 ac ed f5 02 7f 82
       22 -34 98 -71 127 79 4 27 31 -14 -84 -19 -11 2 127 -126
000030 e8 b3 68 f7 35 cd ff 37 33 32 4e 2c 96 a1 81 18
       -24 -77 104 -9 53 -51 -1 55 51 50 78 44 -106 -95 -127 24
000040 33 a8 59 22 81 16 3e ae 69 13 81 28 07 cf b2 ec
       51 -88 89 34 -127 22 62 -82 105 19 -127 40 7 -49 -78 -20
000050 6b 7f ec db 41 bb 0f 26 d3 19 25 a4 7f 1e b9 37
       107 127 -20 -37 65 -69 15 38 -45 25 37 -92 127 30 -71 55
000060 02 f9 0d 21 4d 81 01 d8 28 e8 05 04 7f 36 64 a0
       2 -7 13 33 77 -127 1 -40 40 -24 5 4 127 54 100 -96
000070 95 9b 46 5d 24 e4 c8 aa 11 24 2a 52 4e 7f f2 ef
       -107 -101 70 93 36 -28 -56 -86 17 36 42 82 78 127 -14 -17
000080 de fe fe 19 a9 ba 81 3c 3f 71 af 02 af b2 91 81
       -34 -2 -2 25 -87 -70 -127 60 63 113 -81 2 -81 -78 -111 -127
000090 48 32 78 de f8 ff 7f 37 44 5c 0b 7a b1 81 1c 21
       72 50 120 -34 -8 -1 127 55 68 92 11 122 -79 -127 28 33
0000a0 bb ec de eb 3f e4 3f d8 3a 3f 81 1c 08 d5 81 36
       -69 -20 -34 -21 63 -28 63 -40 58 63 -127 28 8 -43 -127 54
0000b0 39 1e e8 fa d5 48 e2 47 81 38 c2 62 d6 bb 0f 31
       57 30 -24 -6 -43 72 -30 71 -127 56 -62 98 -42 -69 15 49
0000c0 70 fd 9a 81 12 7a 79 e6 a2 d1 ca 4b 7f 9b 40 05
       112 -3 -102 -127 18 122 121 -26 -94 -47 -54 75 127 -101 64 5
0000d0 e6 22 08 fb d5 00 e2 7f ca e8 cf e5 12 81 b1 e1
       -26 34 8 -5 -43 0 -30 127 -54 -24 -49 -27 18 -127 -79 -31
0000e0 1e be dc ff 86 d6 c5 7f 1f 1b 7f 12 06 e1 fa 06
       30 -66 -36 -1 -122 -42 -59 127 31 27 127 18 6 -31 -6 6
0000f0 12 ed ef 87 ee 81 cb fc fc da f5 f6 81 d1 8a 0b
       18 -19 -17 -121 -18 -127 -53 -4 -4 -38 -11 -10 -127 -47 -118 11
