Model/tests/80k.tflite (tflite, 89648 bytes, 3 tensors)

tfl.pseudo_qconst i1 [4, 408]
0	0x9f	-97
1	0x0e	14
2	0x79	121
3	0x25	37
4	0xe6	-26
5	0x21	33
6	0xc6	-58
7	0x8a	-118
8	0x9f	-97
9	0xe6	-26
10	0x40	64
11	0xa2	-94
12	0xb2	-78
13	0xc1	-63
14	0xf7	-9
15	0xf1	-15
16	0xec	-20
17	0x90	-112
18	0xde	-34
19	0xf6	-10
20	0x00	0
21	0xbe	-66
22	0xfe	-2
23	0xd0	-48
24	0x1d	29
25	0x6c	108
26	0x46	70
27	0x1f	31
28	0x7a	122
29	0xe0	-32
30	0xc9	-55
31	0xfd	-3
32	0x7f	127
33	0xb8	-72
34	0xa4	-92
35	0xf3	-13
36	0x78	120
37	0x6e	110
38	0x79	121
39	0x0c	12
40	0xa5	-91
41	0x3a	58
42	0x37	55
43	0xe4	-28
44	0x83	-125
45	0x89	-119
46	0x35	53
47	0x07	7
48	0x09	9
49	0x94	-108
50	0xe9	-23
51	0x68	104
52	0xd1	-47
53	0x9f	-97
54	0xdd	-35
55	0xed	-19
56	0x24	36
57	0x5d	93
58	0x3e	62
59	0x12	18
60	0xdb	-37
61	0x55	85
62	0x2d	45
63	0x67	103
64	0xb6	-74
65	0xe4	-28
66	0x70	112
67	0x15	21
68	0x3d	61
69	0x56	86
70	0x21	33
71	0x88	-120
72	0x82	-126
73	0x24	36
74	0x4c	76
75	0xf3	-13
76	0xaf	-81
77	0xae	-82
78	0x60	96
79	0xc5	-59
80	0xd7	-41
81	0x09	9
82	0xdd	-35
83	0x99	-103
84	0xcc	-52
85	0x8f	-113
86	0xef	-17
87	0x3b	59
88	0x16	22
89	0x5b	91
90	0xb9	-71
91	0xa6	-90
92	0xf8	-8
93	0x0b	11
94	0x9e	-98
95	0x61	97
96	0x1e	30
97	0x53	83
98	0x4b	75
99	0x7d	125
100	0x37	55
101	0x3f	63
102	0xe9	-23
103	0xfd	-3
104	0xcf	-49
105	0x1b	27
106	0x30	48
107	0x71	113
108	0xae	-82
109	0xb6	-74
110	0x36	54
111	0x97	-105
112	0x42	66
113	0x18	24
114	0x4c	76
115	0xac	-84
116	0x09	9
117	0x3b	59
118	0x50	80
119	0xa6	-90
120	0x56	86
121	0x78	120
122	0x5f	95
123	0xf4	-12
124	0x67	103
125	0x9e	-98
126	0x58	88
127	0x0e	14
128	0xfd	-3
129	0x83	-125
130	0xf3	-13
131	0x68	104
132	0xb9	-71
133	0x5a	90
134	0xb3	-77
135	0x5a	90
136	0xe1	-31
137	0x11	17
138	0x78	120
139	0x78	120
140	0x39	57
141	0x10	16
142	0xfe	-2
143	0x71	113
144	0xad	-83
145	0x98	-104
146	0x84	-124
147	0x51	81
148	0xa4	-92
149	0x7f	127
150	0xe3	-29
151	0xa4	-92
152	0xd6	-42
153	0x76	118
154	0xba	-70
155	0x97	-105
156	0xf7	-9
157	0xc1	-63
158	0xb6	-74
159	0xcd	-51
160	0xb7	-73
161	0x93	-109
162	0x42	66
163	0x14	20
164	0x40	64
165	0x2e	46
166	0x15	21
167	0x1b	27
168	0x34	52
169	0x7b	123
170	0x5a	90
171	0xea	-22
172	0x9f	-97
173	0xed	-19
174	0xfb	-5
175	0x0b	11
176	0xff	-1
177	0x07	7
178	0xdd	-35
179	0x4f	79
180	0xe8	-24
181	0xbd	-67
182	0x41	65
183	0xb9	-71
184	0x54	84
185	0xc2	-62
186	0x8d	-115
187	0x0c	12
188	0x81	-127
189	0x7c	124
190	0x2c	44
191	0x89	-119
192	0x96	-106
193	0x57	87
194	0x05	5
195	0x84	-124
196	0xf0	-16
197	0xe2	-30
198	0x46	70
199	0x62	98
200	0x46	70
201	0x53	83
202	0x95	-107
203	0xce	-50
204	0x92	-110
205	0x12	18
206	0xee	-18
207	0x62	98
208	0xd6	-42
209	0xdf	-33
210	0x22	34
211	0x8e	-114
212	0x47	71
213	0x33	51
214	0x38	56
215	0x4e	78
216	0xb2	-78
217	0x09	9
218	0xb2	-78
219	0xa5	-91
220	0xce	-50
221	0x35	53
222	0x75	117
223	0xbe	-66
224	0xf8	-8
225	0x92	-110
226	0xd7	-41
227	0xfa	-6
228	0xae	-82
229	0x03	3
230	0x78	120
231	0xab	-85
232	0x01	1
233	0xb4	-76
234	0xe9	-23
235	0xcf	-49
236	0xc9	-55
237	0xd2	-46
238	0x35	53
239	0x3e	62
240	0x62	98
241	0x05	5
242	0xe1	-31
243	0x74	116
244	0x2c	44
245	0x51	81
246	0x01	1
247	0x36	54
248	0xc4	-60
249	0x11	17
250	0x8e	-114
251	0xa2	-94
252	0xf0	-16
253	0x5f	95
254	0x99	-103
255	0x72	114

tfl.pseudo_qconst2 i1 [102, 3, 3, 86]
0	0xb5	-75
1	0x28	40
2	0x83	-125
3	0xdc	-36
4	0xe4	-28
5	0x9a	-102
6	0xaf	-81
7	0xd0	-48
8	0x0d	13
9	0x87	-121
10	0x5e	94
11	0x8b	-117
12	0x85	-123
13	0x9b	-101
14	0x5c	92
15	0x39	57
16	0xad	-83
17	0x66	102
18	0x14	20
19	0x86	-122
20	0x5f	95
21	0x2f	47
22	0x5c	92
23	0x33	51
24	0xe6	-26
25	0x4a	74
26	0xd2	-46
27	0x37	55
28	0x95	-107
29	0xda	-38
30	0xb6	-74
31	0xb1	-79
32	0x3e	62
33	0xf4	-12
34	0x09	9
35	0x20	32
36	0x3d	61
37	0xc4	-60
38	0x85	-123
39	0xea	-22
40	0xb5	-75
41	0x95	-107
42	0x62	98
43	0xdb	-37
44	0x0b	11
45	0xa0	-96
46	0x95	-107
47	0xce	-50
48	0xf1	-15
49	0xa3	-93
50	0xc4	-60
51	0x02	2
52	0x66	102
53	0xca	-54
54	0xed	-19
55	0xd2	-46
56	0xec	-20
57	0x61	97
58	0x4c	76
59	0xfb	-5
60	0x1f	31
61	0x9d	-99
62	0xe7	-25
63	0x85	-123
64	0xf6	-10
65	0x32	50
66	0x58	88
67	0x92	-110
68	0x1d	29
69	0x46	70
70	0xcd	-51
71	0x78	120
72	0x3c	60
73	0xec	-20
74	0x9b	-101
75	0xec	-20
76	0xf7	-9
77	0x2a	42
78	0x04	4
79	0xcc	-52
80	0x48	72
81	0xa2	-94
82	0x60	96
83	0x28	40
84	0xbd	-67
85	0x67	103
86	0x12	18
87	0x87	-121
88	0x40	64
89	0xf3	-13
90	0xe6	-26
91	0xe3	-29
92	0x17	23
93	0xe0	-32
94	0x2c	44
95	0x54	84
96	0xd0	-48
97	0x2a	42
98	0x5f	95
99	0xfa	-6
100	0xd9	-39
101	0x3e	62
102	0x94	-108
103	0x59	89
104	0x2e	46
105	0x3a	58
106	0x62	98
107	0x2c	44
108	0xd9	-39
109	0x07	7
110	0x5c	92
111	0xda	-38
112	0xcd	-51
113	0x49	73
114	0xa8	-88
115	0x65	101
116	0xa3	-93
117	0x4a	74
118	0xa3	-93
119	0xea	-22
120	0x83	-125
121	0x5f	95
122	0xc5	-59
123	0x93	-109
124	0x3e	62
125	0x68	104
126	0xf0	-16
127	0x42	66
128	0x5f	95
129	0x1e	30
130	0xf3	-13
131	0x10	16
132	0xf2	-14
133	0x6d	109
134	0x1e	30
135	0xb6	-74
136	0x9f	-97
137	0xfd	-3
138	0xb8	-72
139	0xd3	-45
140	0x9a	-102
141	0xa7	-89
142	0xdc	-36
143	0x10	16
144	0x98	-104
145	0x9f	-97
146	0x6a	106
147	0x7e	126
148	0x47	71
149	0x4a	74
150	0x95	-107
151	0x07	7
152	0x73	115
153	0x96	-106
154	0x51	81
155	0xc3	-61
156	0xf7	-9
157	0x04	4
158	0x02	2
159	0x18	24
160	0x87	-121
161	0xb0	-80
162	0xaa	-86
163	0x49	73
164	0x96	-106
165	0xa2	-94
166	0x07	7
167	0x73	115
168	0xc0	-64
169	0x46	70
170	0xb9	-71
171	0x96	-106
172	0xc3	-61
173	0xac	-84
174	0x03	3
175	0xb7	-73
176	0x8a	-118
177	0xea	-22
178	0x69	105
179	0xde	-34
180	0x97	-105
181	0xfc	-4
182	0xf9	-7
183	0x94	-108
184	0x5f	95
185	0x47	71
186	0xbc	-68
187	0x95	-107
188	0xf9	-7
189	0x78	120
190	0x44	68
191	0x1a	26
192	0x0b	11
193	0xa0	-96
194	0xde	-34
195	0x70	112
196	0xd0	-48
197	0x07	7
198	0x12	18
199	0x95	-107
200	0xfc	-4
201	0x0f	15
202	0xd3	-45
203	0x0e	14
204	0xa3	-93
205	0x26	38
206	0xf4	-12
207	0x47	71
208	0xb5	-75
209	0x26	38
210	0x25	37
211	0xc6	-58
212	0x93	-109
213	0xea	-22
214	0xf0	-16
215	0xf0	-16
216	0x30	48
217	0x84	-124
218	0x91	-111
219	0x53	83
220	0xca	-54
221	0x4b	75
222	0xda	-38
223	0x02	2
224	0xe6	-26
225	0xe5	-27
226	0x89	-119
227	0x6c	108
228	0xb4	-76
229	0x72	114
230	0xf3	-13
231	0x74	116
232	0x6e	110
233	0x9b	-101
234	0xae	-82
235	0x09	9
236	0xd9	-39
237	0x50	80
238	0x3c	60
239	0xc5	-59
240	0xaa	-86
241	0xa8	-88
242	0x2a	42
243	0xfe	-2
244	0xec	-20
245	0x7c	124
246	0x21	33
247	0xb6	-74
248	0x3c	60
249	0xaf	-81
250	0x18	24
251	0xb2	-78
252	0xa8	-88
253	0xa2	-94
254	0x63	99
255	0x4e	78

tfl.pseudo_qconst4 i1 [86, 3, 3, 1]
0	0xc4	-60
1	0x09	9
2	0xb0	-80
3	0xd0	-48
4	0xc7	-57
5	0xd7	-41
6	0x08	8
7	0x81	-127
8	0xeb	-21
9	0x58	88
10	0xf4	-12
11	0xb8	-72
12	0x81	-127
13	0x95	-107
14	0xe9	-23
15	0x74	116
16	0xb1	-79
17	0xb7	-73
18	0x16	22
19	0x16	22
20	0x44	68
21	0x8a	-118
22	0xc7	-57
23	0x81	-127
24	0xfa	-6
25	0xf4	-12
26	0x5d	93
27	0xe1	-31
28	0xd3	-45
29	0x84	-124
30	0x7f	127
31	0xe9	-23
32	0x70	112
33	0xfd	-3
34	0x78	120
35	0x9c	-100
36	0x82	-126
37	0x69	105
38	0x0e	14
39	0x67	103
40	0x88	-120
41	0xf6	-10
42	0x7f	127
43	0x9d	-99
44	0x6b	107
45	0xf3	-13
46	0x7f	127
47	0xa8	-88
48	0x82	-126
49	0x37	55
50	0x68	104
51	0xf5	-11
52	0x31	49
53	0xed	-19
54	0x5f	95
55	0x49	73
56	0x7f	127
57	0x82	-126
58	0xdd	-35
59	0x01	1
60	0x02	2
61	0x37	55
62	0xea	-22
63	0x44	68
64	0xc9	-55
65	0x3f	63
66	0xbe	-66
67	0xa5	-91
68	0xe7	-25
69	0xae	-82
70	0x81	-127
71	0x87	-121
72	0x5d	93
73	0x94	-108
74	0x06	6
75	0x9c	-100
76	0x9d	-99
77	0x81	-127
78	0xcf	-49
79	0x9b	-101
80	0x71	113
81	0x9e	-98
82	0x7e	126
83	0x65	101
84	0x7f	127
85	0xe9	-23
86	0xea	-22
87	0x91	-111
88	0x59	89
89	0xe3	-29
90	0x7f	127
91	0x11	17
92	0x13	19
93	0x18	24
94	0xd9	-39
95	0x70	112
96	0xfb	-5
97	0xbe	-66
98	0x19	25
99	0x8e	-114
100	0xba	-70
101	0xdc	-36
102	0x82	-126
103	0xb4	-76
104	0x43	67
105	0x36	54
106	0x18	24
107	0x81	-127
108	0xe9	-23
109	0x07	7
110	0xea	-22
111	0xe0	-32
112	0x7f	127
113	0x5b	91
114	0x5f	95
115	0x12	18
116	0x18	24
117	0x7f	127
118	0x13	19
119	0x84	-124
120	0xb1	-79
121	0xec	-20
122	0xfa	-6
123	0xf8	-8
124	0x73	115
125	0xd7	-41
126	0x61	97
127	0x32	50
128	0xb7	-73
129	0xda	-38
130	0x7f	127
131	0xd5	-43
132	0x97	-105
133	0x82	-126
134	0xde	-34
135	0x8b	-117
136	0x4c	76
137	0x7b	123
138	0x4e	78
139	0xe5	-27
140	0x63	99
141	0x81	-127
142	0x8d	-115
143	0x35	53
144	0x49	73
145	0xc7	-57
146	0x1e	30
147	0xec	-20
148	0x77	119
149	0x66	102
150	0x98	-104
151	0x46	70
152	0x81	-127
153	0x6b	107
154	0xb5	-75
155	0x09	9
156	0x5d	93
157	0x08	8
158	0x13	19
159	0xff	-1
160	0x81	-127
161	0x81	-127
162	0xa5	-91
163	0xb6	-74
164	0x86	-122
165	0x0a	10
166	0xdb	-37
167	0x7f	127
168	0x2b	43
169	0xd2	-46
170	0xc3	-61
171	0x52	82
172	0x48	72
173	0xc9	-55
174	0x6e	110
175	0x33	51
176	0x81	-127
177	0x5f	95
178	0x6a	106
179	0x5d	93
180	0x73	115
181	0x11	17
182	0x72	114
183	0x7f	127
184	0x82	-126
185	0xe2	-30
186	0xdb	-37
187	0xd0	-48
188	0xe4	-28
189	0x31	49
190	0xc7	-57
191	0xe6	-26
192	0xb2	-78
193	0x30	48
194	0x54	84
195	0x81	-127
196	0xda	-38
197	0x52	82
198	0x88	-120
199	0xca	-54
200	0xd4	-44
201	0xd3	-45
202	0x1d	29
203	0x3f	63
204	0xff	-1
205	0x7f	127
206	0x60	96
207	0x81	-127
208	0x7d	125
209	0x0f	15
210	0xaf	-81
211	0xc9	-55
212	0x62	98
213	0xd5	-43
214	0x52	82
215	0xf8	-8
216	0xe4	-28
217	0xd6	-42
218	0x31	49
219	0x81	-127
220	0x98	-104
221	0x3a	58
222	0x40	64
223	0x06	6
224	0xec	-20
225	0xeb	-21
226	0x04	4
227	0x60	96
228	0x32	50
229	0x53	83
230	0x26	38
231	0x7f	127
232	0xb2	-78
233	0xdc	-36
234	0x8e	-114
235	0xaf	-81
236	0x52	82
237	0x08	8
238	0xd5	-43
239	0xc3	-61
240	0x07	7
241	0x7f	127
242	0x53	83
243	0xac	-84
244	0x98	-104
245	0x8f	-113
246	0x60	96
247	0x7f	127
248	0x88	-120
249	0xa7	-89
250	0xb7	-73
251	0x23	35
252	0x76	118
253	0x9a	-102
254	0x43	67
255	0x59	89
