Model/tests/cnn1.tflite (tflite, 171256 bytes, 19 tensors)

tfl.pseudo_qconst1 i1 [4, 32]
00000000: fe08 06c1 111d 07c1 ffb7 21d1 0936 02f0
00000010: 0824 fe23 2dbf f708 02fa 2d08 c3f8 e57f
00000020: fef3 131e b24a 0ec5 141a 2404 0b32 17ea
00000030: 074f fec1 be30 df0b 04fa a406 2bea 7fc8
00000040: fef0 fe0c 16af cd24 f027 c715 e30d 0112
00000050: 0336 f6c9 2923 7f13 f7fb 2c06 cb07 e3de
00000060: 0407 0ffb 040f 0437 fee3 cb45 11e8 03ef
00000070: 7fad fb2b e5de fdd8 05fb 1e0a 3412 ebe7
-2 8 6 -63 17 29 7 -63
-1 -73 33 -47 9 54 2 -16
8 36 -2 35 45 -65 -9 8
2 -6 45 8 -61 -8 -27 127
-2 -13 19 30 -78 74 14 -59
20 26 36 4 11 50 23 -22
7 79 -2 -63 -66 48 -33 11
4 -6 -92 6 43 -22 127 -56
-2 -16 -2 12 22 -81 -51 36
-16 39 -57 21 -29 13 1 18
3 54 -10 -55 41 35 127 19
-9 -5 44 6 -53 7 -29 -34
4 7 15 -5 4 15 4 55
-2 -29 -53 69 17 -24 3 -17
127 -83 -5 43 -27 -34 -3 -40
5 -5 30 10 52 18 -21 -25

tfl.pseudo_qconst3 i1 [32, 64]
00000000: 0000 0000 0000 0000 0000 0000 0000 0000
00000010: 0000 0000 0000 0000 0000 0000 0000 0000
00000020: 0000 0000 0000 0000 0000 0000 0000 0000
00000030: 0000 0000 0000 0000 0000 0000 0000 0000
00000040: 0000 0000 0000 0000 0000 0000 0000 0000
00000050: 0000 0000 0000 0000 0000 0000 0000 0000
00000060: 0000 0000 0000 0000 0000 0000 0000 0000
00000070: 0000 0000 0000 0000 0000 0000 0000 0000
00000080: 0000 0000 0000 0000 0000 0000 0000 0000
00000090: 0000 0000 0000 0000 0000 0000 0000 0000
000000a0: 0000 0000 0000 0000 0000 0000 0000 0000
000000b0: 0000 0000 0000 0000 0000 0000 0000 0000
000000c0: 0000 0000 0000 0000 007b 0000 0000 0000
000000d0: 0000 9500 007f 0000 0000 0000 b800 0000
000000e0: 0000 0000 0000 0000 0000 0000 0000 0000
000000f0: 0000 0000 0000 0000 0000 0000 ae00 2300
0 0 0 0 0 0 0 0
0 0 0 0 0 0 0 0
0 0 0 0 0 0 0 0
0 0 0 0 0 0 0 0
0 0 0 0 0 0 0 0
0 0 0 0 0 0 0 0
0 0 0 0 0 0 0 0
0 0 0 0 0 0 0 0
0 0 0 0 0 0 0 0
0 0 0 0 0 0 0 0
0 0 0 0 0 0 0 0
0 0 0 0 0 0 0 0
0 0 0 0 0 0 0 0
0 0 0 0 0 0 0 0
0 0 0 0 0 0 0 0
0 0 0 0 0 0 0 0
0 0 0 0 0 0 0 0
0 0 0 0 0 0 0 0
0 0 0 0 0 0 0 0
0 0 0 0 0 0 0 0
0 0 0 0 0 0 0 0
0 0 0 0 0 0 0 0
0 0 0 0 0 0 0 0
0 0 0 0 0 0 0 0
0 0 0 0 0 0 0 0
0 123 0 0 0 0 0 0
0 0 -107 0 0 127 0 0
0 0 0 0 -72 0 0 0
0 0 0 0 0 0 0 0
0 0 0 0 0 0 0 0
0 0 0 0 0 0 0 0
0 0 0 0 -82 0 35 0

tfl.pseudo_qconst5 i1 [64, 128]
00000000: 0000 0000 0000 0000 0000 0000 0000 0000
00000010: 0000 0000 0000 0000 0000 0000 0000 0000
00000020: 0000 0000 0000 0000 0000 0000 0000 0000
00000030: 0000 0000 0000 0000 0000 0000 0000 0000
00000040: 0000 0000 0000 0000 0000 0000 0000 0000
00000050: 0000 0000 0000 0000 0000 0000 0000 0000
00000060: 0000 0000 0000 0000 0000 0000 0000 0000
00000070: 0000 0000 0000 0000 0000 0000 0000 0000
00000080: 0000 0000 0000 0000 0000 0000 0000 0000
00000090: 0000 0000 0000 0000 0000 0000 0000 0000
000000a0: 0000 0000 0000 0000 0000 0000 0000 0000
000000b0: 0000 0000 0000 0000 0000 0000 0000 0000
000000c0: 0000 0000 0000 0000 0000 0000 0000 0000
000000d0: 0000 0000 0000 0000 0000 0000 0000 0000
000000e0: 0000 0000 0000 0000 0000 0000 0000 0000
000000f0: 0000 0000 0000 0000 0000 0000 0000 0000
0 0 0 0 0 0 0 0
0 0 0 0 0 0 0 0
0 0 0 0 0 0 0 0
0 0 0 0 0 0 0 0
0 0 0 0 0 0 0 0
0 0 0 0 0 0 0 0
0 0 0 0 0 0 0 0
0 0 0 0 0 0 0 0
0 0 0 0 0 0 0 0
0 0 0 0 0 0 0 0
0 0 0 0 0 0 0 0
0 0 0 0 0 0 0 0
0 0 0 0 0 0 0 0
0 0 0 0 0 0 0 0
0 0 0 0 0 0 0 0
0 0 0 0 0 0 0 0
0 0 0 0 0 0 0 0
0 0 0 0 0 0 0 0
0 0 0 0 0 0 0 0
0 0 0 0 0 0 0 0
0 0 0 0 0 0 0 0
0 0 0 0 0 0 0 0
0 0 0 0 0 0 0 0
0 0 0 0 0 0 0 0
0 0 0 0 0 0 0 0
0 0 0 0 0 0 0 0
0 0 0 0 0 0 0 0
0 0 0 0 0 0 0 0
0 0 0 0 0 0 0 0
0 0 0 0 0 0 0 0
0 0 0 0 0 0 0 0
0 0 0 0 0 0 0 0

tfl.pseudo_qconst7 i1 [64, 3, 3, 64]
00000000: 1303 e7f0 10e8 030e 212f 031e f7be ce01
00000010: 18fe f8f4 e107 ed04 fd09 0dee 20fb 2805
00000020: 0b0d ed13 fcc8 f2fc 3226 1307 f706 81f3
00000030: 0af8 e3a4 0d0a ef06 1a04 d824 0d1d 07d1
00000040: effe cb00 e728 0d18 f9f4 f8d6 2403 f416
00000050: f8fa f90e 0c17 fcd9 070d 21ef e704 15fa
00000060: e9e1 e8fe 0ed7 16f4 ecf7 e1f0 170f 041b
00000070: f129 1fe7 0e03 0605 fef1 1bea 1110 f2f0
00000080: 02f9 d516 27e8 a214 1214 1a33 0d2d 100a
00000090: 13dc dc13 0bd7 2b1a 03ea 1dea 0ef6 1b1c
000000a0: 08eb ebfc d728 0429 e10a e214 0204 1ae8
000000b0: 14f7 0df3 141b e9fd eb05 11d9 3319 e5ea
000000c0: fcf4 110e ffea 1dfb 230d f315 f409 0ce6
000000d0: e00d e3ff d8db e50d f411 f3f3 fefa fc0c
000000e0: f426 ee0b f2de db11 fc06 0508 c905 f9f9
000000f0: ef0c 1b19 f01a fdee 0ce0 fc0a 001d ffe5
19 3 -25 -16 16 -24 3 14
33 47 3 30 -9 -66 -50 1
24 -2 -8 -12 -31 7 -19 4
-3 9 13 -18 32 -5 40 5
11 13 -19 19 -4 -56 -14 -4
50 38 19 7 -9 6 -127 -13
10 -8 -29 -92 13 10 -17 6
26 4 -40 36 13 29 7 -47
-17 -2 -53 0 -25 40 13 24
-7 -12 -8 -42 36 3 -12 22
-8 -6 -7 14 12 23 -4 -39
7 13 33 -17 -25 4 21 -6
-23 -31 -24 -2 14 -41 22 -12
-20 -9 -31 -16 23 15 4 27
-15 41 31 -25 14 3 6 5
-2 -15 27 -22 17 16 -14 -16
2 -7 -43 22 39 -24 -94 20
18 20 26 51 13 45 16 10
19 -36 -36 19 11 -41 43 26
3 -22 29 -22 14 -10 27 28
8 -21 -21 -4 -41 40 4 41
-31 10 -30 20 2 4 26 -24
20 -9 13 -13 20 27 -23 -3
-21 5 17 -39 51 25 -27 -22
-4 -12 17 14 -1 -22 29 -5
35 13 -13 21 -12 9 12 -26
-32 13 -29 -1 -40 -37 -27 13
-12 17 -13 -13 -2 -6 -4 12
-12 38 -18 11 -14 -34 -37 17
-4 6 5 8 -55 5 -7 -7
-17 12 27 25 -16 26 -3 -18
12 -32 -4 10 0 29 -1 -27

tfl.pseudo_qconst8 i1 [64] scale=0.0074726897 zero_point=77
00000000: 1f55 1a1e 3f1c 463e 4b55 0df2 1162 551e
00000010: 7fff 2953 1434 0754 1918 cf2f 2e04 200b
00000020: 2a17 5615 184e 0e46 054b 1938 e149 3cf9
00000030: 5430 e608 2f5f 28c3 4c80 184a ebc6 e220
-0.34374374 0.059781518 -0.38110718 -0.3512164 -0.104617655 -0.3661618 -0.052308828 -0.11209035
-0.014945379 0.059781518 -0.47825214 -0.6800148 -0.4483614 0.15692648 0.059781518 -0.3512164
0.3736345 -0.5828698 -0.26901683 0.044836137 -0.42594332 -0.18681724 -0.5230883 0.052308828
-0.38857988 -0.39605257 -0.9415589 -0.2241807 -0.23165338 -0.54550636 -0.33627105 -0.49319753
-0.26154414 -0.40352523 0.06725421 -0.41847062 -0.39605257 0.0074726897 -0.47077945 -0.052308828
-0.53803366 -0.014945379 -0.38857988 -0.15692648 -0.80705047 -0.029890759 -0.12703572 -0.62770593
0.052308828 -0.216708 -0.76968706 -0.5156156 -0.2241807 0.13450842 -0.27648953 -1.0312312
-0.0074726897 -1.5319014 -0.39605257 -0.022418069 -0.7323236 -1.0088131 -0.7995778 -0.33627105

tfl.pseudo_qconst9 i1 [64] scale=0.0015494517 zero_point=-128
00000000: f90c 17f7 05f7 622f 32f1 09fa 132a 7ff4
00000010: 2be2 1125 00ff 0125 f112 f313 f61d 0eec
00000020: 06fa 09ed ed18 211e f82f f80a eef4 28d1
00000030: 6629 fffb 1623 0cdf 58d5 f650 edf2 daec
0.18748365 0.21692324 0.23396721 0.18438475 0.20607708 0.18438475 0.3501761 0.27115405
0.2758024 0.17508805 0.2122749 0.1890331 0.2277694 0.26340678 0.3951102 0.1797364
0.26495624 0.15184627 0.2246705 0.25565952 0.19832982 0.19678037 0.19987927 0.25565952
0.17508805 0.22621995 0.17818695 0.2277694 0.18283531 0.24326392 0.22002214 0.16734079
0.20762654 0.1890331 0.2122749 0.16889024 0.16889024 0.23551667 0.24946173 0.24481337
0.1859342 0.27115405 0.1859342 0.21382433 0.17043969 0.1797364 0.26030788 0.1255056
0.3563739 0.26185733 0.19678037 0.19058256 0.23241776 0.25256065 0.21692324 0.14719792
0.33468157 0.13170339 0.18283531 0.32228595 0.16889024 0.1766375 0.13945065 0.16734079

tfl.pseudo_qconst11 i1 [64, 3, 3, 64]
00000000: c932 e817 fff0 d10a c6bb fdf8 09f0 81c4
00000010: 05f6 0b34 fdfb 36f6 c731 d502 1be3 f8e4
00000020: 25f0 fb0a d41a eff4 fedd 07fe 441f e30d
00000030: f7d9 e90c f701 f701 3002 f112 e03c fe0e
00000040: edcc eaec 0d02 02d8 f5f2 ea18 000e 10cb
00000050: 07fc f20c 200a 2ec8 081e d4ef 0504 e7de
00000060: ed07 f2f8 e901 16e3 f104 2df5 19ec bb1d
00000070: 0ef1 12c5 e0d2 f814 f4f2 f001 ca0a 0afc
00000080: 190c f408 e52a c637 f0bf c4e6 e11c f01a
00000090: ab13 f50e 0745 0a23 ff0c 2ddc f125 240b
000000a0: 08e1 0606 e6e1 ef10 48ef 2909 ca27 08c5
000000b0: fb1f fc01 e3e2 b931 08f7 1d06 01ea e8d4
000000c0: ea0a de08 fc1e 0bcf 13fa 0a02 dd1e 0918
000000d0: 2318 fb01 fd09 2ff5 f107 f4e5 0017 1ff6
000000e0: d012 0428 0be3 dbe9 1af6 0809 e92b f6f6
000000f0: eb36 d4f6 0a0b f8f2 06f4 1ade e8fd 000e
-55 50 -24 23 -1 -16 -47 10
-58 -69 -3 -8 9 -16 -127 -60
5 -10 11 52 -3 -5 54 -10
-57 49 -43 2 27 -29 -8 -28
37 -16 -5 10 -44 26 -17 -12
-2 -35 7 -2 68 31 -29 13
-9 -39 -23 12 -9 1 -9 1
48 2 -15 18 -32 60 -2 14
-19 -52 -22 -20 13 2 2 -40
-11 -14 -22 24 0 14 16 -53
7 -4 -14 12 32 10 46 -56
8 30 -44 -17 5 4 -25 -34
-19 7 -14 -8 -23 1 22 -29
-15 4 45 -11 25 -20 -69 29
14 -15 18 -59 -32 -46 -8 20
-12 -14 -16 1 -54 10 10 -4
25 12 -12 8 -27 42 -58 55
-16 -65 -60 -26 -31 28 -16 26
-85 19 -11 14 7 69 10 35
-1 12 45 -36 -15 37 36 11
8 -31 6 6 -26 -31 -17 16
72 -17 41 9 -54 39 8 -59
-5 31 -4 1 -29 -30 -71 49
8 -9 29 6 1 -22 -24 -44
-22 10 -34 8 -4 30 11 -49
19 -6 10 2 -35 30 9 24
35 24 -5 1 -3 9 47 -11
-15 7 -12 -27 0 23 31 -10
-48 18 4 40 11 -29 -37 -23
26 -10 8 9 -23 43 -10 -10
-21 54 -44 -10 10 11 -8 -14
6 -12 26 -34 -24 -3 0 14

tfl.pseudo_qconst12 i1 [64] scale=0.0061880755 zero_point=127
00000000: c6a8 9de1 cf1c 9dc9 e5b6 c9fc 9e01 e3f8
00000010: 05f7 0230 baf9 cf9d 24b4 b289 e2ec ea6c
00000020: bb62 d30b 10e1 10ed da80 21ed ebfd f1ea
00000030: c3e9 f064 0021 b7d4 fbc7 edd0 f6c0 bfd1
-1.144794 -1.3304362 -1.3985051 -0.9777159 -1.0891013 -0.61261946 -1.3985051 -1.1262298
-0.95296365 -1.2438031 -1.1262298 -0.8106379 -1.3923169 -0.77969754 -0.9653398 -0.8353902
-0.7549452 -0.84157825 -0.77350944 -0.48885795 -1.2190509 -0.8292021 -1.0891013 -1.3985051
-0.5631149 -1.2561793 -1.2685555 -1.5222666 -0.9715279 -0.9096471 -0.92202324 -0.11757343
-1.2128628 -0.17945419 -1.0643489 -0.71781677 -0.68687636 -0.9777159 -0.68687636 -0.903459
-1.0210325 -1.5779593 -0.5816791 -0.903459 -0.9158352 -0.8044498 -0.87870675 -0.92202324
-1.1633582 -0.92821133 -0.8848948 -0.16707803 -0.7858856 -0.5816791 -1.2376151 -1.0581609
-0.816826 -1.138606 -0.903459 -1.0829132 -0.84776634 -1.1819224 -1.1881105 -1.0767251

tfl.pseudo_qconst13 i1 [64] scale=0.0007153058 zero_point=-128
00000000: 483b 3f44 1831 3f36 5958 7f44 2b51 4a40
00000010: 2e31 5151 1930 3034 4812 334e 3e2c 267c
00000020: 3927 282a 463a 4c32 5419 3c49 444f 1e54
00000030: 2544 3632 2e45 2132 6454 2745 3021 451c
0.14306116 0.13376218 0.13662341 0.14019993 0.10872648 0.12660913 0.13662341 0.13018565
0.15522136 0.15450606 0.18240298 0.14019993 0.12231729 0.14949891 0.14449178 0.13733871
0.12446321 0.12660913 0.14949891 0.14949891 0.10944179 0.12589382 0.12589382 0.12875505
0.14306116 0.10443465 0.12803973 0.147353 0.1359081 0.1230326 0.11874076 0.18025707
0.13233157 0.11945607 0.120171376 0.121601984 0.14163055 0.13304688 0.14592238 0.12732443
0.15164483 0.10944179 0.1344775 0.14377646 0.14019993 0.1480683 0.11301832 0.15164483
0.11802546 0.14019993 0.13018565 0.12732443 0.12446321 0.14091524 0.115164235 0.12732443
0.16308972 0.15164483 0.11945607 0.14091524 0.12589382 0.115164235 0.14091524 0.1115877

tfl.pseudo_qconst15 i1 [64, 3, 3, 64]
00000000: f208 f50e 1bff 0cc8 050b 241c d51b 15fa
00000010: fc11 ed18 20e4 f003 24ed d81f e22b d802
00000020: 0912 102f f300 191a 1bf0 e101 fd0d 03ec
00000030: fa17 00fa f10b fe09 c4f9 eee8 1be3 e8d0
00000040: 1ed4 cb00 c9e6 08c9 05bf 1d07 c008 f5eb
00000050: 242b c80c 07ef f9ee 2ecd d6fc edef df34
00000060: 03f4 33ef fb04 0118 2adb d223 efe0 c8fa
00000070: ee14 fbf1 d218 fefe d0bc ee35 d91d 9ba6
00000080: f8dd bf18 ee0a 25dc dcef 46c3 ba0c c7da
00000090: 22f0 f514 1ce4 e662 1beb f5ed f21e d703
000000a0: f9da 2b08 f3f9 e10e fce8 0617 0506 1636
000000b0: f4dd d9fa e80d 0ed6 04f6 f228 d815 ed01
000000c0: 35f8 c422 fbe5 022a deba f507 d014 fdb6
000000d0: 3cfa fe05 160e 0df4 0ded f7f2 0018 f3af
000000e0: 0e1a f4ed 1bc0 0e22 c901 f5f0 9609 2feb
000000f0: e047 f4e6 c5ea 1501 37f5 e5fc 0523 9cfb
-14 8 -11 14 27 -1 12 -56
5 11 36 28 -43 27 21 -6
-4 17 -19 24 32 -28 -16 3
36 -19 -40 31 -30 43 -40 2
9 18 16 47 -13 0 25 26
27 -16 -31 1 -3 13 3 -20
-6 23 0 -6 -15 11 -2 9
-60 -7 -18 -24 27 -29 -24 -48
30 -44 -53 0 -55 -26 8 -55
5 -65 29 7 -64 8 -11 -21
36 43 -56 12 7 -17 -7 -18
46 -51 -42 -4 -19 -17 -33 52
3 -12 51 -17 -5 4 1 24
42 -37 -46 35 -17 -32 -56 -6
-18 20 -5 -15 -46 24 -2 -2
-48 -68 -18 53 -39 29 -101 -90
-8 -35 -65 24 -18 10 37 -36
-36 -17 70 -61 -70 12 -57 -38
34 -16 -11 20 28 -28 -26 98
27 -21 -11 -19 -14 30 -41 3
-7 -38 43 8 -13 -7 -31 14
-4 -24 6 23 5 6 22 54
-12 -35 -39 -6 -24 13 14 -42
4 -10 -14 40 -40 21 -19 1
53 -8 -60 34 -5 -27 2 42
-34 -70 -11 7 -48 20 -3 -74
60 -6 -2 5 22 14 13 -12
13 -19 -9 -14 0 24 -13 -81
14 26 -12 -19 27 -64 14 34
-55 1 -11 -16 -106 9 47 -21
-32 71 -12 -26 -59 -22 21 1
55 -11 -27 -4 5 35 -100 -5

tfl.pseudo_qconst16 i1 [64] scale=0.00584241 zero_point=92
00000000: fcff 06f7 0840 0df1 3c25 fe0b 1115 fda2
00000010: fc26 0be5 1e56 32fe e00a 8049 17fe 1737
00000020: f5e2 5020 03e2 7ffa 351a 1ffa 04b8 48f0
00000030: 171c f32a efe0 df2f f798 67f0 f42f 3545
-0.56087136 -0.54334414 -0.50244725 -0.5900834 -0.49076244 -0.16358748 -0.46155038 -0.62513787
-0.18695712 -0.32133254 -0.5491865 -0.47323522 -0.43818074 -0.4148111 -0.555029 -1.0866883
-0.56087136 -0.31549013 -0.47323522 -0.6952468 -0.3622294 -0.03505446 -0.24538122 -0.5491865
-0.7244588 -0.47907764 -1.2853302 -0.11100579 -0.4031263 -0.5491865 -0.4031263 -0.21616918
-0.60176826 -0.71277404 -0.07010892 -0.3505446 -0.51997447 -0.71277404 0.20448434 -0.5725562
-0.22785398 -0.38559908 -0.35638702 -0.5725562 -0.5141321 -0.9581553 -0.1168482 -0.63098025
-0.4031263 -0.37391424 -0.61345303 -0.29212052 -0.6368227 -0.7244588 -0.73030126 -0.26290846
-0.5900834 -1.1451124 0.06426651 -0.63098025 -0.60761064 -0.26290846 -0.22785398 -0.13437542

tfl.pseudo_qconst17 i1 [64] scale=0.0017046592 zero_point=-128
00000000: d4fc bbec c9fc 00e5 dbd9 19e0 c8ee ead7
00000010: 06d3 f9c9 e57f edec d905 caee 24d2 c9de
00000020: cdcc c8ec ecd8 fbe7 c8d7 e0ed c4c5 dee0
00000030: ddd5 0538 cf06 db23 00b1 04f1 f4be 2ef6
0.14319137 0.21137774 0.100574896 0.18410319 0.12444012 0.21137774 0.21819638 0.17217058
0.155124 0.15171467 0.26081285 0.16364728 0.12273546 0.18751252 0.18069388 0.14830536
0.22842433 0.14148672 0.20626377 0.12444012 0.17217058 0.4346881 0.18580785 0.18410319
0.15171467 0.22671968 0.12614478 0.18751252 0.2795641 0.13978206 0.12444012 0.16023797
0.13125876 0.1295541 0.12273546 0.18410319 0.18410319 0.15001 0.20967308 0.17557989
0.12273546 0.14830536 0.16364728 0.18580785 0.115916826 0.11762148 0.16023797 0.16364728
0.1585333 0.14489603 0.22671968 0.31365728 0.13466808 0.22842433 0.155124 0.27785945
0.21819638 0.0835283 0.22501501 0.19262649 0.19774047 0.10568887 0.2966107 0.20114979

tfl.pseudo_qconst19 i1 [64, 3, 3, 32]
00000000: fbf9 d8f7 c639 2bea bfd5 eaf6 0d1b e7df
00000010: 0020 1b2f e723 19fa 09e8 fa23 fdf7 cdde
00000020: ec0f d807 e702 0ef1 00e0 cfe6 fb07 eff7
00000030: 1714 0408 06ec 18ed daf4 de02 35f9 f6e0
00000040: 0820 ebe1 ed66 11e5 f6c8 0103 1a03 ebcb
00000050: ff20 1cf6 1001 e2fb 02f3 fc03 1c21 e8cf
00000060: 22db 3806 1a0c fb24 dbe9 eee9 0828 fedc
00000070: 0ada f3f6 f201 13ff d919 f1fb 2802 a311
00000080: 2bf5 3b09 14e4 0d05 f5fa f411 1905 eb0e
00000090: 1210 3b10 e5e8 1803 0300 0002 08fc ef14
000000a0: 0518 3810 f1f4 11f9 f3f6 d909 da20 eee0
000000b0: 0ee9 11d2 f014 2cd8 baf1 daec 31da 1a05
000000c0: 01da a101 3c2f b214 e3f8 e4a7 d7f8 1f3f
000000d0: d4f3 0d81 8d29 e1c8 f1f0 381e f8ef c8fd
000000e0: d81c ed02 1c04 e4f9 030a f2ea eef9 f617
000000f0: f0f7 dff0 e5f9 16d0 fbfc 3a1b 0be0 e10c
-5 -7 -40 -9 -58 57 43 -22
-65 -43 -22 -10 13 27 -25 -33
0 32 27 47 -25 35 25 -6
9 -24 -6 35 -3 -9 -51 -34
-20 15 -40 7 -25 2 14 -15
0 -32 -49 -26 -5 7 -17 -9
23 20 4 8 6 -20 24 -19
-38 -12 -34 2 53 -7 -10 -32
8 32 -21 -31 -19 102 17 -27
-10 -56 1 3 26 3 -21 -53
-1 32 28 -10 16 1 -30 -5
2 -13 -4 3 28 33 -24 -49
34 -37 56 6 26 12 -5 36
-37 -23 -18 -23 8 40 -2 -36
10 -38 -13 -10 -14 1 19 -1
-39 25 -15 -5 40 2 -93 17
43 -11 59 9 20 -28 13 5
-11 -6 -12 17 25 5 -21 14
18 16 59 16 -27 -24 24 3
3 0 0 2 8 -4 -17 20
5 24 56 16 -15 -12 17 -7
-13 -10 -39 9 -38 32 -18 -32
14 -23 17 -46 -16 20 44 -40
-70 -15 -38 -20 49 -38 26 5
1 -38 -95 1 60 47 -78 20
-29 -8 -28 -89 -41 -8 31 63
-44 -13 13 -127 -115 41 -31 -56
-15 -16 56 30 -8 -17 -56 -3
-40 28 -19 2 28 4 -28 -7
3 10 -14 -22 -18 -7 -10 23
-16 -9 -33 -16 -27 -7 22 -48
-5 -4 58 27 11 -32 -31 12

tfl.pseudo_qconst20 i1 [32] scale=0.007580438 zero_point=127
00000000: b209 b35a a380 36f5 3842 3566 2904 d3fc
00000010: f568 5c73 6322 9b00 63da c12a 9d77 669d
-1.5539898 -0.89449173 -1.5464094 -0.2804762 -1.6676964 -1.9330118 -0.55337197 -1.0461005
-0.5382111 -0.46240672 -0.5609524 -0.18951096 -0.6519177 -0.9323939 -1.3038354 -0.9930374
-1.0461005 -0.17435008 -0.26531532 -0.090965256 -0.21225227 -0.70498073 -1.7283399 -0.9627156
-0.21225227 -1.2507722 -1.4402833 -0.64433724 -1.713179 -0.060643505 -0.18951096 -1.713179

tfl.pseudo_qconst21 i1 [32] scale=0.0007398323 zero_point=-128
00000000: 3014 7322 3223 0524 0550 2a1e 1424 141e
00000010: f307 7f3b 172b 2b55 5134 3f1e 3d0a 772d
0.13021049 0.10949518 0.17977925 0.11985283 0.13169014 0.12059266 0.098397695 0.1213325
0.098397695 0.15388511 0.1257715 0.1168935 0.10949518 0.1213325 0.10949518 0.1168935
0.08508071 0.09987736 0.18865724 0.13834864 0.111714676 0.12651132 0.12651132 0.15758428
0.15462495 0.13316981 0.14130796 0.1168935 0.13982831 0.102096856 0.18273857 0.12799099

tfl.pseudo_qconst23 i1 [32, 3, 3, 32]
00000000: 0218 13f1 fc16 ee13 1e0a 1306 0f0e 080c
00000010: 0204 fe0c eff3 0614 e608 1510 05f2 fcf2
00000020: 130e 0a11 0a1c eaff 0806 0ef1 f309 faff
00000030: 0303 f801 07f5 fc06 f00c 0df8 fefa 0a01
00000040: fa0f 05fd fc1e ddf7 0b00 fcfc fd03 fa0a
00000050: e5ff ed0d ed14 f617 f005 0710 0dfb 0e0d
00000060: 20f0 0efe 00e8 1729 00f8 0c03 1511 36ea
00000070: 0406 04fc 0107 f50a f31d 0ff7 05e5 0222
00000080: 12e9 ebf0 fbea 0d0a efe7 06f9 0efe 00f2
00000090: 08ea f9e5 160e f001 0014 f101 dacb 0ddc
000000a0: 00e7 f1dc 24e5 1415 f6c3 0106 10f5 f50d
000000b0: 0a1f 04e7 1907 0708 ff01 dd00 e6b8 1de2
000000c0: faed f908 f700 2b0e 13f0 ebe9 d1fd ff11
000000d0: 27ea 1302 08fd ecff 08f4 0d23 080c fa02
000000e0: 0cec ef03 091c 1ff3 05d7 06ec 8a03 d4f5
000000f0: 2005 fffc d6d8 08fc f9e0 e1e2 00e8 120f
2 24 19 -15 -4 22 -18 19
30 10 19 6 15 14 8 12
2 4 -2 12 -17 -13 6 20
-26 8 21 16 5 -14 -4 -14
19 14 10 17 10 28 -22 -1
8 6 14 -15 -13 9 -6 -1
3 3 -8 1 7 -11 -4 6
-16 12 13 -8 -2 -6 10 1
-6 15 5 -3 -4 30 -35 -9
11 0 -4 -4 -3 3 -6 10
-27 -1 -19 13 -19 20 -10 23
-16 5 7 16 13 -5 14 13
32 -16 14 -2 0 -24 23 41
0 -8 12 3 21 17 54 -22
4 6 4 -4 1 7 -11 10
-13 29 15 -9 5 -27 2 34
18 -23 -21 -16 -5 -22 13 10
-17 -25 6 -7 14 -2 0 -14
8 -22 -7 -27 22 14 -16 1
0 20 -15 1 -38 -53 13 -36
0 -25 -15 -36 36 -27 20 21
-10 -61 1 6 16 -11 -11 13
10 31 4 -25 25 7 7 8
-1 1 -35 0 -26 -72 29 -30
-6 -19 -7 8 -9 0 43 14
19 -16 -21 -23 -47 -3 -1 17
39 -22 19 2 8 -3 -20 -1
8 -12 13 35 8 12 -6 2
12 -20 -17 3 9 28 31 -13
5 -41 6 -20 -118 3 -44 -11
32 5 -1 -4 -42 -40 8 -4
-7 -32 -31 -30 0 -24 18 15

tfl.pseudo_qconst24 i1 [32] scale=0.0112998225 zero_point=118
00000000: 80f7 cf64 027e 60e5 d250 5fe3 095d 4467
00000010: 737f 76e4 4c74 0959 796c 3d5c ff51 7920
-2.7797563 -1.4350774 -1.8870703 -0.2033968 -1.3107795 0.09039858 -0.2485961 -1.6384742
-1.8531709 -0.42939326 -0.25989592 -1.6610739 -1.2316806 -0.28249556 -0.5649911 -0.16949734
-0.033899467 0.1016984 0.0 -1.6497741 -0.47459254 -0.022599645 -1.2316806 -0.32769486
0.033899467 -0.112998225 -0.6440899 -0.29379538 -1.3446789 -0.41809344 0.033899467 -0.9717847

tfl.pseudo_qconst25 i1 [32] scale=0.04397669 zero_point=-128
00000000: 0d9e 9f9e d0ab a9a7 b1e7 e29f 99e8 8d3d
00000010: 9c5c a49f b47f ac39 9d08 97f6 a58d 09b4
6.200713 1.3193008 1.3632774 1.3193008 3.5181353 1.8909976 1.8030443 1.715091
2.1548579 4.529599 4.3097157 1.3632774 1.0994172 4.573576 0.571697 8.311595
1.2313473 9.674872 1.5831609 1.3632774 2.286788 11.214056 1.9349744 8.135688
1.275324 5.9808297 1.0114639 5.1892495 1.6271375 0.571697 6.0248065 2.286788

tfl.pseudo_qconst27 i1 [32, 3, 3, 1]
00000000: 8158 2724 00e8 c526 1bdb c708 02ff 3130
00000010: 3b7f 4445 5d20 5b7f dc42 2c10 df7f f7f7
00000020: 08e9 00fa b30d 7fcb 1042 46c6 afdc cf81
00000030: ae0f 67c9 e5d4 14fc fde9 f1f6 81f5 9702
00000040: 4f31 567f 0484 e198 7f4b fb32 f6f0 d6b8
00000050: bde3 acf0 33a7 81dd baff b7f0 5276 0186
00000060: 6a11 81f1 0723 7c0d 7f10 0d15 ad95 cf71
00000070: 457f b8f4 9304 57a6 fa7f 850a 6691 ed14
00000080: e8bb fe81 1311 0da4 7fa5 538b 0eee e7db
00000090: f7e7 10fb 0a1d b685 81a6 7fc2 8563 0223
000000a0: eb01 fd29 60dd 1e46 81d2 8d7f 1039 cf1b
000000b0: 263b 0657 5cd6 c6bd 117f 28b0 f61e 8173
000000c0: ffcf 2bd2 0e30 34ec e808 0de7 7f1a af03
000000d0: 7981 03c6 38f5 ec1d 2d24 1ec6 f781 df12
000000e0: df20 42a2 5c96 00f8 7981 d2ea b0f3 22c5
000000f0: 127f 2f65 efaa 8108 7348 ebcf 7ffc 0dab
-127 88 39 36 0 -24 -59 38
27 -37 -57 8 2 -1 49 48
59 127 68 69 93 32 91 127
-36 66 44 16 -33 127 -9 -9
8 -23 0 -6 -77 13 127 -53
16 66 70 -58 -81 -36 -49 -127
-82 15 103 -55 -27 -44 20 -4
-3 -23 -15 -10 -127 -11 -105 2
79 49 86 127 4 -124 -31 -104
127 75 -5 50 -10 -16 -42 -72
-67 -29 -84 -16 51 -89 -127 -35
-70 -1 -73 -16 82 118 1 -122
106 17 -127 -15 7 35 124 13
127 16 13 21 -83 -107 -49 113
69 127 -72 -12 -109 4 87 -90
-6 127 -123 10 102 -111 -19 20
-24 -69 -2 -127 19 17 13 -92
127 -91 83 -117 14 -18 -25 -37
-9 -25 16 -5 10 29 -74 -123
-127 -90 127 -62 -123 99 2 35
-21 1 -3 41 96 -35 30 70
-127 -46 -115 127 16 57 -49 27
38 59 6 87 92 -42 -58 -67
17 127 40 -80 -10 30 -127 115
-1 -49 43 -46 14 48 52 -20
-24 8 13 -25 127 26 -81 3
121 -127 3 -58 56 -11 -20 29
45 36 30 -58 -9 -127 -33 18
-33 32 66 -94 92 -106 0 -8
121 -127 -46 -22 -80 -13 34 -59
18 127 47 101 -17 -86 -127 8
115 72 -21 -49 127 -4 13 -85
