Model/model_0/pipeline_int8_model_data.tflite (tflite, 179624 bytes, 8 tensors)

arith.constant f4 [64]
0	0xbc07b3d6	-0.008282622
1	0xbc1de5af	-0.00963728
2	0xbd15d2b1	-0.036577884
3	0xbc9dc451	-0.01925865
4	0xbd8f7eab	-0.07006582
5	0xbc7e1b9a	-0.01550951
6	0xbc5861d6	-0.01320692
7	0xbd2567d3	-0.040382218
8	0xbcd4eb16	-0.025991004
9	0xbd364338	-0.0444977
10	0xbe03d22c	-0.12873143
11	0xbd2e1da4	-0.042508736
12	0xbcbea9e5	-0.023274371
13	0xbd8c3791	-0.06846536
14	0xbd1e6583	-0.038671028
15	0xbd8db0be	-0.069184765
16	0xbcfff6fd	-0.031245703
17	0xbd7111b7	-0.058854785
18	0xbc52942d	-0.012852711
19	0xbd83b105	-0.06430248
20	0xbd3c25ac	-0.045934364
21	0xbda1acb4	-0.07894269
22	0xbd2e0e3c	-0.042494044
23	0xbd2e6672	-0.04257817
24	0xbd1edbd9	-0.03878388
25	0xbd295fdf	-0.041351195
26	0x3c5a774e	0.0133341085
27	0x3caf4e5c	0.02139967
28	0xbd18d542	-0.037312753
29	0xbc9ff4f5	-0.019525984
30	0xbc20033d	-0.009766397
31	0xbda50e25	-0.080593385
32	0xbd36e8c3	-0.044655573
33	0xbe95cdb6	-0.29258507
34	0x3d083626	0.033254765
35	0xbe065309	-0.13117613
36	0xbc41ba6f	-0.011824234
37	0xbe79cd68	-0.24394763
38	0xbcb0a7c8	-0.02156438
39	0xbb3c95e5	-0.0028775868
40	0x380c2ccd	3.3420325e-05
41	0xbd194698	-0.03742084
42	0xbd0db8bc	-0.034600005
43	0x3e038461	0.12843467
44	0xbd258b6a	-0.04041616
45	0xbe024c55	-0.12724431
46	0xbccbc8c2	-0.024876002
47	0x3da0de95	0.07854954
48	0xbc8a712f	-0.016899673
49	0xbd78f673	-0.060781907
50	0xbd24e26a	-0.040254988
51	0x3c716da4	0.014735613
52	0xbcd4b1da	-0.025963712
53	0xbd14e129	-0.036347542
54	0xbd8c7aa5	-0.0685933
55	0xbced7008	-0.028984085
56	0xbcb1615f	-0.021652875
57	0xbc853a64	-0.016263194
58	0xbd42cc5d	-0.047558177
59	0xbd7d22b4	-0.061800674
60	0xbd0ae4c5	-0.033909578
61	0xbd770adf	-0.0603131
62	0xbddbfb3f	-0.10741281
63	0xbce22818	-0.027607009

arith.constant1 f4 [64, 3, 3, 32]
0	0x3d8468f4	0.06465331
1	0xbd16e817	-0.036842432
2	0xbc7ff954	-0.015623409
3	0x3c383e5f	0.011245339
4	0xbd8d99fd	-0.069141366
5	0x3d7d689f	0.061867353
6	0xbce2ecaf	-0.02770075
7	0xbd0da071	-0.034576837
8	0x3c8b111b	0.01697593
9	0xbc136655	-0.008996566
10	0x3cf6fe8c	0.030150674
11	0xbd77b1a9	-0.060472164
12	0x3c5f9534	0.013646413
13	0xbd384a3b	-0.044992667
14	0x3ca2a2a3	0.019852942
15	0xbc793c9c	-0.015212204
16	0xbdf1fd0f	-0.11815845
17	0x3c2edc87	0.010672695
18	0xbd5b0c11	-0.053478304
19	0x3c4f40bb	0.01264971
20	0xbcc1e7ce	-0.023670103
21	0xbc50b8b8	-0.012739353
22	0xbdb7d590	-0.08976281
23	0xbd2367c9	-0.0398939
24	0xbd9588c6	-0.07301478
25	0xbd98ff75	-0.074705996
26	0xbda1798b	-0.078845106
27	0xbd594cb2	-0.053051658
28	0xbd805e5c	-0.062679976
29	0xbd96dd2f	-0.07366406
30	0xbc6995ba	-0.014256889
31	0x3cfc58d2	0.030804072
32	0xbbca63de	-0.006176456
33	0xbc37c663	-0.011216733
34	0x3d4a196e	0.049340658
35	0xbd61a74d	-0.05509119
36	0xbc849001	-0.016181948
37	0xbddb1f3b	-0.10699316
38	0xbd85de20	-0.065365076
39	0xbd9c260b	-0.076244436
40	0x3d1d2da5	0.03837361
41	0xbddc4f4a	-0.10757311
42	0xbd814063	-0.06311109
43	0xbd8e60c7	-0.069520526
44	0x3d6b2149	0.05740479
45	0xba4cbb13	-0.00078098587
46	0xbd86272e	-0.06550442
47	0xbced4f35	-0.028968433
48	0xbd2e33ef	-0.042529996
49	0xbded3800	-0.11582947
50	0x3ca81303	0.020516878
51	0xbd8167ef	-0.06318652
52	0xbda9eb6c	-0.08296856
53	0xbd9905db	-0.0747182
54	0x3a850013	0.0010147117
55	0xba0e5f1d	-0.0005431043
56	0xbd71836d	-0.058963228
57	0xbd5f6ba2	-0.054546006
58	0xbb3fe543	-0.0029280938
59	0x3cff54ed	0.031168425
60	0x3d48c0c0	0.049011946
61	0x3d5818fc	0.052758202
62	0xbc047b9a	-0.0080861095
63	0x3cae2524	0.021257944
64	0x3cacd5a4	0.021097966
65	0xbcd61b5d	-0.026136095
66	0x3d69ce21	0.057081345
67	0x3cfc50d2	0.030800257
68	0xbc1c637a	-0.009545201
69	0x3ae13b84	0.0017183875
70	0x3cfaf168	0.03063269
71	0xbd35778b	-0.04430346
72	0xbd8cff56	-0.06884639
73	0xbbfbf132	-0.007688665
74	0xbcaf960f	-0.021433858
75	0x3d1bc625	0.038030762
76	0x3d701fbe	0.05862402
77	0x3d675af0	0.05648321
78	0x3c6e8560	0.014558166
79	0xbc6464cb	-0.013940047
80	0xbd1692ea	-0.036761202
81	0x3d006225	0.031343598
82	0xbce48d3b	-0.027899375
83	0xbda1a85f	-0.07893442
84	0xbd0817b6	-0.033225738
85	0x3d6d10d2	0.05787737
86	0xbd85398e	-0.06505118
87	0xbd4cbb9a	-0.0499836
88	0x3bff564c	0.00779227
89	0x3da075e1	0.078349836
90	0xbbfad51e	-0.0076548
91	0x3d153563	0.036427867
92	0xbdc2da98	-0.0951435
93	0xbc216111	-0.009849803
94	0x3ad6511f	0.001635108
95	0xbd572354	-0.052523926
96	0x3c7a3cab	0.015273253
97	0xbd95dac2	-0.07317115
98	0x3d56e3b0	0.052463233
99	0x3d2c3536	0.042042933
100	0x3c25da2d	0.010122818
101	0x3d062ec8	0.032759458
102	0x3daf229d	0.08551524
103	0xbd832a4d	-0.064045526
104	0xbdcdbcd5	-0.100457825
105	0x3cff02e8	0.031129315
106	0x3c3a4397	0.011368654
107	0x3d536f3f	0.051619764
108	0x3d94f3c1	0.07273055
109	0xbd892d7f	-0.06698131
110	0x3cc35e2a	0.023848612
111	0xbd2cbc55	-0.042171795
112	0xbd0f1188	-0.03492883
113	0x3d02cd98	0.03193435
114	0x3cb6b182	0.02230144
115	0xbc86eb19	-0.016469525
116	0xbdd28a2e	-0.10280262
117	0x3bf92a50	0.007603921
118	0x3cc567e5	0.024097392
119	0x3ce1a2af	0.027543394
120	0x3d428312	0.04748828
121	0xbc56b10e	-0.013103737
122	0xbcddd6f4	-0.027080037
123	0x3d340125	0.043946404
124	0xbd619c52	-0.05508072
125	0xbc4a11e3	-0.012333366
126	0xbdbf52e8	-0.09341985
127	0xbd36baef	-0.044611868
128	0xbd75e988	-0.060037166
129	0x3cbe7e67	0.023253633
130	0x3c796b5c	0.01522335
131	0xbcbbd341	-0.022927882
132	0x3cdc0a94	0.026860513
133	0xbc923cfb	-0.017851343
134	0x3d0d7a61	0.034540538
135	0xbbf1a30b	-0.0073741726
136	0x3c8f7952	0.017513905
137	0x3c8074cd	0.015680695
138	0x3d549478	0.051899403
139	0x3d5303c3	0.05151726
140	0xbbd2facc	-0.0064385887
141	0xbd3ea63e	-0.04654526
142	0xbdae1ba5	-0.085013665
143	0x3c330742	0.010927023
144	0xbc211b3f	-0.009833156
145	0xbc89b442	-0.016809586
146	0xbc30150d	-0.010747206
147	0x3d077104	0.033066764
148	0xbd14c2b9	-0.036318514
149	0xbd49937b	-0.049212914
150	0xbd44536c	-0.04793112
151	0x3d0b8257	0.03405985
152	0xbd893123	-0.06698825
153	0xbd8f00fa	-0.06982608
154	0xbb2cbe92	-0.0026358706
155	0xbdac9ebc	-0.08428714
156	0x3d77db1e	0.0605117
157	0xbb3a2c1e	-0.0028407644
158	0xbdaa09d0	-0.08302653
159	0xbbcd9b73	-0.0062746345
160	0xbbeeae42	-0.0072839567
161	0x3d7a271a	0.061072446
162	0x3cea6166	0.028610896
163	0x3c416fd3	0.011806446
164	0x3c89a315	0.016801396
165	0xbd57f35d	-0.052722324
166	0x3b5ed3a8	0.0034000669
167	0xbd0dd575	-0.034627397
168	0xbcab1bcf	-0.020887284
169	0xbd5130bd	-0.05107187
170	0x3cdba3f2	0.026811574
171	0x3d59d67c	0.053183064
172	0xbd508e46	-0.050916933
173	0x3c4b6173	0.01241337
174	0xbce20d7a	-0.027594317
175	0xbdb150e0	-0.08658004
176	0x3c414c61	0.011797995
177	0xbd7ff873	-0.0624928
178	0xbb495e38	-0.0030726325
179	0x3d39bace	0.045344166
180	0xbda87ffc	-0.08227536
181	0x3d97ba9c	0.0740864
182	0x3dbd8ac4	0.09254983
183	0xbdaf64b6	-0.08564131
184	0x3d66eb0b	0.0563765
185	0x3ceaa95c	0.02864521
186	0x3d686dd0	0.05674535
187	0xbd9b40cc	-0.075807184
188	0xbd91fc42	-0.071281925
189	0xb9e1d9cb	-0.00043077613
190	0x3cf16e4f	0.029471545
191	0xbd5ba8ca	-0.053627767
192	0x3c184836	0.00929456
193	0x3d628280	0.055300236
194	0x3cad9359	0.021188425
195	0xbd62d225	-0.05537619
196	0xbd65b25f	-0.05607831
197	0xbb90cb25	-0.004418748
198	0xbd59401d	-0.05303966
199	0xbc43197c	-0.011907931
200	0xbd8463f7	-0.06464379
201	0x3ca6389d	0.020290667
202	0x3d189b69	0.037257586
203	0x3c4fbd58	0.01267942
204	0xbc5a3409	-0.01331807
205	0x3d40f89a	0.047112085
206	0x3d96d7e3	0.07365396
207	0x3d19bc3c	0.03753303
208	0xbbcf5a19	-0.006327879
209	0x3d693ef9	0.05694482
210	0x3d0a81c8	0.033815175
211	0x3ba7b657	0.005118172
212	0x3d7b9e61	0.06143034
213	0xbb7341a5	-0.0037117985
214	0xbd61b650	-0.055105507
215	0x3d34aff4	0.044113114
216	0x3cb8b3d5	0.022546688
217	0x3c27b820	0.01023677
218	0xbb3dea53	-0.002897878
219	0xbda220c6	-0.07916407
220	0x3c8724ad	0.01649698
221	0x3c8168a7	0.015796972
222	0xbd87c351	-0.066290505
223	0x3d5b70be	0.053574316
224	0x3d1b0940	0.03785062
225	0x3d396f2a	0.04527203
226	0xbcfa815e	-0.030579265
227	0x3bb92764	0.0056504477
228	0xbcf920f6	-0.030411225
229	0x3bc00e5d	0.0058610872
230	0x3cdb0b98	0.026738927
231	0xbd87530d	-0.066076376
232	0xbcdece4b	-0.027197978
233	0xbb64d7cb	-0.0034918662
234	0xbbb69d86	-0.0055729775
235	0x3bdb32e7	0.0066894176
236	0x3caabb2c	0.020841204
237	0xbd0792a2	-0.033098824
238	0x3d839fb9	0.06426949
239	0xbdce9076	-0.100861475
240	0x3c9d91c8	0.019234553
241	0xbc887156	-0.016655605
242	0xbc8e36ed	-0.017360175
243	0xbd01c94a	-0.031686105
244	0xbbe8cb94	-0.0071043465
245	0x3d6ccf67	0.05781498
246	0x3d283c8f	0.04107338
247	0xbd0485f1	-0.0323543
248	0xbc8ecf4e	-0.017432835
249	0x3d1f8646	0.038946413
250	0xbd9f1b37	-0.07768863
251	0xbcbb0206	-0.022828113
252	0xbcb9265a	-0.022601295
253	0xbcf8a707	-0.030353082
254	0xbcf2d3a0	-0.029641926
255	0x3d341159	0.043961857

arith.constant2 f4 [5, 32]
0	0x3eb8e7f5	0.3611447
1	0xbe334922	-0.17508367
2	0x3e182106	0.14856347
3	0xbdd94db1	-0.106105216
4	0xbc32a947	-0.010904617
5	0xbdad23ca	-0.08454092
6	0x3e869fbc	0.26293743
7	0xbd1c5ff0	-0.03817743
8	0xbec742d0	-0.3891816
9	0x3e93cd25	0.2886745
10	0xbe3102d4	-0.17286235
11	0x3c7f9c55	0.015601237
12	0xbd8b49ca	-0.068011835
13	0xbd684fee	-0.056716852
14	0x3d0dcff2	0.03462214
15	0x3e8d80ee	0.27637428
16	0x3ebdc794	0.3706633
17	0x3d027bc6	0.03185632
18	0x3e71a793	0.2359908
19	0x3cf91385	0.030404815
20	0x3cd6203d	0.02613842
21	0xbe294257	-0.16529213
22	0xbd021c7a	-0.03176544
23	0x3e65624b	0.22400777
24	0xbe7ec51c	-0.24879879
25	0xbb9ea668	-0.0048416145
26	0xbec771e0	-0.38954067
27	0x3d4e71c1	0.050401453
28	0xbd695e41	-0.056974653
29	0x3e8d339b	0.27578434
30	0xbe9c4d39	-0.30527666
31	0x3df16051	0.11785949
32	0x3e676869	0.22598423
33	0x3eb70914	0.35749114
34	0xbc18bdc9	-0.009322592
35	0xbe866f6b	-0.2625688
36	0x3e67f3d6	0.2265161
37	0xbd952ee6	-0.07284336
38	0xbe52ec18	-0.20597875
39	0x3dfae456	0.12250583
40	0xbe7d5f96	-0.24743494
41	0x3c080b66	0.008303499
42	0xbe929e81	-0.28636554
43	0x3e4cce2f	0.20000528
44	0xbe8fcfe7	-0.28088304
45	0x3e0e7293	0.13910894
46	0x3e99cde7	0.30039904
47	0x3d9a6411	0.075386174
48	0x3dbf649e	0.09345363
49	0x3e077936	0.13229832
50	0x3e57f031	0.2108772
51	0xbec6a0c6	-0.38794535
52	0x3e85262d	0.26005688
53	0x3e98cd92	0.29844338
54	0x3eaa61a7	0.33277628
55	0xbdd2babb	-0.10289522
56	0xbc346b61	-0.011011929
57	0xbe79ed44	-0.24406916
58	0x3d5b0c6c	0.053478643
59	0xbe9222ae	-0.28542084
60	0xbd0bd34a	-0.034137048
61	0xbdd56616	-0.10419862
62	0x3d5e44b3	0.054264735
63	0xbe221fb0	-0.158324
64	0xbdef8c88	-0.11696726
65	0x3dfecf12	0.12441839
66	0x3ce55ba2	0.027997795
67	0xbe6578a2	-0.22409299
68	0xbe8b504b	-0.27209696
69	0xbeaaf83f	-0.33392522
70	0x3c6e54cd	0.014546585
71	0xbe391ac0	-0.1807661
72	0xbd874a46	-0.066059634
73	0xbd0f6b74	-0.035014585
74	0xbe43ac47	-0.19108687
75	0x3eb53ad2	0.3539644
76	0x3ea84795	0.32867113
77	0x3e26c655	0.16286595
78	0x3eab91bf	0.33509633
79	0x3dd3bad8	0.10338372
80	0xbe5591ae	-0.20856354
81	0x3e26abf0	0.16276526
82	0xbe258798	-0.16165006
83	0x3e8e0036	0.27734536
84	0xbe4cf066	-0.2001358
85	0xbd89439e	-0.0670235
86	0x3eba5486	0.3639261
87	0xbe90258a	-0.2815364
88	0xbd5733bc	-0.052539572
89	0x3e250255	0.16114171
90	0x3e2f7376	0.17133889
91	0xbe2c136d	-0.16804285
92	0x3eabb6b8	0.3353784
93	0xbe860343	-0.26174363
94	0x3dce58ec	0.10075554
95	0x3ea9f84c	0.33197248
96	0x3e947e01	0.29002383
97	0x3e3708a9	0.17874397
98	0x3c0ff034	0.008785296
99	0xbe7ee7c0	-0.24893093
100	0x3eb48b6b	0.35262617
101	0xbea5f1cf	-0.32411048
102	0xbe8b7576	-0.27238053
103	0x3e8b0a52	0.2715631
104	0xbd874a87	-0.06606012
105	0xbd3ca98f	-0.04606014
106	0xbe808f61	-0.2510939
107	0xbcd82e58	-0.026389286
108	0x3e2d8088	0.16943562
109	0xbe0a41be	-0.13501641
110	0x3e471d4e	0.19444773
111	0x3c403d4a	0.011733362
112	0xbc92642b	-0.01787003
113	0x3e421307	0.18952571
114	0xbe19fc16	-0.1503757
115	0xbe1f3fea	-0.15551725
116	0x3e0f7d8e	0.14012739
117	0x3eb64590	0.35599947
118	0xbe307493	-0.1723197
119	0x3cdb5a29	0.02677639
120	0x3e86c07f	0.26318738
121	0xbdba5e28	-0.0909999
122	0x3e65f471	0.22456528
123	0xbe935d84	-0.28782284
124	0xbec014e9	-0.37515953
125	0xbeab5c24	-0.33468735
126	0x3ebf4bd2	0.37362534
127	0xbe015351	-0.12629439
128	0x3eadb824	0.3392955
129	0xbe5e51cc	-0.2171089
130	0x39ffe260	0.00048806053
131	0xbe7d59cd	-0.24741288
132	0x3cf6b4a5	0.030115435
133	0xbe89706e	-0.2684359
134	0xbeb6dafe	-0.35713953
135	0xbe77405e	-0.24145648
136	0x3e0c41ed	0.13697024
137	0x3e9c9d5d	0.3058881
138	0x3e8365d5	0.2566363
139	0xbeb6c13b	-0.35694298
140	0xbd6f373f	-0.058402296
141	0xbb8fd522	-0.004389421
142	0xbd1ce68f	-0.038305815
143	0x3e2790e2	0.16363862
144	0x3e1424f7	0.14467226
145	0x3dec115b	0.11526748
146	0xbe215863	-0.15756373
147	0xbeb88a6f	-0.36043116
148	0x3e974e30	0.2955184
149	0xbe9e1927	-0.30878565
150	0xbd80dca5	-0.062920846
151	0xbe838389	-0.2568629
152	0xbceb5f7d	-0.028732056
153	0x3e55ca2f	0.20877908
154	0xbe1cd09b	-0.15313952
155	0xbdcb3f40	-0.09924173
156	0xbe45c528	-0.1931349
157	0x3ca3ea27	0.020009113
158	0x3eba93d8	0.3644092
159	0xbdc91067	-0.098175816

arith.constant3 f4 [32, 768]
0	0x0000d185	7.5161e-41
1	0x8000ac31	-6.177e-41
2	0x8001bf99	-1.60568e-40
3	0x80019324	-1.4462e-40
4	0x0000a58d	5.9388e-41
5	0x0003bb75	3.42753e-40
6	0x8000330c	-1.8312e-41
7	0x80009fc0	-5.7308e-41
8	0x0000301b	1.7257e-41
9	0x8000aa9b	-6.1202e-41
10	0x80002ddc	-1.6451e-41
11	0x8000b789	-6.584e-41
12	0x00003c9d	2.1744e-41
13	0x00006b31	3.8453e-41
14	0x00000e5a	5.148e-42
15	0x8000790d	-4.3425e-41
16	0x00009482	5.3275e-41
17	0x8000b36d	-6.4366e-41
18	0x00005567	3.0637e-41
19	0x8000caf2	-7.2803e-41
20	0x0001854b	1.39652e-40
21	0x800071ac	-4.0778e-41
22	0x0000a70e	5.9928e-41
23	0x8000411b	-2.3355e-41
24	0x80024f22	-2.12058e-40
25	0x80009148	-5.2117e-41
26	0x00002d70	1.63e-41
27	0x0002f963	2.73134e-40
28	0x0003bd00	3.43307e-40
29	0x80005d36	-3.3438e-41
30	0x0000073b	2.594e-42
31	0x80010fdc	-9.7525e-41
32	0x0001c3e7	1.62112e-40
33	0x80015277	-1.21418e-40
34	0x8000daf1	-7.8541e-41
35	0x8000b50e	-6.495e-41
36	0x00009aee	5.5578e-41
37	0x800023db	-1.2863e-41
38	0x80006e23	-3.951e-41
39	0x00026fe3	2.23808e-40
40	0x000216e6	1.91885e-40
41	0x0000fac6	8.996e-41
42	0x00003ae9	2.1133e-41
43	0x80014634	-1.1702e-40
44	0x800056ac	-3.1092e-41
45	0x8000b0fd	-6.3491e-41
46	0x80017946	-1.3534e-40
47	0x0000f00c	8.6113e-41
48	0x80004668	-2.5257e-41
49	0x8000671a	-3.6986e-41
50	0x0000013a	4.4e-43
51	0x80003a08	-2.0818e-41
52	0x80006735	-3.7024e-41
53	0x0000f902	8.9327e-41
54	0x8000300c	-1.7236e-41
55	0x00003c98	2.1737e-41
56	0x8000b2da	-6.416e-41
57	0x0000e07c	8.053e-41
58	0x800072f6	-4.124e-41
59	0x8000cbaa	-7.3061e-41
60	0x00023c43	2.05289e-40
61	0x00000731	2.58e-42
62	0x8000ee33	-8.545e-41
63	0x0000c05f	6.901e-41
64	0x800100a2	-9.2063e-41
65	0x8000b6ae	-6.5533e-41
66	0x80007980	-4.3586e-41
67	0x800176e6	-1.34488e-40
68	0x0000b00d	6.3155e-41
69	0x8002074d	-1.8629e-40
70	0x00005164	2.9197e-41
71	0x00014763	1.17444e-40
72	0x00004977	2.6354e-41
73	0x8000aaf4	-6.1326e-41
74	0x80003d48	-2.1984e-41
75	0x8000bf45	-6.8615e-41
76	0x0000c06f	6.9032e-41
77	0x80003e6b	-2.2391e-41
78	0x8000cc30	-7.3249e-41
79	0x80006d4c	-3.9208e-41
80	0x00002549	1.3375e-41
81	0x80036588	-3.11929e-40
82	0x8000b084	-6.3322e-41
83	0x8000e6a5	-8.274e-41
84	0x00038b1c	3.2541e-40
85	0x8000939a	-5.295e-41
86	0x80004ae7	-2.687e-41
87	0x80007929	-4.3464e-41
88	0x80026d99	-2.22987e-40
89	0x80003d77	-2.205e-41
90	0x80008f80	-5.1478e-41
91	0x80006f69	-3.9966e-41
92	0x800122cf	-1.04322e-40
93	0x800083fd	-4.7348e-41
94	0x8000e764	-8.3007e-41
95	0x00015e3d	1.25642e-40
96	0x80005c9e	-3.3225e-41
97	0x0000a69c	5.9768e-41
98	0x8000ae8e	-6.2618e-41
99	0x0000f360	8.7306e-41
100	0x0000542a	3.0192e-41
101	0x8000549d	-3.0354e-41
102	0x0000484b	2.5934e-41
103	0x80006e52	-3.9575e-41
104	0x800002db	-1.024e-42
105	0x0000122f	6.523e-42
106	0x00004ab7	2.6803e-41
107	0x000076cf	4.262e-41
108	0x00008ea2	5.1167e-41
109	0x80009249	-5.2477e-41
110	0x80003ddc	-2.2191e-41
111	0x00005da1	3.3588e-41
112	0x8001a00e	-1.49252e-40
113	0x800089f0	-4.9483e-41
114	0x8000744c	-4.172e-41
115	0x00005ab6	3.2541e-41
116	0x00011eca	1.0288e-40
117	0x800043a4	-2.4265e-41
118	0x00009dbd	5.6586e-41
119	0x000082cd	4.6922e-41
120	0x000046d0	2.5403e-41
121	0x00008010	4.594e-41
122	0x800017dc	-8.559e-42
123	0x8000de73	-7.98e-41
124	0x800194a4	-1.45158e-40
125	0x80005541	-3.0583e-41
126	0x8000c666	-7.1172e-41
127	0x00033722	2.95284e-40
128	0x80009300	-5.2734e-41
129	0x8000452d	-2.4816e-41
130	0x80008c6e	-5.0377e-41
131	0x000063d7	3.5816e-41
132	0x80007d46	-4.494e-41
133	0x00013283	1.09956e-40
134	0x8000176a	-8.4e-42
135	0x80021fe3	-1.9511e-40
136	0x8000259d	-1.3493e-41
137	0x80008d8e	-5.078e-41
138	0x00000745	2.608e-42
139	0x8000c32f	-7.0019e-41
140	0x00007bef	4.4459e-41
141	0x00014e10	1.19839e-40
142	0x80005c5b	-3.3131e-41
143	0x8000a855	-6.0386e-41
144	0x8000148d	-7.372e-42
145	0x80029ee9	-2.40677e-40
146	0x80011a94	-1.0137e-40
147	0x8000e6c5	-8.2785e-41
148	0x0002e071	2.64185e-40
149	0x80008d81	-5.0762e-41
150	0x0000dfba	8.0258e-41
151	0x80008196	-4.6487e-41
152	0x80020771	-1.8634e-40
153	0x00005fb8	3.4337e-41
154	0x80014a62	-1.18519e-40
155	0x80006faa	-4.0058e-41
156	0x0001f1fa	1.7864e-40
157	0x00011511	9.9393e-41
158	0x8000ad38	-6.2139e-41
159	0x00015132	1.20963e-40
160	0x80004d28	-2.7678e-41
161	0x0000f0ed	8.6428e-41
162	0x8000b5ba	-6.5191e-41
163	0x0002283a	1.98102e-40
164	0x00003c14	2.1552e-41
165	0x80005d9b	-3.358e-41
166	0x0000b330	6.428e-41
167	0x000041db	2.3624e-41
168	0x00018039	1.37833e-40
169	0x800086e8	-4.8395e-41
170	0x00003c4a	2.1628e-41
171	0x800003f5	-1.42e-42
172	0x0000214f	1.1949e-41
173	0x8000b82d	-6.607e-41
174	0x80008529	-4.7769e-41
175	0x000332b8	2.93701e-40
176	0x8000f53b	-8.7972e-41
177	0x00003919	2.0483e-41
178	0x00011967	1.00948e-40
179	0x80001cf1	-1.0382e-41
180	0x000096c0	5.4079e-41
181	0x00004ddc	2.793e-41
182	0x80002d01	-1.6144e-41
183	0x80002a01	-1.5068e-41
184	0x800033f1	-1.8633e-41
185	0x00003d4b	2.1988e-41
186	0x8000287e	-1.4526e-41
187	0x8000741f	-4.1656e-41
188	0x0000ba14	6.6752e-41
189	0x80007464	-4.1753e-41
190	0x8000e0ed	-8.0688e-41
191	0x00033512	2.94545e-40
192	0x00008675	4.8234e-41
193	0x0000bc73	6.7603e-41
194	0x0002f644	2.72014e-40
195	0x8000bdf4	-6.8142e-41
196	0x800029d6	-1.5008e-41
197	0x8000b6d2	-6.5584e-41
198	0x8000e1b5	-8.0968e-41
199	0x80004d43	-2.7716e-41
200	0x0000d9e2	7.8162e-41
201	0x80006866	-3.7451e-41
202	0x80006b67	-3.8529e-41
203	0x80008edd	-5.125e-41
204	0x000103d7	9.3213e-41
205	0x8000bab5	-6.6978e-41
206	0x8000a5e2	-5.9508e-41
207	0x8000868e	-4.8269e-41
208	0x000082d5	4.6934e-41
209	0x00011e3e	1.02684e-40
210	0x00009ed3	5.6975e-41
211	0x8000b003	-6.3141e-41
212	0x8000f2b3	-8.7064e-41
213	0x80006a43	-3.812e-41
214	0x8000785c	-4.3177e-41
215	0x0001ec05	1.76503e-40
216	0x800100a9	-9.2072e-41
217	0x00017e5b	1.37163e-40
218	0x0000de50	7.975e-41
219	0x80001a37	-9.404e-42
220	0x8000a102	-5.7759e-41
221	0x8000aaf1	-6.1322e-41
222	0x80010775	-9.451e-41
223	0x80008b60	-4.9998e-41
224	0x80009683	-5.3993e-41
225	0x80001b09	-9.698e-42
226	0x80009aa6	-5.5477e-41
227	0x80009cbf	-5.623e-41
228	0x00003dd7	2.2184e-41
229	0x80006e78	-3.9629e-41
230	0x00009295	5.2584e-41
231	0x8000bbca	-6.7366e-41
232	0x80005cd7	-3.3305e-41
233	0x000065a7	3.6466e-41
234	0x80004470	-2.4551e-41
235	0x00004cb1	2.7512e-41
236	0x8000320b	-1.7952e-41
237	0x80003ab9	-2.1066e-41
238	0x00001258	6.58e-42
239	0x80006b7e	-3.8561e-41
240	0x8000f892	-8.917e-41
241	0x000059af	3.2172e-41
242	0x80008561	-4.7847e-41
243	0x8000a628	-5.9606e-41
244	0x800147f5	-1.17649e-40
245	0x8000bda6	-6.8033e-41
246	0x800110a6	-9.7808e-41
247	0x800047de	-2.5781e-41
248	0x80017b40	-1.36049e-40
249	0x80005b4c	-3.2751e-41
250	0x800218d0	-1.92572e-40
251	0x800063a4	-3.5744e-41
252	0x8000bc62	-6.7579e-41
253	0x0000ad7a	6.2232e-41
254	0x8000aa85	-6.1171e-41
255	0x000106c8	9.4268e-41

arith.constant4 f4 [5]
0	0xbf5c0f2c	-0.8596065
1	0x3e9b7ecf	0.30370185
2	0x3e80ed3f	0.25181004
3	0x3e928a78	0.28621268
4	0x3e8dffe2	0.27734286

arith.constant5 f4 [32]
0	0xbd84ec0e	-0.06490336
1	0xbd129eba	-0.035795905
2	0x3df74838	0.120743215
3	0x3d1f0746	0.038825296
4	0xbcdc4b24	-0.026891299
5	0xbccb3a60	-0.024808109
6	0xbd03a30c	-0.032137915
7	0xbd48076d	-0.048835207
8	0xbd2d02b8	-0.04223892
9	0xbd15cf25	-0.0365745
10	0xbd6942f2	-0.05694861
11	0xbccfed8d	-0.025381828
12	0xbcdc8f00	-0.026923656
13	0xbd8426da	-0.06452723
14	0xbd3b8d53	-0.045789074
15	0xbd9d62dc	-0.076848716
16	0xbd3baca9	-0.04581896
17	0xbd0d10d5	-0.03443988
18	0xbc3c93a3	-0.011509809
19	0xbc45fd9d	-0.012084392
20	0xbd2c8f76	-0.042129003
21	0xbcb8e038	-0.022567853
22	0xbd6c8a78	-0.05774924
23	0xbd634f8d	-0.055495787
24	0xbd171e5f	-0.0368942
25	0xbd5cf6b1	-0.0539462
26	0xbcfe04a8	-0.03100808
27	0xbd40525e	-0.04695355
28	0xbce1eed5	-0.027579704
29	0xbcf43a66	-0.029813003
30	0xbd0fcd1c	-0.035107717
31	0xbd3299e6	-0.0436038

sequential_12_1/conv2d_29_1/convolution f4 [32, 5, 5, 1]
0	0x3d0a2dae	0.03373497
1	0x3db32e50	0.08749068
2	0xbc54b8af	-0.012983485
3	0xbcea6635	-0.02861319
4	0xbd6e4978	-0.058175534
5	0x3b1917cd	0.0023360134
6	0xbdb36c6e	-0.08760916
7	0xbd81dede	-0.06341337
8	0x3d8de778	0.06928915
9	0xbb3ad920	-0.0028510764
10	0x3d1cf130	0.03831595
11	0xbd2be7b6	-0.041969024
12	0x3d4323ac	0.04764144
13	0x3d62781b	0.055290323
14	0xbd46d5d2	-0.04854376
15	0x3e4e6d93	0.20158987
16	0x3e34e22a	0.176644
17	0x3e8f082a	0.27935916
18	0x3e54c81a	0.20779458
19	0x3e86bc03	0.26315317
20	0x3dd53108	0.104097426
21	0x3e4710d3	0.19440012
22	0x3e500081	0.20312692
23	0x3e768013	0.24072294
24	0x3e0704ea	0.13185468
25	0x3dbe83c9	0.0930248
26	0x3dd59567	0.10428887
27	0x3d345613	0.0440274
28	0x3d5f4db3	0.05451746
29	0x3a15f296	0.0005720047
30	0x3da18de9	0.07888395
31	0xbb81042a	-0.003937264
32	0x3c784f1c	0.01515558
33	0x3bec5629	0.0072124195
34	0x3d4fe799	0.050757978
35	0x3cd6a5f1	0.026202174
36	0xbdb7f719	-0.08982677
37	0x3bbcb317	0.005758654
38	0xbc24ca43	-0.010057989
39	0xbc353cb0	-0.011061832
40	0x3ddb3345	0.10703138
41	0xbbfa00f2	-0.007629507
42	0xbc4ea434	-0.012612391
43	0x3ca0ed72	0.019644473
44	0x3d16389c	0.03667508
45	0x3e617c03	0.22019963
46	0x3e85620e	0.26051372
47	0x3e3d5b05	0.18491752
48	0x3e45bade	0.19309565
49	0x3e518d2f	0.20464014
50	0x3d64e9f7	0.05588719
51	0x3b156220	0.0022794083
52	0x3d7ffec2	0.062498815
53	0x3db0956a	0.086222485
54	0x3d86f825	0.065902986
55	0x3dd3be9f	0.103390925
56	0x3d9bf620	0.07615304
57	0x3ddf5a6b	0.10905918
58	0x3c435b3a	0.011923606
59	0x3cf74dbb	0.030188432
60	0x3d5e1e05	0.054227848
61	0x3e057f09	0.13036741
62	0xbc0159f9	-0.007894986
63	0x3ce5704f	0.028007654
64	0x3c552f32	0.0130117405
65	0x3df5d685	0.12003807
66	0x3e29174b	0.16512792
67	0x3e5907f5	0.21194442
68	0x3e248f63	0.16070323
69	0x3d8f788d	0.07005415
70	0x3e513dec	0.20433778
71	0x3e0036fb	0.12520973
72	0x3d5d0ce7	0.053967383
73	0x3e10490b	0.14090364
74	0x3e5a59d8	0.21323335
75	0x3e44035a	0.19141904
76	0x3e1b7c10	0.15184045
77	0x3e1a50ab	0.15069835
78	0x3dd405c0	0.10352659
79	0x3d299e8e	0.041410975
80	0x3e41c66b	0.18923347
81	0x3e55c680	0.20876503
82	0x3e4ad195	0.19806512
83	0x3e5c8793	0.21536092
84	0x3e1575a2	0.14595655
85	0xbdf0cd1d	-0.11757872
86	0xbded82a8	-0.11597186
87	0xbdd362f9	-0.10321612
88	0xbe08bde4	-0.13353688
89	0xbdd93976	-0.10606663
90	0x3c54416c	0.012955051
91	0xbd160ea5	-0.03663506
92	0x3dda3b3a	0.10655828
93	0x3dcd2564	0.10016897
94	0x3ded6964	0.11592367
95	0x3e4f53eb	0.20246856
96	0x3e98733e	0.29775423
97	0x3e9bb682	0.3041268
98	0x3ea6d622	0.32585245
99	0x3e889db9	0.26682833
100	0x3d2729b7	0.040811267
101	0x3c4dd1fd	0.012562272
102	0xbd25fc10	-0.04052359
103	0x3c2fd74b	0.010732482
104	0xbc1e12d9	-0.009648048
105	0x3d5d7bb8	0.054073066
106	0xbc628ddb	-0.013827766
107	0xbc2823ef	-0.0102624735
108	0xbb3ce133	-0.0028820753
109	0xbbf97385	-0.007612648
110	0x3e0bdbb1	0.13658024
111	0x3e575f04	0.2103234
112	0x3e8b5dc3	0.27219972
113	0x3e867173	0.2625843
114	0x3e243443	0.16035561
115	0x3cb9cc87	0.022680534
116	0x3d93cbc9	0.07216603
117	0x3d192672	0.03739018
118	0x3dd38f8d	0.103301145
119	0x3d48383a	0.048881747
120	0xbe509f54	-0.20373279
121	0xbe31ab6b	-0.17350547
122	0xbe0e22b5	-0.13880427
123	0xbe130038	-0.14355552
124	0xbe0d0124	-0.13769966
125	0x3cd205cb	0.025637528
126	0x3c6ae064	0.014335725
127	0x3e290537	0.16505896
128	0xbdb75b52	-0.08952965
129	0x3e25b48a	0.16182151
130	0x3e623648	0.22091019
131	0x3df4e053	0.11956849
132	0x3d272e20	0.040815473
133	0x3e9266e0	0.28594112
134	0x3d60a733	0.054846954
135	0x3e272109	0.16321196
136	0xbc16efbe	-0.009212432
137	0x3d85abbd	0.06526897
138	0xbe062ff9	-0.13104238
139	0x3a3e1310	0.00072507653
140	0xbebb9443	-0.36636552
141	0xbe81d3d6	-0.2535693
142	0xbe806038	-0.2507341
143	0xbe5a391e	-0.21310851
144	0xbd54c6b4	-0.05194731
145	0xbb7c3c19	-0.003848797
146	0xbe7c25a5	-0.24623735
147	0xbe0efe90	-0.13964295
148	0xbe43d916	-0.1912578
149	0xbea5ca2f	-0.32380816
150	0xbd36fa34	-0.044672206
151	0x3d140726	0.03613963
152	0xbd94f9e5	-0.07274226
153	0x3d61e283	0.05514766
154	0x3d49c6e9	0.04926196
155	0x3c09b83f	0.008405744
156	0x3da71801	0.08158875
157	0x3e19354d	0.14961739
158	0x3e49c3f7	0.19703661
159	0x3e044f1b	0.12920801
160	0x3e3e7276	0.18598351
161	0x3e93e3d9	0.2888477
162	0x3ea5025b	0.3222836
163	0x3e2d74ce	0.16939089
164	0x3e8e1e94	0.27757704
165	0xbe09f046	-0.13470563
166	0xbdd9e853	-0.106400155
167	0xbc6588b6	-0.014009645
168	0xbd215c38	-0.039394587
169	0xbdc5ece0	-0.09664321
170	0xbea28841	-0.31744578
171	0xbe891ecb	-0.26781306
172	0xbea2f9b2	-0.31831127
173	0xbe83c403	-0.25735483
174	0xbe4433d8	-0.19160402
175	0xbcea4011	-0.028595002
176	0x3c6d2b1b	0.014475609
177	0xbc8b6560	-0.017016113
178	0x3d5cf2db	0.053942543
179	0x3b041d2a	0.0020158985
180	0x3d8544c2	0.06507255
181	0x3c4a262f	0.012338205
182	0x3ddc16d6	0.10746543
183	0x3d35dda5	0.04440083
184	0x3e1b83fb	0.15187065
185	0xbdc51b80	-0.09624386
186	0x3c09f0ef	0.008419259
187	0x3d2d5048	0.04231289
188	0x3c70f270	0.014706239
189	0xbd8795f0	-0.06620395
190	0xbde641de	-0.11243032
191	0xbe8e451e	-0.27787107
192	0xbe825f50	-0.25463343
193	0xbe18b984	-0.14914519
194	0xbdc33b30	-0.095327735
195	0xbe6a533e	-0.22883317
196	0xbe5ce21a	-0.21570626
197	0xbe3a88d2	-0.18216255
198	0xbe47aa9b	-0.19498675
199	0xbe04bcc1	-0.12962629
200	0xbdf16ec3	-0.11788704
201	0xbc7b3421	-0.015332253
202	0xbdf7fb85	-0.121085204
203	0xbdae7b56	-0.08519618
204	0xbe2687e4	-0.16262776
205	0xbe071be7	-0.13194238
206	0xbe17ef2b	-0.14837329
207	0xbdbba6d8	-0.09162682
208	0xbe54423e	-0.20728394
209	0x3dd2f044	0.10299733
210	0x3d0e766f	0.034780916
211	0x3e0646d2	0.13112953
212	0xbd4ce3bf	-0.050021883
213	0xbbef0322	-0.0072940746
214	0xbd4933f1	-0.0491218
215	0xbe168fc4	-0.1470328
216	0xbe9430cf	-0.28943488
217	0xbe1a4c30	-0.15068126
218	0xbe495756	-0.19662222
219	0xbe26a6d3	-0.16274576
220	0xbea31911	-0.31855062
221	0xbeb4875d	-0.35259524
222	0xbe52572c	-0.20541066
223	0xbe866700	-0.26250458
224	0xbeb8cc3d	-0.3609332
225	0xbdf1c8a5	-0.11805848
226	0xbd919f5d	-0.07110474
227	0xbd62397f	-0.055230614
228	0x3d892810	0.066970944
229	0x3d1c8009	0.03820804
230	0x3e236d56	0.15959677
231	0x3d6f0ec4	0.05836369
232	0x3d56dcdf	0.052456733
233	0xbd4c9944	-0.049950853
234	0xbd868e3d	-0.065700985
235	0x3e462fd8	0.19354188
236	0x3e3026ac	0.17202252
237	0x3e5083f9	0.20362844
238	0x3e3b32db	0.18281119
239	0x3de9475b	0.11390563
240	0xbdc76e0e	-0.09737788
241	0xbc7c1041	-0.015384735
242	0xbd2993ac	-0.041400596
243	0x3e2b41c9	0.16724314
244	0x3dabd353	0.08389916
245	0x3d62060a	0.05518154
246	0xbd898196	-0.0671417
247	0xbe26e849	-0.16299547
248	0xbe093131	-0.13397671
249	0xbe2e1ee1	-0.17003967
250	0x3d2bb101	0.04191685
251	0xbd331353	-0.0437196
252	0x3da5da64	0.08098295
253	0x3d4ee217	0.050508585
254	0x3d90f3d9	0.0707776
255	0x3e603d84	0.21898466

sequential_12_1/conv2d_29_1/Relu;sequential_12_1/conv2d_29_1/BiasAdd;sequential_12_1/conv2d_29_1/convolution; f4 [32]
0	0xbef5603a	-0.47924978
1	0xbed21649	-0.41032627
2	0xbf0b5bc1	-0.5443688
3	0xbf755b65	-0.9584258
4	0xbeebd4f8	-0.4606092
5	0x3bf4d933	0.007472181
6	0xbdf9a1c1	-0.12189055
7	0x3c67b737	0.014142803
8	0xbbcac8d5	-0.006188492
9	0xbefa5366	-0.48891753
10	0x3d82fcb2	0.06395854
11	0xbf685002	-0.9074708
12	0xbeae2a21	-0.34016517
13	0xbf8466c4	-1.0343862
14	0xbf4c1273	-0.7971565
15	0xbf054ebc	-0.52073264
16	0xbeb847e5	-0.3599235
17	0xbea16e75	-0.31529585
18	0xbeeba2d5	-0.46022668
19	0xbb47799d	-0.0030437477
20	0xbed5f28e	-0.41786617
21	0xbf4aa993	-0.79165
22	0x3c13a001	0.009010316
23	0xbf2765a0	-0.6538944
24	0x3b33452b	0.002735446
25	0xbf25d300	-0.64775085
26	0xbf29bc41	-0.6630288
27	0x3b8e0d77	0.004335101
28	0xbf002e80	-0.50070953
29	0xbedf4fcf	-0.43615577
30	0xbf03e372	-0.5151893
31	0xbeff9d7d	-0.49924842
