Model/model_0/tf_lite_model.tflite (tflite, 137080 bytes, 12 tensors)

arith.constant f4 [32]
000000 f9 e6 62 bd b1 b4 ed 3e 8a 88 9b 3e 34 82 55 bd
       -0.055396054 0.4642692 0.3037761 -0.052126125
000010 2b ce 01 bf fa de 77 bd a7 41 1e be 25 72 fe 3b
       -0.5070521 -0.06051538 -0.15454732 0.007765072
000020 c1 3e d2 be 9c 2d e5 bd 39 42 35 3e ea 01 b4 be
       -0.41063502 -0.1119034 0.17701043 -0.3515771
000030 37 fd 20 3d be af a8 be 38 3a e3 bd a2 c0 5e be
       0.039303984 -0.3294658 -0.11095089 -0.21753171
000040 f1 ed b5 bd b0 66 ce bf 1a d7 3f bf af b2 c6 bc
       -0.08883274 -1.6125088 -0.74937594 -0.024255125
000050 d0 62 b2 bd 73 22 23 bf ec c7 98 3d d1 47 87 bc
       -0.08710253 -0.6372444 0.07460007 -0.016513737
000060 e1 0c de be 9c 44 72 3d 0b 9b 8c 3e 07 a3 95 bd
       -0.433692 0.059147462 0.27462038 -0.073064856
000070 14 6f 43 be 23 9e 1b be 48 1a d8 bd 02 e5 ac be
       -0.19085342 -0.15197043 -0.10551888 -0.3376847

arith.constant1 f4 [32]
000000 63 26 80 bc 0c d1 c8 bd 00 4e 92 bd 41 34 60 bd
       -0.015643304 -0.098054975 -0.071437836 -0.054737333
000010 4e 5e 8b be 0b dc b3 3e e0 71 cb 3c ec 2c ce 3d
       -0.27220386 0.35128817 0.024834573 0.10067162
000020 3e 73 f5 be 23 59 d3 bc 41 2d d4 bd b4 45 e9 bd
       -0.47939485 -0.02579934 -0.10360194 -0.11390248
000030 c1 86 0f 3e 51 41 41 bf 3b 3c cc 3d 55 a4 1a 3e
       0.14016248 -0.7549029 0.099724256 0.1510175
000040 93 2a 47 be 17 36 cc bc 5a 63 35 3f 4a bf 11 be
       -0.19449835 -0.024928136 0.70854723 -0.14233127
000050 65 4e fa bd f0 dd 5a bd c5 a2 8b 3c 07 c7 1e be
       -0.12221984 -0.053434312 0.017045388 -0.1550561
000060 a2 04 ba bd df e8 8f bb c2 39 ac 3d 57 dd d7 be
       -0.09082915 -0.004391774 0.08409454 -0.42161056
000070 5d 00 1f be bf 21 f6 bd 8a a0 6d be f8 91 4f bc
       -0.15527482 -0.12018155 -0.23205772 -0.012669079

arith.constant2 f4 [16]
000000 51 53 2f bc e8 97 d8 be b2 8b 1d bd 95 9c b3 bf
       -0.0107010165 -0.42303395 -0.038463302 -1.403216
000010 57 b1 3a be 37 c1 80 3e 56 12 17 b9 a5 7d 07 bf
       -0.18231712 0.2514741 -0.00014407313 -0.52926093
000020 41 ed 7f 3e 1f a2 d9 be 8b a0 44 3e 8e ee 2a be
       0.24992849 -0.425065 0.19201867 -0.16692564
000030 e5 c5 07 bd 1c 63 94 3e bf c6 9e bc 67 7f 07 be
       -0.03314771 0.28981864 -0.019381879 -0.13232194

arith.constant3 f4 [32, 3, 3, 32]
000000 1d 42 01 80 eb 87 00 80 00 53 00 80 f1 41 00 80
       -1.15552e-40 -4.8758e-41 -2.9775e-41 -2.3655e-41
000010 3f 03 01 00 b7 81 00 00 3c e2 01 00 b1 85 03 80
       9.3e-41 4.6533e-41 1.72993e-40 -3.23466e-40
000020 85 78 01 00 79 1d 02 80 6d 10 02 00 24 2e 00 00
       1.3507e-40 -1.94244e-40 1.89563e-40 1.6552e-41
000030 10 03 02 00 45 64 01 00 04 b5 01 00 c2 ee 00 00
       1.8477e-40 1.27805e-40 1.56772e-40 8.565e-41
000040 8c 4c 01 80 4e 64 02 00 d3 3f 00 80 72 24 00 80
       -1.19295e-40 2.19654e-40 -2.2896e-41 -1.3074e-41
000050 61 81 00 00 53 49 00 00 df 6f 00 80 fe 80 01 80
       4.6412e-41 2.6304e-41 -4.0132e-41 -1.38109e-40
000060 ba fa 00 00 e2 62 01 00 d6 04 00 00 e4 c0 00 00
       8.9944e-41 1.27308e-40 1.735e-42 6.9196e-41
000070 da 34 01 00 c6 0b 00 00 43 b9 00 00 96 93 00 00
       1.10795e-40 4.224e-42 6.646e-41 5.2944e-41
000080 46 70 00 80 a0 62 00 80 4d ef 00 00 85 85 00 80
       -4.0276e-41 -3.538e-41 8.5845e-41 -4.7898e-41
000090 e0 16 00 80 79 86 00 80 8c a3 01 00 2a a3 00 80
       -8.206e-42 -4.824e-41 1.50505e-40 -5.8532e-41
0000a0 76 cb 02 00 c2 a5 00 80 1e 5d 01 00 e9 e4 00 80
       2.56659e-40 -5.9463e-41 1.2524e-40 -8.2117e-41
0000b0 8c 99 02 00 33 74 01 00 3a 0d 00 80 70 ff 00 80
       2.38753e-40 1.3352e-40 -4.745e-42 -9.1634e-41
0000c0 f0 37 00 80 ac a7 02 00 72 88 00 80 45 4f 00 00
       -2.0067e-41 2.4382e-40 -4.8947e-41 2.8437e-41
0000d0 d5 ce 00 00 01 62 02 00 14 87 00 00 28 17 01 00
       7.4197e-41 2.18828e-40 4.8457e-41 1.00142e-40
0000e0 7c 5e 00 00 92 34 03 00 23 6d 02 00 f0 9c 01 00
       3.3895e-41 2.94365e-40 2.22822e-40 1.48134e-40
0000f0 3d 1c 00 80 4b 1c 00 00 57 8d 00 00 37 a0 00 00
       -1.013e-41 1.015e-41 5.0703e-41 5.7474e-41
000100 49 5a 00 80 d6 4e 00 00 a8 21 01 80 3f 25 01 80
       -3.2388e-41 2.8281e-41 -1.03909e-40 -1.05197e-40
000110 dd ae 00 00 41 96 00 00 22 6e 01 00 34 d4 00 80
       6.2729e-41 5.3901e-41 1.31344e-40 -7.6124e-41
000120 dc b4 00 00 be 21 01 00 44 b6 00 00 cb 4a 00 00
       6.488e-41 1.0394e-40 6.5385e-41 2.683e-41
000130 db 24 01 00 df 78 00 00 cd aa 01 80 be b6 00 00
       1.05057e-40 4.336e-41 -1.53107e-40 6.5556e-41
000140 b3 6d 00 00 8b 9d 00 80 70 67 00 00 e7 4e 00 80
       3.9353e-41 -5.6516e-41 3.7106e-41 -2.8305e-41
000150 f5 6a 00 00 cf 8a 00 80 f3 4b 00 00 07 6c 01 00
       3.8369e-41 -4.9795e-41 2.7245e-41 1.30588e-40
000160 f2 04 00 80 b5 08 00 80 a9 48 01 00 fa 06 00 00
       -1.774e-42 -3.123e-42 1.17901e-40 2.503e-42
000170 ac 2d 00 00 54 ca 00 00 ac cf 00 80 a0 3d 00 80
       1.6384e-41 7.2582e-41 -7.4499e-41 -2.2107e-41
000180 d0 66 00 00 7b 64 00 00 9e 2f 00 80 b2 14 01 80
       3.6882e-41 3.6046e-41 -1.7082e-41 -9.926e-41
000190 a0 42 01 00 e5 3a 00 00 fe cb 00 00 1a 6a 01 80
       1.15736e-40 2.1127e-41 7.3179e-41 -1.29898e-40
0001a0 39 40 01 80 fe f1 00 00 88 f4 01 00 b0 d4 01 00
       -1.14874e-40 8.681e-41 1.79557e-40 1.68133e-40
0001b0 c3 17 02 00 1f c6 01 00 a6 6e 01 00 0a 51 03 00
       1.92195e-40 1.62908e-40 1.31529e-40 3.04578e-40
0001c0 16 cf 01 00 9c 9b 01 00 bf ae 00 00 ac 04 00 80
       1.66124e-40 1.47658e-40 6.2687e-41 -1.676e-42
0001d0 a9 bb 00 00 96 10 00 80 56 b8 00 80 9c 79 01 80
       6.732e-41 -5.95e-42 -6.6127e-41 -1.35461e-40
0001e0 7a af 02 00 00 fa 02 00 ec c3 01 00 b3 7b 00 80
       2.4662e-40 2.73354e-40 1.62119e-40 -4.4375e-41
0001f0 a1 2f 00 00 8a 20 01 00 d6 74 00 00 8a 08 01 00
       1.7086e-41 1.03508e-40 4.1913e-41 9.4899e-41
000200 d9 f2 00 00 6d 2b 00 80 98 33 01 00 60 73 00 80
       8.7117e-41 -1.5578e-41 1.10344e-40 -4.1389e-41
000210 fb eb 00 00 4f 4b 01 00 ae bf 00 00 bd 5f 01 00
       8.4654e-41 1.18851e-40 6.8762e-41 1.2618e-40
000220 17 4f 03 00 1a c0 02 00 8c 76 02 00 8f a5 00 00
       3.03879e-40 2.52584e-40 2.26198e-40 5.9391e-41
000230 64 b6 00 00 5c 39 00 00 d6 37 01 00 e4 81 00 00
       6.543e-41 2.0577e-41 1.11866e-40 4.6596e-41
000240 a9 47 00 80 ca 8f 00 80 59 de 00 00 ef 8f 00 00
       -2.5707e-41 -5.1582e-41 7.9763e-41 5.1634e-41
000250 fe 2c 00 00 de e1 00 00 5e 57 00 00 ca 08 00 80
       1.614e-41 8.1026e-41 3.1341e-41 -3.153e-42
000260 ac 32 01 80 f1 7c 00 80 d6 89 02 80 a1 ac 00 00
       -1.10013e-40 -4.482e-41 -2.33117e-40 6.1928e-41
000270 b0 d1 00 80 d5 30 00 00 10 4c 00 80 f1 2d 00 00
       -7.5222e-41 1.7518e-41 -2.7286e-41 1.648e-41
000280 64 16 03 80 b8 ee 00 80 be 85 00 80 0d 21 01 80
       -2.83539e-40 -8.5636e-41 -4.7978e-41 -1.03692e-40
000290 48 8f 01 00 9b a6 00 80 44 9c 00 00 68 5c 01 80
       1.43235e-40 -5.9767e-41 5.6058e-41 -1.24985e-40
0002a0 b9 03 00 80 e9 bd 03 00 19 1e 01 80 aa 10 00 80
       -1.335e-42 3.43633e-40 -1.02633e-40 -5.978e-42
0002b0 d3 09 01 00 05 05 00 80 11 1b 00 80 2e 5b 00 80
       9.536e-41 -1.8e-42 -9.71e-42 -3.2709e-41
0002c0 2a 0a 00 80 91 12 00 80 36 51 03 00 e8 99 00 00
       -3.646e-42 -6.66e-42 3.0464e-40 5.5211e-41
0002d0 60 12 01 80 f1 74 00 00 2c 9d 02 00 26 e8 00 80
       -9.8427e-41 4.195e-41 2.40054e-40 -8.3279e-41
0002e0 62 2d 00 80 33 d5 00 00 33 4b 00 00 cc 22 00 00
       -1.628e-41 7.6481e-41 2.6976e-41 1.2483e-41
0002f0 d9 0a 00 00 a1 d6 00 00 6d 5d 00 00 3c 0c 00 00
       3.891e-42 7.6994e-41 3.3515e-41 4.389e-42
000300 40 4e 01 00 11 8c 00 00 2b ca 01 80 8f 3c 02 80
       1.19906e-40 5.0246e-41 -1.6436e-40 -2.05395e-40
000310 1c 18 01 00 a7 6d 00 00 c2 c6 00 00 39 b7 00 00
       1.00484e-40 3.9336e-41 7.1301e-41 6.5728e-41
000320 dd 59 00 00 bc d2 01 00 84 05 01 00 86 d1 00 00
       3.2237e-41 1.67433e-40 9.3814e-41 7.5163e-41
000330 bf 7e 03 00 c5 46 00 80 41 06 00 80 bb 84 00 00
       3.20974e-40 -2.5387e-41 -2.243e-42 4.7615e-41
000340 dc 75 00 00 4b 1d 01 00 3b 2e 02 00 9e b1 00 80
       4.228e-41 1.02344e-40 2.00255e-40 -6.3717e-41
000350 66 81 00 00 ae a5 00 00 67 6a 02 00 bb 22 01 00
       4.642e-41 5.9435e-41 2.21841e-40 1.04294e-40
000360 83 96 00 80 15 45 01 80 c5 e9 00 80 0e 60 01 00
       -5.3993e-41 -1.16617e-40 -8.3861e-41 1.26293e-40
000370 75 4e 01 00 3d 89 03 00 3a 32 01 00 5b 50 03 00
       1.1998e-40 3.24738e-40 1.09853e-40 3.04333e-40
000380 b2 92 00 80 9b 34 02 00 f3 e5 00 80 a1 64 00 00
       -5.2624e-41 2.02542e-40 -8.249e-41 3.6099e-41
000390 72 27 03 80 8d 9d 00 80 e5 c5 02 00 07 98 00 00
       -2.89657e-40 -5.6519e-41 2.54662e-40 5.4537e-41
0003a0 d8 b4 00 00 d0 ce 00 00 0f e9 01 00 27 21 01 00
       6.4875e-41 7.419e-41 1.75441e-40 1.03728e-40
0003b0 c1 9a 01 00 d4 3e 00 00 7e 64 03 00 24 90 00 00
       1.47351e-40 2.2538e-41 3.11556e-40 5.1708e-41
0003c0 a0 15 03 80 99 86 02 00 a6 d3 00 00 f6 21 00 00
       -2.83264e-40 2.31956e-40 7.5925e-41 1.2183e-41
0003d0 e4 62 00 80 7a 5e 00 80 24 85 00 80 c8 fd 01 80
       -3.5475e-41 -3.3892e-41 -4.7762e-41 -1.82875e-40
0003e0 12 7e 00 80 ac cb 01 00 9a e7 00 00 ba 53 01 00
       -4.5226e-41 1.64899e-40 8.3083e-41 1.21871e-40
0003f0 2e 4e 02 00 86 56 00 80 ba 02 02 00 62 c3 02 00
       2.11717e-40 -3.1039e-41 1.84649e-40 2.53761e-40

arith.constant4 f4 [32, 3, 3, 16]
000000 ee 2e a9 bd 0c 9a 04 00 b1 0c 01 00 fa 3d 2c bd
       -0.08260904 4.22604e-40 9.6388e-41 -0.042051293
000010 ae c1 a8 3c 24 cd 0a be 84 05 01 00 3b c2 96 3d
       0.020600166 -0.13554817 9.3814e-41 0.07361265
000020 3b ae 65 bd 36 41 df bc db 98 2f bc 11 f4 8b bc
       -0.056074362 -0.027252775 -0.010717596 -0.017084153
000030 6e 85 00 80 8c 4f 26 bb 2d ce 00 80 fe b8 01 80
       -4.7866e-41 -0.0025377003 -7.3962e-41 -1.58198e-40
000040 4b c7 81 bd 8d dd 02 00 fe 50 00 80 0a 05 d6 bc
       -0.0633684 2.63148e-40 -2.9055e-41 -0.02612545
000050 ff c6 52 bd 55 28 18 bd 47 ca 00 80 51 05 9d 3d
       -0.05145931 -0.03714784 -7.2563e-41 0.0766703
000060 b6 3e bc 3d 74 28 f4 3d 51 3a 1d bd ac f0 55 bc
       0.09191649 0.11921778 -0.038385693 -0.013057869
000070 be c5 00 80 d3 22 f5 bd 63 51 00 00 39 d4 01 80
       -7.0937e-41 -0.11969533 2.9196e-41 -1.67967e-40
000080 37 bc 6f 3c a7 92 02 00 dd 1f 02 00 db c9 77 bc
       0.014632276 2.3628e-40 1.95101e-40 -0.01512381
000090 5a 0e e5 3c 24 8b bd 3c 90 6b 01 80 d0 9b 4f bd
       0.027960945 0.023137636 -1.30422e-40 -0.050685704
0000a0 f8 48 c8 39 63 b9 9a 3c 57 96 b8 3c 9e 9c 43 bc
       0.0003820134 0.018887227 0.022532625 -0.011939196
0000b0 2f 47 01 80 7e 31 47 bd 14 77 02 00 65 03 03 80
       -1.17371e-40 -0.048631184 2.26388e-40 -2.76724e-40
0000c0 79 60 ea 3b a8 e6 01 00 89 5b 02 00 10 eb a0 3c
       0.0071526137 1.7458e-40 2.16508e-40 0.019643337
0000d0 48 ca 13 3c 85 6f bd 3d 6c 57 00 80 d0 8f 30 bc
       0.009020396 0.09249786 -3.1361e-41 -0.010776475
0000e0 63 14 9d 3d 58 19 46 bc 05 f7 36 3c fb 3e 9d 3d
       0.07669904 -0.012091003 0.0111672925 0.07678028
0000f0 9c b4 00 80 10 94 82 bd b3 4e 01 80 ce aa 01 00
       -6.479e-41 -0.06375897 -1.20067e-40 1.53109e-40
000100 38 c8 4b 3c a8 a4 01 00 bd 81 03 80 88 89 ea 3a
       0.012437873 1.50903e-40 -3.22048e-40 0.0017893771
000110 b4 c7 61 bd 9d 4f 80 3d 64 cf 03 00 b9 bc 42 3d
       -0.055122092 0.06265185 3.49904e-40 0.04754326
000120 e2 3b 82 3d 15 c1 c7 bd 0e ea c8 3d 3e 82 8d 3b
       0.06359078 -0.09753624 0.098102674 0.0043185046
000130 07 ec 00 00 bc fb a7 bc be f8 00 80 dd 9c 00 00
       8.467e-41 -0.020505778 -8.9232e-41 5.6272e-41
000140 f3 b7 f3 3c 20 dc 01 00 b8 ca 00 80 9c b0 a7 3b
       0.0297508 1.70801e-40 -7.2722e-41 0.005117489
000150 7f a6 88 bd 43 60 c3 3d a5 fc 00 80 e8 2d dc 3d
       -0.066723816 0.09539845 -9.0632e-41 0.107509434
000160 0a 85 4f bd 7b f4 64 bd de dd 57 bd b5 a8 66 bd
       -0.050663985 -0.055897217 -0.052701823 -0.056313235
000170 4f 95 00 80 46 c5 04 bd f5 73 00 00 73 09 03 00
       -5.3562e-41 -0.032414697 4.1598e-41 2.78896e-40
000180 ce ab cd 3c ed 1b 02 00 c6 3a 01 80 a9 79 b1 3c
       0.025106337 1.93689e-40 -1.1292e-40 0.021664457
000190 45 f9 4e 3d 79 7b c2 3c c5 f6 02 80 6e b3 81 bd
       0.05053069 0.023740517 -2.72195e-40 -0.063330516
0001a0 34 e3 df bc 9b ed 0b 3d ab 28 15 3e 48 b5 d0 bd
       -0.027330019 0.034162145 0.14566295 -0.10190827
0001b0 6a a6 00 80 ac a9 a8 bd 56 09 00 80 3d 8f 00 00
       -5.9698e-41 -0.08235487 -3.349e-42 5.1384e-41
0001c0 be 68 aa bc 09 b0 02 80 6c dd 00 00 5f ba b6 3c
       -0.020801898 -2.4682e-40 7.9431e-41 0.022305666
0001d0 22 f4 84 3d 8c 96 14 3d 4e 36 02 00 95 5e b7 bd
       0.06491877 0.036276385 2.03152e-40 -0.08953587
0001e0 10 06 0f be be 3e fa bc f2 e4 5b 3d 2c 8f a4 bd
       -0.13967156 -0.030547496 0.053685136 -0.0803512
0001f0 18 1d 00 00 4a 67 d6 bd 2d f3 00 00 ca f3 01 80
       1.0437e-41 -0.104689196 8.7235e-41 -1.7929e-40
000200 4d 88 66 bd 24 65 02 80 5a 76 01 00 27 b8 44 bb
       -0.05628233 -2.19953e-40 1.34292e-40 -0.003001699
000210 15 a3 18 3e f9 34 e0 3a 4f 54 01 80 11 5c 93 bd
       0.14905961 0.0017105631 -1.2208e-40 -0.07195295
000220 d3 64 9d bd dc ef 87 bd cb cf 92 3c 9b 04 23 bd
       -0.07685246 -0.066375464 0.017921349 -0.039799314
000230 b9 46 00 00 36 0d a9 bd a5 6a 00 80 99 03 01 80
       2.537e-41 -0.08254473 -3.8257e-41 -9.3126e-41
000240 57 3c 00 80 e2 83 01 80 0b 41 01 80 c8 90 00 00
       -2.1646e-41 -1.39146e-40 -1.15169e-40 5.1938e-41
000250 18 03 02 00 7a ab 00 00 6f 84 03 00 12 82 00 80
       1.84781e-40 6.1514e-41 3.23015e-40 -4.666e-41
000260 ad 03 01 00 68 55 00 80 6a 52 00 00 af 96 03 00
       9.3154e-41 -3.0638e-41 2.9565e-41 3.29562e-40
000270 59 7c 00 00 07 51 00 00 92 3d 01 80 8d 84 01 00
       4.4608e-41 2.9067e-41 -1.13923e-40 1.39386e-40
000280 42 7d 00 80 f9 e7 01 00 dd 14 00 80 ef 6c 01 00
       -4.4934e-41 1.75052e-40 -7.484e-42 1.30914e-40
000290 f6 d0 01 00 f2 32 00 80 ab 02 02 00 c5 85 00 80
       1.66797e-40 -1.8276e-41 1.84628e-40 -4.7987e-41
0002a0 c0 97 00 00 ab 25 01 80 b8 fe 00 80 48 63 01 00
       5.4438e-41 -1.05348e-40 -9.1376e-41 1.27451e-40
0002b0 0d 55 00 80 96 8c 00 80 70 84 00 00 8a b6 00 00
       -3.051e-41 -5.0433e-41 4.751e-41 6.5483e-41
0002c0 86 af 02 00 5c 66 02 00 6b e4 00 00 2b 6b 00 80
       2.46637e-40 2.2039e-40 8.1941e-41 -3.8445e-41
0002d0 05 6c 01 80 84 33 00 80 b4 99 00 00 7d 03 00 80
       -1.30586e-40 -1.848e-41 5.5138e-41 -1.251e-42
0002e0 22 ea 00 80 bc 8e 00 00 57 36 00 80 b4 85 01 00
       -8.3991e-41 5.1203e-41 -1.9493e-41 1.39799e-40
0002f0 93 12 00 80 49 e6 00 80 84 7b 00 80 c1 64 01 00
       -6.663e-42 -8.2611e-41 -4.4309e-41 1.27979e-40
000300 b7 b0 02 00 78 1b 01 80 00 4c 02 80 6a e3 00 00
       2.47064e-40 -1.0169e-40 -2.10935e-40 8.1581e-41
000310 1a 90 00 00 a3 3f 00 80 6c e8 00 80 3b 6c 00 80
       5.1694e-41 -2.2829e-41 -8.3377e-41 -3.8826e-41
000320 51 b6 00 00 f8 00 00 00 4c 24 03 00 1a dd 02 00
       6.5403e-41 3.48e-43 2.88527e-40 2.62987e-40
000330 70 6d 03 80 46 7d 01 00 d0 7d 03 80 21 93 01 80
       -3.14765e-40 1.36775e-40 -3.2064e-40 -1.44615e-40
000340 d3 6c 00 80 3f 19 02 00 c3 be 02 00 5d 76 00 00
       -3.9039e-41 1.92728e-40 2.52103e-40 4.2461e-41
000350 77 04 01 80 e4 d2 03 80 16 1b 02 00 0d db 00 80
       -9.3437e-41 -3.5116e-40 1.93388e-40 -7.858e-41
000360 ec 33 00 80 e2 f6 00 00 94 d2 02 00 ff 61 01 00
       -1.8626e-41 8.8565e-41 2.59212e-40 1.2699e-40
000370 44 8d 01 00 11 61 00 80 a2 20 02 80 4a 39 00 80
       1.42512e-40 -3.4821e-41 -1.95377e-40 -2.0551e-41
000380 30 7d 01 80 7a 09 03 80 e6 9f 00 80 e3 ee 02 80
       -1.36744e-40 -2.78906e-40 -5.7361e-41 -2.69367e-40
000390 80 af 00 80 7e 8f 00 00 38 27 01 80 0f ed 00 80
       -6.2958e-41 5.1475e-41 -1.05905e-40 -8.504e-41
0003a0 6f 1b 00 00 77 34 01 00 a5 62 00 80 93 b1 01 00
       9.841e-42 1.10656e-40 -3.5387e-41 1.55537e-40
0003b0 bd a7 01 00 57 00 00 80 3d d4 00 80 0f c4 01 80
       1.52009e-40 -1.22e-43 -7.6137e-41 -1.62168e-40
0003c0 e8 8b 03 00 70 3d 01 80 db c8 03 00 76 a5 00 80
       3.25695e-40 -1.13875e-40 3.4756e-40 -5.9356e-41
0003d0 af 72 03 00 9b 8e 00 80 47 82 01 80 d9 bb 00 80
       3.16647e-40 -5.1157e-41 -1.3857e-40 -6.7387e-41
0003e0 2c 72 02 00 d8 27 00 00 7d 6b 00 80 c9 79 00 00
       2.24628e-40 1.4293e-41 -3.856e-41 4.3688e-41
0003f0 97 62 00 00 24 b7 00 80 d9 98 02 00 49 1a 01 80
       3.5367e-41 -6.5698e-41 2.38502e-40 -1.01265e-40

arith.constant5 f4 [16, 5, 5, 16]
000000 29 f2 8d 3c 39 83 64 bd 03 81 01 80 f9 cd 00 00
       0.017327385 -0.055789206 -1.38116e-40 7.3889e-41
000010 06 28 14 3d a8 aa 9a 3d a7 48 00 00 ee d2 01 80
       0.03617098 0.07552081 2.6063e-41 -1.67503e-40
000020 2b 44 2c 3d f1 2b 02 80 b6 be 5f bd d1 cb 40 3d
       0.042057198 -1.99434e-40 -0.054625235 0.047069374
000030 43 0f 01 bd 73 9b 87 3d 4f 35 6b 3c e8 5b c4 3c
       -0.031508695 0.066214465 0.0143559715 0.023969606
000040 f7 7e e4 3b 0d a0 85 bd 27 a5 00 00 28 0a 01 80
       0.006973143 -0.06524668 5.9245e-41 -9.5479e-41
000050 c3 2a 07 3d cb 0b b3 3d 8b 46 01 00 3c ea 01 80
       0.032999765 0.08742484 1.17142e-40 -1.75863e-40
000060 46 b9 0e bc f1 c6 01 80 ba 8e 58 bd 4b 3f ef 3c
       -0.008711165 -1.63202e-40 -0.05287049 0.029204985
000070 ff 4f ae bc 77 17 0f 3d de 2d 2a 3d bb 45 cf bb
       -0.02127838 0.034934487 0.04154765 -0.006325451
000080 ff 68 15 bd 69 36 6c bd db 45 00 00 fd b0 01 80
       -0.036477085 -0.057669077 2.506e-41 -1.55327e-40
000090 ef 25 45 3d 90 60 51 3d 26 26 01 00 62 5e 02 80
       0.04813188 0.05111748 1.0552e-40 -2.17529e-40
0000a0 73 61 ba bc 3d dc 01 80 69 2f 72 bd b1 8b a2 3d
       -0.022751546 -1.70842e-40 -0.059127245 0.079368
0000b0 92 df e2 bc 46 55 30 3c 0a 08 c0 3c 6e 09 b8 bc
       -0.027694497 0.010762518 0.023441333 -0.022465434
0000c0 80 96 eb bc 3c 3e 43 bd fc ca 03 00 46 4a 01 80
       -0.028758287 -0.047666773 3.48324e-40 -1.1848e-40
0000d0 df 0c 21 3d f1 a1 a2 3d b8 e5 00 00 06 67 02 80
       0.039318915 0.07941044 8.2408e-41 -2.20629e-40
0000e0 5d d2 0b 3b 30 d3 01 80 47 96 64 bd 3a b3 3f 3d
       0.0021335103 -1.67595e-40 -0.05580738 0.046801783
0000f0 b8 3d e7 bc c4 6e 3c 3c 2c ed a0 3d af 70 86 bc
       -0.028227672 0.011501018 0.07857737 -0.016411154
000100 aa 8a 55 bd b4 9d 75 bd e5 fc 00 00 d1 61 06 80
       -0.052134193 -0.05996485 9.0721e-41 -5.86103e-40
000110 50 31 60 bb 42 b6 7f 3d 97 3e 00 80 ac 4b 01 00
       -0.003420908 0.062429674 -2.2453e-41 1.18981e-40
000120 d0 69 f6 3c e5 c4 00 00 c7 0b 5a bd 12 d8 00 3d
       0.030079752 7.0632e-41 -0.053233888 0.03145606
000130 ca 7c dc bc e0 72 34 bd 70 1d 0f bd e7 fb b3 bc
       -0.026914973 -0.044054866 -0.034940183 -0.021970702
000140 5c 67 38 bc 1f fc 76 3b 54 48 02 00 fe 3e 02 80
       -0.011255112 0.0037686897 2.09617e-40 -2.06268e-40
000150 c8 97 0b bc 8a eb 26 bc 9e df 00 80 aa 96 01 80
       -0.008520074 -0.010187993 -8.0219e-41 -1.45884e-40
000160 fc 24 ce bd 5d 32 03 00 48 b6 a9 bc 0c d1 3e 3c
       -0.10065648 2.93573e-40 -0.020716801 0.01164652
000170 a7 0c 15 3c 1b c2 00 be 5b 32 85 bc e5 2b 2b bc
       0.009097255 -0.12574045 -0.016259363 -0.010447477
000180 de 16 61 ba 12 f3 a5 3a 6c c6 03 80 7c e5 00 00
       -0.00085864763 0.0012660942 -3.46687e-40 8.2323e-41
000190 b7 3e 61 bc 55 d1 a5 bc 0a 29 03 00 fe 83 01 80
       -0.013747863 -0.020241419 2.90229e-40 -1.39185e-40
0001a0 55 af dd bd 09 42 01 00 17 1e 3a bd 8e 29 60 3c
       -0.108244576 1.15524e-40 -0.045438852 0.013681782
0001b0 2b 44 84 3c 64 0c 00 be a2 61 f5 bc dc 6b 5c 3c
       0.016145786 -0.12504727 -0.029953782 0.01345345
0001c0 61 ad ff 3b cc 04 aa 3b 04 80 03 00 ca 59 07 00
       0.007802651 0.00518856 3.2143e-40 6.75059e-40
0001d0 80 03 59 bc 83 91 66 bc f6 e6 00 00 17 b2 01 80
       -0.013245463 -0.014072779 8.2853e-41 -1.55722e-40
0001e0 19 77 cf bd b2 5e 03 00 94 59 09 bd a6 d8 0b 3d
       -0.10130138 3.09477e-40 -0.033532694 0.03414216
0001f0 53 2a 6d 3c d0 5a 01 be 84 3c 96 3c 8e 8a 01 3d
       0.014475423 -0.12632298 0.018339403 0.031626277
000200 bb c4 57 bc ea 22 92 bb 75 49 03 80 22 e9 00 00
       -0.013169463 -0.0044597285 -3.01858e-40 8.3632e-41
000210 52 71 aa bb cb 84 3d bc 66 3b 00 80 c6 ff 0e 80
       -0.005201497 -0.011567305 -2.1308e-41 -1.377451e-39
000220 b0 a9 ba bd 6f 1f 02 80 ea df 7c bd e8 7f 1a 3d
       -0.091143966 -1.94947e-40 -0.06173698 0.037719637
000230 6e 21 f2 39 b3 0b d5 bd 95 b7 5a 3c ed b3 9f 3c
       0.00046182744 -0.10402622 0.013349433 0.019494975
000240 1a 6e 8f bd d9 28 77 bd 06 00 01 00 d6 8f 00 00
       -0.07003422 -0.06034169 9.1844e-41 5.1599e-41
000250 54 a9 9e bb c7 6e f8 bc 65 d2 00 00 fc 71 08 80
       -0.004841963 -0.03032626 7.5475e-41 -7.75574e-40
000260 ea 84 9e bd 1b 9f 01 00 6e 88 ed bc 9c f7 36 3d
       -0.07740195 1.48912e-40 -0.028995719 0.044669732
000270 4b 74 b9 bc 54 b0 7d bd 67 b7 80 bd c4 af 1e bd
       -0.02263846 -0.061935738 -0.06284981 -0.038741842
000280 b8 6d 84 bc 9d 5c 28 bd c5 35 03 00 7e 28 02 80
       -0.0161656 -0.041103948 2.94795e-40 -1.98197e-40
000290 40 32 7e 3a d2 e4 ae bc c6 5b 02 80 5d e3 04 00
       0.0009696819 -0.021349344 -2.16593e-40 4.48905e-40
0002a0 3b d5 20 3d 02 59 00 80 77 73 44 bd c5 c1 c9 bc
       0.039265852 -3.193e-41 -0.04796168 -0.02462853
0002b0 9c 20 30 bc 9e 9b 46 bd 69 1d a7 bc 3d 41 c6 bb
       -0.010749962 -0.048488252 -0.020399766 -0.0060502575
0002c0 a3 0d bc bc 9a e0 2e bd 91 0a 00 80 4c 3b 00 00
       -0.022955721 -0.042694665 -3.79e-42 2.1272e-41
0002d0 5d 2d e9 bb 6b 4f af bc 63 3f 00 80 41 b3 0a 00
       -0.0071160034 -0.021400174 -2.2739e-41 9.82659e-40
0002e0 7d fc 8e 3d a5 d4 03 80 e8 b9 83 bd 86 82 3b bc
       0.06981752 -3.51789e-40 -0.06431943 -0.011444693
0002f0 af 9f 06 bd ac a7 6a bd 04 53 50 bd 83 0f 35 bc
       -0.03286713 -0.05728881 -0.05086042 -0.011051062
000300 81 f2 9e bc 91 a7 f9 ba a1 74 01 00 1b e3 03 80
       -0.019402744 -0.0019047131 1.33674e-40 -3.56977e-40
000310 47 67 a7 3c 63 d4 fb bc 27 83 02 80 49 48 05 00
       0.020434989 -0.030740922 -2.3072e-40 4.85109e-40
000320 e2 d1 bf 3d 90 b6 01 80 5f 36 10 bd d7 ff c6 3c
       0.09366204 -1.57327e-40 -0.035208102 0.024291916
000330 38 95 0d bc e9 39 87 bd bc 71 14 3b 60 67 49 bc
       -0.008641534 -0.06602842 0.0022650799 -0.012292713
000340 79 97 8f bb 02 1e 7f 3a d8 65 02 80 fb 9c 00 80
       -0.0043820706 0.00097319495 -2.20206e-40 -5.6314e-41
000350 57 23 99 3a 6d 39 f3 bc 69 92 02 80 a6 03 01 80
       0.0011683506 -0.029690469 -2.36193e-40 -9.3144e-41
000360 e9 ce c7 3d 74 5d 00 00 f6 6a 26 bd 37 d0 ad 3b
       0.09756262 3.3525e-41 -0.04062935 0.005304362
000370 64 f5 6e bc 61 3b 95 bd cc c6 97 3c b7 3c 0c 3c
       -0.014584873 -0.07286716 0.01852741 0.008559397
000380 61 9f e2 39 cd 42 bd 3a bd 7b 00 00 b4 d0 02 00
       0.00043224826 0.0014439464 4.4389e-41 2.5854e-40
000390 f6 e3 9b bc 33 43 70 bd bf b8 02 80 1a 41 04 00
       -0.019029599 -0.058657836 -2.49945e-40 3.90696e-40
0003a0 bf f8 34 3d 2d 52 03 00 7c 84 63 bd be 51 60 3b
       0.044182535 3.04986e-40 -0.05554627 0.003422841
0003b0 06 67 11 bd a1 e1 bf bd 47 44 11 bd 8e 93 25 bc
       -0.03549864 -0.09369207 -0.035465505 -0.010105981
0003c0 79 3a 7e bd 45 16 5f bd bc bc 01 00 3e f2 02 80
       -0.062067483 -0.054464597 1.5954e-40 -2.70571e-40
0003d0 2c 41 0f bd b3 fe 91 3c 12 d0 01 00 a4 25 03 80
       -0.034974262 0.017821645 1.66477e-40 -2.8901e-40
0003e0 a0 3d 67 3d ab 21 00 00 88 fe c7 3c bf 8c 40 3b
       0.056455255 1.2078e-41 0.024413362 0.0029380766
0003f0 26 3a 8a bc ba a2 9e bb 11 7a b9 bc 83 09 d6 ba
       -0.01687343 -0.004841176 -0.022641214 -0.0016329739

arith.constant6 f4 [5, 32]
000000 14 c9 00 c0 39 4c 03 c0 38 43 3b c0 12 ab d0 3f
       -2.0122728 -2.0515273 -2.9259777 1.6302207
000010 3d 34 a2 be fb 70 1b 3f ff 2b 84 3f 9a 02 45 be
       -0.3168048 0.6071927 1.0325927 -0.19239274
000020 3b 4b 79 3f 73 b1 0a bc 69 17 ad 3e 37 5c b4 3f
       0.9738042 -0.008465159 0.33806923 1.4090642
000030 dd c3 00 be 44 0f 96 3f 49 e5 2d 3e a1 8d 09 c0
       -0.12574716 1.1723409 0.16981997 -2.1492693
000040 e5 02 4a 3e 55 df 01 3f 92 1b 42 3e 55 a9 04 c0
       0.19727667 0.507314 0.1895583 -2.0728352
000050 00 00 22 3f 07 3a c0 bf 3f 00 0d 3f 3e a3 1c c0
       0.6328125 -1.5017709 0.550785 -2.4474635
000060 59 20 bf be 76 bd ae 3f 27 f1 f9 bf f0 77 05 3f
       -0.37329367 1.3651569 -1.9526719 0.52136135
000070 79 fe 2b c0 35 1a 59 3f 67 2b 09 c0 48 19 cb 3d
       -2.6874068 0.84805614 -2.143274 0.099169314
000080 ec c2 59 3d 86 db 3e 3e 6f 9f 1e be 8a 14 e3 be
       0.053164408 0.18638429 -0.15490507 -0.44351608
000090 cb b6 0d 3e 15 10 83 be e0 e0 41 bf c7 2b 2f 3e
       0.13839261 -0.25598207 -0.75733757 0.17106543
0000a0 a2 70 db 3e 9b 67 88 3e 0a 0e c8 3d 8d a0 82 bf
       0.4285937 0.26641545 0.09768303 -1.0205246
0000b0 f6 20 73 be 82 9c 47 bf 4c b4 ab be d4 a6 18 3e
       -0.23743042 -0.77973187 -0.33535993 0.1490739
0000c0 d8 fb cb 3c f8 da 4b bf 4f 52 1f 3e f7 5b 19 be
       0.024900362 -0.79630995 0.15558742 -0.14976488
0000d0 ad 1d 89 bf 42 a1 8a 3e f0 43 5f bf 17 8e d0 be
       -1.0712181 0.27076155 -0.8721304 -0.40733406
0000e0 ff 92 7f be c9 5e 77 bf 71 76 a4 3d 94 ef 16 3e
       -0.24958418 -0.96629006 0.080304034 0.1473983
0000f0 0f 09 82 3e 0e b0 26 bf de 86 17 3e 8c a5 ae bd
       0.25397536 -0.6511239 0.14797541 -0.08527669
000100 ea 72 7f bb 6e 44 0a 3e ed ef 7c be 85 d2 fe be
       -0.0038978406 0.13502666 -0.247009 -0.4976999
000110 1d bc 1e 3e 04 14 8f 3e b3 9c f7 be 81 b1 c1 3e
       0.15501447 0.27944958 -0.4836174 0.37830737
000120 33 6b 7b bf 8d 89 de 3d 75 76 42 be 65 d9 78 bf
       -0.9821045 0.108660795 -0.189905 -0.9720672
000130 ff 90 dc bd d2 45 5e bf a8 a6 3e 3e cf 96 ee 3d
       -0.10769843 -0.8682529 0.18618262 0.11649858
000140 85 1c 01 be 88 f8 8d 3e de 4b 8f 3e fa ca c3 3e
       -0.12608536 0.27728677 0.2798757 0.38240796
000150 da c6 01 bf e4 b7 4b 3e 12 a9 52 3e 5c 36 8c 3d
       -0.5069405 0.19894367 0.20572308 0.06846306
000160 60 b8 c2 be 3f f9 6c bf 64 c7 a7 3d 59 f5 8d bd
       -0.38031292 -0.9256782 0.081923276 -0.06931562
000170 d9 3d 70 bc 10 76 bc be 78 6a fd 3d 2e 15 7f be
       -0.014663183 -0.36808825 0.12373823 -0.24910423
000180 91 fc cd be 40 df 10 be ad e0 42 3e 91 72 ea be
       -0.40231755 -0.14147663 0.1903102 -0.45790532
000190 9c a4 ca 3d 6e 54 68 bf e0 bd 40 3f 3b 09 c5 be
       0.09894678 -0.9075383 0.75289726 -0.38483605
0001a0 bc 72 49 bf cf 1f 1e be b3 cf c8 be df b5 2b bf
       -0.78690696 -0.15441822 -0.39220962 -0.6707439
0001b0 14 f5 5b 3e ed 96 58 bf c5 0f 65 be fb c0 34 3e
       0.21480209 -0.84605294 -0.22369297 0.17651741
0001c0 ce e4 0e 3d 52 28 31 3e 71 71 93 3e 74 f0 0b 3f
       0.034886174 0.17300537 0.28797486 0.5466378
0001d0 e5 16 66 3e 96 46 80 3e 11 1d 9e 3e 68 c3 42 3e
       0.22469671 0.25053853 0.3088155 0.19019854
0001e0 62 9a 96 be 35 eb 2b bf 51 af 8f be 24 84 79 bf
       -0.2941466 -0.6715577 -0.28063443 -0.97467256
0001f0 ee 91 f1 3e 8a 69 85 bf 32 59 3c 3e 22 3d 91 bd
       0.47181648 -1.0422833 0.183934 -0.07091738
000200 c4 72 b8 3d fb 9a 69 3e 68 1c 28 3e c7 76 64 bf
       0.09006265 0.22813027 0.16417086 -0.8924374
000210 67 eb 90 be 03 46 8c 3e eb 8b 96 be 1d 78 13 be
       -0.28304598 0.27397165 -0.29403624 -0.14401288
000220 b9 93 10 3f 45 c8 b1 bd fa ee d7 bd a8 3d 9d bf
       0.56475407 -0.086807765 -0.10543628 -1.2284441
000230 6c d0 88 3e 03 9f 9e bf f1 48 20 3e e6 74 35 3e
       0.26721513 -1.2392277 0.15652825 0.17720374
000240 ad 42 b0 3e f1 2f 4b bf e5 f5 3f 3c 2c 3a d5 3e
       0.3442587 -0.7937003 0.011716341 0.41645944
000250 5c d4 26 3e 2a e9 04 bf f3 e9 e8 be a7 43 d6 3d
       0.16291946 -0.5191828 -0.4549099 0.104621224
000260 66 30 84 be 13 f4 98 bf f2 2a e5 3d e2 e3 b6 3e
       -0.25818175 -1.1949486 0.11189832 0.35720736
000270 f8 53 eb 3e ff 75 9d 3e e6 b4 43 3e 86 eb 90 3e
       0.459625 0.30754086 0.19111976 0.2830469

arith.constant7 f4 [32, 384]
000000 fa aa 00 80 9f 9d 22 3d ca 77 83 bc a7 8e 00 00
       -6.1335e-41 0.0397011 -0.01604833 5.1174e-41
000010 8d 34 03 80 db 4a 00 00 0a 79 00 80 3e 75 28 3d
       -2.94358e-40 2.6853e-41 -4.342e-41 0.041127436
000020 f7 2d 8f bc cb e1 ca 3c bf 69 89 3c 18 7a 03 00
       -0.017477972 0.02476587 0.016774056 3.19305e-40
000030 f5 da 1b 3d 5b 22 2a bd bb 96 01 00 96 ed 00 00
       0.03805061 -0.04153667 1.45907e-40 8.523e-41
000040 88 41 00 80 a8 22 70 3b 1e 5d 4d bc d6 f4 99 bc
       -2.3508e-41 0.003664175 -0.012534408 -0.018793505
000050 ac 08 ce 3c 77 e3 01 00 7b 68 9c bb ca 92 13 3d
       0.02515062 1.73435e-40 -0.004773197 0.03602866
000060 50 15 5a 3d c8 5e d9 3c e5 44 8f 3c d6 5b b2 bc
       0.05324298 0.026534453 0.017488906 -0.021772306
000070 50 9f 81 3c b7 74 00 80 05 66 03 00 65 9a 01 80
       0.015823036 -4.187e-41 3.12104e-40 -1.47222e-40
000080 eb b0 01 80 c4 71 ab bc 17 e9 02 bc 64 04 03 80
       -1.55302e-40 -0.020928271 -0.007990143 -2.77082e-40
000090 32 6c 00 00 7a da 00 80 4a 6e 02 80 53 53 5d 3c
       3.8813e-41 -7.8375e-41 -2.23235e-40 0.013508636
0000a0 53 e1 c6 3c 63 f5 21 bc 45 cf b7 3c 11 0d 00 00
       0.024277365 -0.009885165 0.022437701 4.687e-42
0000b0 d8 ca 51 bc 73 ba 86 3a 87 4a 00 00 d0 53 00 80
       -0.012804709 0.0010278955 2.6735e-41 -3.0066e-41
0000c0 9b 81 03 00 dc 93 12 3b c9 ac 34 3d 6b 39 91 3c
       3.22e-40 0.0022365963 0.044110093 0.017727574
0000d0 71 a6 38 bd e8 25 02 00 e2 68 50 3d 4a e4 f7 bb
       -0.045080606 1.97269e-40 0.050881274 -0.007565056
0000e0 59 e6 db 3c 97 31 35 3c 60 e2 40 bc 78 4d 9f bb
       0.026843237 0.011059186 -0.011772722 -0.00486153
0000f0 3c 12 5f bb dd 03 02 00 9c 09 01 80 f0 b6 02 80
       -0.0034037968 1.85057e-40 -9.5283e-41 -2.49297e-40
000100 58 a3 03 00 0a e9 7d bc e2 94 58 3c 42 23 00 00
       3.34103e-40 -0.015497455 0.01321909 1.2648e-41
000110 c0 1c 01 80 87 90 01 00 b1 b8 01 80 d5 32 1f 3d
       -1.02149e-40 1.43682e-40 -1.5809e-40 0.038866837
000120 64 3a e4 3c 20 db 13 bd bd 0f 4a bb b3 28 02 00
       0.027859874 -0.036097646 -0.0030832135 1.98271e-40
000130 5a fd 55 3c 6f c1 07 3b 15 79 00 00 39 68 02 00
       0.013060892 0.002071466 4.3436e-41 2.21059e-40
000140 c0 ca 02 80 a9 fe 3b 3b d2 aa 15 3c 62 43 05 3c
       -2.56404e-40 0.0028685725 0.009134965 0.008133741
000150 9b 86 20 bd 61 f5 01 00 24 1c 72 3c 00 0e 41 bc
       -0.03919087 1.79861e-40 0.014777217 -0.011783123
000160 e4 62 fc 3c df 54 12 3c ec 43 ce bc 79 fa 21 3b
       0.030808873 0.008931368 -0.025178872 0.0024715944
000170 04 8c 70 3c 81 32 01 80 91 4b 02 80 fe 95 03 00
       0.01468182 -1.09953e-40 -2.10779e-40 3.29314e-40
000180 87 83 00 80 86 82 14 3d 35 e1 17 3d dd 78 03 80
       -4.7183e-41 0.03625729 0.03708001 -3.18864e-40
000190 e9 ea 00 00 63 d6 00 80 72 4e 03 00 04 1e 69 3d
       8.427e-41 -7.6907e-41 3.03647e-40 0.05691339
0001a0 0e a4 ed 3b f3 27 c8 bc 40 62 fa bc 9d 8e 00 00
       0.007252223 -0.024433112 -0.030564427 5.116e-41
0001b0 a2 57 7a b8 40 95 44 39 6d d9 01 80 d5 6f 00 00
       -5.968626e-05 0.00018747617 -1.69833e-40 4.0118e-41
0001c0 78 7b 02 00 57 0e 4f 3b 7d 55 54 3d de 22 60 ba
       2.27963e-40 0.003159424 0.05183934 -0.00085501175
0001d0 ac 27 20 3d b2 04 02 00 de 7b 79 bc b5 e4 2a bd
       0.039100334 1.85355e-40 -0.015227286 -0.04172202
0001e0 f9 71 c4 3b 8c 09 9c 3d 35 76 af bc 87 4d a5 3b
       0.005995032 0.076190084 -0.02141867 0.0050446424
0001f0 84 4a 94 bc 07 1d 01 80 b7 57 00 80 90 f9 00 80
       -0.018101938 -1.02249e-40 -3.1466e-41 -8.9526e-41
000200 73 26 01 80 32 2e 6b 3c 38 d9 6a bd e2 0d 02 00
       -1.05628e-40 0.014354276 -0.057336062 1.88651e-40
000210 48 39 00 80 f8 02 00 00 d4 84 00 80 bf 8b 84 3c
       -2.0549e-41 1.065e-42 -4.765e-41 0.016179917
000220 35 05 07 3d 99 e6 ce bc 66 63 76 3d ee 7e 01 00
       0.03296395 -0.025256442 0.060153387 1.37369e-40
000230 96 e4 b7 bc 03 44 39 bd 9a f3 00 00 4c 45 00 00
       -0.022447865 -0.045230877 8.7388e-41 2.4859e-41
000240 ca d7 00 80 e7 1b 24 3d 81 c1 0e bd e5 68 91 bd
       -7.741e-41 0.040065672 -0.03485251 -0.07100085
000250 95 c7 c8 bd 9d 84 04 00 3e 16 24 3b b0 7e 59 bd
       -0.09803692 4.14915e-40 0.0025037671 -0.053099334
000260 21 eb b6 3c 78 63 df 3d 6d e3 42 3d 80 db c7 3d
       0.022328915 0.10907644 0.04758017 0.09758663
000270 0d e3 a3 3c ce d6 00 80 aa 4c 01 00 70 78 00 80
       0.020005727 -7.7057e-41 1.19337e-40 -4.3205e-41
000280 09 0e 00 80 eb 3d 44 3d 62 41 92 3c 50 24 00 00
       -5.035e-42 0.047910612 0.017853443 1.3026e-41
000290 3e c0 00 00 b1 ba 00 00 fd 6a 00 00 83 13 f6 bc
       6.8964e-41 6.6972e-41 3.838e-41 -0.0300386
0002a0 83 aa 90 bb 32 82 5d bc 21 b4 93 3c d8 ff 02 00
       -0.004414858 -0.0135198105 0.018030228 2.7545e-40
0002b0 40 53 36 bd 9e a4 b6 bc ea 4f 02 00 cd 5e 00 80
       -0.044512987 -0.022295292 2.12339e-40 -3.4008e-41
0002c0 3b 7d 00 80 c9 e7 ae bb ae 17 8e 3c d9 29 82 bd
       -4.4924e-41 -0.0053376895 0.017345276 -0.06355638
0002d0 8e 84 bf bd b3 4d 00 80 29 72 a0 b9 03 13 d7 3c
       -0.09351455 -2.7873e-41 -0.00030602634 0.026254183
0002e0 17 eb e3 3c 0f a4 08 3d 17 53 d3 bc 7f 10 44 3d
       0.02782206 0.033359583 -0.025796456 0.047867294
0002f0 47 db 20 3d 1e ed 00 00 e8 3a 01 00 63 74 00 80
       0.03927162 8.5062e-41 1.12967e-40 -4.1752e-41
000300 29 5b 00 80 60 7c d1 3a b9 60 16 bb 1a 4a 02 80
       -3.2702e-41 0.0015982501 -0.0022945835 -2.10254e-40
000310 af 70 00 80 76 81 00 80 02 06 00 80 ff 5e 2d bd
       -4.0423e-41 -4.6442e-41 -2.155e-42 -0.042326923
000320 a9 94 bc bc 81 28 b5 ba 84 27 dc bc 0c e2 01 80
       -0.023020105 -0.0013821275 -0.026874311 -1.72926e-40
000330 a6 59 ec bc af d9 81 3c 54 26 00 80 52 4a 00 00
       -0.028851341 0.01585087 -1.375e-41 2.6661e-41
000340 a5 a4 01 00 98 2b 36 bc f8 9f 7d 3c cc aa 6b bd
       1.50899e-40 -0.011118792 0.015480034 -0.05753593
000350 e1 53 08 bd 5e 6f 00 80 38 d9 09 bd 27 b7 a7 3c
       -0.03328312 -3.9951e-41 -0.03365442 0.020473076
000360 a9 81 dc bc d8 8f 01 bd 6d 6d 84 3c 25 aa 09 3d
       -0.026917296 -0.03163132 0.01616546 0.033609528
000370 d1 48 31 bb df 86 03 00 af 23 02 00 e8 1b 01 80
       -0.0027051459 3.23889e-40 1.96472e-40 -1.01846e-40
000380 e4 94 01 00 a9 e6 59 3d fe 77 89 3d 51 b0 01 80
       1.45247e-40 0.05319849 0.0671234 -1.55086e-40
000390 7f 4a 00 80 d8 51 03 80 c5 3a 01 80 3f d5 2e 3d
       -2.6724e-41 -3.04866e-40 -1.12918e-40 0.042683836
0003a0 89 2c d2 3c c9 74 cb 3d ce 31 c0 bd c6 24 01 80
       0.025656002 0.099343844 -0.093844995 -1.05027e-40
0003b0 88 51 b9 bc 63 cd 45 bd 84 e3 00 80 e4 51 00 80
       -0.022621885 -0.048291575 -8.1617e-41 -2.9377e-41
0003c0 10 7e 00 80 9b 3e 18 3d ed 0c 8c bc 93 fb f3 bc
       -4.5223e-41 0.03716908 -0.017096007 -0.029783046
0003d0 e9 66 b6 bd f9 46 01 80 51 8f 00 be 2a 3e 99 3d
       -0.08906347 -1.17296e-40 -0.12554671 0.0748256
0003e0 81 85 e7 3c ac 16 54 bc c1 35 0b bd 79 a7 ae 3c
       0.028261902 -0.0129448585 -0.03398681 0.021320092
0003f0 dd 6b f7 bd 16 16 02 80 f6 6e 02 00 91 34 00 80
       -0.1208112 -1.91594e-40 2.23476e-40 -1.8857e-41

arith.constant8 f4 [5]
000000 69 1e 50 3e ce d4 94 3e d6 b6 b2 3d 1b 2e af bd
       0.203241 0.29068607 0.087262794 -0.08553716
000010 c5 c1 ba be
       -0.3647596

arith.constant9 f4 [32]
000000 47 7d c8 bb 3e 53 30 3d 76 a8 61 3e c1 91 97 bc
       -0.00611845 0.043048136 0.22036919 -0.018502118
000010 ba b9 9f bd 99 b1 22 3d c9 8f 27 3e e4 e9 30 bc
       -0.077990964 0.03972015 0.16363443 -0.010797951
000020 4c 14 f3 3c 92 60 c0 bd 77 99 cd bc 20 1d 89 bd
       0.029672764 -0.09393419 -0.025097592 -0.06695008
000030 69 8c da bd b5 76 31 3c f8 6e 88 bd 2a 3c d1 3d
       -0.10671312 0.010831525 -0.066617906 0.102165535
000040 a5 c4 0a bc a4 75 0e 3e d9 70 4d bd 0e 40 46 3e
       -0.008469735 0.13912064 -0.050156448 0.19360372
000050 78 28 2a 3e f6 33 ff 3d 1c e8 4f 3e 5e d4 3c 3e
       0.16617 0.12461083 0.20303386 0.18440387
000060 56 12 bd bb 56 c5 01 bd 37 4d 12 3c 00 d5 dd 3c
       -0.005770008 -0.031682335 0.008929542 0.027079105
000070 16 af 61 3e 32 2f b0 bc 04 a0 2c 3e cf 01 3b bd
       0.22039446 -0.02150688 0.16857916 -0.04565602

sequential_7_1/conv2d_28_1/convolution f4 [16, 5, 5, 1]
000000 2e 3b c6 bd f1 57 c2 bc 01 62 b9 3d ac 2b 03 3c
       -0.096792564 -0.023723574 0.09051896 0.008006018
000010 d6 12 52 3c cf 7b 39 3e 0e e2 6e 3d 9d 13 b0 3c
       0.012821874 0.18113635 0.05832105 0.021493727
000020 2e 72 ef 3d b1 70 11 3e 1b 7b 51 3d cc 6b be 3d
       0.116917 0.14203145 0.051142793 0.09297904
000030 64 28 bf 3d ff 62 41 bd 80 b9 11 be 10 4f 7f be
       0.09333876 -0.04721355 -0.14230919 -0.24932504
000040 60 af a2 be 3f db b3 be d6 f0 6e be 4b ac e4 bd
       -0.31774426 -0.3512821 -0.23334059 -0.11165675
000050 6a ad 3e be a2 3b 36 be f6 c9 59 be 23 ce 59 be
       -0.1862084 -0.17796186 -0.21268448 -0.21270041
000060 a5 ad 63 be f4 e9 12 be 77 d8 01 be 9d db 8a 3c
       -0.22234209 -0.14347059 -0.12680231 0.016950423
000070 bb 29 2e bd dd 41 3b bc b9 4c 98 3d 98 d5 d0 3d
       -0.042520266 -0.011429277 0.07436509 0.1019699
000080 83 4b 25 bc 37 bc 7c 3d 95 19 23 3e 72 3a 15 3e
       -0.010088804 0.061702933 0.15927728 0.14573076
000090 3e 38 5f 3e ce 38 9c 3e 98 b3 68 3e 97 1f e5 3d
       0.21798798 0.3051209 0.2272476 0.11187666
0000a0 07 39 f4 bc 15 2e e5 bd 3f f1 74 be fd 76 22 be
       -0.029812349 -0.1119043 -0.23920153 -0.15865703
0000b0 9a 94 25 bd 83 a1 82 bd df ae 4a bd 65 3a 16 bd
       -0.04042492 -0.06378462 -0.049483176 -0.036676783
0000c0 44 4b 2c bd a4 f5 de bd cd 3f 01 00 d8 e3 00 00
       -0.042063966 -0.10886696 1.14723e-40 8.1735e-41
0000d0 fd 61 01 00 7c 43 01 00 e4 81 01 00 b7 1d 01 00
       1.26987e-40 1.16044e-40 1.38431e-40 1.02495e-40
0000e0 d1 d6 00 00 8a af 00 00 a1 60 01 80 30 42 01 00
       7.7062e-41 6.2972e-41 -1.265e-40 1.15579e-40
0000f0 f6 52 01 80 01 af 01 80 e8 1e 01 00 ce b5 03 80
       -1.21596e-40 -1.54615e-40 1.02923e-40 -3.40726e-40
000100 8c 56 01 00 d3 20 01 00 62 0c 01 00 17 28 02 00
       1.22883e-40 1.0361e-40 9.6278e-41 1.98053e-40
000110 c8 fe 00 00 1b d5 01 80 65 f0 00 00 68 48 01 00
       9.1398e-41 -1.68283e-40 8.6237e-41 1.1781e-40
000120 41 cc 00 00 94 09 01 00 de 56 01 00 0a 79 02 80
       7.3272e-41 9.5271e-41 1.22998e-40 -2.27092e-40
000130 49 f2 01 00 8b cd 02 00 c7 ea 02 00 20 6c 02 80
       1.78751e-40 2.57406e-40 2.67893e-40 -2.22459e-40
000140 69 5c 03 00 0f 23 02 00 08 b1 02 00 56 ea 02 00
       3.08657e-40 1.96248e-40 2.47178e-40 2.67735e-40
000150 40 f6 02 00 e4 e6 02 00 e3 3b 04 80 db 0c 03 00
       2.72009e-40 2.66499e-40 -3.88825e-40 2.80118e-40
000160 0e 7b 02 00 4b d3 02 00 7f d4 02 80 1a 8f 03 00
       2.27815e-40 2.59469e-40 -2.599e-40 3.26842e-40
000170 f9 5c 05 80 50 70 05 00 ad f4 02 80 c7 38 02 00
       -4.9253e-40 4.99468e-40 -2.71444e-40 2.04039e-40
000180 73 a3 03 00 37 77 03 00 40 4b 03 00 4e f9 03 00
       3.34141e-40 3.18273e-40 3.02501e-40 3.6494e-40
000190 9b fc 02 3e 4b cf bb 3d dd ec fd 3d 88 9c ac 3c
       0.12791674 0.09170397 0.12398694 0.021070734
0001a0 0f 01 1b bd cc aa 03 3e 18 f6 4a 3e f4 ca 08 3e
       -0.037842806 0.12858123 0.1982044 0.1335867
0001b0 79 0a ac 3d 11 a3 e3 3d 3a 0b 4c ba a6 50 15 bd
       0.08400435 0.11115087 -0.00077836553 -0.036453865
0001c0 08 22 75 3d c0 ba 6e 3d 61 f0 48 3c 7c ff 85 bd
       0.059846908 0.058283567 0.012264342 -0.065428704
0001d0 06 ba a8 bd d3 83 4a be 59 26 2a be f1 a1 fc bd
       -0.08238606 -0.1977685 -0.16616191 -0.12335575
0001e0 c2 f6 eb bd bc 21 f2 bd 83 cb a8 bd 28 e3 80 bd
       -0.11521675 -0.118228406 -0.08241942 -0.062933266
0001f0 d2 4f a4 bd 4a 63 3a 3e 7a 13 82 3e 4f a1 13 3e
       -0.08023037 0.18201938 0.25405484 0.14417003
000200 02 7e 51 3e a7 3d 61 3e 29 50 6d 3d 54 09 90 bb
       0.20458224 0.21996175 0.057937775 -0.0043956432
000210 0b a4 04 3e 25 10 34 3d 84 bc 10 bd 10 a2 8b be
       0.12953202 0.04396071 -0.035336033 -0.2727208
000220 65 06 8f be 21 66 bd be 41 79 9d be 79 39 47 be
       -0.27934566 -0.3699198 -0.30756572 -0.19455518
000230 43 0f a0 bc 53 dc bb bc fe bd aa 3d 99 c5 a1 3d
       -0.019538527 -0.022932207 0.083370194 0.07899017
000240 d8 0e b3 bb 93 3b 68 3e 22 24 96 3e 9d a5 a3 3e
       -0.005464416 0.22678976 0.29324442 0.3196229
000250 c8 ea 64 3e 56 62 2f 3e f3 6d 00 00 36 e7 00 80
       0.22355187 0.17127356 3.9442e-41 -8.2943e-41
000260 d2 50 01 80 73 e8 00 00 8a 0a 01 00 be 98 00 00
       -1.20828e-40 8.3387e-41 9.5616e-41 5.4794e-41
000270 94 1f 01 00 5a ad 01 80 07 52 01 00 93 d7 00 00
       1.03164e-40 -1.54022e-40 1.21261e-40 7.7333e-41
000280 e4 74 01 80 a8 a1 01 80 24 92 00 00 19 f1 00 80
       -1.33768e-40 -1.49827e-40 5.2425e-41 -8.649e-41
000290 77 3e 01 80 22 ad 01 00 e0 ce 00 80 fd 4d 00 80
       -1.14244e-40 1.53944e-40 -7.4213e-41 -2.7977e-41
0002a0 38 3c 01 80 ab 05 01 80 54 47 01 80 bf 0e 01 00
       -1.13438e-40 -9.3869e-41 -1.17423e-40 9.7125e-41
0002b0 45 d2 00 00 03 75 01 00 11 58 01 00 06 70 05 00
       7.543e-41 1.33811e-40 1.23428e-40 4.99364e-40
0002c0 95 c4 08 00 31 0c 06 80 3a 86 09 00 01 ac 07 00
       8.05204e-40 -5.55386e-40 8.74671e-40 7.04552e-40
0002d0 36 46 01 80 83 e2 02 00 cf 37 05 00 ea 50 0e 00
       -1.17022e-40 2.64928e-40 4.79198e-40 1.314723e-39
0002e0 14 e3 09 00 91 8b 08 80 5f b9 06 00 18 78 0e 80
       9.0798e-40 -7.84751e-40 6.17512e-40 -1.328778e-39
0002f0 0e 9f 04 80 62 96 09 00 c5 44 06 00 9e 94 02 80
       -4.244e-40 8.80467e-40 5.75683e-40 -2.36985e-40
000300 48 58 09 80 53 a3 06 80 b9 c5 05 80 6a 4b 06 80
       -8.58189e-40 -6.09603e-40 -5.30107e-40 -5.78066e-40
000310 ca c6 05 00 a7 d0 05 00 c8 70 05 00 ce 96 05 00
       5.3049e-40 5.34028e-40 4.99636e-40 5.13276e-40
000320 9c d6 e5 3d b2 85 fa 3d e5 3f 26 3e 6a 74 59 3e
       0.11222574 0.122325316 0.16235311 0.21235815
000330 07 ff 9d 3d 82 4b 6b 3e 9e 3e e2 3d d0 8f 10 3d
       0.07714658 0.22978023 0.110470995 0.0352934
000340 9b d1 a3 3d 28 60 6f 3e 1e c5 90 be 0c 63 22 be
       0.079989634 0.23376524 -0.28275388 -0.15858096
000350 64 60 84 bd 62 6a 8e bd 7e 1e 06 be cf 85 e5 3d
       -0.064636976 -0.06953885 -0.1309757 0.112071626
000360 00 50 05 bd 04 18 33 be 5c d9 25 be c3 84 37 bd
       -0.032546997 -0.1748963 -0.16196197 -0.044804346
000370 fe 1a 2d 3e b0 d4 5a 3e d6 75 8f 3e 77 30 84 3e
       0.16904828 0.21370196 0.2801959 0.25818226
000380 3b bd 81 3e 90 27 01 00 ad fd 00 00 fe 50 01 80
       0.25339684 1.06028e-40 9.1002e-41 -1.2089e-40
000390 2d b9 00 00 94 9f 02 00 31 e7 00 00 9d 09 01 00
       6.6429e-41 2.40917e-40 8.2936e-41 9.5284e-41
0003a0 0d 4c 02 00 f2 b1 00 00 d7 cc 00 00 57 ad 00 00
       2.10953e-40 6.3835e-41 7.3483e-41 6.2183e-41
0003b0 18 82 01 00 fd a1 01 00 81 00 02 00 f9 f9 00 00
       1.38504e-40 1.49946e-40 1.83852e-40 8.9673e-41
0003c0 89 0d 01 00 cb 71 01 00 f5 08 00 80 d5 21 02 80
       9.6691e-41 1.32657e-40 -3.213e-42 -1.95808e-40
0003d0 24 c9 02 80 42 18 01 00 9f 1d 01 00 a8 f0 00 00
       -2.55827e-40 1.00538e-40 1.02462e-40 8.6331e-41
0003e0 96 1f 01 00 b9 42 01 00 7c 45 76 ba 1a 54 21 bd
       1.03166e-40 1.15771e-40 -0.0009394509 -0.039386846
0003f0 f8 c7 95 bd d0 5a 30 be b9 ed 19 bd a7 ce bc 3d
       -0.07313532 -0.17222142 -0.037580226 0.09219103

sequential_7_1/conv2d_28_1/Relu;sequential_7_1/conv2d_28_1/BiasAdd;sequential_7_1/conv2d_28_1/convolution; f4 [16]
000000 b6 ee 59 3e ef 73 f3 bf 1b db bb bf 30 eb bf bf
       0.21282467 -1.9019755 -1.4676241 -1.4993649
000010 d8 87 53 ba 3e 67 81 bd 51 d8 bc bf b7 74 b1 bf
       -0.00080692535 -0.0631852 -1.4753515 -1.3863744
000020 4c 73 89 3e f5 b9 b8 bf 20 3d 2d bf 6c af e2 3d
       0.26845777 -1.443175 -0.67671394 0.11068615
000030 4b 49 d3 3e b4 5a b5 be 8c 37 e1 bc af 1b 8b ba
       0.41266856 -0.35420763 -0.027492307 -0.0010613109
